meta/demos/multiple_experiments/results/models/run_0/emodb_mlp_praat_16-64_C_val-001_learning_rate-0-0001_0_008.model (torch, 10758 bytes, 6 tensors)

linear.0.weight f4 [16, 39]
0.1574171 0.108100824 -0.14443378 0.008485013 0.09500691 0.057727568 0.15367924 0.11715564
-0.15387794 0.07367077 -0.016312474 -0.0014224183 -0.047105245 -0.08072506 -0.1549307 0.07616061
-0.12776172 -0.14290082 0.10240444 -0.14669387 0.01091421 -0.087847784 -0.15242152 0.029542666
-0.03251681 0.06040358 0.1031823 -0.11491004 -0.045522537 0.015438839 -0.14121999 -0.05318066
0.054625012 -0.14963314 -0.1314676 -0.14009182 -0.046866253 0.09436306 -0.12501979 0.10287835
-0.091144525 0.0019376166 -0.034226798 -0.13631661 -0.14908585 -0.1492833 0.14354417 0.04616842
0.03166361 -0.13824102 -0.11813177 -0.10410525 0.088059425 -0.06078988 -0.045321226 0.11037081
-0.007652607 0.033182546 -0.10221429 0.105903655 0.041087806 0.037253134 -0.14686131 0.109413184
0.014110089 0.07292464 0.14596795 -0.11016267 0.11509689 0.15599076 0.10129481 0.1554415
-0.13517135 0.11814393 0.082543604 -0.11378356 -0.009658572 0.041205805 -0.014136279 0.11233613
-0.11492485 0.1046756 0.10967848 -0.15577336 0.10388271 -0.029407842 -0.15750447 0.049498193
-0.035428 0.10577906 0.062308203 0.05994427 -0.14637187 -0.052696876 0.033108924 0.0105028665
-0.15343866 -0.0007480504 0.034080274 -0.06706094 0.016257001 -0.11584991 0.05145981 -0.12011147
-0.13469127 0.11646953 0.1345591 0.07395716 -0.14440091 -0.022081595 -0.07907858 0.044394333
0.03606606 -0.009870551 -0.12354751 0.07143529 0.0028576069 -0.13692306 -0.13664342 0.060303677
0.016854571 0.15416013 0.08433204 -0.012904919 -0.09322363 0.13197498 -0.076611 -0.03319887
-0.08773023 0.008298754 0.12280074 -0.13395533 -0.07768337 0.099531576 0.01270771 -0.015996782
0.15171368 -0.065447725 0.057118952 0.01365458 0.06427469 -0.09831458 0.0044243834 0.08077005
-0.12246742 0.036224514 -0.0682336 0.031156115 0.1202527 0.14077586 -0.036609862 -0.11541853
-0.14250425 -0.06949883 0.10899199 0.15742692 0.08854897 -0.08577722 -0.097665876 0.039794113
-0.03265921 0.071417056 -0.011956036 -0.078948066 -0.15682991 0.10217816 -0.10062422 0.15636344
-0.0038545555 0.13779122 -0.02350848 0.15235408 -0.09355882 -0.1354084 0.059747692 0.082769215
-0.037525337 0.08389087 -0.01720224 0.09348832 0.059047632 0.11267648 -0.15546434 -0.14389001
-0.033441182 0.15170492 0.057704795 -0.008031749 -0.1569801 -0.14954767 0.113625996 0.047093216
0.11293979 -0.10691408 0.010170378 0.12057854 0.0938197 0.05883699 0.03028772 0.11498704
-0.056546316 -0.05024122 -0.102795795 -0.081895314 0.10373996 0.09198892 -0.03752734 0.039848823
-0.037351668 0.11168134 -0.11489706 -0.14439727 -0.06938467 -0.09686098 0.13543792 -0.038519233
-0.052795507 -0.031268824 -0.08376859 0.01997809 -0.0484544 -0.15387772 0.1330881 -0.06933046
-0.05690551 -0.105655305 0.118552074 0.0046747234 0.12737645 -0.12674306 -0.04709486 0.08367848
0.12694441 0.06400027 0.10710907 0.1013464 -0.09923303 0.003592295 0.14497513 -0.050711587
0.033904374 -0.022908328 -0.042895198 -0.104136966 0.14355952 0.071223244 -0.004711641 0.097932585
-0.025107507 -0.056623854 -0.039269 -0.10985405 0.059086725 0.14039539 -0.13205746 0.10445493
00000000: f331 213e f763 dd3d 73e6 13be b904 0b3c
00000010: fc92 c23d be73 6c3d 175e 1d3e 4cef ef3d
00000020: 2e92 1dbe b3e0 963d bda1 85bc 7070 baba
00000030: 6ef1 40bd 2e53 a5bd 27a6 1ebe 18fa 9b3d
00000040: f8d3 02be 9854 12be 6bb9 d13d eb36 16be
00000050: 84d1 323c 8ae9 b3bd 6314 1cbe 7603 f23c
00000060: 5930 05bd bf69 773d 3e51 d33d f455 ebbd
00000070: d775 3abd 2ff3 7c3c f99b 10be f7d3 59bd
00000080: 7abe 5f3d 6e39 19be 719f 06be 3b74 0fbe
00000090: d4f6 3fbd 6c41 c13d 3005 00be e2b1 d23d
000000a0: fba9 babd a0f7 fd3a 6631 0cbd 9596 0bbe
000000b0: f6a9 18be b9dd 18be 3efd 123e 191b 3d3d
000000c0: b4b1 013d 0e8f 0dbe 12ef f1bd 2235 d5bd
000000d0: 8058 b43d cffe 78bd c0a2 39bd 170a e23d
000000e0: b8c2 fabb 6cea 073d ba55 d1bd 04e4 d83d
000000f0: b04b 283d be96 183d d062 16be 0514 e03d
00000100: 012e 673c 8359 953d 9f78 153e f79c e1bd
00000110: ebb7 eb3d 0bbc 1f3e a773 cf3d 0e2c 1f3e
00000120: 5c6a 0abe 72f5 f13d 9f0c a93d 5b07 e9bd
00000130: fd3e 1ebc 6bc7 283d da9b 67bc 7c10 e63d
00000140: b85d ebbd 2960 d63d 1c9f e03d 0d83 1fbe
00000150: 75c0 d43d b7e8 f0bc da48 21be 9ebe 4a3d
00000160: f31c 11bd b1a2 d83d e336 7f3d 1f88 753d
00000170: 82e2 15be aed8 57bd 399d 073d 3714 2c3c
00000180: 061f 1dbe d018 44ba c297 0b3d 3f57 89bd
00000190: 672d 853c b842 edbd 86c7 523d 01fd f5bd
000001a0: 82ec 09be 9487 ee3d dcc9 093e da76 973d
000001b0: d5dd 13be 76e4 b4bc f3f3 a1bd d5d6 353d
000001c0: 01ba 133d 17b8 21bc 7a06 fdbd aa4c 923d
000001d0: b046 3b3b 8f35 0cbe 41ec 0bbe fd00 773d
000001e0: 9912 8a3c 27dc 1d3e 47b6 ac3d 276f 53bc
000001f0: 08ec bebd 7324 073e 3ae6 9cbd 8afb 07bd
00000200: e8ab b3bd 7ff7 073c f47e fb3d 962b 09be
00000210: 7518 9fbd 36d7 cb3d 0034 503c af0b 83bc
00000220: d55a 1b3e 7509 86bd 90f5 693d 76b7 5f3c
00000230: 73a2 833d 2859 c9bd 6bfa 903b c56a a53d
00000240: 33d0 fabd 2860 143d 0fbe 8bbd 1c3b ff3c
00000250: 0c47 f63d 8c27 103e 39f4 15bd 8d60 ecbd
00000260: a2ec 11be 6755 8ebd 3137 df3d 8634 213e
00000270: 2a59 b53d f8ab afbd 0c05 c8bd 27ff 223d
00000280: aac5 05bd 1b43 923d 40e3 43bc 86af a1bd
00000290: 0598 20be c842 d13d 1214 cebd bd1d 203e
000002a0: b69c 7cbb 2419 0d3e db94 c0bc b502 1c3e
000002b0: c49b bfbd 80a8 0abe ffb9 743d e882 a93d
000002c0: 2bb4 19bd face ab3d b6eb 8cbc ce76 bf3d
000002d0: eedb 713d edc2 e63d 0b32 1fbe e757 13be
000002e0: 9ff9 08bd 8958 1b3e dd5b 6c3d 9997 03bc
000002f0: 64bf 20be 0623 19be bfb4 e83d d1e4 403d
00000300: fa4c e73d c5f5 dabd a8a1 263c e2f1 f63d
00000310: 8b24 c03d 0eff 703d f41d f83c 537e eb3d
00000320: 1c9d 67bd bdc9 4dbd 9a86 d2bd bbb8 a7bd
00000330: 9e75 d43d b064 bc3d 45b6 19bd 8538 233d
00000340: 10fe 18bd 30b9 e43d 264f ebbd e1dc 13be
00000350: 8d19 8ebd 0d5f c6bd 3db0 0a3e 58c6 1dbd
00000360: 1a40 58bd bd13 00bd de8e abbd 17a9 a33c
00000370: 1f78 46bd 1f92 1dbe 3f48 083e 21fd 8dbd
00000380: c115 69bd cf61 d8bd 6ecb f23d 6c2e 993b
00000390: f96e 023e efc8 01be 8ae6 40bd 9f5f ab3d
000003a0: b7fd 013e 9312 833d 005c db3d b48e cf3d
000003b0: b03a cbbd b66c 6b3b 5c74 143e f4b6 4fbd
000003c0: 50df 0a3d 3faa bbbc e0b2 2fbd c345 d5bd
000003d0: 4401 133e 7edd 913d 1c64 9abb e190 c83d
000003e0: 42ae cdbc 6aee 67bd 88d8 20bd 29fb e0bd
000003f0: ec04 723d cfc3 0f3e 123a 07be 77ec d53d

linear.0.bias f4 [16]
0.05771142 0.15564199 0.09157481 -0.08339054 -0.15862618 -0.12491198 0.045327757 0.06276738
-0.079113774 0.09915684 0.016358051 0.020691974 -0.048014447 -0.08551189 -0.05789704 0.024978867
00000000: cf62 6c3d 9d60 1f3e 938b bb3d a9c8 aabd
00000010: e76e 22be dad1 ffbd 99a9 393d 2f8c 803d
00000020: 6706 a2bd be12 cb3d 5201 863c 3782 a93c
00000030: ccaa 44bd dc20 afbd 7225 6dbd 7ba0 cc3c

linear.1.weight f4 [64, 16]
0.06476295 -0.06349762 -0.24656317 0.23132758 -0.059731454 0.22767532 -0.02284345 0.029163437
-0.19432314 0.043297816 -0.11250229 -0.123082995 0.14937924 0.020223051 -0.09922874 -0.115667224
0.03367871 -0.07208939 -0.14101088 0.23562674 0.086309314 -0.24225822 0.17430443 0.16631672
-0.19013578 -0.021856897 0.22580609 -0.10616645 -0.24187624 0.099844515 0.14903155 0.08895153
0.029105157 0.22567852 0.107274026 -0.032100435 -0.010615796 0.104355365 0.09433159 -0.06961065
0.24787916 -0.05154512 -0.16600837 -0.1956098 -0.07239708 -0.17102852 -0.1721668 0.10436267
0.23056656 0.11525095 -0.19143903 -0.08325406 0.24018878 -0.023831964 0.08984575 0.21064347
-0.07460999 0.09394763 0.19795485 -0.18479998 -0.20474033 -0.21149462 0.036557287 0.1779727
0.22991875 0.24399345 -0.20795512 -0.17009963 0.14345402 -0.19707221 0.21096313 0.0078123515
-0.22282295 -0.098751105 -0.24992889 -0.050758436 -0.2211951 -0.10494915 0.18930167 0.09125626
-0.050670356 0.04018571 -0.15429989 0.10608153 -0.0728434 -0.20803404 0.073045015 -0.22373314
0.09594021 0.2237396 0.11466933 -0.104009 0.19416615 0.029489279 -0.035361767 0.23578468
-0.0036385953 0.0455026 -0.20403045 -0.11755106 -0.1404914 0.052660137 -0.040629625 -0.094102696
0.07245274 -0.16166224 -0.24252865 0.05128977 0.1259951 -0.03315276 -0.22417146 -0.01584053
-0.14267245 -0.10967619 0.1886307 0.070557505 -0.23262018 -0.07646665 -0.19124871 0.19710024
0.17988867 -0.14776736 0.10467844 -0.23419325 -0.051570233 -0.15423355 -0.052729607 0.035889506
0.12596914 0.02913174 0.1469633 -0.04654558 0.21797994 0.119806856 -0.13118485 0.0068105934
-0.16428077 0.17042737 -0.21621649 0.23791938 -0.20144285 0.19448322 -0.030680448 0.104961604
0.04072258 0.1390539 -0.13171118 -0.039400976 0.13337708 0.1848922 -0.01019299 -0.2461213
-0.22411574 0.060918998 0.23187344 -0.06201907 -0.003888224 0.14074224 -0.23987266 0.15887979
0.21324757 0.06999488 -0.020284265 0.12877512 -0.08900291 0.24390975 -0.2352741 -0.21890907
-0.11991336 -0.05216593 0.12241971 0.2043261 -0.07260011 -0.21195877 0.19113961 0.22080287
-0.06953639 0.106580846 0.21248421 -0.21199325 0.023532063 0.118144065 0.048095047 0.0041743964
-0.13453224 0.11782256 0.1307131 -0.016365837 0.031845603 0.13256752 0.01457566 0.050247163
-0.0017291605 -0.23200235 -0.20468369 0.07150359 0.089248806 -0.032981515 -0.043599933 0.22331642
0.09754203 0.056814756 -0.042543344 0.14045303 0.20122173 -0.16998613 0.00058686733 0.20858002
-0.17950884 0.22443582 -0.00355497 -0.21107154 0.1961123 0.0054572523 -0.22762498 -0.05050471
0.19305268 0.11779135 -0.20562991 0.09841946 0.12152716 -0.039889723 -0.24346548 -0.12607709
-0.0559853 -0.13141908 0.23801336 -0.21733879 -0.03051433 -0.06678739 0.008936971 -0.21169469
-0.22953138 -0.037206367 -0.068076536 -0.0008364197 0.051572286 0.09869817 -0.20078403 -0.16566566
-0.04043448 0.14473814 -0.0093459785 -0.073733084 0.17072079 0.101529986 -0.04932913 0.10908498
0.1699767 0.12289944 -0.06542999 0.06815468 0.06785566 -0.221614 0.09819287 0.08854368
00000000: 70a2 843d 0a0b 82bd 0e7b 7cbe 23e1 6c3e
00000010: f8a8 74bd b823 693e 3022 bbbc 29e8 ee3c
00000020: a5fc 46be 0d59 313d 9a67 e6bd f012 fcbd
00000030: dff6 183e d0aa a53c 7038 cbbd f0e2 ecbd
00000040: b0f2 093d 9aa3 93bd 2865 10be 2348 713e
00000050: f0c2 b03d 8a12 78be dc7c 323e ee4e 2a3e
00000060: f4b2 42be 3c0d b3bc b639 673e cc6d d9bd
00000070: 68ae 77be 487b cc3d ba9b 183e 382c b63d
00000080: f06d ee3c 4518 673e 7cb2 db3d bf7b 03bd
00000090: e0ed 2dbc 44b8 d53d ec30 c13d 0790 8ebd
000000a0: 09d4 7d3e fa20 53bd 19fe 29be ef4d 48be
000000b0: ec44 94bd 1a22 2fbe 7e4c 30be 18bc d53d
000000c0: a419 6c3e b108 ec3d 9808 44be 1b81 aabd
000000d0: 0cf4 753e 403b c3bc 0c01 b83d ecb2 573e
000000e0: 1fcd 98bd 9d67 c03d adb4 4a3e 353c 3dbe
000000f0: 73a7 51be 0c92 58be 18bd 153d 7a3e 363e
00000100: d26f 6b3e 6bd9 793e 30f2 54be 992e 2ebe
00000110: 9ce5 123e 4ccd 49be b806 583e c1fe ff3b
00000120: b32b 64be 053e cabd 5ced 7fbe 14e8 4fbd
00000130: f880 62be 94ef d6bd 4cd8 413e 90e4 ba3d
00000140: b88b 4fbd c599 243d ca00 1ebe 4641 d93d
00000150: ec2e 95bd e006 55be a098 953d 4d1a 65be
00000160: 4d7c c43d fe1b 653e c1d7 ea3d ac02 d5bd
00000170: 7ed3 463e 8093 f13c 80d7 10bd 8a71 713e
00000180: 8075 6ebb ef60 3a3d 5ced 50be 9cbe f0bd
00000190: fadc 0fbe 28b2 573d 406b 26bd eab8 c0bd
000001a0: 1a62 943d c98a 25be 6e59 78be 3915 523d
000001b0: dc04 013e 30cb 07bd 348d 65be 00c4 81bc
000001c0: ba18 12be e99d e0bd 6828 413e 7480 903d
000001d0: fc33 6ebe 8c9a 9cbd b4d6 43be a5d4 493e
000001e0: bc34 383e 5450 17be a661 d63d 5bd0 6fbe
000001f0: 4f3b 53bd 66ef 1dbe 00fb 57bd e000 133d
00000200: 0efe 003e b0a5 ee3c 8c7d 163e 94a6 3ebd
00000210: 2236 5f3e 4c5d f53d 5255 06be 662b df3b
00000220: 3839 28be 8384 2e3e db67 5dbe 23a1 733e
00000230: 0947 4ebe 9c26 473e 9055 fbbc 1cf6 d63d
00000240: b8cc 263d 2564 0e3e 4cdf 06be eb62 21bd
00000250: 0094 083e 6254 3d3e 8000 27bc 3907 7cbe
00000260: 997e 65be 3386 793d 3b70 6d3e b507 7ebd
00000270: 93d1 7ebb bc1e 103e 2ea1 75be 62b1 223e
00000280: 925d 5a3e 7a59 8f3d 302b a6bc a0dd 033e
00000290: 2847 b6bd 7ac3 793e b2eb 70be b329 60be
000002a0: 2395 f5bd f1ab 55bd 2fb7 fa3d dc3a 513e
000002b0: 5eaf 94bd b80b 59be 1aba 433e 261a 623e
000002c0: 1869 8ebd 0f47 da3d 7695 593e c214 59be
000002d0: 50c6 c03c 84f5 f13d 50ff 443d 60c9 883b
000002e0: d2c2 09be f44c f13d a8d9 053e a611 86bc
000002f0: 8970 023d c8bf 073e c0ce 6e3c f8cf 4d3d
00000300: 00a5 e2ba 0692 6dbe 9a98 51be 7970 923d
00000310: 14c8 b63d a017 07bd d895 32bd 0fad 643e
00000320: 1ec4 c73d 97b6 683d ee41 2ebd ebd2 0f3e
00000330: 120d 4e3e d810 2ebe 00d8 193a 0096 553e
00000340: 2ad1 37be 81d2 653e 80fa 68bb 2323 58be
00000350: aad1 483e c0d2 b23b 8616 69be 07de 4ebd
00000360: 9aaf 453e 973c f13d a690 52be 2490 c93d
00000370: 3be3 f83d 6863 23bd 044f 79be 5a1a 01be
00000380: d850 65bd b992 06be c6b9 733e 0f8e 5ebe
00000390: 30f9 f9bc d4c7 88bd 606c 123c 7ec6 58be
000003a0: 460a 6bbe b465 18bd b66b 8bbd 2d43 5bba
000003b0: 763d 533d 4422 ca3d 549a 4dbe 42a4 29be
000003c0: a09e 25bd 3c36 143e e01f 19bc 5f01 97bd
000003d0: 6ed1 2e3e f4ee cf3d 580d 4abd f267 df3d
000003e0: 5f0e 2e3e b4b2 fb3d 2900 86bd ae94 8b3d
000003f0: e9f7 8a3d c8ee 62be 5819 c93d 6456 b53d

linear.1.bias f4 [64]
0.0119254375 0.003927282 0.14282212 0.018034376 -0.23312676 0.0811286 0.17076533 -0.072293706
-0.15515922 0.008468822 -0.09404703 -0.15805162 0.1923301 0.08185636 0.1686355 0.122935936
0.047810372 0.066694126 -0.21287644 -0.22451743 -0.1466694 -0.14024659 -0.088430114 -0.12735261
0.06900901 -0.026576368 -0.1833083 -0.22467756 0.2228042 0.24904999 0.09510965 0.066678934
0.22916389 0.22547057 0.02477849 0.023662854 0.24184732 0.2218862 -0.08977364 0.21457157
-0.22389084 -0.18543544 0.12342182 -0.22178806 -0.23389104 0.16850601 -0.2500527 -0.16126785
0.24202627 -0.23598534 -0.04531915 -0.03083265 0.13230672 -0.14387213 0.014666293 -0.04461009
0.08932976 -0.113031626 0.1714489 -0.13296378 0.24514987 -0.1859344 0.11061937 0.06730237
00000000: e962 433c 6eb0 803b f63f 123e d4bc 933c
00000010: c8b8 6ebe c026 a63d 1bdd 2e3e b90e 94bd
00000020: 0fe2 1ebe d0c0 0a3c bb9b c0bd 49d8 21be
00000030: 2ff2 443e 4fa4 a73d c9ae 2c3e d6c5 fb3d
00000040: cfd4 433d ee96 883d 48fc 59be e6e7 65be
00000050: 8130 16be cd9c 0fbe d91a b5bd b968 02be
00000060: 9954 8d3d afb6 d9bc 2cb5 3bbe e011 66be
00000070: c926 643e f606 7f3e d9c8 c23d f78e 883d
00000080: f0a9 6a3e c2e1 663e 43fc ca3c 9ad8 c13c
00000090: d3a6 773e 2336 633e 3edb b7bd a6b8 5b3e
000000a0: a443 65be cae2 3dbe 94c4 fc3d 691c 63be
000000b0: 2281 6fbe d78c 2c3e e806 80be 6623 25be
000000c0: bcd5 773e 24a6 71be 93a0 39bd c194 fcbc
000000d0: 6a7b 073e 3753 13be e44a 703c 12b9 36bd
000000e0: 85f2 b63d 207d e7bd 4d90 2f3e a827 08be
000000f0: 9108 7b3e 9665 3ebe 698c e23d d3d5 893d

linear.3.weight f4 [2, 64]
0.052371595 0.028253572 -0.10192667 0.0015632309 -0.0049010725 0.03506921 -0.12133631 -0.06942451
0.07077093 -0.11404617 0.0913157 -0.045757804 0.06130387 -0.06698013 0.08018009 0.056927618
0.015237913 -0.045151293 -0.052285828 -0.101826906 0.11480252 -0.062376108 0.12016462 -0.011743348
-0.092788145 -0.026090033 -0.031865384 0.09981248 -0.068222 0.1028922 -0.10632832 0.0869855
-0.119439214 0.10825108 0.056921583 0.11174155 0.12000552 -0.010459242 -0.040948447 -0.07638792
0.09250918 -0.06835341 -0.108495146 0.0005603099 -0.062248707 0.048077654 -0.031015575 0.0832721
0.02299575 0.023697924 0.0013466051 -0.07289582 -0.10253217 -0.09322108 0.00492555 -0.084636495
-0.07592385 0.048920892 -0.0745175 0.033497367 0.07397084 -0.07769708 -0.08567037 -0.10360474
-0.05047812 -0.026271196 0.05312736 0.066729404 0.022872608 0.05740984 0.0013652893 0.05502371
-0.082823135 -0.100310385 0.096165955 0.020294227 0.010188706 -0.07342737 0.082759276 -0.060599368
0.07280112 0.06804695 0.06254462 0.099969566 -0.039509654 0.073685795 -0.007861377 -0.06288816
0.012782035 -0.08123598 0.11078 0.080077946 -0.1197525 -0.02164828 0.0009996594 0.047576454
0.038044658 0.12632988 0.07028842 0.0987932 0.08453983 0.07562767 -0.016696911 -0.051109795
0.06589173 0.113355376 -0.043371454 0.01359642 0.10714881 -0.1176158 0.049302943 0.00092817645
0.0078172 -0.034927543 -0.04093214 -0.002144635 -0.019640679 -0.061227143 -0.098182954 -0.061197646
0.08396114 0.09455186 -0.084438175 -0.026528535 0.026253143 -0.02104242 0.017301152 0.12465645
00000000: 9983 563d 0974 e73c eebe d0bd 53e5 cc3a
00000010: 2d99 a0bb bba4 0f3d 2c7f f8bd 702e 8ebd
00000020: 59f0 903d 0a91 e9bd ba03 bb3d 896c 3bbd
00000030: c419 7b3d e12c 89bd 7635 a43d ef2c 693d
00000040: 70a8 793c 90f0 38bd aa29 56bd a08a d0bd
00000050: 951d eb3d 177e 7fbd de18 f63d 2c67 40bc
00000060: b607 bebd c4ba d5bc 4785 02bd 7c6a cc3d
00000070: fab7 8bbd 25b9 d23d aac2 d9bd 7425 b23d
00000080: 8c9c f4bd beb2 dd3d 9b26 693d c1d8 e43d
00000090: 74c5 f53d 3e5d 2bbc 8fb9 27bd 4571 9cbd
000000a0: 7475 bd3d dffc 8bbd b432 debd c3e1 123a
000000b0: 80f8 7ebd 13ed 443d 6014 febc 908a aa3d
000000c0: 9561 bc3c 2622 c23c 9280 b03a 674a 95bd
000000d0: 63fc d1bd b2ea bebd 8266 a13b e655 adbd
000000e0: f77d 9bbd 4661 483d a29c 98bd 8934 093d
000000f0: 067e 973d a61f 9fbd f273 afbd b92e d4bd
00000100: 25c2 4ebd b136 d7bc 139c 593d 6da9 883d
00000110: 565f bb3c 9526 6b3d 82f3 b23a 8b60 613d
00000120: 2d9f a9bd 886f cdbd a8f2 c43d 1440 a63c
00000130: 88ee 263c 1761 96bd b27d a93d 0b37 78bd
00000140: c118 953d 335c 8b3d 6517 803d d8bc cc3d
00000150: e0d4 21bd 94e8 963d 01cd 00bc 82cb 80bd
00000160: be6b 513c 0d5f a6bd a0e0 e23d e8ff a33d
00000170: cc40 f5bd bc57 b1bc 0107 833a 87df 423d
00000180: b7d4 1b3d 9f5c 013e 60f3 8f3d 1754 ca3d
00000190: 3823 ad3d aee2 9a3d f6c7 88bc 8158 51bd
000001a0: 3ef2 863d dd26 e83d 44a6 31bd 85c3 5e3c
000001b0: d670 db3d 8de0 f0bd e2f1 493d de50 733a
000001c0: b713 003c 2f10 0fbd 76a8 27bd 018d 0cbb
000001d0: 7de5 a0bc 50c9 7abd 2514 c9bd 62aa 7abd
000001e0: d1f3 ab3d 68a4 c13d eced acbd 5f52 d9bc
000001f0: d510 d73c 2761 acbc 25bb 8d3c e14b ff3d

linear.3.bias f4 [2]
-0.0034833732 -0.035414148
00000000: 4e49 64bb 6d0e 11bd
