meta/demos/multiple_experiments/results/models/run_0/emodb_mlp_os_16-64_C_val-001_learning_rate-0-0001_0_010.model (torch, 13864 bytes, 6 tensors)

linear.0.weight f4 [16, 88]
0	0x3dc25641	0.09489108
1	0x3d9a1e9e	0.07525371
2	0x3dcda064	0.10040358
3	0x3cdb48a8	0.026768044
4	0x3d44cf05	0.04804899
5	0x3d0b3251	0.033983532
6	0x3db8fd1c	0.09032652
7	0xbb2afe29	-0.0026091433
8	0x3d8183d1	0.0632397
9	0x3d83b582	0.06431104
10	0x3d580b1b	0.052744966
11	0xbd2a5e53	-0.04159386
12	0x3cc31e6c	0.023818217
13	0xbd8d1d08	-0.06890303
14	0x3d90cf15	0.07070748
15	0xbd485350	-0.048907578
16	0x3dd89a13	0.10576262
17	0xbdab611e	-0.08368133
18	0x3d926854	0.07148805
19	0xbd11cb2c	-0.03559415
20	0xbd7f5f56	-0.06234678
21	0x3dbd5726	0.09245138
22	0x3d37a15f	0.04483163
23	0x3da5d67b	0.080975495
24	0x3d8d4eed	0.068998195
25	0xbc9175aa	-0.017756302
26	0x3d6f6822	0.05844892
27	0x3d203cca	0.039120473
28	0x3d03b6ae	0.03215664
29	0xbcdb23d3	-0.02675048
30	0x3d67ecca	0.056622304
31	0x3dab6d39	0.08370442
32	0xbdc0379e	-0.09385608
33	0x3d2a30dc	0.041550502
34	0xbd8a460c	-0.06751642
35	0xbd066fc1	-0.03282142
36	0x3d9e9bd5	0.07744566
37	0x3d88b8be	0.06675862
38	0xbd7523ce	-0.0598486
39	0xbcc0eafd	-0.023549551
40	0x3cf4f39c	0.029901318
41	0x3d46f2bc	0.048571333
42	0x3c0bab93	0.008524793
43	0xbc11ba57	-0.008894525
44	0xbcef7b92	-0.029233728
45	0x3c905941	0.017620685
46	0xbd85369d	-0.06504557
47	0xbdb14173	-0.086550616
48	0x3d60dc9f	0.0548979
49	0x3d310c7d	0.0432248
50	0x39d7ce47	0.00041161684
51	0x3d8e9746	0.06962447
52	0xbdc55cde	-0.09636854
53	0x3d979e06	0.074031875
54	0x3d963975	0.07335178
55	0x3d13284d	0.035927106
56	0xbcd25a51	-0.025677832
57	0xbdc5b551	-0.09653724
58	0xbd70d396	-0.058795534
59	0xbd7761cf	-0.060396012
60	0x3d528f53	0.051406216
61	0x3d292ffe	0.041305535
62	0xbd358a4e	-0.04432135
63	0x3d116521	0.035496835
64	0x3cd8391e	0.026394423
65	0xbda07648	-0.0783506
66	0x3d028bde	0.03187167
67	0x3c6a2340	0.014290631
68	0x3d847c6b	0.06469043
69	0xbcc11dbb	-0.023573747
70	0x3bc638a6	0.0060492335
71	0x3c694a1b	0.0142388595
72	0xbd2fc533	-0.042912673
73	0xbce2fc86	-0.027708303
74	0xbc43bb20	-0.01194647
75	0xbdb4f688	-0.088360846
76	0x3d470023	0.048584115
77	0xbd2bd463	-0.041950595
78	0x3b5b7b8f	0.0033490395
79	0x3d96549f	0.07340359
80	0x3d323dbd	0.04351591
81	0x3d80afd6	0.06283538
82	0x3d45064b	0.048101705
83	0x3d8de9d4	0.06929365
84	0xbdd8093a	-0.10548635
85	0xbda0f4e5	-0.0785921
86	0xbd554090	-0.052063525
87	0xbd218874	-0.039436772
88	0xbd73a15d	-0.05948006
89	0xbc5417ef	-0.012945159
90	0xbd670f24	-0.056410924
91	0x3d465b9d	0.048427213
92	0xbd2e06cc	-0.04248695
93	0xbda3a5e8	-0.079906285
94	0x3d7e0c30	0.06202334
95	0x3ccf8569	0.02533217
96	0xbccd1dbd	-0.025038594
97	0x3d9c9dc1	0.07647277
98	0x3c512c74	0.012766946
99	0xbd708f9d	-0.05873071
100	0xbd610e90	-0.05494553
101	0x3dc9afdd	0.098479964
102	0x3db93da5	0.09044961
103	0x3b8a28ef	0.0042163054
104	0x3db0fbf0	0.08641803
105	0xbc0cf269	-0.008602717
106	0xbd85c9ec	-0.06532654
107	0x3da21601	0.07914353
108	0xbda7e982	-0.08198835
109	0x3dc127a3	0.09431388
110	0x3dbb345d	0.09140847
111	0xbd0f312f	-0.034959015
112	0xbd2a9e8a	-0.0416551
113	0xbd8344c9	-0.06409604
114	0xbda64ed6	-0.081205055
115	0xbdd513fa	-0.10404201
116	0xbd3116bf	-0.043234583
117	0x3cc21fb4	0.023696758
118	0x3cc565b0	0.02409634
119	0x3ccf16a7	0.025279356
120	0xbd982f48	-0.07430893
121	0xbda04a51	-0.07826675
122	0xbc98f76e	-0.018672671
123	0xbb999695	-0.00468714
124	0xbd623395	-0.055224974
125	0x3d93144d	0.071816064
126	0xbd868dd9	-0.06570024
127	0x3c82d664	0.01597137
128	0x3cd43961	0.025906267
129	0xbd74f853	-0.059807133
130	0x3d1bdc0c	0.03805165
131	0x3d8f0cbf	0.06984853
132	0xbcc83722	-0.024440352
133	0x3d9e27ab	0.0772241
134	0xbcacdf91	-0.021102699
135	0xbc798bad	-0.015231055
136	0xbcc7616d	-0.024338448
137	0xbc2b3102	-0.010448696
138	0x3d930fe9	0.07180769
139	0x3d8eab07	0.069662146
140	0xbd805acb	-0.062673174
141	0x3d55170b	0.05202393
142	0xbd953718	-0.07285899
143	0xbdcd00cc	-0.100099176
144	0x3d1d45eb	0.038396757
145	0xbc399ce6	-0.011328911
146	0x3ba861e1	0.005138621
147	0xbd67a19f	-0.05655062
148	0xbd4d5a9b	-0.050135236
149	0x3d5361b7	0.05160686
150	0x3d5f4580	0.05450964
151	0x3dd28cf0	0.10280788
152	0x3d02deca	0.03195075
153	0x3c6c3e10	0.014419094
154	0xbd238493	-0.039921355
155	0x3beea082	0.0072823176
156	0xbd868cec	-0.065698475
157	0x3d4da11f	0.050202485
158	0xbda50f97	-0.08059614
159	0x3cf0744c	0.02935233
160	0x3d9dd213	0.07706084
161	0x3d4edbfb	0.05050276
162	0xbcf8c3ef	-0.030366866
163	0x3dabeacb	0.083943926
164	0x3dc0df79	0.09417624
165	0xbd264f39	-0.040602896
166	0xbc9ab3c4	-0.018884547
167	0x3cbdb74f	0.023158697
168	0x3b6848aa	0.0035443702
169	0x3da14806	0.078750655
170	0xbdb99c77	-0.090630464
171	0xbdb8c35f	-0.09021639
172	0x3d29949c	0.04140149
173	0xbc4c2422	-0.012459787
174	0xbbe83892	-0.007086822
175	0xbda1b24c	-0.078953356
176	0x3dd54428	0.104133904
177	0xbd56d8bf	-0.0524528
178	0x3d0e35ca	0.034719266
179	0x3b13e298	0.002256548
180	0xbd1db9a7	-0.03850713
181	0x3ddc5e54	0.10760179
182	0x3d67f708	0.05663207
183	0x3daf991a	0.08574124
184	0xbc933c7f	-0.017973183
185	0x3d854580	0.06507397
186	0x3d34fb24	0.04418482
187	0x3ce6f385	0.028192291
188	0xbc01db33	-0.007925796
189	0x3d005ee0	0.03134048
190	0xbd7a6f9c	-0.061141595
191	0xbd2f643d	-0.042820204
192	0xbd08b1c8	-0.03337267
193	0xbda30152	-0.07959236
194	0xbda5e034	-0.08099404
195	0xbd41301d	-0.047165025
196	0xbd4c5447	-0.04988506
197	0xbc044a83	-0.008074406
198	0x3c596a80	0.0132700205
199	0xbdc908ff	-0.09816169
200	0xbcc7388f	-0.024318961
201	0x3c954560	0.018221557
202	0xbcc7303f	-0.024314998
203	0x3d906911	0.0705129
204	0x3d9d1cdd	0.07671521
205	0x3d4e36cf	0.05034524
206	0xbc45a502	-0.012063267
207	0xbdd54f2e	-0.10415493
208	0xbd28f937	-0.041253295
209	0x3cd16071	0.025558682
210	0x3dbdcdd6	0.09267776
211	0x3dba7bc6	0.09105639
212	0x3db30726	0.08741598
213	0xbdcbf3ed	-0.099586345
214	0x3d99b7e1	0.07505775
215	0xbd545a54	-0.051843956
216	0x3d685f07	0.05673125
217	0x3d8c19b9	0.06840844
218	0x3d428f51	0.04749996
219	0x3d8932c0	0.06699133
220	0x3d97a961	0.07405353
221	0x3d7f62e2	0.06235016
222	0x3d3fc015	0.046814043
223	0x3cb45033	0.022010898
224	0xbccdafb9	-0.025108205
225	0x3cb040b5	0.02151523
226	0xbcdc94ea	-0.026926477
227	0x3dd8f1c9	0.10592992
228	0xbcfe312b	-0.031029304
229	0xbdaa1613	-0.083049916
230	0x3d8a61d3	0.0675694
231	0xbdd028af	-0.1016401
232	0xbc63ffe2	-0.013915988
233	0xbdb7103c	-0.08938643
234	0xbccca0c5	-0.024979005
235	0xbc0a3add	-0.008436886
236	0xbc4ce5f1	-0.012505994
237	0x3c85c6bb	0.016330114
238	0x3d35bcaa	0.044369377
239	0xbb95717d	-0.004560648
240	0xbda0575b	-0.07829162
241	0xbdb32b32	-0.08748473
242	0xbd1931de	-0.037401073
243	0x3cf5502a	0.029945452
244	0x3d9bfdb7	0.07616752
245	0xbc09cf6a	-0.008411268
246	0x3dabc6d5	0.083875336
247	0x3dbf55f7	0.09342568
248	0x3dd15e4c	0.10223064
249	0x3dc9c5e6	0.09852199
250	0x3d0bd43a	0.034137942
251	0xbce17ab0	-0.027524322
252	0x3dbeebc9	0.09322316
253	0xbc8023bd	-0.015642041
254	0x3ba90a68	0.005158711
255	0x3d28c3cd	0.041202355

linear.0.bias f4 [16]
0	0x3af7ea04	0.0018914347
1	0x3db27da7	0.087153725
2	0x3d270aad	0.040781666
3	0x3c6348fb	0.01387238
4	0xbd60e3fa	-0.054904915
5	0x3bc0a6df	0.0058792676
6	0xbd62c8e1	-0.055367354
7	0x3ce1cd46	0.027563702
8	0x3dba6c8c	0.09102735
9	0x3d959774	0.07304278
10	0xbd39a0c8	-0.04531935
11	0x3d8dd22a	0.06924851
12	0x3dab18ba	0.083543256
13	0x3ddaff0d	0.10693178
14	0x3c2eee12	0.010676878
15	0xbd2a534f	-0.041583356

linear.1.weight f4 [64, 16]
0	0xbe12de1a	-0.14342538
1	0xbd8b6fb8	-0.06808418
2	0xbe69343c	-0.22773832
3	0x3dbb401c	0.09143087
4	0x3c6412c0	0.013920486
5	0x3e794a68	0.2434479
6	0x3e02fe54	0.12792331
7	0x3d7d990e	0.061913542
8	0x3df13f88	0.11779696
9	0xbdbb3199	-0.091403194
10	0x3e6d986a	0.23202673
11	0xbe4e37e1	-0.20138504
12	0x3df78a33	0.12086906
13	0xbe1f7be7	-0.15574609
14	0x3e1b0ff8	0.1514281
15	0xbd4bcc5b	-0.049755435
16	0x3da86044	0.08221486
17	0x3e75fad0	0.24021459
18	0x3dfc00b4	0.123048216
19	0x3e2f841a	0.17140236
20	0x3cac38b0	0.021023124
21	0xbca0e8e0	-0.019642293
22	0x3e7c407c	0.24633974
23	0xbe62eff4	-0.22161847
24	0xbd027288	-0.031847507
25	0x3de5cf62	0.11221196
26	0xbd93e3d5	-0.0722119
27	0x3d0d61c2	0.034517057
28	0x3e0b0f91	0.13580157
29	0xbe0869ea	-0.13321653
30	0x3d8952fa	0.0670528
31	0xbd6793b8	-0.05653736
32	0xbe2e1698	-0.17000806
33	0x3e3000a6	0.17187747
34	0x3d54acd4	0.051922634
35	0x3e75a86e	0.23990032
36	0x3b66a780	0.0035195053
37	0x3d93897c	0.072039574
38	0x3e2fdc61	0.17173912
39	0xbda8dd20	-0.08245301
40	0x3e48f9f8	0.19626606
41	0xbd67cf0f	-0.05659395
42	0x3e0ac62f	0.13552164
43	0xbe053c65	-0.1301132
44	0xbe2f2db9	-0.17107286
45	0x3d335c89	0.04378942
46	0x3ba001d6	0.0048830314
47	0x3e3a1b2e	0.1817443
48	0xbe6e0eb6	-0.232478
49	0xbdd90284	-0.10596183
50	0xbe649948	-0.22324097
51	0xbe40747e	-0.18794438
52	0x3e06b914	0.13156539
53	0x3e001876	0.12509331
54	0xbde3840d	-0.11109171
55	0xbdd7f9c9	-0.105456896
56	0x3d130268	0.035890967
57	0xbcb6325f	-0.022240816
58	0xbe74bae6	-0.23899421
59	0xbe6a9cf8	-0.22911441
60	0x3e0e2e93	0.13884954
61	0x3cc18434	0.02362261
62	0xbd9b7589	-0.075907774
63	0x3e0b1342	0.13581565
64	0xbce3aa90	-0.027791291
65	0x3e05b190	0.13056016
66	0xbe1a7e0c	-0.15087146
67	0x3d457e80	0.048216343
68	0x3e105286	0.1409398
69	0xbe2c5122	-0.16827825
70	0xbe5f06e4	-0.21779972
71	0xbe493738	-0.1964997
72	0x3d241a68	0.040064245
73	0x3db36539	0.08759541
74	0x3e53622c	0.20642918
75	0xbe6b7e0f	-0.22997306
76	0xbe66585d	-0.22494645
77	0xbce53105	-0.027977476
78	0xbdb9c48a	-0.0907069
79	0x3e4e99d4	0.20175868
80	0x3deb8e78	0.11501783
81	0x3d891fd4	0.06695524
82	0xbbdf9517	-0.006823193
83	0x3e223818	0.1584171
84	0x3a6bcc00	0.0008994937
85	0x3e1f9388	0.15583622
86	0xbe1a6628	-0.15078032
87	0x3ca19e7f	0.019728897
88	0xbe65c85e	-0.22439715
89	0xbe169edc	-0.14709038
90	0x3d6e3148	0.058152467
91	0x3e63d6a5	0.22249849
92	0xbde840a5	-0.11340455
93	0x3b78a96b	0.0037942778
94	0xbe665053	-0.22491579
95	0xbd367523	-0.044545304
96	0x3da6be0c	0.08141717
97	0x3e6ef1e6	0.23334464
98	0x3e45f2e4	0.19330937
99	0xbdad2a58	-0.08455342
100	0xbb11c400	-0.002224207
101	0x3e1a0410	0.15040612
102	0xbdc00f8a	-0.09377964
103	0xbe23ddf5	-0.16002639
104	0x3d4eaaa0	0.05045569
105	0xbdb36f3b	-0.0876145
106	0x3e5326f1	0.20620324
107	0x3d64103a	0.055679537
108	0x3e3ab14c	0.18231696
109	0x3dbc86b6	0.092053816
110	0x3e5d90be	0.21637246
111	0xbe29995b	-0.16562407
112	0x3d35fba0	0.04442942
113	0x3dc273ac	0.09494719
114	0xbe55e3be	-0.20887658
115	0xbe022ad2	-0.12711647
116	0x3e4fdd80	0.2029934
117	0x3dc54e40	0.09634066
118	0x3e70d878	0.23520076
119	0xbe466184	-0.19373137
120	0xbe1a2b86	-0.15055665
121	0x3e773db1	0.24144627
122	0xbe5b4349	-0.21412386
123	0x3d9e1f12	0.0772077
124	0xbe73b435	-0.23799212
125	0x3e520325	0.20509012
126	0xbe6a95e4	-0.22908741
127	0xbde5172d	-0.11186061
128	0xbe498d66	-0.19682845
129	0xbbf83b40	-0.0075754225
130	0xbe4aab4a	-0.19791904
131	0xbe075192	-0.1321471
132	0xbdc060a8	-0.09393436
133	0x3e3877a6	0.18014392
134	0x3e47bb72	0.19505098
135	0x3de5aa6d	0.11214147
136	0x3e66f496	0.2255424
137	0x3daef69e	0.08543132
138	0xbe79dcc1	-0.24400617
139	0x3e2b3794	0.1672042
140	0xbdc965ae	-0.09833847
141	0x3df6348e	0.12021743
142	0xbd052a0a	-0.032510795
143	0x3e03b5cd	0.1286232
144	0x3d810624	0.06299999
145	0x3e16e4d4	0.14735729
146	0xbe29bb0a	-0.16575256
147	0xbe35a854	-0.17739993
148	0x3e6cfd62	0.23143533
149	0xbcda4ec0	-0.026648879
150	0x3cee6be8	0.029104188
151	0x3d01cffa	0.031692483
152	0x3d3d93e8	0.046283633
153	0x3e1422c0	0.14466381
154	0x3cc6667f	0.024218796
155	0xbc58cb1e	-0.013232021
156	0x3db74bf4	0.08950034
157	0x352fc7ec	6.5483505e-07
158	0xbe600557	-0.21877037
159	0x3e1625a8	0.14662802
160	0x3d31ba88	0.04339078
161	0xbe788c32	-0.2427223
162	0xbe0c5e8e	-0.13707945
163	0xbd742d28	-0.059613377
164	0x3e418312	0.18897656
165	0x3dec2f9c	0.11532518
166	0xbe6cfef0	-0.23144126
167	0xbe2f7c54	-0.17137271
168	0xbe57683c	-0.21035856
169	0x3e3c6370	0.18397307
170	0xbe7ef38d	-0.24897595
171	0xbe390b64	-0.18070751
172	0x3e1fa277	0.15589319
173	0x3cc41bee	0.0239391
174	0xbce9f45f	-0.028558908
175	0xbc3f09b4	-0.011660028
176	0x3e4dede0	0.20110273
177	0xbc2d9780	-0.010595202
178	0xbe055c98	-0.13023603
179	0xbc8daff0	-0.017295808
180	0x3cfd2410	0.030900985
181	0xbdb7c488	-0.08973032
182	0xbe2f0bbd	-0.17094322
183	0x3df9cee2	0.12197663
184	0x3cd56100	0.02604723
185	0x3e4606c2	0.19338515
186	0xbdfb00a4	-0.122559816
187	0xbd9fc884	-0.07801917
188	0xbdb2118b	-0.08694752
189	0x3e041b8c	0.12901133
190	0x3e1fd0cd	0.15606995
191	0xbc397dfc	-0.011321541
192	0xbe68d8b4	-0.22738916
193	0xbdd84b90	-0.105612874
194	0xbdfb1d36	-0.12261431
195	0xbd30db58	-0.043177933
196	0xbe746a58	-0.23868692
197	0xbd5f2fb8	-0.054488868
198	0xbc32bfb7	-0.010909966
199	0xbd01cf66	-0.03169193
200	0xbe3a87e2	-0.18215898
201	0xbe5bf1c2	-0.21478942
202	0xbd5ab0e8	-0.053391367
203	0x3d0c79da	0.034295894
204	0xbd1c647a	-0.03818176
205	0xbe59a999	-0.21256103
206	0x3d11b9e0	0.035577655
207	0x3d2fe0c1	0.04293895
208	0xbe50c85c	-0.20388931
209	0x3e3958be	0.18100259
210	0x3e7428dc	0.23843712
211	0xbe1f577e	-0.1556072
212	0xbe1f6038	-0.15564048
213	0x3e6776a2	0.22603849
214	0xbdbfce43	-0.09365513
215	0x3e1b4a4a	0.15165058
216	0xbdb7b7c4	-0.089705974
217	0xbe700469	-0.23439182
218	0xbd343a40	-0.044000864
219	0x3e6b2173	0.22961979
220	0x3cd16461	0.02556056
221	0xbd1f49e9	-0.038888846
222	0xbe3188ee	-0.17337391
223	0xbe3a47b2	-0.18191412
224	0x3e70df22	0.23522618
225	0x3cecf520	0.028925478
226	0x3e7cd0d3	0.24689035
227	0xbda39b68	-0.07988626
228	0xbda12448	-0.07868248
229	0x3e3b2b38	0.18278205
230	0x3e67178f	0.2256758
231	0xbe632cd0	-0.22185063
232	0x3ddf6ce8	0.10909444
233	0x3b96e124	0.0046044756
234	0x3e39117d	0.18073077
235	0xbe146228	-0.14490569
236	0xbd284e5e	-0.04109036
237	0xbce17835	-0.02752314
238	0x3e0189e2	0.12650254
239	0x3e5dab88	0.21647465
240	0xbdfbe1c4	-0.12298921
241	0xbe415244	-0.18879038
242	0xbe0e3b35	-0.13889773
243	0xbdff6580	-0.124705315
244	0x3e09d938	0.13461769
245	0xbd837880	-0.06419468
246	0xbc28b59d	-0.010297206
247	0x3e6dd562	0.2322593
248	0xbe1b3ee2	-0.15160707
249	0xbe154abc	-0.1457929
250	0xbe02aba1	-0.12760784
251	0xbc78df97	-0.015190027
252	0xbe56b194	-0.20966178
253	0x3d555534	0.05208321
254	0x3e7e4257	0.24829994
255	0xbdf469ab	-0.11934217

linear.1.bias f4 [64]
0	0x3e4d3406	0.20039377
1	0x3e3427e7	0.17593347
2	0x3c375dec	0.011191826
3	0x3bca0520	0.0061651617
4	0xbe49a47b	-0.1969165
5	0xbe048058	-0.12939584
6	0xbc0e870c	-0.00869919
7	0x3e66d818	0.2254337
8	0x3dcfc6cb	0.101453386
9	0x3e68f2ea	0.22748914
10	0x3dbda34f	0.09259664
11	0x3e4adeeb	0.19811599
12	0xbd322741	-0.043494467
13	0x3e2ad8ab	0.16684215
14	0xbd84a799	-0.06477279
15	0x3e535656	0.20638403
16	0x3e7570f2	0.23968866
17	0x3e02c863	0.12771754
18	0x3e0d0b9b	0.13773958
19	0xbb4301a2	-0.0029755612
20	0xbe579678	-0.21053493
21	0xbd8d326d	-0.068943836
22	0xbda1f2fa	-0.07907672
23	0x3d90a14b	0.07062014
24	0xbe66797a	-0.22507277
25	0xbda1c8da	-0.078996375
26	0xbd4298a6	-0.04750886
27	0x3d6ef69f	0.058340665
28	0xbda54a37	-0.08070796
29	0x3dec3787	0.115340285
30	0xbe5df78e	-0.21676466
31	0xbe2fbbb4	-0.17161447
32	0x3d721850	0.059105217
33	0x3e084864	0.13308865
34	0xbe106d8b	-0.14104287
35	0xbe2ccba2	-0.16874555
36	0xbdf7bdce	-0.12096749
37	0xbbf5df06	-0.007503393
38	0xbcb0ccb8	-0.021581993
39	0x3e69a7e6	0.22817954
40	0xbdfa6c5b	-0.122276984
41	0x3dcb83c4	0.09937242
42	0x3b36020c	0.0027772216
43	0x3dd63a18	0.10460299
44	0xbe35351b	-0.1769604
45	0x3d88854c	0.06666049
46	0xbe3ed1fe	-0.18634793
47	0xbe6f7875	-0.23385794
48	0x3e5e9ad0	0.21738744
49	0xbdbdfe73	-0.09277048
50	0xbd7ff1a6	-0.062486313
51	0x3df12b78	0.11775869
52	0x3e17a4d6	0.14808974
53	0x3abf8589	0.001461194
54	0x3dfb7228	0.12277633
55	0x3e3735a7	0.1789156
56	0xbe4ce6be	-0.20009896
57	0x3e570371	0.20997407
58	0x3d9dab87	0.07698732
59	0x3e577cbc	0.21043676
60	0x3de03db4	0.10949269
61	0x3e038daa	0.1284701
62	0x3d608168	0.05481091
63	0x3dda1e4f	0.10650312

linear.3.weight f4 [2, 64]
0	0x3d7343cf	0.05939084
1	0x3dfa5bd8	0.12224549
2	0x3d826f3f	0.06368875
3	0xbbc52442	-0.006016285
4	0x3deb0665	0.11475829
5	0x3d527ac9	0.05138663
6	0x3d4315ba	0.047628142
7	0x3ddb983e	0.10722397
8	0xbdadc792	-0.08485331
9	0x3deb8b7e	0.115012154
10	0x3db8a699	0.09016151
11	0x3db94477	0.09046262
12	0x3cf623b6	0.030046325
13	0x3d790ebb	0.060805064
14	0x3dc6ae1c	0.097011775
15	0x3d8a2389	0.06745059
16	0xbd7845e6	-0.060613535
17	0xbd9dc504	-0.077035934
18	0x3ddb98c7	0.10722499
19	0xbd83ce9d	-0.06435893
20	0x3e00ab94	0.12565452
21	0xbc5af06a	-0.013362983
22	0xbd88b1fa	-0.06674571
23	0x3d8d4eef	0.06899821
24	0xbd7311af	-0.059343036
25	0x3c6dc592	0.014512436
26	0x3df2acf1	0.11849392
27	0x3db0ffea	0.08642562
28	0xbd883116	-0.066499874
29	0x3dad8f09	0.084745474
30	0x3d44c22e	0.048036747
31	0xbde1a899	-0.110184856
32	0x3d64be04	0.055845276
33	0x3de1228f	0.1099292
34	0xbd6fabc1	-0.058513407
35	0xbd7b1e00	-0.061307907
36	0xbdf6cc78	-0.12050718
37	0xbdba098a	-0.09083851
38	0x3dc67b2d	0.09691463
39	0x3c94f7ad	0.018184507
40	0xbd13d6ea	-0.03609363
41	0x3d623108	0.05522254
42	0x3c5ea7d7	0.013589821
43	0x3dd6c49e	0.104867205
44	0x3df7252e	0.12067638
45	0x3da0c068	0.078491986
46	0xbdf791f6	-0.12088387
47	0xbdf123c2	-0.117743984
48	0x3da01de6	0.07818203
49	0x3da48e9f	0.08035015
50	0x3c9c8f32	0.01911125
51	0xbdc0d5a1	-0.094157465
52	0xbd16f952	-0.036858864
53	0x3a326474	0.000680513
54	0xbd3c58ad	-0.045983005
55	0x3dbac92e	0.09120403
56	0xbdda3e8c	-0.10656461
57	0x3cf73b08	0.030179515
58	0xbda99f48	-0.082823336
59	0xbd011317	-0.031512346
60	0xbd7598a1	-0.05996001
61	0x3da00ec3	0.078153156
62	0xbd72afcd	-0.059249688
63	0xbd9621e0	-0.0733068
64	0x3dc5f68f	0.09666168
65	0x3dacbade	0.084340796
66	0xbd04ec83	-0.032452118
67	0xbdca8319	-0.09888286
68	0x3d67dd89	0.056607757
69	0x3dfcf6fb	0.12351795
70	0x3c577b16	0.013151905
71	0x3d4c09a1	0.04981387
72	0xbd2c98a0	-0.042137742
73	0xbdb984bc	-0.0905852
74	0xbcbcff64	-0.023070998
75	0x3dd45e0b	0.103695
76	0xbd5ff889	-0.05468038
77	0xbd64494b	-0.05573396
78	0x3dd159ca	0.10222204
79	0xbd46c0b8	-0.048523635
80	0x3ddc8c61	0.10768963
81	0x3cfb4470	0.030672282
82	0xbdca20fd	-0.09869573
83	0xbcabd1d6	-0.020974081
84	0xbcd26da8	-0.025687054
85	0x3dd9cd2e	0.10634838
86	0xbd3079c0	-0.04308486
87	0xbd852e5b	-0.06502982
88	0x3df162b4	0.11786404
89	0x3d1589da	0.03650842
90	0xbdd2b86d	-0.10289083
91	0x3d97f062	0.07418896
92	0xbdc78234	-0.09741631
93	0x3d0cdeff	0.034392353
94	0x3c7a191e	0.0152647775
95	0x3d7071cf	0.058702286
96	0x3ca1f252	0.019768868
97	0x3d192b32	0.03739471
98	0xbd7c3093	-0.06156976
99	0x3bf3a6a5	0.007435637
100	0xbd1963a6	-0.037448548
101	0x3cbbf058	0.022941753
102	0xbdead34b	-0.11466082
103	0x3d9d38da	0.07676859
104	0x3d38a3b6	0.045078002
105	0xbd892207	-0.06695943
106	0xbdbabc6e	-0.09117971
107	0x3c0882e3	0.008331987
108	0xbdc001ee	-0.09375368
109	0xbd0029f9	-0.03129003
110	0x3d9248b8	0.07142776
111	0xbdbae3ca	-0.091254786
112	0xbd755b7b	-0.059901696
113	0xbde1698d	-0.1100646
114	0xbc6dab6a	-0.0145062
115	0x3d827435	0.06369821
116	0x3d6c04fa	0.057621934
117	0x3cbe155a	0.02320354
118	0x3d0f3559	0.034962986
119	0xbc8615d4	-0.01636783
120	0x3dabb974	0.08384982
121	0xbc35e1ba	-0.011101181
122	0x3ce3e67f	0.02781987
123	0xb81dbf2e	-3.7609767e-05
124	0x3dba2b76	0.09090321
125	0x3d6fa0eb	0.058503073
126	0x3d93c8b4	0.072160155
127	0xbd7de46b	-0.061985414

linear.3.bias f4 [2]
0	0x3c98c6b5	0.018649438
1	0xbc37563e	-0.011189995
