meta/demos/multiple_experiments/results/models/run_0/emodb_mlp_os_16-64_C_val-001_learning_rate-0-0001_0_005.model (torch, 13864 bytes, 6 tensors)

linear.0.weight f4 [16, 88]
000000 41 56 c2 3d 9e 1e 9a 3d 64 a0 cd 3d a8 48 db 3c
       0.09489108 0.07525371 0.10040358 0.026768044
000010 05 cf 44 3d 51 32 0b 3d 1c fd b8 3d 29 fe 2a bb
       0.04804899 0.033983532 0.09032652 -0.0026091433
000020 d1 83 81 3d 82 b5 83 3d 1b 0b 58 3d 53 5e 2a bd
       0.0632397 0.06431104 0.052744966 -0.04159386
000030 6c 1e c3 3c 08 1d 8d bd 15 cf 90 3d 50 53 48 bd
       0.023818217 -0.06890303 0.07070748 -0.048907578
000040 13 9a d8 3d 1e 61 ab bd 54 68 92 3d 2c cb 11 bd
       0.10576262 -0.08368133 0.07148805 -0.03559415
000050 56 5f 7f bd 26 57 bd 3d 5f a1 37 3d 7b d6 a5 3d
       -0.06234678 0.09245138 0.04483163 0.080975495
000060 ed 4e 8d 3d aa 75 91 bc 22 68 6f 3d ca 3c 20 3d
       0.068998195 -0.017756302 0.05844892 0.039120473
000070 ae b6 03 3d d3 23 db bc ca ec 67 3d 39 6d ab 3d
       0.03215664 -0.02675048 0.056622304 0.08370442
000080 9e 37 c0 bd dc 30 2a 3d 0c 46 8a bd c1 6f 06 bd
       -0.09385608 0.041550502 -0.06751642 -0.03282142
000090 d5 9b 9e 3d be b8 88 3d ce 23 75 bd fd ea c0 bc
       0.07744566 0.06675862 -0.0598486 -0.023549551
0000a0 9c f3 f4 3c bc f2 46 3d 93 ab 0b 3c 57 ba 11 bc
       0.029901318 0.048571333 0.008524793 -0.008894525
0000b0 92 7b ef bc 41 59 90 3c 9d 36 85 bd 73 41 b1 bd
       -0.029233728 0.017620685 -0.06504557 -0.086550616
0000c0 9f dc 60 3d 7d 0c 31 3d 47 ce d7 39 46 97 8e 3d
       0.0548979 0.0432248 0.00041161684 0.06962447
0000d0 de 5c c5 bd 06 9e 97 3d 75 39 96 3d 4d 28 13 3d
       -0.09636854 0.074031875 0.07335178 0.035927106
0000e0 51 5a d2 bc 51 b5 c5 bd 96 d3 70 bd cf 61 77 bd
       -0.025677832 -0.09653724 -0.058795534 -0.060396012
0000f0 53 8f 52 3d fe 2f 29 3d 4e 8a 35 bd 21 65 11 3d
       0.051406216 0.041305535 -0.04432135 0.035496835
000100 1e 39 d8 3c 48 76 a0 bd de 8b 02 3d 40 23 6a 3c
       0.026394423 -0.0783506 0.03187167 0.014290631
000110 6b 7c 84 3d bb 1d c1 bc a6 38 c6 3b 1b 4a 69 3c
       0.06469043 -0.023573747 0.0060492335 0.0142388595
000120 33 c5 2f bd 86 fc e2 bc 20 bb 43 bc 88 f6 b4 bd
       -0.042912673 -0.027708303 -0.01194647 -0.088360846
000130 23 00 47 3d 63 d4 2b bd 8f 7b 5b 3b 9f 54 96 3d
       0.048584115 -0.041950595 0.0033490395 0.07340359
000140 bd 3d 32 3d d6 af 80 3d 4b 06 45 3d d4 e9 8d 3d
       0.04351591 0.06283538 0.048101705 0.06929365
000150 3a 09 d8 bd e5 f4 a0 bd 90 40 55 bd 74 88 21 bd
       -0.10548635 -0.0785921 -0.052063525 -0.039436772
000160 5d a1 73 bd ef 17 54 bc 24 0f 67 bd 9d 5b 46 3d
       -0.05948006 -0.012945159 -0.056410924 0.048427213
000170 cc 06 2e bd e8 a5 a3 bd 30 0c 7e 3d 69 85 cf 3c
       -0.04248695 -0.079906285 0.06202334 0.02533217
000180 bd 1d cd bc c1 9d 9c 3d 74 2c 51 3c 9d 8f 70 bd
       -0.025038594 0.07647277 0.012766946 -0.05873071
000190 90 0e 61 bd dd af c9 3d a5 3d b9 3d ef 28 8a 3b
       -0.05494553 0.098479964 0.09044961 0.0042163054
0001a0 f0 fb b0 3d 69 f2 0c bc ec c9 85 bd 01 16 a2 3d
       0.08641803 -0.008602717 -0.06532654 0.07914353
0001b0 82 e9 a7 bd a3 27 c1 3d 5d 34 bb 3d 2f 31 0f bd
       -0.08198835 0.09431388 0.09140847 -0.034959015
0001c0 8a 9e 2a bd c9 44 83 bd d6 4e a6 bd fa 13 d5 bd
       -0.0416551 -0.06409604 -0.081205055 -0.10404201
0001d0 bf 16 31 bd b4 1f c2 3c b0 65 c5 3c a7 16 cf 3c
       -0.043234583 0.023696758 0.02409634 0.025279356
0001e0 48 2f 98 bd 51 4a a0 bd 6e f7 98 bc 95 96 99 bb
       -0.07430893 -0.07826675 -0.018672671 -0.00468714
0001f0 95 33 62 bd 4d 14 93 3d d9 8d 86 bd 64 d6 82 3c
       -0.055224974 0.071816064 -0.06570024 0.01597137
000200 61 39 d4 3c 53 f8 74 bd 0c dc 1b 3d bf 0c 8f 3d
       0.025906267 -0.059807133 0.03805165 0.06984853
000210 22 37 c8 bc ab 27 9e 3d 91 df ac bc ad 8b 79 bc
       -0.024440352 0.0772241 -0.021102699 -0.015231055
000220 6d 61 c7 bc 02 31 2b bc e9 0f 93 3d 07 ab 8e 3d
       -0.024338448 -0.010448696 0.07180769 0.069662146
000230 cb 5a 80 bd 0b 17 55 3d 18 37 95 bd cc 00 cd bd
       -0.062673174 0.05202393 -0.07285899 -0.100099176
000240 eb 45 1d 3d e6 9c 39 bc e1 61 a8 3b 9f a1 67 bd
       0.038396757 -0.011328911 0.005138621 -0.05655062
000250 9b 5a 4d bd b7 61 53 3d 80 45 5f 3d f0 8c d2 3d
       -0.050135236 0.05160686 0.05450964 0.10280788
000260 ca de 02 3d 10 3e 6c 3c 93 84 23 bd 82 a0 ee 3b
       0.03195075 0.014419094 -0.039921355 0.0072823176
000270 ec 8c 86 bd 1f a1 4d 3d 97 0f a5 bd 4c 74 f0 3c
       -0.065698475 0.050202485 -0.08059614 0.02935233
000280 13 d2 9d 3d fb db 4e 3d ef c3 f8 bc cb ea ab 3d
       0.07706084 0.05050276 -0.030366866 0.083943926
000290 79 df c0 3d 39 4f 26 bd c4 b3 9a bc 4f b7 bd 3c
       0.09417624 -0.040602896 -0.018884547 0.023158697
0002a0 aa 48 68 3b 06 48 a1 3d 77 9c b9 bd 5f c3 b8 bd
       0.0035443702 0.078750655 -0.090630464 -0.09021639
0002b0 9c 94 29 3d 22 24 4c bc 92 38 e8 bb 4c b2 a1 bd
       0.04140149 -0.012459787 -0.007086822 -0.078953356
0002c0 97 ec d4 3d dc f1 57 bd 06 f2 0d 3d f2 16 07 3b
       0.103966884 -0.05272089 0.03465464 0.0020613042
0002d0 0d 8c 1e bd 00 9b da 3d 1a 51 6d 3d bd 54 b2 3d
       -0.03870778 0.10674095 0.057938673 0.08707569
0002e0 06 fe 7c bc b4 0f 8b 3d 14 e3 33 3d d9 7f e9 3c
       -0.015441423 0.067901045 0.04391773 0.028503345
0002f0 c4 49 10 bc dd ec fa 3c c9 46 7b bd aa b0 2f bd
       -0.00880665 0.030630523 -0.061346803 -0.04289309
000300 10 d8 08 bd 0f c9 a2 bd 5b 6b a6 bd 34 0d 42 bd
       -0.03340918 -0.07948505 -0.08125945 -0.047375873
000310 e5 57 4f bd 3e 9d f6 bb 67 13 3c 3c 3c e2 c5 bd
       -0.050620932 -0.007526069 0.011479235 -0.096622914
000320 1f f6 eb bc 1f 75 9d 3c b1 1e cb bc e7 2a 8e 3d
       -0.028803883 0.019220887 -0.024794908 0.06941777
000330 c0 26 99 3d 86 72 47 3d d4 16 41 bc 4e d4 d6 bd
       0.07478094 0.048693202 -0.011785228 -0.10489713
000340 0f 80 28 bd 24 47 cc 3c 38 aa ba 3d 21 9a bd 3d
       -0.04113775 0.024936266 0.09114498 0.092579134
000350 d4 0e b2 3d 79 28 cc bd 85 9a 96 3d e8 a0 4f bd
       0.086942345 -0.09968657 0.07353691 -0.05069056
000360 66 15 6a 3d 8a 37 8b 3d 7f e6 40 3d 0a 5a 8a 3d
       0.057149313 0.067977026 0.04709482 0.06755455
000370 30 85 97 3d 0d 3f 80 3d 5f f4 3f 3d 6b c8 b1 3c
       0.073984504 0.06262026 0.04686391 0.021702012
000380 49 e2 cf bc 73 de b1 3c 5d 2a dc bc 0a f6 d8 3d
       -0.025376456 0.021712517 -0.02687567 0.10593803
000390 6b 1e ff bc 5d d0 aa bd e1 52 8a 3d 62 fb d0 bd
       -0.031142434 -0.083405234 0.06754089 -0.102041975
0003a0 7c 05 62 bc f6 5a b7 bd c8 5d b7 bc 51 80 2a bc
       -0.013795253 -0.08952896 -0.022383586 -0.01040657
0003b0 8f da 64 bc a6 af 8c 3c fc 72 3b 3d d7 20 a1 bb
       -0.013968124 0.0171736 0.045763955 -0.004917245
0003c0 8d 00 99 bd fb a1 b6 bd 5b f6 1a bd 55 8e f9 3c
       -0.07470808 -0.08917614 -0.0378326 0.030463377
0003d0 d2 5c 99 3d 60 95 05 bc ae 60 a4 3d 68 d6 bf 3d
       0.07488407 -0.00815329 0.08026253 0.093670666
0003e0 a4 b8 d1 3d 75 e8 c7 3d 6a 60 06 3d 4f 1b e1 bc
       0.102402955 0.097611345 0.03280679 -0.027478842
0003f0 c7 90 c5 3d 10 c9 8d bc 3d 3b 27 3c 3b 6f 2f 3d
       0.09646755 -0.017307788 0.010206995 0.042830687

linear.0.bias f4 [16]
000000 04 ea f7 3a a7 7d b2 3d 74 5d 26 3d fb 48 63 3c
       0.0018914347 0.087153725 0.040616468 0.01387238
000010 fa e3 60 bd df a6 c0 3b 8e c8 61 bd de df e0 3c
       -0.054904915 0.0058792676 -0.055122904 0.027450498
000020 8c 6c ba 3d 1f 14 97 3d a4 d6 37 bd fa 81 8d 3d
       0.09102735 0.07376885 -0.04488243 0.06909557
000030 18 c6 aa 3d b9 90 da 3d 72 af 32 3c 20 4e 28 bd
       0.08338565 0.10672135 0.010906087 -0.04109013

linear.1.weight f4 [64, 16]
000000 1a de 12 be b8 6f 8b bd 65 d6 68 be 1c 40 bb 3d
       -0.14342538 -0.06808418 -0.22738035 0.09143087
000010 c0 12 64 3c 68 4a 79 3e c1 f6 02 3e 69 f2 7d 3d
       0.013920486 0.2434479 0.12789442 0.06199876
000020 88 3f f1 3d 91 9f bf bd a0 94 6d 3e f0 61 4e be
       0.11779696 -0.09356607 0.23201227 -0.20154548
000030 84 38 f7 3d d7 ce 1f be 84 c2 1a 3e 4f a0 4b bd
       0.120713264 -0.15606247 0.15113264 -0.04971343
000040 44 60 a8 3d d0 fa 75 3e b5 53 fb 3d 1a 84 2f 3e
       0.08221486 0.24021459 0.12271825 0.17140236
000050 b0 38 ac 3c e0 e8 a0 bc 31 4d 7c 3e 75 00 63 be
       0.021023124 -0.019642293 0.24638821 -0.22168143
000060 88 72 02 bd 74 19 ea 3d cd d1 93 bd 4e 08 0e 3d
       -0.031847507 0.11430636 -0.07217751 0.03467589
000070 fb 37 0b 3e d3 13 08 be 69 f4 89 3d 67 b3 67 bd
       0.13595574 -0.13288812 0.06736071 -0.056567576
000080 98 16 2e be a6 00 30 3e 35 47 53 3d 6e a8 75 3e
       -0.17000806 0.17187747 0.05158158 0.23990032
000090 80 a7 66 3b 7c 89 93 3d e4 e7 2f 3e 7c 01 a9 bd
       0.0035195053 0.072039574 0.17178303 -0.08252236
0000a0 f8 f9 48 3e 3a 09 5f bd fb cd 0a 3e 6a 12 05 be
       0.19626606 -0.05445216 0.13555138 -0.12995306
0000b0 f6 04 2f be 8a b5 34 3d 95 1b aa 3b 22 12 3a 3e
       -0.17091736 0.04411844 0.0051912763 0.1817098
0000c0 b6 0e 6e be 84 02 d9 bd a4 f4 64 be 7e 74 40 be
       -0.232478 -0.10596183 -0.22358948 -0.18794438
0000d0 14 b9 06 3e 76 18 00 3e 91 71 e3 bd 9e 22 d8 bd
       0.13156539 0.12509331 -0.111056454 -0.10553478
0000e0 68 02 13 3d 96 ad a4 bc 68 b5 74 be 0c 73 6a be
       0.035890967 -0.020102303 -0.23897326 -0.2289545
0000f0 4c 57 0e 3e 6e 23 c4 3c a1 d8 9a bd 4a 09 0b 3e
       0.13900489 0.023942675 -0.0756085 0.13577762
000100 90 aa e3 bc 90 b1 05 3e 31 da 1a be 80 7e 45 3d
       -0.027791291 0.13056016 -0.15122296 0.048216343
000110 86 52 10 3e 22 51 2c be 57 fe 5e be 58 4c 49 be
       0.1409398 -0.16827825 -0.2177671 -0.19658029
000120 68 1a 24 3d 70 c8 b7 3d fc 66 53 3e 1c 54 6b be
       0.040064245 0.08973777 0.20644754 -0.22981304
000130 a1 2f 66 be 47 96 e2 bc c4 28 b9 bd 87 8f 4e 3e
       -0.22479106 -0.027659548 -0.090409786 0.20171939
000140 78 8e eb 3d d4 1f 89 3d 52 81 d4 bb 18 38 22 3e
       0.11501783 0.06695524 -0.0064851427 0.1584171
000150 00 cc 6b 3a 88 93 1f 3e e9 71 1a be b7 2c a2 3c
       0.0008994937 0.15583622 -0.15082516 0.019796712
000160 5e c8 65 be 72 cc 18 be 13 11 6e 3d c0 ac 63 3e
       -0.22439715 -0.1492174 0.058121752 0.22233868
000170 f9 91 e8 bd 4c 24 63 3b f8 a0 66 be 3a 52 36 bd
       -0.11355967 0.0034659086 -0.22522342 -0.04451201
000180 0c be a6 3d e6 f1 6e 3e 3d 9c 45 3e 58 2a ad bd
       0.08141717 0.23334464 0.19297881 -0.08455342
000190 00 c4 11 bb 10 04 1a 3e e5 f5 bf bd 6b ee 23 be
       -0.002224207 0.15040612 -0.093730725 -0.16008918
0001a0 a0 aa 4e 3d ea 21 af bd 15 30 53 3e 5c b7 64 3d
       0.05045569 -0.085513905 0.2062381 0.055838928
0001b0 df d9 3a 3e 86 33 bd 3d be e1 5d 3e 36 a1 29 be
       0.18247174 0.09238343 0.21668145 -0.16565403
0001c0 a0 fb 35 3d ac 73 c2 3d 12 3d 56 be d2 2a 02 be
       0.04442942 0.09494719 -0.20921734 -0.12711647
0001d0 80 dd 4f 3e 40 4e c5 3d cf e0 70 3e 0f 76 46 be
       0.2029934 0.09634066 0.23523258 -0.19380973
0001e0 86 2b 1a be 8f 5a 79 3e a0 3e 5b be dd 71 9e 3d
       -0.15055665 0.24350952 -0.21410608 0.077365614
0001f0 0c 8c 73 be 06 54 52 3e 78 4a 6a be d2 29 e5 bd
       -0.23783892 0.20539865 -0.2287997 -0.11189617
000200 66 8d 49 be 40 3b f8 bb 57 4c 4a be 92 51 07 be
       -0.19682845 -0.0075754225 -0.19755684 -0.1321471
000210 a8 60 c0 bd a6 77 38 3e 3a b3 47 3e b4 d6 e5 3d
       -0.09393436 0.18014392 0.19501963 0.11222592
000220 96 f4 66 3e de 70 aa 3d 31 e1 79 be 29 0d 2b 3e
       0.2255424 0.08322309 -0.2440231 0.16704239
000230 19 b8 c9 bd d9 8a f5 3d 60 67 06 bd 20 c1 03 3e
       -0.09849567 0.11989374 -0.03281343 0.1286664
000240 24 06 81 3d d4 e4 16 3e ae 15 2a be 54 a8 35 be
       0.06299999 0.14735729 -0.16609833 -0.17739993
000250 62 fd 6c 3e c0 4e da bc ce ba ee 3c fc 80 01 3d
       0.23143533 -0.026648879 0.02914181 0.03161715
000260 e8 93 3d 3d 40 52 16 3e a0 97 c6 3c b8 2c 56 bc
       0.046283633 0.14679813 0.024242222 -0.013072185
000270 4b 9d b7 3d 3c 26 a9 39 61 b6 5f be ff 1b 16 3e
       0.08965548 0.0003226268 -0.21846916 0.14659117
000280 88 ba 31 3d 32 8c 78 be e3 b9 0c be 28 2d 74 bd
       0.04339078 -0.2427223 -0.13742785 -0.059613377
000290 12 83 41 3e 9c 2f ec 3d 79 f5 6c be 8f 90 2f be
       0.18897656 0.11532518 -0.23140515 -0.17144988
0002a0 3c 68 57 be 18 95 3e 3e d7 ed 7e be 6d e1 38 be
       -0.21035856 0.18611562 -0.24895416 -0.18054743
0002b0 36 cb 1f 3e c8 bd c6 3c 23 7e e7 bc 71 a8 3f bc
       0.15604863 0.024260417 -0.028258389 -0.011697874
0002c0 e0 ed 4d 3e 80 97 2d bc 0b 03 05 be f0 af 8d bc
       0.20110273 -0.010595202 -0.12989442 -0.017295808
0002d0 10 24 fd 3c 88 c4 b7 bd f2 20 2f be ba e4 f9 3d
       0.030900985 -0.08973032 -0.17102411 0.12201829
0002e0 00 61 d5 3c b3 94 43 3e 5d 23 fb bd 72 1f a0 bd
       0.02604723 0.19099693 -0.122626044 -0.07818498
0002f0 1c 66 b2 bd d1 b4 03 3e 4d 6f 1f 3e ff f2 38 bc
       -0.08710882 0.12861945 0.15569802 -0.0112884035
000300 b4 d8 68 be 90 4b d8 bd 46 d5 fb bd 58 db 30 bd
       -0.22738916 -0.105612874 -0.12296538 -0.043177933
000310 58 6a 74 be b8 2f 5f bd 2a 2c 32 bc d4 21 02 bd
       -0.23868692 -0.054488868 -0.010874787 -0.031770542
000320 e2 87 3a be ba bc 59 be 00 9b 5a bd 08 22 0d 3d
       -0.18215898 -0.212634 -0.053370476 0.034456283
000330 32 c1 1b bd 3e 55 59 be 7c f5 12 3d ef b7 2f 3d
       -0.038026042 -0.21223924 0.035878643 0.042900022
000340 5c c8 50 be be 58 39 3e 8f ca 73 3e 7e 57 1f be
       -0.20388931 0.18100259 0.23807739 -0.1556072
000350 38 60 1f be a2 76 67 3e 18 b9 bf bd 16 36 1b 3e
       -0.15564048 0.22603849 -0.09361476 0.15157351
000360 c4 b7 b7 bd 89 b6 6d be 2e 1f 34 bd 2e 4c 6b 3e
       -0.089705974 -0.23214163 -0.043975048 0.22978279
000370 a0 b0 d2 3c 9a e8 1d bd 26 36 31 be 91 52 3a be
       0.025718987 -0.038551904 -0.17305812 -0.18195559
000380 22 df 70 3e 20 f5 ec 3c 77 42 7d 3e 68 9b a3 bd
       0.23522618 0.028925478 0.24732386 -0.07988626
000390 48 24 a1 bd 38 2b 3b 3e 36 21 67 3e 3d 04 63 be
       -0.07868248 0.18278205 0.22571263 -0.22169586
0003a0 e8 6c df 3d c8 0a 19 3b 01 1f 39 3e eb 8c 14 be
       0.10909444 0.0023352373 0.18078233 -0.14506881
0003b0 95 f4 28 bd 42 9e e3 bc f8 4a 01 3e 61 bf 5d 3e
       -0.041248877 -0.027785424 0.12626255 0.21655037
0003c0 c4 e1 fb bd 44 52 41 be 1b 95 0e be 80 65 ff bd
       -0.12298921 -0.18879038 -0.13924067 -0.124705315
0003d0 38 d9 09 3e 80 78 83 bd 40 ff 27 bc fb c2 6d 3e
       0.13461769 -0.06419468 -0.010253727 0.2321891
0003e0 e2 3e 1b be 8e 16 13 be f4 a3 02 be 54 3e 76 bc
       -0.15160707 -0.14364073 -0.12757856 -0.015029509
0003f0 b7 88 56 be df ae 56 3d 4a 93 7e 3e 19 7c f4 bd
       -0.2095059 0.052412864 0.24860874 -0.11937732

linear.1.bias f4 [64]
000000 0e 00 4d 3e ee 5f 34 3e 33 d8 3a 3c 13 ad d0 3b
       0.20019552 0.1761472 0.011404085 0.0063682883
000010 db 6f 49 be f9 b7 04 be e0 02 0b bc 10 0b 67 3e
       -0.19671576 -0.12960805 -0.008484572 0.22562814
000020 e6 5b cf 3d bb 28 69 3e 64 0e be 3d e1 98 4a 3e
       0.1012495 0.22769444 0.092800885 0.19784881
000030 1c 51 31 bd 40 11 2b 3e bd ef 84 bd 09 8e 53 3e
       -0.043290243 0.16705799 -0.06491039 0.20659651
000040 93 3a 75 3e b6 92 02 3e bc 42 0d 3e 2c 83 51 bb
       0.23948126 0.12751278 0.13794988 -0.0031969054
000050 49 5e 57 be 6d a1 8d bd f0 54 a2 bd f1 0c 91 3d
       -0.2103206 -0.06915555 -0.07926357 0.070825465
000060 d8 af 66 be db 4b a2 bd 63 bf 41 bd e8 b6 6f 3d
       -0.22528017 -0.079246245 -0.04730166 0.058524042
000070 cc e3 a4 bd 42 a0 ec 3d e3 bf 5d be 1a f3 2f be
       -0.08051261 0.11554004 -0.2165523 -0.1718258
000080 ab 01 73 3d 13 7f 08 3e 39 12 10 be bf 03 2d be
       0.059327763 0.13329725 -0.14069451 -0.1689596
000090 b2 2a f8 bd ea f6 fc bb 82 1a af bc 77 72 69 3e
       -0.121175185 -0.007719864 -0.021374945 0.22797571
0000a0 ad d6 fa bd 82 ed cb 3d 62 3d 43 3b e1 a5 d6 3d
       -0.122479774 0.099574104 0.0029791226 0.10480858
0000b0 2a fe 34 be 7f f3 88 3d ce 08 3f be 9e ab 6f be
       -0.17675081 0.06687068 -0.18655702 -0.2340531
0000c0 54 d2 5e 3e ca 91 bd bd d3 25 7f bd 56 bf f0 3d
       0.21759921 -0.09256323 -0.06229193 0.117552444
0000d0 67 70 17 3e 03 1f a0 3a bf 01 fb 3d b6 6a 37 3e
       0.14788972 0.0012216273 0.122561924 0.179118
0000e0 a2 1c 4d be 41 3c 57 3e ca 3c 9d 3d 43 48 57 3e
       -0.20030454 0.21019079 0.0767761 0.2102366
0000f0 7e d1 df 3d 1b be 03 3e 18 a3 5f 3d 1a 78 d9 3d
       0.10928629 0.12865488 0.054598898 0.10618611

linear.3.weight f4 [2, 64]
000000 d4 d3 73 3d 91 9d fa 3d 70 78 82 3d 0a 9b c3 bb
       0.059528187 0.12237085 0.06370628 -0.00596941
000010 65 15 eb 3d 9a 94 51 3d 36 4f 44 3d b9 f0 dc 3d
       0.1147869 0.051167108 0.047927104 0.10788102
000020 5d 3f ad bd 8c b4 eb 3d 03 c8 b8 3d ed de ba 3d
       -0.08459351 0.11509046 0.09022524 0.09124551
000030 d9 f4 f4 3c 5b 24 73 3d c8 b2 c6 3d 74 7b 8a 3d
       0.029901909 0.059360843 0.097020686 0.06761828
000040 ea 1f 7c bd bd cc 9f bd 73 c2 db 3d 12 95 83 bd
       -0.061553873 -0.078027226 0.107304476 -0.06424917
000050 a9 4e 00 3e 77 95 55 bc 77 f2 88 bd 33 44 8d 3d
       0.12530006 -0.0130361235 -0.066868715 0.068977736
000060 0e be 72 bd 1f e6 73 3c e9 93 f2 3d 8f 79 b2 3d
       -0.05926328 0.014886408 0.11844618 0.08714592
000070 c5 e2 87 bd 91 83 ad 3d f8 c8 44 3d 84 97 e1 bd
       -0.0663505 0.0847236 0.04804322 -0.110152274
000080 30 43 64 3d 81 70 e2 3d 97 92 6f bd 58 12 7b bd
       0.055728137 0.11056615 -0.05848941 -0.06129679
000090 51 f3 f7 bd cc ef b8 bd d0 75 c6 3d 2a c8 82 3c
       -0.12106956 -0.090301126 0.0969044 0.015964586
0000a0 81 37 14 bd f7 a4 65 3d fb 86 65 3c e9 56 d6 3d
       -0.036185745 0.056065526 0.014009233 0.104657955
0000b0 3c 9a f7 3d e1 49 9f 3d 08 49 f8 bd c8 3a f3 bd
       0.12089965 0.07777763 -0.121233046 -0.11876446
0000c0 1e 04 a0 3d 12 fb a1 3d 34 2a 9d 3c ac 96 c0 bd
       0.07813285 0.07909216 0.019185163 -0.094037384
0000d0 36 64 18 bd 95 ad 67 3a 01 4e 3c bd e3 b3 bb 3d
       -0.037204944 0.00088378164 -0.045972828 0.0916517
0000e0 7f 46 da bd b8 a2 f7 3c e2 09 aa bd 17 21 ff bc
       -0.10657977 0.030228958 -0.08302666 -0.031143708
0000f0 bd 10 75 bd 62 26 a0 3d 29 ce 72 bd 56 01 95 bd
       -0.059830416 0.07819821 -0.05927864 -0.072756454
000100 8e ae c5 3d 25 79 ac 3d e2 fe 04 bd a7 9b ca bd
       0.09652434 0.08421544 -0.032469638 -0.098929696
000110 8e bf 67 3d 0b 6a fd 3d 26 95 52 3c a9 58 49 3d
       0.056579165 0.12373742 0.012852943 0.04915682
000120 14 a9 2d bd ca ad b9 bd 04 85 bd bc 95 c3 d2 3d
       -0.042397574 -0.09066351 -0.023134716 0.102912106
000130 20 61 5f bd eb 5e 5e bd 1e 55 d1 3d 97 70 47 bd
       -0.054535985 -0.05428974 0.10221313 -0.04869136
000140 65 79 de 3d ad b1 01 3d a9 4a ca bd 04 b8 ac bc
       0.10862998 0.031663585 -0.098775215 -0.02108384
000150 59 86 cf bc cd 21 d9 3d bb f8 2f bd 9f 23 85 bd
       -0.025332617 0.1060215 -0.042961817 -0.06500935
000160 e3 38 f1 3d ba 01 14 3d 65 9f d2 bd bd 76 96 3d
       0.117784284 0.03613446 -0.10284308 0.07346866
000170 85 d0 c7 bd ee f5 0c 3d f2 fd 79 3c ab 4f 70 3d
       -0.09756569 0.034414224 0.015258299 0.058669727
000180 f7 e7 a2 3c 53 8f 16 3d bd 49 7c bd 7f 49 f3 3b
       0.019886 0.03675778 -0.06159376 0.007424533
000190 f9 15 17 bd 6e 89 b7 3c ee cd ea bd bd c4 a1 3d
       -0.03688619 0.022404399 -0.11465059 0.07898853
0001a0 4d 04 39 3d 00 dc 8a bd 56 98 bb bd 9c f0 0b 3c
       0.045170117 -0.06780243 -0.09159915 0.008541252
0001b0 fc 76 c0 bd db 79 fa bc ca ff 92 3d c4 cc b8 bd
       -0.093976945 -0.030575683 0.07177694 -0.09023431
0001c0 e8 27 75 bd 00 d6 de bd 71 e1 6e bc 40 35 82 3d
       -0.05985251 -0.10880661 -0.014580117 0.06357813
0001d0 de 6f 6d 3d 14 6b bc 3c ad 2a 0f 3d a2 c0 89 bc
       0.057968013 0.023000278 0.03495281 -0.016815487
0001e0 67 c1 ab 3d 1e b1 36 bc eb 90 e5 3c 9e fb d4 b9
       0.08386498 -0.0111506265 0.028023204 -0.0004062326
0001f0 81 e7 b9 3d af 71 6f 3d e1 d7 93 3d be 12 80 bd
       0.09077359 0.058458026 0.0721891 -0.06253575

linear.3.bias f4 [2]
000000 d0 7b 9a 3c 76 c0 3a bc
       0.018857867 -0.011398425
