meta/demos/multiple_experiments/results/models/run_0/emodb_mlp_praat_16-64-128_C_val-001_drop-3_learning_rate-01_0_000.model (torch, 45432 bytes, 8 tensors)

linear.0.weight f4 [16, 39]
-0.101309694 -0.24454506 -0.06689568 -0.09300624 -0.12173957 -0.19358125 -0.12185686 -0.19864418
-0.24218544 -0.0051276227 0.018095238 0.008059572 -0.19370398 -0.09724411 -0.046931088 -0.22028297
0.02692751 -0.0056056576 -0.043909594 -0.17433818 -0.19917631 0.06780437 -0.055113215 -0.018459098
0.10224315 0.039864477 -0.09418543 -0.18764305 0.06721584 -0.19634047 -0.20988706 -0.008358895
-0.06809249 0.026507473 -0.05737666 -0.20407549 0.06854582 -0.1837783 -0.18548307 -0.034812108
0.013672772 -0.15932775 -0.13251479 0.0186992 -0.22247934 -0.22274996 0.049799412 -0.0036463933
0.002682243 -0.07921279 0.043392118 0.048936144 0.04074809 -0.13525154 -0.06722883 -0.052342497
-0.040633418 0.025779037 -0.015975758 -0.05220764 -0.06296534 -0.06125933 -0.07973495 -0.009313477
0.047793344 -0.1458502 -0.029280275 -0.06764093 -0.20328325 -0.18325543 -0.1743889 -0.04678395
0.07023372 -0.13060428 -0.023681052 -0.035123635 -0.21911265 -0.08312628 0.11079273 -0.1062873
-0.13598736 -0.0420472 -0.025410406 -0.10518779 0.11929066 -0.15933307 0.05451949 -0.06000581
-0.107517876 0.09862469 -0.034553465 -0.08563868 0.045256402 0.09116207 0.041962024 -0.087235875
-0.10324239 0.12986405 0.01671748 0.020321915 -0.115361944 -0.0062741325 0.017480114 -0.027059065
0.11151727 -0.11020187 0.116797015 0.093009725 0.015360708 -0.03315703 0.103091136 -0.14324254
-0.08517026 0.065812975 -0.13539085 0.06745377 0.13026857 0.04140601 0.10710989 0.116666965
0.13739526 -0.093197964 -0.09456151 -0.06488116 0.095943846 -0.1154789 0.024610264 -0.14819206
0.12966065 0.08292744 -0.021328123 0.054312475 0.0632885 -0.013302997 -0.049112655 -0.0051324912
-0.08649132 -0.07903032 -0.11280556 0.10519126 0.035971187 0.03734598 -0.037602764 -0.12873152
0.08900693 0.06886248 0.11709608 -0.14180274 -0.052603703 -0.03255262 -0.026825666 -0.08511813
-0.14048408 0.047508456 -0.102876365 0.12933448 -0.14844824 -0.012688797 -0.062364362 -0.12996583
0.11542851 0.044932008 -0.009646086 -0.08745263 -0.15490888 -0.1124887 0.14383936 -0.15576172
-0.120259225 -0.013875774 0.06381066 0.04061474 -0.023864867 -0.13395153 0.03827102 0.07822565
0.035514567 -0.034389857 -0.023541331 -0.15514107 -0.066865474 -0.006333728 -0.14707103 0.0057726135
0.027546993 0.15168324 -0.12179642 0.035535622 0.11181607 -0.15717053 -0.05367201 -0.0721824
-0.15167657 0.124278076 0.06408401 -0.17069204 -0.19544218 -0.13412862 -0.108063966 0.0059189466
0.08748216 -0.21537817 -0.08989238 0.069800235 -0.21227793 0.04557004 -0.02620649 0.0030184365
-0.043960065 -0.0051437193 -0.12543002 -0.039254446 0.077328734 -0.14063099 0.033674788 -0.033026766
-0.10534594 -0.07284897 -0.067491405 -0.0020456838 0.09086733 -0.16304299 -0.005007449 0.05923761
-0.07104926 0.009244275 0.075537875 -0.18053094 -0.12569268 -0.20801346 -0.009569893 -0.15906307
0.016081905 0.06379073 -0.1473534 -0.13591167 -0.1847224 0.0072401455 -0.04996692 0.09258114
-0.11086818 -0.09227721 0.05723998 0.027026854 0.034869794 -0.17102577 -0.043052245 -0.008499675
-0.0818171 -0.20519225 0.09265627 -0.03990859 0.05821837 -0.030543936 -0.16142447 -0.019967055
00000000: 757b cfbd 056a 7abe 9a00 89bd 0e7a bebd
00000010: 9852 f9bd 2a3a 46be 1790 f9bd 6169 4bbe
00000020: 76ff 77be 9e05 a8bb 773c 943c 4c0c 043c
00000030: 565a 46be ec27 c7bd d03a 40bd dc91 61be
00000040: 1597 dc3c aaaf b7bb 8cda 33bd b585 32be
00000050: e0f4 4bbe 04dd 8a3d 65be 61bd 8937 97bc
00000060: db64 d13d ef48 233d 4ae4 c0bd 8025 40be
00000070: 75a8 893d 7a0d 49be a2ec 56be bff3 08bc
00000080: 1374 8bbd 3326 d93c ca03 6bbd 2af9 50be
00000090: c061 8c3d 6130 3cbe 46ef 3dbe 2497 0ebd
000000a0: c303 603c d026 23be f5b1 07be 112f 993c
000000b0: a0d1 63be 9118 64be 78fa 4b3d 54f8 6ebb
000000c0: 92c8 2f3b 513a a2bd efbb 313d 4471 483d
000000d0: 78e7 263d 617f 0abe 45af 89bd 1665 56bd
000000e0: 3a6f 26bd 8f2e d33c 98df 82bc aed7 55bd
000000f0: f9f3 80bd 10eb 7abd 144c a3bd 8e97 18bc
00000100: f4c2 433d c159 15be 30dd efbc 5487 8abd
00000110: 7c29 50be 50a7 3bbe 0193 32be 87a0 3fbd
00000120: b2d6 8f3d 21bd 05be c4fe c1bc cddd 0fbd
00000130: 115f 60be 1c3e aabd 4ce7 e23d 28ad d9bd
00000140: 4540 0bbe af39 2cbd 7c29 d0bc b26c d7bd
00000150: a94e f43d 3528 23be d44f 5f3d a7c8 75bd
00000160: 5532 dcbd befb c93d ef87 0dbd 5563 afbd
00000170: c75e 393d 2eb3 ba3d 5fe0 2b3d b9a8 b2bd
00000180: bf70 d3bd 15fb 043e 19f3 883c 257a a63c
00000190: e242 ecbd 3d97 cdbb 7532 8f3c f9aa ddbc
000001a0: 2b63 e43d 85b1 e1bd 4633 ef3d e27b be3d
000001b0: 7bab 7b3c aacf 07bd 7221 d33d 2cae 12be
000001c0: bf6d aebd f4c8 863d e6a3 0abe 3425 8a3d
000001d0: 2065 053e 5999 293d 6e5c db3d 17ef ee3d
000001e0: 58b1 0c3e 93de bebd 77a9 c1bd 6ae0 84bd
000001f0: 357e c43d 3480 ecbd 779b c93c a9bf 17be
00000200: c3c5 043e ddd5 a93d 51b8 aebc c276 5e3d
00000210: 679d 813d d0f4 59bc 5a2a 49bd 752e a8bb
00000220: 5c22 b1bd a6da a1bd 9a06 e7bd 846e d73d
00000230: 8656 133d 19f8 183d 5b05 1abd 32d2 03be
00000240: 4449 b63d c607 8d3d 12d0 ef3d bd34 11be
00000250: fb76 57bd e555 05bd 80c1 dbbc 6a52 aebd
00000260: 0fdb 0fbe 3a98 423d d8b0 d2bd 4270 043e
00000270: d102 18be ace4 4fbc c671 7fbd c315 05be
00000280: c865 ec3d a00a 383d 9e0a 1ebc 5d1a b3bd
00000290: 6fa0 1ebe 7a60 e6bd a04a 133e 0080 1fbe
000002a0: 784a f6bd 3757 63bc 2aaf 823d a45b 263d
000002b0: 4180 c3bc 972a 09be 13c2 1c3d c534 a03d
000002c0: b977 113d 61dc 0cbd c0d9 c0bc 4ddd 1ebe
000002d0: c4f0 88bd 298b cfbb ca99 16be 3128 bd3b
000002e0: 3baa e13c da52 1b3e 6770 f9bd cd8d 113d
000002f0: d3ff e43d 50f1 20be 2ed7 5bbd 5ed4 93bd
00000300: 1a51 1bbe 8185 fe3d 7a3e 833d e5c9 2ebe
00000310: ff21 48be 0359 09be a450 ddbd b9f3 c13b
00000320: d929 b33d 188c 5cbe 7f19 b8bd 6df3 8e3d
00000330: 635f 59be a6a7 3a3d feae d6bc f6d0 453b
00000340: 780f 34bd a58c a8bb ba70 00be 45c9 20bd
00000350: 875e 9e3d 9201 10be 93ee 093d 1347 07bd
00000360: 9dbf d7bd d731 95bd ef38 8abd e110 06bb
00000370: a718 ba3d bef4 26be 8715 a4bb 23a3 723d
00000380: 4682 91bd 4d75 173c 9ab3 9a3d 1add 38be
00000390: 95b5 00be 7b01 55be 0acb 1cbc 6ee1 22be
000003a0: 33be 833c b7a4 823d cfe3 16be 6e2c 0bbe
000003b0: de27 3dbe be3e ed3b 1daa 4cbd 2e9b bd3d
000003c0: db0e e3bd d5fb bcbd 7874 6a3d 6c67 dd3c
000003d0: a1d3 0e3d 6121 2fbe 8d57 30bd 3942 0bbc
000003e0: b98f a7bd eb1d 52be 92c2 bd3d 3177 23bd
000003f0: 6376 6e3d 4737 fabc 754c 25be f391 a3bc

linear.0.bias f4 [16]
-0.08141651 0.016110806 0.062529616 0.0058384887 0.12980464 -0.120223776 -0.19208013 0.118588634
0.14873832 -0.06399336 -0.11902057 0.14958306 -0.15384072 -0.10173442 -0.07709594 0.08316117
00000000: b3bd a6bd cffa 833c 870f 803d cb50 bf3b
00000010: 82eb 043e e237 f6bd a7b0 44be 99de f23d
00000020: dc4e 183e f30e 83bd 0ec1 f3bd 4d2c 193e
00000030: 6c88 1dbe 235a d0bd 7ae4 9dbd 6750 aa3d

linear.1.weight f4 [64, 16]
0.22987516 -0.058358144 0.081317395 -0.06624171 0.15674484 0.07015196 -0.16089976 0.06853491
0.07978457 0.14403132 0.18404272 -0.13174257 -0.13396794 0.21850404 -0.1409871 -0.18298012
-0.13503878 -0.18226859 -0.09219983 0.22313851 -0.24168274 -0.09055698 -0.025766306 -0.006072998
-0.13050014 0.15886101 0.058033623 -0.2078641 -0.23874429 -0.06944656 -0.19238472 0.17276427
-0.120656334 -0.025748277 0.08469227 0.21938822 0.06294572 -0.23276046 -0.004320506 -0.012968183
0.017032564 0.15953052 -0.14536914 0.005132109 -0.22498524 -0.01558274 0.20083648 0.20435461
-0.12428412 -0.051012363 0.14265594 0.1978167 -0.1070323 -0.020179203 0.23985912 -0.063396275
0.22705579 -0.11782086 -0.03869994 0.14005256 -0.052107096 0.008838564 -0.12809744 0.14607653
0.060811408 0.0887373 -0.035295248 -0.08014378 -0.09115377 -0.11112989 0.009823514 0.23548394
0.101593316 -0.14460161 -0.072014235 -0.17516291 -0.17151272 0.14806953 -0.06948632 0.13549519
-0.16263995 -0.114882976 0.04448253 0.21720645 -0.20784307 0.11041829 0.16575634 -0.06246516
0.19549406 -0.0310058 -0.22001515 -0.13587803 0.17098361 0.24268663 0.07817221 -0.1454018
0.024098516 0.112723656 0.09946519 -0.20436019 -0.24772418 0.14709806 -0.003498889 -0.1316208
-0.23654461 -0.24289551 0.0289041 0.24279046 0.18809545 0.21769336 -0.22718269 0.22709441
0.020591227 -0.02732673 0.22505188 0.00021767616 0.15409559 0.18305036 -0.16937715 0.07788536
0.099877596 0.23838538 0.19531342 -0.14415085 0.18865326 0.21650293 -0.1853477 -0.079754174
-0.02835378 -0.16263077 -0.16349864 -0.14186355 -0.09964082 0.13107336 -0.07570488 0.21160936
-0.17494774 0.015483201 -0.12787808 -0.06753883 0.20566893 0.24189448 0.13652045 -0.18663657
-0.1019556 -0.1691505 0.104986995 -0.18498918 -0.06201455 -0.16218151 -0.13284843 0.09650302
0.029033482 -0.13804069 0.2843761 0.0006105602 0.06244296 0.058438182 0.14417627 0.14090717
-0.0103787 0.23218855 -0.17725176 -0.050682396 0.027234048 -0.12659384 -0.0333147 0.23755655
-0.06248501 -0.14529395 0.21633844 0.072267264 0.08822802 -0.0011686087 -0.1725983 0.24257791
0.25241068 -0.13382788 0.17254212 -0.028947622 0.031007528 0.15378174 0.16525783 -0.060743958
0.14825341 -0.16257274 0.13721485 -0.17054915 -0.15611547 -0.18961015 0.23307118 -0.22852284
0.23451917 -0.111665525 0.065243006 0.18789172 -0.067812175 -0.033840526 -0.031006273 0.16264883
-0.13598078 -0.13093114 -0.07042831 0.052390516 0.2389526 -0.12498084 0.10149434 0.14885756
0.08494442 0.114428625 -0.19483489 -0.15162984 -0.004652083 0.0866962 0.03120281 -0.0024885535
0.15571621 0.03231871 -0.25599286 -0.20392802 0.2087112 -0.053026855 0.030802399 -0.09255561
-0.05506881 0.0697158 -0.07833156 0.07470468 0.007366687 0.27454013 -0.18714476 -0.21874139
0.12096739 -0.12253022 0.168621 -0.22790793 0.11576271 0.11586779 -0.15302488 0.16956303
-0.13805716 -0.085603386 0.05070007 0.011499047 -0.11304948 0.06605939 -0.14613393 -0.031291544
-0.056241184 -0.22800833 -0.09015024 -0.12868369 -0.1253534 0.20307308 -0.13503426 -0.18211731
00000000: 6564 6b3e f308 6fbd bc89 a63d bca9 87bd
00000010: b881 203e d5ab 8f3d e8c2 24be 085c 8c3d
00000020: 1866 a33d f27c 133e b275 3c3e 86e7 06be
00000030: e42e 09be 86bf 5f3e ec5e 10be 245f 3bbe
00000040: 9b47 0abe 9ea4 3abe 44d3 bcbd 6c7e 643e
00000050: ae7b 77be f075 b9bd dc13 d3bc 0000 c7bb
00000060: d4a1 05be 76ac 223e aab4 6d3d 54da 54be
00000070: 6279 74be 003a 8ebd 8000 45be 1ee9 303e
00000080: ab1a f7bd 0dee d2bc 2473 ad3d 4ea7 603e
00000090: b0e9 803d c258 6ebe 0893 8dbb 8078 54bc
000000a0: e087 8b3c f85b 233e a6db 14be 402b a83b
000000b0: 8862 66be c04e 7fbc 14a8 4d3e 5642 513e
000000c0: ac88 febd 57f2 50bd 6614 123e 7690 4a3e
000000d0: c033 dbbd db4e a5bc a19d 753e e8d5 81bd
000000e0: 5081 683e 104c f1bd d483 1ebd f069 0f3e
000000f0: 406e 55bd a0cf 103c fa2b 03be 1695 153e
00000100: 6215 793d e7bb b53d c091 10bd 6c22 a4bd
00000110: d4ae babd 1198 e3bd cef2 203c b422 713e
00000120: 2810 d03d 7212 14be 337c 93bd e85d 33be
00000130: 08a1 2fbe 8a9f 173e d84e 8ebd 40bf 0a3e
00000140: 168b 26be c447 ebbd 5033 363d 5e6b 5e3e
00000150: d0d4 54be fc22 e23d 08bc 293e 78db 7fbd
00000160: 982f 483e e0ff fdbc a74b 61be 9c23 0bbe
00000170: 5416 2f3e d882 783e c018 a03d 36e4 14be
00000180: 406a c53c a9db e63d 68b4 cb3d cc43 51be
00000190: 68ab 7dbe e0a0 163e 9e4d 65bb 9ac7 06be
000001a0: c038 72be 9ab9 78be 4bc8 ec3c 109e 783e
000001b0: 189c 403e 02eb 5e3e 94a2 68be 708b 683e
000001c0: efae a83c 4edc dfbc 0074 663e 0040 6439
000001d0: 3ccb 1d3e 8e71 3b3e 3471 2dbe 5c82 9f3d
000001e0: a08c cc3d 4c1b 743e 3e00 483e 489c 13be
000001f0: 522e 413e f2b2 5d3e cacb 3dbe 2856 a3bd
00000200: 3046 e8bc ae88 26be 306c 27be ae44 11be
00000210: 7c10 ccbd 1838 063e 290b 9bbd 20b0 583e
00000220: 8025 33be 40ad 7d3c 79f2 02be cc51 8abd
00000230: e09a 523e 30b3 773e 04cc 0b3e a81d 3fbe
00000240: 19ce d0bd ca35 2dbe 6c03 d73d ce6d 3dbe
00000250: f802 7ebd e912 26be 6b09 08be 60a3 c53d
00000260: a0d7 ed3c 8a5a 0dbe bf99 913e 000e 203a
00000270: 30c4 7f3d e05c 6f3d f2a2 133e f849 103e
00000280: 6c0b 2abc d6c2 6d3e 7c81 35be 5898 4fbd
00000290: f019 df3c d1a1 01be ff74 08bd 0642 733e
000002a0: 48f0 7fbd f0c7 14be d387 5d3e dc00 943d
000002b0: e4b0 b43d 002c 99ba 9cbd 30be 5866 783e
000002c0: f93b 813e 2d0a 09be e2ae 303e 9023 edbc
000002d0: 8003 fe3c f678 1d3e 5939 293e a8ce 78bd
000002e0: becf 173e 7879 26be 0d82 0c3e 70a4 2ebe
000002f0: bcdc 1fbe 2a29 42be 36aa 6e3e e401 6abe
00000300: cb25 703e e5b0 e4bd 209e 853d b066 403e
00000310: 1ce1 8abd 5d9c 0abd de00 febc 6a8d 263e
00000320: 8c3e 0bbe d012 06be b83c 90bd 7097 563d
00000330: feaf 743e f4f5 ffbd 44dc cf3d 1e6e 183e
00000340: 57f7 ad3d 8e59 ea3d cc82 47be da44 1bbe
00000350: 8070 98bb c78d b13d 099d ff3c 0017 23bb
00000360: 1274 1f3e a060 043d 7f11 83be 82d2 50be
00000370: 64b8 553e b032 59bd 5055 fc3c cc8d bdbd
00000380: d58f 61bd 28c7 8e3d 4c6c a0bd c4fe 983d
00000390: 4064 f13b 8690 8c3e e0a2 3fbe befd 5fbe
000003a0: c0bd f73d 20f1 fabd fcaa 2c3e b260 69be
000003b0: 0015 ed3d 184c ed3d 8eb2 1cbe eea1 2d3e
000003c0: db5e 0dbe d450 afbd e0aa 4f3d 8066 3c3c
000003d0: 7c86 e7bd 254a 873d 22a4 15be 902b 00bd
000003e0: 285d 66bd 047b 69be b0a0 b8bd a8c5 03be
000003f0: a45c 00be 64f2 4f3e 6c46 0abe f67c 3abe

linear.1.bias f4 [64]
0.21826775 -0.04624911 -0.1504155 0.045746334 -0.091585375 -0.238988 0.27320042 0.07767126
0.19650741 0.10803594 -0.09852082 -0.05388082 -0.07909415 -0.12867762 0.21859035 0.2658732
-0.052919585 -0.20911616 -0.1959725 0.14150771 0.121800356 -0.08001993 0.00558945 -0.2467974
-0.13921973 -0.24009594 -0.121525146 -0.044666804 -0.020189993 -0.15092303 -0.061875712 -0.1932304
0.019609276 0.13766469 -0.026977163 0.22736967 -0.2767304 -0.2600033 0.09466084 -0.20410718
-0.0745422 0.05808946 0.14150387 0.09455479 0.24235284 -0.19915314 0.006891028 0.0025501284
0.119053245 0.078112125 -0.064698495 -0.16966663 -0.019269051 0.007125211 0.058040418 0.27059537
0.12074227 0.022898039 0.10074237 0.054927003 0.05644484 -0.07841552 -0.1147465 -0.15489233
00000000: 9581 5f3e b56f 3dbd 8506 1abe 8260 3b3d
00000010: 1d91 bbbd 45b9 74be ede0 8b3e 1c12 9f3d
00000020: 3d39 493e f241 dd3d 49c5 c9bd 22b2 5cbd
00000030: 1dfc a1bd 11c4 03be 26d6 5f3e 8820 883e
00000040: 35c2 58bd 8c22 56be 04ad 48be 66e7 103e
00000050: 7772 f93d 7de1 a3bd b427 b73b 75b8 7cbe
00000060: 9e8f 0ebe b6db 75be 2de2 f8bd 8af4 36bd
00000070: 7c65 a5bc 918b 1abe 6371 7dbd 31de 45be
00000080: a2a3 a03c f9f7 0c3e 36ff dcbc 98d3 683e
00000090: 9baf 8dbe 271f 85be 8bdd c13d 7901 51be
000000a0: 95a9 98bd 37ef 6d3d 64e6 103e f1a5 c13d
000000b0: 582b 783e cdee 4bbe 22ce e13b 0e20 273b
000000c0: 30d2 f33d 40f9 9f3d a580 84bd 17bd 2dbe
000000d0: 21da 9dbc 9a7a e93b cabb 6d3d 7a8b 8a3e
000000e0: b947 f73d ab94 bb3c 0452 ce3d 23fb 603d
000000f0: b432 673d 5198 a0bd 3700 ebbd 189c 1ebe

linear.2.weight f4 [128, 64]
-0.059929147 0.10762978 0.15316051 0.003859216 -0.040620167 -0.063409366 -0.06552545 0.09814045
0.06902668 -0.025755772 0.13604943 0.02103094 0.060365427 -0.05802408 0.10845868 0.023404604
0.14775051 -0.12096569 0.13332628 0.0022682906 0.05676305 0.15021284 -0.1320515 0.030956376
-0.036001604 0.011323307 -0.040562134 0.11774987 -0.052410822 -0.043339107 0.06804456 0.07652679
0.05385699 0.1395411 -0.11400866 -0.1276296 -0.137063 -0.056840207 -0.041089162 -0.071742356
-0.090520754 -0.0020845803 -0.12928514 -0.008024059 -0.010114938 0.035605766 -0.068653315 0.017382415
0.019123929 0.055838525 -0.12082211 0.16438973 0.032631975 0.09651336 -0.10647519 0.15187159
-0.038345497 0.09971483 0.02670726 -0.019228363 0.0097063845 0.0045857993 -0.092578694 -0.0714778
0.014317372 -0.065410055 -0.015149511 0.006289407 0.004650592 0.032021206 -0.058698628 0.04196782
0.0751799 0.112675734 -0.029158074 -0.11546204 0.10942912 -0.09673692 0.021877335 -0.099787325
-0.068974935 0.118284084 0.027217353 0.038461763 0.0467097 0.11328048 0.0017794148 0.010705747
0.04834544 0.14228567 0.034707826 -0.09554386 -0.061765563 -0.14754799 -0.057993848 0.12698571
-0.042680793 0.08310397 -0.019832982 0.086829074 -0.14510913 0.11323897 -0.014247735 0.054908294
0.034589954 -0.005582131 0.018632336 0.022033485 -0.08436962 -0.14194772 0.026560927 -0.00055147684
0.02177681 0.021713184 0.12712148 0.05369134 -0.037256658 0.0010092865 0.03463214 0.016293142
0.075356744 0.02807757 -0.012381065 0.0023205006 0.090169 -0.09161838 -0.088245034 -0.034196116
-0.07200608 -0.044441137 -0.000757223 -0.010127715 -0.008080083 0.045122698 0.09559759 0.10678816
-0.05795878 0.15610397 0.023236481 -0.048118073 0.075927466 -0.019007148 0.0035056768 0.031762138
0.06861157 0.029516295 0.047083464 -0.052310202 -0.06274212 0.17165391 0.007992864 -0.16874237
0.063728265 0.027101018 0.007986534 0.036152232 0.15831147 -0.04566363 -0.023671515 0.011989938
-0.070832245 0.10586982 -0.0258844 0.0971803 -0.075079255 0.03882275 -0.07259879 0.027584128
0.089253545 0.011944025 -0.16530871 0.017069267 0.070174545 0.065048866 0.007549478 -0.12887907
0.045748178 0.07225851 -0.07815364 0.112948135 0.034951396 0.09323271 -0.101934396 0.036221452
-0.048728302 0.11398954 -0.02235563 -0.004819505 -0.12985751 0.044413216 -0.06777758 0.05687431
0.12762748 -0.116550885 -0.14622717 0.0598032 0.03326066 0.09801852 0.07609263 -0.119866654
-0.035775065 0.038355276 0.021145174 -0.0859002 0.08863769 -0.027731381 0.11941451 0.0051072347
-0.05752607 0.12565245 -0.015024776 0.0054426882 0.13054395 -0.06664162 0.083091125 -0.043571018
0.04864901 0.11821685 0.049904205 -0.117410414 0.052377474 -0.02231772 0.11979746 -0.05179402
-0.07361944 0.14607435 0.0014609926 -0.022147499 -0.072365955 0.12684782 0.07492556 -0.034682624
-0.041382197 -0.06367585 -0.12549433 0.02948138 0.04895407 -0.08050454 -0.05653262 0.07620379
0.08091184 0.103063054 -0.015208008 0.013055202 -0.07677049 0.10643145 -0.0017050139 -0.06447897
0.07246701 -0.0603392 -0.016075883 -0.04654387 -0.11101191 -0.08303933 -0.14940667 -0.006715369
00000000: 4478 75bd 016d dc3d 1cd6 1c3e e7ea 7c3b
00000010: 5561 26bd c5dc 81bd 3532 86bd dcfd c83d
00000020: dc5d 8d3d c5fd d2bc 8b50 0b3e 1449 ac3c
00000030: bd41 773d a8aa 6dbd 961f de3d 03bb bf3c
00000040: e94b 173e dcbc f7bd af86 083e 9aa7 143b
00000050: 5f80 683d 65d1 193e 8238 07be 3a98 fd3c
00000060: 6b76 13bd 6485 393c 7b24 26bd d826 f13d
00000070: bbac 56bd 5984 31bd f25a 8b3d 14ba 9c3d
00000080: 2699 5c3d dde3 0e3e 5f7d e9bd 55b1 02be
00000090: 3e5a 0cbe 47d1 68bd 1c4d 28bd a8ed 92bd
000000a0: f262 b9bd 749d 08bb 5363 04be 5877 03bc
000000b0: 20b9 25bc 5ad7 113d 1c9a 8cbd 9165 8e3c
000000c0: c9a9 9c3c f0b6 643d 9571 f7bd c855 283e
000000d0: 1ba9 053d cca8 c53d aa0f dabd 3a84 1b3e
000000e0: 2b10 1dbd 4a37 cc3d 2fc9 da3c cd84 9dbc
000000f0: 8707 1f3c 7944 963b e699 bdbd f462 92bd
00000100: 6993 6a3c b5f5 85bd a835 78bc 5f17 ce3b
00000110: fe63 983b ab28 033d f96d 70bd 73e6 2b3d
00000120: ebf7 993d 89c2 e63d eadc eebc 5d77 ecbd
00000130: 601c e03d 021e c6bd 1938 b33c 4c5d ccbd
00000140: bb42 8dbd ed3e f23d edf6 de3c 158a 1d3d
00000150: ac52 3f3d 99ff e73d 413b e93a 2867 2f3c
00000160: de05 463d 56b3 113e cb29 0e3d 80ac c3bd
00000170: e3fd 7cbd d216 17be f58a 6dbd 8b08 023e
00000180: 0ed2 2ebd 6a32 aa3d c778 a2bc 71d3 b13d
00000190: 7d97 14be d5e9 e73d 556f 69bc 85e7 603d
000001a0: 32ae 0d3d 4fea b6bb d7a2 983c 917f b43c
000001b0: fbc9 acbd be5a 11be 4d96 d93c fc90 10ba
000001c0: 4865 b23c d9df b13c 222c 023e 73eb 5b3d
000001d0: 709a 18bd 094a 843a 6eda 0d3d 3279 853c
000001e0: a354 9a3d ef02 e63c f3d9 4abc 8a13 183b
000001f0: 86aa b83d 6ba2 bbbd d0b9 b4bd 3a11 0cbd
00000200: ec77 93bd e907 36bd 6080 46ba b7ee 25bc
00000210: 5362 04bc 94d2 383d abc8 c33d c0b3 da3d
00000220: 3066 6dbd b8d9 1f3e 6f5a be3c 7517 45bd
00000230: dc7f 9b3d e1b4 9bbc 7fbf 653b 0419 023d
00000240: 3984 8c3d 28cc f13c 97da 403d 3943 56bd
00000250: f17e 80bd 0bc6 2f3e 80f4 023c cdca 2cbe
00000260: f783 823d f402 de3c f4d9 023c 5d14 143d
00000270: 671c 223e c909 3bbd c4ea c1bc 7271 443c
00000280: 7f10 91bd 47d2 d83d 850b d4bc 7706 c73d
00000290: 27c3 99bd 9b04 1f3d adae 94bd 1cf8 e13c
000002a0: 90ca b63d dfb0 433c b046 29be d9d4 8b3c
000002b0: acb7 8f3d 5738 853d 9d61 f73b e0f8 03be
000002c0: 7162 3b3d 45fc 933d 040f a0bd 5a51 e73d
000002d0: 3229 0f3d cbf0 be3d fbc2 d0bd f25c 143d
000002e0: 5497 47bd 5973 e93d 2723 b7bc f0ec 9dbb
000002f0: 5ef9 04be a2ea 353d f9ce 8abd 09f5 683d
00000300: c7b0 023e 3bb2 eebd 93bc 15be 33f4 743d
00000310: 543c 083d efbd c83d 74d6 9b3d a67c f5bd
00000320: e088 12bd 6c1a 1d3d a538 ad3c 72ec afbd
00000330: ad87 b53d ec2c e3bc 988f f43d 975a a73b
00000340: 75a0 6bbd 09ab 003e 7a2a 76bc 9458 b23b
00000350: 50ad 053e 677b 88bd ae2b aa3d 8677 32bd
00000360: 2f44 473d ad1b f23d 5a68 4c3d df74 f0bd
00000370: c389 563d a7d3 b6bc 5f58 f53d f725 54bd
00000380: cac5 96bd 8494 153e c77e bf3a ac6e b5bc
00000390: 9a34 94bd 65e4 013e 9272 993d 5e0f 0ebd
000003a0: 6180 29bd 7c68 82bd 9681 00be ef82 f13c
000003b0: 1084 483d 90df a4bd c08e 67bd bc10 9c3d
000003c0: 1bb5 a53d b912 d33d 022b 79bc 7ce5 553c
000003d0: d939 9dbd bbf8 d93d c67a dfba 8d0d 84bd
000003e0: 9569 943d 3d26 77bd 92b1 83bc c9a4 3ebd
000003f0: 365a e3bd 8610 aabd 10fe 18be 990c dcbb

linear.2.bias f4 [128]
-0.099628255 0.03548569 0.05987061 -0.012209018 0.07779432 -0.04250775 -0.14175358 0.021718878
-0.0404521 0.08355212 0.010839402 0.034378987 -0.04082344 0.07279795 0.06949868 -0.020199293
0.060512565 0.09049742 -0.10810534 0.07463947 -0.019028729 0.0017445753 -0.16349012 0.008598251
-0.1016379 0.07024526 -0.0720174 -0.05297509 -0.08588946 0.021705681 -0.051484052 -0.072701655
0.034028232 -0.11053428 -0.057129603 -0.18672027 -0.007075801 -0.037796825 0.0908676 0.023518197
-0.07401037 -0.044188585 -0.11012631 0.09469668 0.05401823 -0.06797439 -0.1617341 0.037953045
-0.039372962 0.081960656 -0.12049492 -0.11584373 0.08233289 -0.0011845729 -0.037346423 -0.123439446
0.039947674 0.061505374 -0.141419 -0.004945248 0.045875512 -0.12609623 0.027421517 -0.044529255
0.026822075 -0.011577871 0.035034392 0.047099527 -0.098726705 -0.05563983 0.08640922 -0.14047657
-0.048293803 -0.028220752 0.0049719624 0.11611843 0.039507166 -0.13245972 -0.100956365 0.022350647
-0.047113087 0.06994063 -0.124659926 -0.1613861 0.01411351 -0.010435354 -0.08445391 0.04045642
-0.018380923 0.0028409774 -0.020014085 -0.1504156 -0.04148304 0.09301592 -0.117097095 0.0004191989
-0.09064408 -0.036498524 -0.040832147 -0.060226396 0.041125488 -0.127298 0.026522182 -0.11508679
0.0061906343 0.03623509 0.06435525 0.086766586 -0.007848393 -0.0037527732 0.036674578 -0.14244972
-0.035665598 0.107637346 -0.07529317 -0.11097196 -0.12947662 -0.10630527 -0.08227442 0.061982267
-0.054125044 0.04656588 -0.084244646 -0.018972594 -0.123347156 -0.0109763695 -0.08267855 -0.019128913
00000000: e609 ccbd 7159 113d e23a 753d 5508 48bc
00000010: a152 9f3d 9b1c 2ebd da27 11be caeb b13c
00000020: 1ab1 25bd 601d ab3d bf97 313c fbd0 0c3d
00000030: 7b36 27bd 1717 953d 5355 8e3d fd78 a5bc
00000040: 06dc 773d b656 b93d 5566 ddbd 94dc 983d
00000050: 23e2 9bbc 3caa e43a f469 27be aedf 0c3c
00000060: 8827 d0bd bfdc 8f3d dc7d 93bd 68fc 58bd
00000070: d0e6 afbd 1dd0 b13c f1e0 52bd 9be4 94bd
00000080: 3061 0b3d cc5f e2bd bb00 6abd 9933 3fbe
00000090: 1fdc e7bb d8d0 1abd cb18 ba3d 3ca9 c03c
000000a0: c092 97bd 17ff 34bd e789 e1bd 55f0 c13d
000000b0: 3842 5d3d 2836 8bbd a09d 25be a774 1b3d
000000c0: 8b45 21bd fdda a73d 0ac6 f6bd 7a3f edbd
000000d0: 259e a83d ac43 9bba 90f8 18bd d2cd fcbd
000000e0: 2ca0 233d 0fed 7b3d 24d0 10be bf0b a2bb
000000f0: f6e7 3b3d 5f1f 01be 17a3 e03c 4f64 36bd
00000100: f8b9 db3c 1cb1 3dbc 3980 0f3d 6feb 403d
00000110: 3a31 cabd 97e6 63bd 51f7 b03d 17d9 0fbe
00000120: b9cf 45bd 352f e7bc d8eb a23b 80cf ed3d
00000130: 44d2 213d 85a3 07be 36c2 cebd b418 b73c
00000140: a7f9 40bd 083d 8f3d b44d ffbd 6642 25be
00000150: 5a3c 673c 0cf9 2abc 2cf6 acbd a2b5 253d
00000160: 9793 96bc b12f 3a3b 94f4 a3bc 8c06 1abe
00000170: 1fea 29bd 217f be3d 9ad0 efbd edc7 db39
00000180: 9aa3 b9bd 7a7f 15bd 9c3f 27bd f4af 76bd
00000190: 3373 283d 685a 02be 0c45 d93c 9fb2 ebbd
000001a0: ceda ca3b 3f6b 143d afcc 833d aeb2 b13d
000001b0: 8c96 00bc 16f1 75bb 1538 163d 57de 11be
000001c0: 1716 12bd f870 dc3d 4e33 9abd 4445 e3bd
000001d0: 8595 04be 94b6 d9bd 7e7f a8bd 1ee1 7d3d
000001e0: 39b2 5dbd ddbb 3e3d 7588 acbd 6a6c 9bbc
000001f0: 6f9d fcbd 3bd6 33bc 5f53 a9bd 3db4 9cbc

linear.4.weight f4 [2, 128]
0.007077028 0.02262137 0.0159756 -0.06517566 -0.015427663 0.00030245085 -0.03124765 -0.054012123
0.051007267 0.018078916 -0.029420834 -0.011104178 0.036887426 0.06684585 0.03357702 0.013255219
-0.035235543 0.0750872 0.02301355 0.0059564235 -0.017456613 0.03900178 -0.0896077 0.015456197
-0.001378734 0.050415117 -0.046256334 0.0024770163 -0.028644817 -0.016591068 0.049110085 0.028434059
0.10918112 0.057704467 -0.022915 0.042789117 0.026767593 -0.01720694 0.10668704 0.03526123
-0.037631743 -0.052147307 0.024394462 0.055783078 0.007210973 0.052010663 0.030166287 -0.028919918
0.06169477 -0.05112903 0.056872673 -0.044632245 -0.035072815 -0.024653358 -0.033821642 0.006837336
0.074825406 0.086005546 0.009480814 -0.028337743 0.0731458 0.037636176 -0.039054062 -0.027154583
0.050067525 -0.047424193 0.043053005 -0.04036003 0.021925952 0.039390113 0.039231095 -0.06670895
0.06426878 0.04818468 -0.07484538 0.05788525 0.03871716 -0.03262795 0.050290767 0.10074993
0.115262024 -0.0018067737 -0.013421088 0.051311463 0.016860513 -0.010283431 0.00033087295 0.121934
-0.071689665 0.08246881 -0.036036525 0.037900425 0.02896569 -0.046386287 0.051424455 0.0022369637
0.022100758 0.024933904 0.053923585 -0.038646188 0.036346197 0.01926898 -0.04160857 0.07043646
-0.031762134 0.016023068 -0.0936285 0.0779608 0.02572782 0.011127877 -0.047142748 -0.08917226
0.07751306 0.103652366 0.06455623 0.007831205 0.08607773 0.046347268 0.092711166 0.054228295
0.037587486 0.020196594 -0.017196897 -0.008759133 -0.047493413 0.0037935767 0.08893222 0.024230532
-0.06355806 0.0041211303 -0.039488304 -0.00015252735 -0.04864277 0.050331336 0.01823672 -0.013344719
0.0329515 0.053138692 -0.0005862502 -0.023883773 0.024629017 -0.0060991757 0.059932854 -0.01415008
0.015921721 0.0072689774 0.047284555 -0.10722438 0.049707778 0.011303502 -0.009343247 -0.049441036
0.005153078 0.08070662 -0.013762096 -0.031303145 0.0376455 0.01005085 0.016817937 0.108775534
0.022861008 -0.008649829 -0.08391229 0.015311278 0.0744612 0.0033532633 -0.00011548761 0.0858421
0.01785855 -0.024182063 0.07807417 0.019574177 0.058759794 0.003346059 0.03200059 -0.13181694
-0.0002349721 -0.021396829 0.06259601 0.017037224 0.025537567 -0.00078044203 -0.07969583 0.046115816
0.0024615107 -0.0065205633 -0.025617952 -0.07092312 0.07988224 0.028884534 -0.04801352 0.08496573
-0.018493148 -0.018623209 0.07333344 -0.07514765 -0.08516474 0.033653095 -0.12356831 0.036806017
0.07113535 -0.0031886739 -0.06004511 0.013099523 0.04545873 -0.12377199 -0.032333367 -0.07169545
-0.07793617 -0.08069258 0.012704205 0.0050880895 -0.013862809 -0.033896957 0.023572087 -0.06361455
-0.0036783936 7.815787e-05 -0.05737168 0.01825881 0.0063371533 -0.071222976 0.019738926 -0.011539216
-0.022634946 -0.015577584 0.037778094 -0.06020647 -0.022194851 -0.043800164 -0.11541403 -0.041549273
0.005503063 0.020069754 0.025537483 -0.086661 0.071294695 0.0004176204 0.044870358 -0.018984625
0.006095381 -0.026238106 0.008163934 0.051851194 -0.019457705 0.009333302 0.002961188 0.057129677
0.05929954 -0.041768342 0.001081279 -0.09028811 -0.042376492 0.021638006 -0.0406637 0.012054313
00000000: 6ae6 e73b 7450 b93c 43df 823c d17a 85bd
00000010: 4fc4 7cbc 4492 9e39 12fb ffbc d13b 5dbd
00000020: ffec 503d 3c1a 943c f603 f1bc 4cee 35bc
00000030: 4517 173d 7ae6 883d 0f88 093d 6b2c 593c
00000040: 2553 10bd 51c7 993d ea86 bc3c 1a2e c33b
00000050: 2c01 8fbc 55c0 1f3d 3e84 b7bd fd3b 7d3c
00000060: a3b6 b4ba 1580 4e3d 4877 3dbd 7055 223b
00000070: 89a8 eabc fee9 87bc a827 493d 8bee e83c
00000080: 5a9a df3d 855b 6c3d 3db8 bbbc a443 2f3d
00000090: b647 db3c 92f5 8cbc bc7e da3d 146e 103d
000000a0: be23 1abd 6a98 55bd e5d6 c73c cc7c 643d
000000b0: 074a ec3b 2209 553d 4a1f f73c 77e9 ecbc
000000c0: a8b3 7c3d ac6c 51bd 52f3 683d 4dd0 36bd
000000d0: 83a8 0fbd d7f5 c9bc 9088 0abd bb0b e03b
000000e0: 103e 993d ad23 b03d 6b55 1b3c 8e24 e8bc
000000f0: 77cd 953d 6428 1a3d 27f7 1fbd 4a73 debc
00000100: 9b13 4d3d df3f 42bd 5958 303d 8f50 25bd
00000110: 0e9e b33c 8757 213d c9b0 203d b49e 88bd
00000120: 5a9f 833d 4d5d 453d 8948 99bd 1519 6d3d
00000130: e295 1e3d e3a4 05bd b1fd 4d3d fb55 ce3d
00000140: 7f0e ec3d 44d1 ecba 20e4 5bbc f82b 523d
00000150: 0f1f 8a3c d67b 28bc 0479 ad39 88b8 f93d
00000160: 08d2 92bd 68e5 a83d 099b 13bd 7a3d 1b3d
00000170: 7449 ed3c 8cff 3dbd 73a2 523d 069a 123b
00000180: a60c b53c 3042 cc3c fade 5c3d 774b 1ebd
00000190: c0df 143d fbd9 9d3c bf6d 2abd fe40 903d
000001a0: 0319 02bd cf42 833c 4dc0 bfbd e9a9 9f3d
000001b0: 26c3 d23c b351 363c c118 41bd f29f b6bd
000001c0: 2bbf 9e3d b147 d43d 0f36 843d 744e 003c
000001d0: 8549 b03d a2d6 3d3d 5adf bd3d 7d1e 5e3d
000001e0: 56f5 193d 5473 a53c 82e0 8cbc 7782 0fbc
000001f0: 7488 42bd a89d 783b 1922 b63d 1c7f c63c
00000200: ba2a 82bd 8c0a 873b 7dbe 21bd c0ef 1fb9
00000210: a43d 47bd 3b28 4e3d 2c65 953c cfa3 5abc
00000220: 27f8 063d f5a7 593d 96ae 19ba e7a7 c3bc
00000230: cbc2 c93c 98db c7bb 277c 753d bdd5 67bc
00000240: 456e 823c 9a30 ee3b 73ad 413d 7598 dbbd
00000250: 629a 4b3d 5332 393c 6b14 19bc af82 4abd
00000260: 27db a83b 8349 a53d 6a7a 61bc ba37 00bd
00000270: 2b32 1a3d 52ac 243c c5c5 893c b5c5 de3d
00000280: 0247 bb3c 03b8 0dbc 35da abbd 28dc 7a3c
00000290: 1d7f 983d 6cc2 5b3b f031 f2b8 fccd af3d
000002a0: 184c 923c 7619 c6bc 5ae5 9f3d 065a a03c
000002b0: 1cae 703d 8e49 5b3b 0d13 033d 05fb 06be
000002c0: d862 76b9 6748 afbc 5632 803d a691 8b3c
000002d0: 2934 d13c 9496 4cba 9137 a3bd f0e3 3c3d
000002e0: 4c51 213b 73aa d5bb bddc d1bc 2440 91bd
000002f0: 4d99 a33d 429f ec3c d3a9 44bd 8302 ae3d
00000300: f17e 97bc b38f 98bc d82f 963d 03e7 99bd
00000310: da6a aebd d4d7 093d 6211 fdbd e8c1 163d
00000320: 69af 913d 12f9 50bb dcf1 75bd 629f 563c
00000330: ef32 3a3d 2b7c fdbd fe6f 04bd 10d5 92bd
00000340: 009d 9fbd 2742 a5bd 4c25 503c fdb9 a63b
00000350: d620 63bc 89d7 0abd 401a c13c 5848 82bd
00000360: 3411 71bb b0e8 a338 91fe 6abd 8093 953c
00000370: e5a7 cf3b 5add 91bd 87b3 a13c fb0e 3dbc
00000380: ec6c b9bc 1f39 7fbc 34bd 1a3d 0f9b 76bd
00000390: fad1 b5bc cd67 33bd 315e ecbd 922f 2abd
000003a0: 0a53 b43b 5369 a43c fc33 d13c 537b b1bd
000003b0: f402 923d 10f4 da39 fbc9 373d a585 9bbc
000003c0: c3bb c73b 4cf1 d6bc 05c2 053c eb61 543d
000003d0: c465 9fbc b5ea 183c 7e10 423b cf00 6a3d
000003e0: 13e4 723d 4815 2bbd b4b9 8d3a f9e8 b8bd
000003f0: f992 2dbd 3042 b13c fb8e 26bd 747f 453c

linear.4.bias f4 [2]
0.108916186 0.011540312
00000000: 730f df3d 9413 3d3c
