meta/demos/multiple_experiments/results/models/run_0/emodb_mlp_os_16-64_C_val-001_learning_rate-0-0001_0_001.model (torch, 13864 bytes, 6 tensors)

linear.0.weight f4 [16, 88]
000000 41 56 c2 3d 9e 1e 9a 3d 64 a0 cd 3d a8 48 db 3c
       0.09489108 0.07525371 0.10040358 0.026768044
000010 05 cf 44 3d 51 32 0b 3d 1c fd b8 3d 29 fe 2a bb
       0.04804899 0.033983532 0.09032652 -0.0026091433
000020 d1 83 81 3d 82 b5 83 3d 1b 0b 58 3d 53 5e 2a bd
       0.0632397 0.06431104 0.052744966 -0.04159386
000030 6c 1e c3 3c 08 1d 8d bd 15 cf 90 3d 50 53 48 bd
       0.023818217 -0.06890303 0.07070748 -0.048907578
000040 13 9a d8 3d 1e 61 ab bd 54 68 92 3d 2c cb 11 bd
       0.10576262 -0.08368133 0.07148805 -0.03559415
000050 56 5f 7f bd 26 57 bd 3d 5f a1 37 3d 7b d6 a5 3d
       -0.06234678 0.09245138 0.04483163 0.080975495
000060 ed 4e 8d 3d aa 75 91 bc 22 68 6f 3d ca 3c 20 3d
       0.068998195 -0.017756302 0.05844892 0.039120473
000070 ae b6 03 3d d3 23 db bc ca ec 67 3d 39 6d ab 3d
       0.03215664 -0.02675048 0.056622304 0.08370442
000080 9e 37 c0 bd dc 30 2a 3d 0c 46 8a bd c1 6f 06 bd
       -0.09385608 0.041550502 -0.06751642 -0.03282142
000090 d5 9b 9e 3d be b8 88 3d ce 23 75 bd fd ea c0 bc
       0.07744566 0.06675862 -0.0598486 -0.023549551
0000a0 9c f3 f4 3c bc f2 46 3d 93 ab 0b 3c 57 ba 11 bc
       0.029901318 0.048571333 0.008524793 -0.008894525
0000b0 92 7b ef bc 41 59 90 3c 9d 36 85 bd 73 41 b1 bd
       -0.029233728 0.017620685 -0.06504557 -0.086550616
0000c0 9f dc 60 3d 7d 0c 31 3d 47 ce d7 39 46 97 8e 3d
       0.0548979 0.0432248 0.00041161684 0.06962447
0000d0 de 5c c5 bd 06 9e 97 3d 75 39 96 3d 4d 28 13 3d
       -0.09636854 0.074031875 0.07335178 0.035927106
0000e0 51 5a d2 bc 51 b5 c5 bd 96 d3 70 bd cf 61 77 bd
       -0.025677832 -0.09653724 -0.058795534 -0.060396012
0000f0 53 8f 52 3d fe 2f 29 3d 4e 8a 35 bd 21 65 11 3d
       0.051406216 0.041305535 -0.04432135 0.035496835
000100 1e 39 d8 3c 48 76 a0 bd de 8b 02 3d 40 23 6a 3c
       0.026394423 -0.0783506 0.03187167 0.014290631
000110 6b 7c 84 3d bb 1d c1 bc a6 38 c6 3b 1b 4a 69 3c
       0.06469043 -0.023573747 0.0060492335 0.0142388595
000120 33 c5 2f bd 86 fc e2 bc 20 bb 43 bc 88 f6 b4 bd
       -0.042912673 -0.027708303 -0.01194647 -0.088360846
000130 23 00 47 3d 63 d4 2b bd 8f 7b 5b 3b 9f 54 96 3d
       0.048584115 -0.041950595 0.0033490395 0.07340359
000140 bd 3d 32 3d d6 af 80 3d 4b 06 45 3d d4 e9 8d 3d
       0.04351591 0.06283538 0.048101705 0.06929365
000150 3a 09 d8 bd e5 f4 a0 bd 90 40 55 bd 74 88 21 bd
       -0.10548635 -0.0785921 -0.052063525 -0.039436772
000160 5d a1 73 bd ef 17 54 bc 24 0f 67 bd 9d 5b 46 3d
       -0.05948006 -0.012945159 -0.056410924 0.048427213
000170 cc 06 2e bd e8 a5 a3 bd 30 0c 7e 3d 69 85 cf 3c
       -0.04248695 -0.079906285 0.06202334 0.02533217
000180 bd 1d cd bc c1 9d 9c 3d 74 2c 51 3c 9d 8f 70 bd
       -0.025038594 0.07647277 0.012766946 -0.05873071
000190 90 0e 61 bd dd af c9 3d a5 3d b9 3d ef 28 8a 3b
       -0.05494553 0.098479964 0.09044961 0.0042163054
0001a0 f0 fb b0 3d 69 f2 0c bc ec c9 85 bd 01 16 a2 3d
       0.08641803 -0.008602717 -0.06532654 0.07914353
0001b0 82 e9 a7 bd a3 27 c1 3d 5d 34 bb 3d 2f 31 0f bd
       -0.08198835 0.09431388 0.09140847 -0.034959015
0001c0 8a 9e 2a bd c9 44 83 bd d6 4e a6 bd fa 13 d5 bd
       -0.0416551 -0.06409604 -0.081205055 -0.10404201
0001d0 bf 16 31 bd b4 1f c2 3c b0 65 c5 3c a7 16 cf 3c
       -0.043234583 0.023696758 0.02409634 0.025279356
0001e0 48 2f 98 bd 51 4a a0 bd 6e f7 98 bc 95 96 99 bb
       -0.07430893 -0.07826675 -0.018672671 -0.00468714
0001f0 95 33 62 bd 4d 14 93 3d d9 8d 86 bd 64 d6 82 3c
       -0.055224974 0.071816064 -0.06570024 0.01597137
000200 61 39 d4 3c 53 f8 74 bd 0c dc 1b 3d bf 0c 8f 3d
       0.025906267 -0.059807133 0.03805165 0.06984853
000210 22 37 c8 bc ab 27 9e 3d 91 df ac bc ad 8b 79 bc
       -0.024440352 0.0772241 -0.021102699 -0.015231055
000220 6d 61 c7 bc 02 31 2b bc e9 0f 93 3d 07 ab 8e 3d
       -0.024338448 -0.010448696 0.07180769 0.069662146
000230 cb 5a 80 bd 0b 17 55 3d 18 37 95 bd cc 00 cd bd
       -0.062673174 0.05202393 -0.07285899 -0.100099176
000240 eb 45 1d 3d e6 9c 39 bc e1 61 a8 3b 9f a1 67 bd
       0.038396757 -0.011328911 0.005138621 -0.05655062
000250 9b 5a 4d bd b7 61 53 3d 80 45 5f 3d f0 8c d2 3d
       -0.050135236 0.05160686 0.05450964 0.10280788
000260 ca de 02 3d 10 3e 6c 3c 93 84 23 bd 82 a0 ee 3b
       0.03195075 0.014419094 -0.039921355 0.0072823176
000270 ec 8c 86 bd 1f a1 4d 3d 97 0f a5 bd 4c 74 f0 3c
       -0.065698475 0.050202485 -0.08059614 0.02935233
000280 13 d2 9d 3d fb db 4e 3d ef c3 f8 bc cb ea ab 3d
       0.07706084 0.05050276 -0.030366866 0.083943926
000290 79 df c0 3d 39 4f 26 bd c4 b3 9a bc 4f b7 bd 3c
       0.09417624 -0.040602896 -0.018884547 0.023158697
0002a0 aa 48 68 3b 06 48 a1 3d 77 9c b9 bd 5f c3 b8 bd
       0.0035443702 0.078750655 -0.090630464 -0.09021639
0002b0 9c 94 29 3d 22 24 4c bc 92 38 e8 bb 4c b2 a1 bd
       0.04140149 -0.012459787 -0.007086822 -0.078953356
0002c0 85 52 d5 3d d4 e2 57 bd 80 04 0f 3d ca ce 12 3b
       0.1041613 -0.052706555 0.0349164 0.0022401088
0002d0 fb e6 1d bd 86 d9 d9 3d 3e 8d 74 3d 4d 62 b6 3d
       -0.03855036 0.106371924 0.05970501 0.08905468
0002e0 39 61 57 bc 62 55 90 3d db 10 34 3d 47 e6 ed 3c
       -0.013145738 0.070475355 0.043961387 0.029040469
0002f0 de f9 17 bc 33 60 f8 3c 64 0a 7b bd 29 0b 2f bd
       -0.009275882 0.030319309 -0.061289206 -0.042735253
000300 e6 84 07 bd 09 d0 a1 bd 75 35 a6 bd dd 30 41 bd
       -0.033085726 -0.07901008 -0.08115665 -0.04716574
000310 52 92 50 bd 0b 7b de bb f7 e4 27 3c 49 d0 c2 bd
       -0.050920792 -0.00678957 0.010247461 -0.095123835
000320 38 45 07 bd 67 93 9f 3c 08 43 d0 bc 86 24 8d 3d
       -0.033024997 0.019479467 -0.025422588 0.06891732
000330 6e 81 94 3d 8f 14 3f 3d 0d 77 38 bc 62 1d d7 bd
       0.07251249 0.046650466 -0.011258853 -0.10503651
000340 04 0f 27 bd 11 d5 ca 3c 23 dc b8 3d 05 7f c0 3d
       -0.040785804 0.024759801 0.09026363 0.09399227
000350 b6 5b b1 3d 36 ee ca bd 17 9a 94 3d 3e a4 4a bd
       0.086600706 -0.099087164 0.07255953 -0.04947304
000360 02 ac 6c 3d 67 e6 8a 3d 9a c7 40 3d c9 bb 8b 3d
       0.057781227 0.06782227 0.047065355 0.068229266
000370 58 ff 96 3d 8b 00 80 3d be 32 41 3d 21 d8 b1 3c
       0.07372922 0.062501036 0.047167532 0.021709504
000380 3d fb ce bc 7e 7c b5 3c cf 86 dd bc 4d 57 d8 3d
       -0.025266284 0.022154089 -0.02704182 0.10563526
000390 aa 9a fd bc a3 ef aa bd 49 c1 8a 3d 2e f8 d0 bd
       -0.030957539 -0.08346488 0.067751475 -0.102035865
0003a0 1e f8 63 bc cb 2d b8 bd 34 2e a8 bc 76 cd 47 bc
       -0.013914136 -0.08993109 -0.020529844 -0.012194982
0003b0 02 dc 72 bc 9c b5 94 3c 21 66 41 3d 4f 18 a9 bb
       -0.014822962 0.018153004 0.04721654 -0.0051603685
0003c0 db 15 93 bd c6 57 b9 bd 85 46 1b bd 00 8a ff 3c
       -0.07181903 -0.090499446 -0.03790905 0.031193733
0003d0 04 9d 97 3d e9 20 07 bc 47 73 9d 3d 41 35 c0 3d
       0.07402995 -0.0082475925 0.07688003 0.093851574
0003e0 08 03 d1 3d 57 4e c7 3d 8b 94 fe 3c f1 1d e2 bc
       0.10205656 0.09731739 0.03107669 -0.027602168
0003f0 ff 8d ca 3d 1e 53 96 bc d9 d2 72 3c bb d7 35 3d
       0.09890365 -0.01835018 0.014820778 0.04439519

linear.0.bias f4 [16]
000000 04 ea f7 3a a7 7d b2 3d 6d ef 26 3d fb 48 63 3c
       0.0018914347 0.087153725 0.040755678 0.01387238
000010 fa e3 60 bd df a6 c0 3b 83 71 61 bd 0f 0a e1 3c
       -0.054904915 0.0058792676 -0.055039894 0.027470617
000020 8c 6c ba 3d 2d b5 98 3d 22 c7 36 bd 6a 1e 8a 3d
       0.09102735 0.074564315 -0.0446235 0.06744082
000030 4a 4f a7 3d 60 89 da 3d d0 d8 33 3c 4a 4c 27 bd
       0.0816942 0.106707335 0.010976985 -0.04084424

linear.1.weight f4 [64, 16]
000000 1a de 12 be b8 6f 8b bd 91 36 68 be 1c 40 bb 3d
       -0.14342538 -0.06808418 -0.22677065 0.09143087
000010 c0 12 64 3c 68 4a 79 3e ef e8 02 3e 05 4b 7f 3d
       0.013920486 0.2434479 0.1278417 0.062327404
000020 88 3f f1 3d 8e 8f c3 bd 7f ac 6d 3e be 22 50 be
       0.11779696 -0.09548865 0.23210333 -0.20325753
000030 13 ca f3 3d 37 57 20 be f0 7f 1a 3e 00 44 51 bd
       0.11903777 -0.1565827 0.15087867 -0.05109024
000040 44 60 a8 3d d0 fa 75 3e 9d 22 fa 3d 1a 84 2f 3e
       0.08221486 0.24021459 0.12213633 0.17140236
000050 b0 38 ac 3c e0 e8 a0 bc db 60 7c 3e ff 4f 63 be
       0.021023124 -0.019642293 0.24646322 -0.22198485
000060 88 72 02 bd 66 fe ed 3d 5e f5 93 bd ec 00 15 3d
       -0.031847507 0.11620788 -0.072245345 0.036377832
000070 87 ec 0c 3e f1 86 07 be 1d 84 8a 3d 9b 0d 62 bd
       0.13762103 -0.1323507 0.0676348 -0.055188756
000080 98 16 2e be a6 00 30 3e 7f d9 50 3d 6e a8 75 3e
       -0.17000806 0.17187747 0.05098867 0.23990032
000090 80 a7 66 3b 7c 89 93 3d 02 fa 2f 3e 18 a5 a9 bd
       0.0035195053 0.072039574 0.17185214 -0.08283442
0000a0 f8 f9 48 3e f3 2d 57 bd 64 ba 0a 3e d7 51 03 be
       0.19626606 -0.052534055 0.13547665 -0.12824188
0000b0 ed 4d 2d be ee e6 36 3d 9e f3 b2 3b 09 7d 3b 3e
       -0.16924258 0.044653825 0.0054611703 0.18309416
0000c0 b6 0e 6e be 84 02 d9 bd 26 92 65 be 7e 74 40 be
       -0.232478 -0.10596183 -0.22419032 -0.18794438
0000d0 14 b9 06 3e 76 18 00 3e 2e 52 e3 bd b4 ca d8 bd
       0.13156539 0.12509331 -0.11099659 -0.105855376
0000e0 68 02 13 3d 48 fb 94 bc 58 cb 74 be 16 b3 68 be
       0.035890967 -0.018186226 -0.23905694 -0.22724566
0000f0 ad 0d 10 3e 04 72 c8 3c 12 50 9a bd 61 72 0c 3e
       0.14067717 0.02446843 -0.075348035 0.13715507
000100 90 aa e3 bc 90 b1 05 3e 81 78 1b be 80 7e 45 3d
       -0.027791291 0.13056016 -0.15182687 0.048216343
000110 86 52 10 3e 22 51 2c be 6b ef 5e be 2d a1 49 be
       0.1409398 -0.16827825 -0.21771018 -0.1969039
000120 68 1a 24 3d 53 b5 bb 3d 4d 50 53 3e 18 94 69 be
       0.040064245 0.09165444 0.20636101 -0.228104
000130 35 79 64 be 77 4d de bc b4 a1 b8 bd 3e f8 4f 3e
       -0.22311862 -0.027136547 -0.090152174 0.2030954
000140 78 8e eb 3d d4 1f 89 3d 7a 2a c1 bb 18 38 22 3e
       0.11501783 0.06695524 -0.005894956 0.1584171
000150 00 cc 6b 3a 88 93 1f 3e 65 84 1a be b0 b6 a4 3c
       0.0008994937 0.15583622 -0.15089567 0.020106643
000160 5e c8 65 be 2d c2 1a be bb 5d 6e 3d cd ec 61 3e
       -0.22439715 -0.15113135 0.058194857 0.22062989
000170 b5 fe eb bd a6 07 40 3b fc e7 66 be 2f fc 3b bd
       -0.11523191 0.0029301434 -0.22549433 -0.045894798
000180 0c be a6 3d e6 f1 6e 3e 68 03 45 3e 58 2a ad bd
       0.08141717 0.23334464 0.1923958 -0.08455342
000190 00 c4 11 bb 10 04 1a 3e 61 ce bf bd 17 3e 24 be
       -0.002224207 0.15040612 -0.093655355 -0.1603931
0001a0 a0 aa 4e 3d 97 3b ab bd 59 1e 53 3e 2b b3 6b 3d
       0.05045569 -0.08360975 0.20617045 0.057543915
0001b0 37 8f 3c 3e f6 4d be 3d d0 29 5e 3e 2c 37 28 be
       0.18414007 0.092922136 0.21695638 -0.16427296
0001c0 a0 fb 35 3d ac 73 c2 3d 30 d9 56 be d2 2a 02 be
       0.04442942 0.09494719 -0.20981288 -0.12711647
0001d0 80 dd 4f 3e 40 4e c5 3d c8 ef 70 3e a2 c9 46 be
       0.2029934 0.09634066 0.2352897 -0.19412854
0001e0 86 2b 1a be fe 4a 7b 3e d1 54 5b be e6 e9 a1 3d
       -0.15055665 0.24540326 -0.21419074 0.07905941
0001f0 ae d9 71 be bf db 52 3e 83 07 6a be 65 5f e2 bd
       -0.23618194 0.20591639 -0.22854428 -0.11053351
000200 66 8d 49 be 40 3b f8 bb 8a ab 49 be 92 51 07 be
       -0.19682845 -0.0075754225 -0.19694343 -0.1321471
000210 a8 60 c0 bd a6 77 38 3e fc a4 47 3e c3 83 e6 3d
       -0.09393436 0.18014392 0.1949653 0.112556
000220 96 f4 66 3e 47 79 a6 3d 76 c9 79 be ca 49 29 3e
       0.2255424 0.081286006 -0.24393257 0.16532055
000230 c1 2b cd bd 7e 77 f4 3d f1 74 07 bd c7 55 02 3e
       -0.10018111 0.11936854 -0.03307051 0.12728034
000240 24 06 81 3d d4 e4 16 3e 75 b2 2a be 54 a8 35 be
       0.06299999 0.14735729 -0.16669638 -0.17739993
000250 62 fd 6c 3e c0 4e da bc b0 3d ef 3c 9d 33 00 3d
       0.23143533 -0.026648879 0.02920422 0.031299222
000260 e8 93 3d 3d 3b 48 18 3e 9b ed c5 3c 43 2f 3a bc
       0.046283633 0.14871304 0.02416115 -0.011363807
000270 d3 09 bb 3d 4e fc 5e 3a 79 71 5f be 53 85 17 3e
       0.09132733 0.0008506224 -0.2182063 0.14796953
000280 88 ba 31 3d 32 8c 78 be 56 57 0d be 28 2d 74 bd
       0.04339078 -0.2427223 -0.13802847 -0.059613377
000290 12 83 41 3e 9c 2f ec 3d 90 e5 6c be 74 e4 2f be
       0.18897656 0.11532518 -0.23134446 -0.17176992
0002a0 3c 68 57 be c6 8b 40 3e 93 03 7f be 2b 21 37 be
       -0.21035856 0.1880332 -0.24903707 -0.17883746
0002b0 e4 81 21 3e db 0e cb 3c d0 59 e5 bc 29 11 29 bc
       0.15772206 0.024787357 -0.027996927 -0.010319033
0002c0 e0 ed 4d 3e 80 97 2d bc 60 6a 04 be f0 af 8d bc
       0.20110273 -0.010595202 -0.12931204 -0.017295808
0002d0 10 24 fd 3c 88 c4 b7 bd a9 3c 2f be f2 7c fa 3d
       0.030900985 -0.08973032 -0.17112984 0.12230863
0002e0 00 61 d5 3c 3d 8d 41 3e 62 0c fb bd ef b8 a3 bd
       0.02604723 0.18901534 -0.12258221 -0.07994258
0002f0 f3 ec b5 bd e2 1a 03 3e 4a 1d 1f 3e bf 9f 50 bc
       -0.08883085 0.12803224 0.15538517 -0.012733399
000300 b4 d8 68 be 90 4b d8 bd 65 11 fd bd 58 db 30 bd
       -0.22738916 -0.105612874 -0.12356833 -0.043177933
000310 58 6a 74 be b8 2f 5f bd af 32 31 bc 69 73 03 bd
       -0.23868692 -0.054488868 -0.010815307 -0.032092486
000320 e2 87 3a be 24 c5 57 be 75 f3 5a bd 39 25 14 3d
       -0.18215898 -0.21071297 -0.053454835 0.03616831
000330 47 e4 14 bd 36 cb 58 be be 06 14 3d 0d 5f 35 3d
       -0.036350515 -0.21171269 0.036139242 0.0442801
000340 5c c8 50 be be 58 39 3e 86 2a 73 3e 7e 57 1f be
       -0.20388931 0.18100259 0.2374669 -0.1556072
000350 38 60 1f be a2 76 67 3e c2 97 bf bd 10 e1 1a 3e
       -0.15564048 0.22603849 -0.093551174 0.15124917
000360 c4 b7 b7 bd e2 b5 6b be ed 75 34 bd 66 12 6d 3e
       -0.089705974 -0.23018602 -0.044057775 0.2315155
000370 8c 96 e0 3c 2c b4 1b bd e5 ef 30 be 3f e3 38 be
       0.027415536 -0.038013622 -0.17279013 -0.18055438
000380 22 df 70 3e 20 f5 ec 3c 6d f7 7d 3e 68 9b a3 bd
       0.23522618 0.028925478 0.24801417 -0.07988626
000390 48 24 a1 bd 38 2b 3b 3e 3f 27 67 3e 8b 99 62 be
       -0.07868248 0.18278205 0.22573565 -0.22128884
0003a0 e8 6c df 3d 44 d0 c8 39 c4 4a 39 3e 1d 51 16 be
       0.10909444 0.00038302143 0.18094927 -0.1467938
0003b0 1b df 2f bd f3 52 e7 bc 64 1b 01 3e e3 5d 5c 3e
       -0.04293738 -0.028237795 0.12608105 0.2152019
0003c0 c4 e1 fb bd 44 52 41 be 10 31 0f be 80 65 ff bd
       -0.12298921 -0.18879038 -0.1398356 -0.124705315
0003d0 38 d9 09 3e 80 78 83 bd b3 df 26 bc ce 70 6d 3e
       0.13461769 -0.06419468 -0.01018517 0.23187563
0003e0 e2 3e 1b be 8b 1e 11 be c9 b7 02 be 7f 29 5a bc
       -0.15160707 -0.14171807 -0.12765421 -0.0133155575
0003f0 f8 d0 54 be bc e0 58 3d 07 da 7e 3e 31 a5 f1 bd
       -0.2078284 0.0529487 0.24887858 -0.11799086

linear.1.bias f4 [64]
000000 1f fa 4c 3e b1 6b 34 3e 72 7b 3b 3c 10 a7 d1 3b
       0.20017289 0.17619206 0.011443006 0.006398089
000010 ce 68 49 be 8e c2 04 be 9b 45 0a bc 44 12 67 3e
       -0.19668886 -0.12964842 -0.008439447 0.22565562
000020 4e 4f cf 3d 34 31 69 3e 6f 1e be 3d 95 85 4a 3e
       0.10122548 0.22772676 0.092831485 0.1977752
000030 56 32 31 bd e4 19 2b 3e 57 d4 84 bd 1a 98 53 3e
       -0.043260895 0.16709095 -0.06485813 0.20663491
000040 f3 30 75 3e fe 88 02 3e 52 4c 0d 3e d6 74 54 bb
       0.23944454 0.12747571 0.13798645 -0.0032418272
000050 9e 54 57 be 84 b5 8d bd ae 5d a2 bd 56 1d 91 3d
       -0.21028373 -0.06919387 -0.07928024 0.070856735
000060 46 b8 66 be dc 68 a2 bd 4d 9d 41 bd d5 eb 6f 3d
       -0.22531232 -0.079301566 -0.047269154 0.058574516
000070 18 d9 a4 bd c2 ad ec 3d db b3 5d be d0 fc 2f be
       -0.0804922 0.11556579 -0.2165064 -0.17186284
000080 9b 32 73 3d 69 89 08 3e 59 e3 0f be 70 0e 2d be
       0.059374433 0.13333668 -0.1405157 -0.16900039
000090 f5 3e f8 bd 7f 34 fe bb 69 d6 ae bc 00 69 69 3e
       -0.12121383 -0.007757723 -0.021342473 0.2279396
0000a0 f8 e5 fa bd 15 ff cb 3d 8b 3c 45 3b 9e b5 d6 3d
       -0.12250894 0.099607624 0.00300959 0.104838595
0000b0 9d f4 34 be cc 03 89 3d 5d 12 3f be 0b b7 6f be
       -0.17671438 0.06690177 -0.18659349 -0.23409669
0000c0 34 dc 5e 3e 80 80 bd bd 31 0f 7f bd b7 ae f0 3d
       0.21763688 -0.09253025 -0.062270347 0.11752074
0000d0 74 68 17 3e 60 db 98 3a d2 ec fa 3d bc 72 37 3e
       0.1478594 0.0011662059 0.12252201 0.17914861
0000e0 11 25 4d be fc 47 57 3e b1 28 9d 3d 04 43 57 3e
       -0.20033671 0.21023554 0.07673777 0.21021658
0000f0 ea c0 df 3d 6e c1 03 3e 79 7b 5f 3d f6 4c d9 3d
       0.10925467 0.12866756 0.054561112 0.10610382

linear.3.weight f4 [2, 64]
000000 88 02 74 3d 9c 8d fb 3d c0 a9 82 3d 38 6e bb bb
       0.059572726 0.12282869 0.063800335 -0.005719926
000010 2f 4e eb 3d 43 73 50 3d 23 6e 45 3d 46 4e df 3d
       0.11489522 0.050891172 0.048200738 0.10903601
000020 d8 24 ac bd a7 2f ed 3d ae 22 b9 3d ef e2 bb 3d
       -0.08405465 0.115813546 0.09039818 0.091741435
000030 b0 3f f4 3c 92 2f 69 3d 66 f2 c6 3d 95 fa 89 3d
       0.029815525 0.056930132 0.097142026 0.06737248
000040 89 9d 80 bd 73 84 a3 bd 63 c3 db 3d 47 d6 82 bd
       -0.062800474 -0.07984247 0.107306264 -0.063885264
000050 25 68 fd 3d 5f 55 58 bc 14 97 89 bd 27 57 8d 3d
       0.123733796 -0.013203948 -0.06718269 0.069013886
000060 b2 95 70 bd 6a 34 84 3c b9 e5 f1 3d 60 cd b5 3d
       -0.05873651 0.016138274 0.11811394 0.08877063
000070 ce f8 87 bd 64 b6 ad 3d 8a ba 47 3d aa 24 e1 bd
       -0.066392526 0.08482054 0.048761882 -0.10993321
000080 b9 30 63 3d 15 f4 e3 3d 9d e2 6f bd f6 3f 7b bd
       0.055466387 0.11130539 -0.058565725 -0.061340295
000090 b5 fc f9 bd 5a fa b5 bd ca c6 c5 3d 41 c8 7a 3c
       -0.12206403 -0.088856414 0.09657057 0.015306533
0000a0 eb ae 14 bd 96 37 6e 3d 6f 84 71 3c 88 bf d5 3d
       -0.036299627 0.05815848 0.014741047 0.10436922
0000b0 0f 63 f8 3d aa ad 9c 3d a9 8a f9 bd 7e a8 f6 bd
       0.12128269 0.07650311 -0.121846505 -0.12043856
0000c0 25 ab 9f 3d de 20 a3 3d 17 af 9e 3c 86 4e c0 bd
       0.07796315 0.07965253 0.019370599 -0.09389977
0000d0 15 78 1d bd de ec cf 3a c6 67 3b bd 29 f8 bc 3d
       -0.038444597 0.0015863439 -0.045753263 0.0922702
0000e0 92 1a db bd c6 b9 f8 3c 57 70 aa bd 48 4d fc bc
       -0.10698427 0.030362021 -0.083222084 -0.03079857
0000f0 69 4b 74 bd 6e 84 a0 3d 10 fc 71 bd 63 77 91 bd
       -0.05964223 0.07837759 -0.059078276 -0.07102849
000100 32 97 c5 3d 1a 89 ab 3d 86 61 05 bd 75 1e cb bd
       0.09647979 0.083757594 -0.03256371 -0.099179186
000110 fb 4d 67 3d b6 fa fd 3d 79 19 4e 3c 89 9d 44 3d
       0.056470852 0.12401335 0.012579315 0.0480018
000120 17 de 2f bd e5 28 bb bd ac ef be bc 93 bf d1 3d
       -0.04293641 -0.091386594 -0.023307644 0.10241618
000130 8d 06 5f bd 22 6a 54 bd 80 15 d1 3d d5 6e 46 bd
       -0.054449607 -0.05185903 0.10209179 -0.04844554
000140 f9 06 e1 3d 17 21 09 3d 99 4b ca bd 30 b3 af bc
       0.10987658 0.033478823 -0.098777 -0.021447748
000150 98 b1 c2 bc c5 79 d9 3d 77 af 2e bd 93 36 85 bd
       -0.023766324 0.10618929 -0.042647805 -0.0650455
000160 b6 24 f0 3d 0c e1 0e 3d 35 f1 d1 bd ec 22 93 3d
       0.11725752 0.03488259 -0.10251085 0.07184395
000170 7c ba c7 bd 4b 90 0c 3d 9f 37 6e 3c f8 69 6f 3d
       -0.09752366 0.034317296 0.014539628 0.05845067
000180 e7 0c a5 3c 28 88 13 3d b7 f9 7b bd 7c b6 f4 3b
       0.020147754 0.03601852 -0.061517444 0.007468043
000190 2b 03 13 bd a4 b3 ab 3c e8 1e ea bd be 1d a3 3d
       -0.035891693 0.020959683 -0.11431676 0.07964657
0001a0 b7 7b 39 3d 4f 25 8f bd 01 18 bd bd 8d ab 10 3c
       0.045284 -0.06989538 -0.09233094 0.008829963
0001b0 cf 3f c1 bd f7 08 f0 bc 6b 41 94 3d 0e 5f b5 bd
       -0.09435999 -0.02930115 0.0723904 -0.08856021
0001c0 f3 75 74 bd cc fb df bd 3b eb 71 bc 1a ed 81 3d
       -0.059682798 -0.10936698 -0.014765556 0.06344052
0001d0 bd 83 72 3d b2 a9 b6 3c 72 44 0e 3d b7 d1 8e bc
       0.059207667 0.022297714 0.034733243 -0.017433984
0001e0 7a 95 ac 3d 3b df 38 bc cf 2a e7 3c 04 f8 44 ba
       0.08426948 -0.011283691 0.028218655 -0.0007513764
0001f0 dd 84 b9 3d 9f b5 6e 3d d0 6e 93 3d b1 9c 83 bd
       0.09058545 0.058278676 0.0719887 -0.06426371

linear.3.bias f4 [2]
000000 16 c4 9a 3c 02 51 3b bc
       0.01889233 -0.011432888
