meta/demos/multiple_experiments/results/models/run_0/emodb_mlp_os_16-64_C_val-001_learning_rate-0-0001_0_009.model (torch, 13864 bytes, 6 tensors)

linear.0.weight f4 [16, 88]
0	0x3dc25641	0.09489108
1	0x3d9a1e9e	0.07525371
2	0x3dcda064	0.10040358
3	0x3cdb48a8	0.026768044
4	0x3d44cf05	0.04804899
5	0x3d0b3251	0.033983532
6	0x3db8fd1c	0.09032652
7	0xbb2afe29	-0.0026091433
8	0x3d8183d1	0.0632397
9	0x3d83b582	0.06431104
10	0x3d580b1b	0.052744966
11	0xbd2a5e53	-0.04159386
12	0x3cc31e6c	0.023818217
13	0xbd8d1d08	-0.06890303
14	0x3d90cf15	0.07070748
15	0xbd485350	-0.048907578
16	0x3dd89a13	0.10576262
17	0xbdab611e	-0.08368133
18	0x3d926854	0.07148805
19	0xbd11cb2c	-0.03559415
20	0xbd7f5f56	-0.06234678
21	0x3dbd5726	0.09245138
22	0x3d37a15f	0.04483163
23	0x3da5d67b	0.080975495
24	0x3d8d4eed	0.068998195
25	0xbc9175aa	-0.017756302
26	0x3d6f6822	0.05844892
27	0x3d203cca	0.039120473
28	0x3d03b6ae	0.03215664
29	0xbcdb23d3	-0.02675048
30	0x3d67ecca	0.056622304
31	0x3dab6d39	0.08370442
32	0xbdc0379e	-0.09385608
33	0x3d2a30dc	0.041550502
34	0xbd8a460c	-0.06751642
35	0xbd066fc1	-0.03282142
36	0x3d9e9bd5	0.07744566
37	0x3d88b8be	0.06675862
38	0xbd7523ce	-0.0598486
39	0xbcc0eafd	-0.023549551
40	0x3cf4f39c	0.029901318
41	0x3d46f2bc	0.048571333
42	0x3c0bab93	0.008524793
43	0xbc11ba57	-0.008894525
44	0xbcef7b92	-0.029233728
45	0x3c905941	0.017620685
46	0xbd85369d	-0.06504557
47	0xbdb14173	-0.086550616
48	0x3d60dc9f	0.0548979
49	0x3d310c7d	0.0432248
50	0x39d7ce47	0.00041161684
51	0x3d8e9746	0.06962447
52	0xbdc55cde	-0.09636854
53	0x3d979e06	0.074031875
54	0x3d963975	0.07335178
55	0x3d13284d	0.035927106
56	0xbcd25a51	-0.025677832
57	0xbdc5b551	-0.09653724
58	0xbd70d396	-0.058795534
59	0xbd7761cf	-0.060396012
60	0x3d528f53	0.051406216
61	0x3d292ffe	0.041305535
62	0xbd358a4e	-0.04432135
63	0x3d116521	0.035496835
64	0x3cd8391e	0.026394423
65	0xbda07648	-0.0783506
66	0x3d028bde	0.03187167
67	0x3c6a2340	0.014290631
68	0x3d847c6b	0.06469043
69	0xbcc11dbb	-0.023573747
70	0x3bc638a6	0.0060492335
71	0x3c694a1b	0.0142388595
72	0xbd2fc533	-0.042912673
73	0xbce2fc86	-0.027708303
74	0xbc43bb20	-0.01194647
75	0xbdb4f688	-0.088360846
76	0x3d470023	0.048584115
77	0xbd2bd463	-0.041950595
78	0x3b5b7b8f	0.0033490395
79	0x3d96549f	0.07340359
80	0x3d323dbd	0.04351591
81	0x3d80afd6	0.06283538
82	0x3d45064b	0.048101705
83	0x3d8de9d4	0.06929365
84	0xbdd8093a	-0.10548635
85	0xbda0f4e5	-0.0785921
86	0xbd554090	-0.052063525
87	0xbd218874	-0.039436772
88	0xbd73a15d	-0.05948006
89	0xbc5417ef	-0.012945159
90	0xbd670f24	-0.056410924
91	0x3d465b9d	0.048427213
92	0xbd2e06cc	-0.04248695
93	0xbda3a5e8	-0.079906285
94	0x3d7e0c30	0.06202334
95	0x3ccf8569	0.02533217
96	0xbccd1dbd	-0.025038594
97	0x3d9c9dc1	0.07647277
98	0x3c512c74	0.012766946
99	0xbd708f9d	-0.05873071
100	0xbd610e90	-0.05494553
101	0x3dc9afdd	0.098479964
102	0x3db93da5	0.09044961
103	0x3b8a28ef	0.0042163054
104	0x3db0fbf0	0.08641803
105	0xbc0cf269	-0.008602717
106	0xbd85c9ec	-0.06532654
107	0x3da21601	0.07914353
108	0xbda7e982	-0.08198835
109	0x3dc127a3	0.09431388
110	0x3dbb345d	0.09140847
111	0xbd0f312f	-0.034959015
112	0xbd2a9e8a	-0.0416551
113	0xbd8344c9	-0.06409604
114	0xbda64ed6	-0.081205055
115	0xbdd513fa	-0.10404201
116	0xbd3116bf	-0.043234583
117	0x3cc21fb4	0.023696758
118	0x3cc565b0	0.02409634
119	0x3ccf16a7	0.025279356
120	0xbd982f48	-0.07430893
121	0xbda04a51	-0.07826675
122	0xbc98f76e	-0.018672671
123	0xbb999695	-0.00468714
124	0xbd623395	-0.055224974
125	0x3d93144d	0.071816064
126	0xbd868dd9	-0.06570024
127	0x3c82d664	0.01597137
128	0x3cd43961	0.025906267
129	0xbd74f853	-0.059807133
130	0x3d1bdc0c	0.03805165
131	0x3d8f0cbf	0.06984853
132	0xbcc83722	-0.024440352
133	0x3d9e27ab	0.0772241
134	0xbcacdf91	-0.021102699
135	0xbc798bad	-0.015231055
136	0xbcc7616d	-0.024338448
137	0xbc2b3102	-0.010448696
138	0x3d930fe9	0.07180769
139	0x3d8eab07	0.069662146
140	0xbd805acb	-0.062673174
141	0x3d55170b	0.05202393
142	0xbd953718	-0.07285899
143	0xbdcd00cc	-0.100099176
144	0x3d1d45eb	0.038396757
145	0xbc399ce6	-0.011328911
146	0x3ba861e1	0.005138621
147	0xbd67a19f	-0.05655062
148	0xbd4d5a9b	-0.050135236
149	0x3d5361b7	0.05160686
150	0x3d5f4580	0.05450964
151	0x3dd28cf0	0.10280788
152	0x3d02deca	0.03195075
153	0x3c6c3e10	0.014419094
154	0xbd238493	-0.039921355
155	0x3beea082	0.0072823176
156	0xbd868cec	-0.065698475
157	0x3d4da11f	0.050202485
158	0xbda50f97	-0.08059614
159	0x3cf0744c	0.02935233
160	0x3d9dd213	0.07706084
161	0x3d4edbfb	0.05050276
162	0xbcf8c3ef	-0.030366866
163	0x3dabeacb	0.083943926
164	0x3dc0df79	0.09417624
165	0xbd264f39	-0.040602896
166	0xbc9ab3c4	-0.018884547
167	0x3cbdb74f	0.023158697
168	0x3b6848aa	0.0035443702
169	0x3da14806	0.078750655
170	0xbdb99c77	-0.090630464
171	0xbdb8c35f	-0.09021639
172	0x3d29949c	0.04140149
173	0xbc4c2422	-0.012459787
174	0xbbe83892	-0.007086822
175	0xbda1b24c	-0.078953356
176	0x3dd4fc1f	0.10399651
177	0xbd5786f7	-0.052618947
178	0x3d0dba86	0.03460171
179	0x3b0aacd3	0.002116014
180	0xbd1e50e2	-0.038651355
181	0x3ddbd138	0.10733265
182	0x3d68647e	0.05673646
183	0x3dafe9e6	0.085895345
184	0xbc9010bc	-0.017586105
185	0x3d8640b3	0.06555309
186	0x3d345822	0.044029362
187	0x3ce67abb	0.028134694
188	0xbc06732b	-0.008206169
189	0x3cfed668	0.031108096
190	0xbd7b05d9	-0.061284874
191	0xbd2fdd66	-0.04293575
192	0xbd093c21	-0.03350461
193	0xbda33d58	-0.07970685
194	0xbda6325b	-0.08115073
195	0xbd41b186	-0.04728844
196	0xbd4d5a9d	-0.050135244
197	0xbc048150	-0.008087471
198	0x3c519896	0.012792727
199	0xbdc889f0	-0.097919345
200	0xbccd99e5	-0.025097797
201	0x3c96bebd	0.018401498
202	0xbcc8a8ee	-0.024494614
203	0x3d902176	0.07037632
204	0x3d9c6525	0.07636479
205	0x3d4ce3ca	0.050021924
206	0xbc473438	-0.012158446
207	0xbdd5d983	-0.10441878
208	0xbd2960c6	-0.041352056
209	0x3ccf60d9	0.025314735
210	0x3dbd071b	0.09229871
211	0x3dbad642	0.09122898
212	0x3db2ad2f	0.087244384
213	0xbdcc2bb9	-0.09969277
214	0x3d98de8d	0.07464323
215	0xbd53cf47	-0.051711347
216	0x3d683d88	0.056699306
217	0x3d8bba68	0.068226635
218	0x3d41c799	0.04730949
219	0x3d893033	0.066986464
220	0x3d97d967	0.07414513
221	0x3d80071e	0.062513575
222	0x3d3f577c	0.04671429
223	0x3cb2f110	0.021843463
224	0xbccf1772	-0.025279734
225	0x3cafa1e2	0.021439496
226	0xbcdb9aa1	-0.026807131
227	0x3dd92a67	0.10603791
228	0xbcff4691	-0.031161578
229	0xbdaa769c	-0.08323404
230	0x3d8a2750	0.067457795
231	0xbdd08f74	-0.101836115
232	0xbc61ce44	-0.013782088
233	0xbdb6e775	-0.08930866
234	0xbcc7bda8	-0.024382427
235	0xbc0e59aa	-0.00868837
236	0xbc53599a	-0.012899781
237	0x3c863267	0.016381456
238	0x3d367ccf	0.04455262
239	0xbb98934b	-0.0046562306
240	0xbd9ef63c	-0.07761809
241	0xbdb3b536	-0.087747976
242	0xbd19fc89	-0.037594352
243	0x3cf52385	0.029924164
244	0x3d9b38cb	0.07579192
245	0xbc0972ce	-0.008389188
246	0x3daa8721	0.08326555
247	0x3dbfddda	0.09368487
248	0x3dd14ba5	0.10219506
249	0x3dc921b7	0.09820884
250	0x3d0af922	0.033928998
251	0xbce0f155	-0.027458826
252	0x3dc05fc9	0.093932696
253	0xbc839459	-0.016061949
254	0x3bc8593d	0.0061141537
255	0x3d298ab4	0.041392043

linear.0.bias f4 [16]
0	0x3af7ea04	0.0018914347
1	0x3db27da7	0.087153725
2	0x3d26761b	0.040639978
3	0x3c6348fb	0.01387238
4	0xbd60e3fa	-0.054904915
5	0x3bc0a6df	0.0058792676
6	0xbd622160	-0.05520761
7	0x3ce0e112	0.027451072
8	0x3dba6c8c	0.09102735
9	0x3d95bebd	0.07311771
10	0xbd38b642	-0.04509569
11	0x3d8dd204	0.06924823
12	0x3dab1894	0.08354297
13	0x3ddaa7b5	0.10676519
14	0x3c316bd0	0.010828927
15	0xbd298144	-0.041383043

linear.1.weight f4 [64, 16]
0	0xbe12de1a	-0.14342538
1	0xbd8b6fb8	-0.06808418
2	0xbe694246	-0.22779188
3	0x3dbb401c	0.09143087
4	0x3c6412c0	0.013920486
5	0x3e794a68	0.2434479
6	0x3e02dfb5	0.1278065
7	0x3d7d2b1e	0.061808698
8	0x3df13f88	0.11779696
9	0xbdbc14a6	-0.09183626
10	0x3e6d7804	0.23190314
11	0xbe4e37f5	-0.20138533
12	0x3df78a0d	0.12086878
13	0xbe1fa784	-0.15591246
14	0x3e1ae09c	0.15124744
15	0xbd4bc950	-0.049752533
16	0x3da86044	0.08221486
17	0x3e75fad0	0.24021459
18	0x3dfc1e7a	0.123105004
19	0x3e2f841a	0.17140236
20	0x3cac38b0	0.021023124
21	0xbca0e8e0	-0.019642293
22	0x3e7c5f9c	0.24645847
23	0xbe62d3df	-0.22151135
24	0xbd027288	-0.031847507
25	0x3de6ab1b	0.112631045
26	0xbd93a219	-0.07208652
27	0x3d0d6210	0.034517348
28	0x3e0b0fa5	0.13580187
29	0xbe083e22	-0.13304952
30	0x3d89b1da	0.067233756
31	0xbd67948f	-0.05653816
32	0xbe2e1698	-0.17000806
33	0x3e3000a6	0.17187747
34	0x3d54e831	0.051979247
35	0x3e75a86e	0.23990032
36	0x3b66a780	0.0035195053
37	0x3d93897c	0.072039574
38	0x3e2ffbb8	0.17185867
39	0xbda8a4a8	-0.08234531
40	0x3e48f9f8	0.19626606
41	0xbd660d57	-0.056165066
42	0x3e0ae74e	0.13564798
43	0xbe053c51	-0.1301129
44	0xbe2f2da5	-0.17107256
45	0x3d340d73	0.04395814
46	0x3ba600a7	0.0050659957
47	0x3e3a1ad1	0.18174292
48	0xbe6e0eb6	-0.232478
49	0xbdd90284	-0.10596183
50	0xbe648afc	-0.22318643
51	0xbe40747e	-0.18794438
52	0x3e06b914	0.13156539
53	0x3e001876	0.12509331
54	0xbde3469a	-0.110974506
55	0xbdd7c288	-0.10535151
56	0x3d130268	0.035890967
57	0xbcb2b1a6	-0.021813225
58	0xbe749a69	-0.23887028
59	0xbe6a9ce4	-0.22911412
60	0x3e0e2ea7	0.13884984
61	0x3cc2e0e5	0.023788879
62	0xbd9b16ef	-0.075727336
63	0x3e0b12af	0.13581346
64	0xbce3aa90	-0.027791291
65	0x3e05b190	0.13056016
66	0xbe1a6fe8	-0.15081751
67	0x3d457e80	0.048216343
68	0x3e105286	0.1409398
69	0xbe2c5122	-0.16827825
70	0xbe5ee84e	-0.21768305
71	0xbe491bbb	-0.19639485
72	0x3d241a68	0.040064245
73	0x3db445b6	0.08802359
74	0x3e538286	0.2065526
75	0xbe6b7dfb	-0.22997276
76	0xbe665849	-0.22494616
77	0xbce3d54a	-0.027811665
78	0xbdb9662b	-0.0905269
79	0x3e4e9930	0.20175624
80	0x3deb8e78	0.11501783
81	0x3d891fd4	0.06695524
82	0xbbe16ed9	-0.006879669
83	0x3e223818	0.1584171
84	0x3a6bcc00	0.0008994937
85	0x3e1f9388	0.15583622
86	0xbe1a855a	-0.15089932
87	0x3ca0bd92	0.019621644
88	0xbe65c85e	-0.22439715
89	0xbe170e55	-0.14751561
90	0x3d6dad70	0.05802673
91	0x3e63d691	0.2224982
92	0xbde840cb	-0.11340483
93	0x3b6da9ac	0.0036264462
94	0xbe668008	-0.22509778
95	0xbd3673dc	-0.044544086
96	0x3da6be0c	0.08141717
97	0x3e6ef1e6	0.23334464
98	0x3e4601d0	0.19336629
99	0xbdad2a58	-0.08455342
100	0xbb11c400	-0.002224207
101	0x3e1a0410	0.15040612
102	0xbdbfd143	-0.093660854
103	0xbe23c1dc	-0.1599192
104	0x3d4eaaa0	0.05045569
105	0xbdb29388	-0.087195456
106	0x3e5347d2	0.20632866
107	0x3d641088	0.055679828
108	0x3e3ab160	0.18231726
109	0x3dbcde46	0.09222083
110	0x3e5dc031	0.21655346
111	0xbe299987	-0.16562472
112	0x3d35fba0	0.04442942
113	0x3dc273ac	0.09494719
114	0xbe55d61e	-0.2088246
115	0xbe022ad2	-0.12711647
116	0x3e4fdd80	0.2029934
117	0x3dc54e40	0.09634066
118	0x3e70f5fb	0.23531334
119	0xbe4646ff	-0.1936302
120	0xbe1a2b86	-0.15055665
121	0x3e77a90f	0.24185584
122	0xbe5b2412	-0.21400478
123	0x3d9e1f39	0.07720799
124	0xbe73b421	-0.23799182
125	0x3e522d13	0.20525007
126	0xbe6a6863	-0.22891383
127	0xbde51867	-0.11186295
128	0xbe498d66	-0.19682845
129	0xbbf83b40	-0.0075754225
130	0xbe4ab9b6	-0.19797406
131	0xbe075192	-0.1321471
132	0xbdc060a8	-0.09393436
133	0x3e3877a6	0.18014392
134	0x3e479c2c	0.19493169
135	0x3de57243	0.11203434
136	0x3e66f496	0.2255424
137	0x3dae0e75	0.08498851
138	0xbe79fdd7	-0.24413238
139	0x3e2b3780	0.1672039
140	0xbdc965d4	-0.09833875
141	0x3df5db8e	0.12004767
142	0xbd05eb51	-0.03269512
143	0x3e03b687	0.12862597
144	0x3d810624	0.06299999
145	0x3e16e4d4	0.14735729
146	0xbe29ac9f	-0.16569756
147	0xbe35a854	-0.17739993
148	0x3e6cfd62	0.23143533
149	0xbcda4ec0	-0.026648879
150	0x3cef62ae	0.029221859
151	0x3d023efb	0.031798344
152	0x3d3d93e8	0.046283633
153	0x3e1492b0	0.14509082
154	0x3cc76b6a	0.024343211
155	0xbc58c9e8	-0.013231732
156	0x3db74c1a	0.08950062
157	0x392f766c	0.00016733416
158	0xbe5fd5ee	-0.21858951
159	0x3e162524	0.14662606
160	0x3d31ba88	0.04339078
161	0xbe788c32	-0.2427223
162	0xbe0c5032	-0.13702467
163	0xbd742d28	-0.059613377
164	0x3e418312	0.18897656
165	0x3dec2f9c	0.11532518
166	0xbe6ce01e	-0.23132369
167	0xbe2f609e	-0.171267
168	0xbe57683c	-0.21035856
169	0x3e3cd3be	0.18440148
170	0xbe7ed2f7	-0.24885164
171	0xbe390b50	-0.18070722
172	0x3e1fa28b	0.15589349
173	0x3cc5797c	0.02410578
174	0xbce87909	-0.028378027
175	0xbc3f12a2	-0.011662157
176	0x3e4dede0	0.20110273
177	0xbc2d9780	-0.010595202
178	0xbe056f76	-0.130308
179	0xbc8daff0	-0.017295808
180	0x3cfd2410	0.030900985
181	0xbdb7c488	-0.08973032
182	0xbe2f3155	-0.17108662
183	0x3df98ab1	0.121846564
184	0x3cd56100	0.02604723
185	0x3e45838c	0.19288462
186	0xbdfb4fe1	-0.12271095
187	0xbd9fc8ac	-0.07801947
188	0xbdb211b2	-0.08694781
189	0x3e03e755	0.12881215
190	0x3e1f9847	0.15585433
191	0xbc398319	-0.01132276
192	0xbe68d8b4	-0.22738916
193	0xbdd84b90	-0.105612874
194	0xbdfb0071	-0.122559436
195	0xbd30db58	-0.043177933
196	0xbe746a58	-0.23868692
197	0xbd5f2fb8	-0.054488868
198	0xbc30d0ca	-0.010791967
199	0xbd01602a	-0.03158585
200	0xbe3a87e2	-0.18215898
201	0xbe5b80a4	-0.21435791
202	0xbd5a2e11	-0.05326659
203	0x3d0c7a28	0.034296185
204	0xbd1c642f	-0.03818148
205	0xbe597db5	-0.2123936
206	0x3d127867	0.035759356
207	0x3d2fde65	0.0429367
208	0xbe50c85c	-0.20388931
209	0x3e3958be	0.18100259
210	0x3e743812	0.23849514
211	0xbe1f577e	-0.1556072
212	0xbe1f6038	-0.15564048
213	0x3e6776a2	0.22603849
214	0xbdbf8d78	-0.09353155
215	0x3e1b676f	0.15176176
216	0xbdb7b7c4	-0.089705974
217	0xbe6f8d8b	-0.23393838
218	0xbd33b14b	-0.04387025
219	0x3e6b2187	0.22962008
220	0x3cd164fb	0.025560847
221	0xbd1e9275	-0.03871389
222	0xbe315726	-0.173184
223	0xbe3a4839	-0.18191613
224	0x3e70df22	0.23522618
225	0x3cecf520	0.028925478
226	0x3e7cc662	0.24685052
227	0xbda39b68	-0.07988626
228	0xbda12448	-0.07868248
229	0x3e3b2b38	0.18278205
230	0x3e66fc5f	0.2255721
231	0xbe6344c4	-0.22194201
232	0x3ddf6ce8	0.10909444
233	0x3b883054	0.004156152
234	0x3e38f480	0.1806202
235	0xbe14623c	-0.14490598
236	0xbd284eac	-0.041090652
237	0xbce2bc93	-0.02767781
238	0x3e015d92	0.1263335
239	0x3e5dae10	0.21648431
240	0xbdfbe1c4	-0.12298921
241	0xbe415244	-0.18879038
242	0xbe0e2c5d	-0.13884111
243	0xbdff6580	-0.124705315
244	0x3e09d938	0.13461769
245	0xbd837880	-0.06419468
246	0xbc26bf93	-0.010177511
247	0x3e6df1a6	0.23236713
248	0xbe1b3ee2	-0.15160707
249	0xbe14d9eb	-0.14536254
250	0xbe028a79	-0.12748136
251	0xbc78de5e	-0.015189735
252	0xbe56b180	-0.20966148
253	0x3d560666	0.052252196
254	0x3e7e7263	0.24848323
255	0xbdf46a6b	-0.1193436

linear.1.bias f4 [64]
0	0x3e4d0ba2	0.20023969
1	0x3e345099	0.1760887
2	0x3c39ef18	0.011348508
3	0x3bcf127e	0.006319343
4	0xbe497c31	-0.19676282
5	0xbe04a936	-0.12955174
6	0xbc0bfbb4	-0.008543897
7	0x3e66fef9	0.22558202
8	0x3dcf745b	0.10129615
9	0x3e691b72	0.22764376
10	0x3dbdf45b	0.09275123
11	0x3e4aae46	0.19793043
12	0xbd31847a	-0.04333923
13	0x3e2b0334	0.1670044
14	0xbd84f1b5	-0.064914145
15	0x3e537f78	0.20654094
16	0x3e754899	0.23953475
17	0x3e02a0a4	0.12756592
18	0x3e0d3493	0.13789587
19	0xbb4d8569	-0.0031360036
20	0xbe576cd0	-0.21037602
21	0xbd8d84be	-0.06910084
22	0xbda240af	-0.07922494
23	0x3d90f29f	0.07077526
24	0xbe66a260	-0.22522879
25	0xbda22513	-0.079172276
26	0xbd41f54b	-0.04735307
27	0x3d6f7dfb	0.058469754
28	0xbda4fa7b	-0.08055588
29	0x3dec880c	0.115493864
30	0xbe5dcf1a	-0.21661034
31	0xbe2fe4cc	-0.17177123
32	0x3d72c0d3	0.059265923
33	0x3e087095	0.13324197
34	0xbe103b53	-0.1408513
35	0xbe2cf4d9	-0.16890277
36	0xbdf80e31	-0.12112082
37	0xbbfb1e6e	-0.0076635396
38	0xbcaf8625	-0.02142627
39	0x3e698109	0.2280313
40	0xbdfabd2c	-0.12243113
41	0x3dcbd30c	0.09952363
42	0x3b400667	0.002930069
43	0x3dd68bcf	0.10475885
44	0xbe350c43	-0.17680459
45	0x3d88d882	0.066819206
46	0xbe3efab8	-0.18650329
47	0xbe6f9d47	-0.2339984
48	0x3e5ec3f3	0.21754436
49	0xbdbdac84	-0.0926142
50	0xbd7f52df	-0.06233489
51	0x3df0d9e9	0.11760313
52	0x3e177d12	0.14793804
53	0x3aa965a8	0.0012923973
54	0x3dfb1f7c	0.122618645
55	0x3e375dca	0.17906871
56	0xbe4d0f59	-0.20025386
57	0x3e572cb2	0.21013144
58	0x3d9d59b1	0.07683123
59	0x3e57539c	0.21027988
60	0x3ddfec19	0.10933704
61	0x3e03b49f	0.1286187
62	0x3d5fdcdf	0.054654
63	0x3dd9af8f	0.10629188

linear.3.weight f4 [2, 64]
0	0x3d73df8d	0.059539367
1	0x3dfa9931	0.1223625
2	0x3d82aacd	0.06380234
3	0xbbc8d7a5	-0.0061292225
4	0x3deacb8b	0.11464604
5	0x3d51da08	0.05123332
6	0x3d43e49b	0.047825437
7	0x3ddb88cb	0.107194506
8	0xbdad7c88	-0.08471018
9	0x3deb4297	0.114873104
10	0x3db86e9b	0.09005471
11	0x3db95d02	0.09050943
12	0x3cf501f4	0.029908158
13	0x3d77cf4a	0.06050042
14	0x3dc6e871	0.097123034
15	0x3d8a7b19	0.0676176
16	0xbd796de4	-0.060895815
17	0xbd9e40bd	-0.077271916
18	0x3ddbddc8	0.10735661
19	0xbd8400eb	-0.064454876
20	0x3e00bef5	0.12572844
21	0xbc5b82a3	-0.013397845
22	0xbd88809b	-0.066651545
23	0x3d8d139f	0.06888508
24	0xbd7297de	-0.059226863
25	0x3c6ccd9d	0.014453319
26	0x3df271ff	0.11838149
27	0x3db166c1	0.08662177
28	0xbd885262	-0.06656338
29	0x3dad519d	0.08462832
30	0x3d450e1b	0.048109155
31	0xbde1e5c3	-0.11030152
32	0x3d651f33	0.055937957
33	0x3de18b23	0.11012866
34	0xbd6f2ab8	-0.05839035
35	0xbd7b9079	-0.061417077
36	0xbdf73c4d	-0.12072048
37	0xbdba1781	-0.09086514
38	0x3dc642b9	0.09680695
39	0x3c9016c3	0.017588979
40	0xbd137398	-0.03599891
41	0x3d62b1e4	0.05534543
42	0x3c5e1110	0.013553873
43	0x3dd67159	0.10470838
44	0x3df7758c	0.12082967
45	0x3da04a16	0.07826631
46	0xbdf7e401	-0.12104035
47	0xbdf1adb1	-0.11800707
48	0x3da056bc	0.07829043
49	0x3da3c29c	0.07996103
50	0x3c9bacd7	0.019003315
51	0xbdc08e7a	-0.09402175
52	0xbd16aaa2	-0.036783822
53	0x3a188a74	0.0005818971
54	0xbd3cd7cf	-0.04610425
55	0x3dbabb1f	0.09117722
56	0xbdda0289	-0.10645015
57	0x3cf8371b	0.030299714
58	0xbda9f07d	-0.082978226
59	0xbd003a43	-0.031305563
60	0xbd750075	-0.05981489
61	0x3d9fd41a	0.07804127
62	0xbd733840	-0.059379816
63	0xbd962718	-0.07331675
64	0x3dc5a8b2	0.09651317
65	0x3dac7d85	0.084223785
66	0xbd0563a0	-0.032565713
67	0xbdca47e2	-0.09876992
68	0x3d68533d	0.056720007
69	0x3dfd475b	0.123671256
70	0x3c543f94	0.012954611
71	0x3d4c2886	0.049843334
72	0xbd2d2eb6	-0.042280875
73	0xbdb93bd5	-0.09044615
74	0xbcbc1f73	-0.022964215
75	0x3dd44580	0.103648186
76	0xbd5f67a9	-0.054542217
77	0xbd6309da	-0.055429317
78	0x3dd11f75	0.10211078
79	0xbd476fdc	-0.04869066
80	0x3ddd2060	0.10797191
81	0x3cfd3359	0.030908274
82	0xbdca65fe	-0.09882735
83	0xbcab0895	-0.020878116
84	0xbcd308a7	-0.025760962
85	0x3dd9df74	0.106383234
86	0xbd30dc7c	-0.04317902
87	0xbd84f30b	-0.06491669
88	0x3df125c9	0.11774785
89	0x3d15c7d8	0.03656754
90	0xbdd27d7b	-0.1027784
91	0x3d97898b	0.07399281
92	0xbdc760e8	-0.0973528
93	0x3d0d59d7	0.034509506
94	0x3c78e970	0.015192375
95	0x3d70ec23	0.058818948
96	0x3ca12ff3	0.019676184
97	0x3d185a0e	0.037195258
98	0xbd7cb19c	-0.06169282
99	0x3bf73a74	0.00754481
100	0xbd1883fd	-0.03723525
101	0x3cbc2835	0.022968391
102	0xbdea9ad7	-0.114553146
103	0x3d9e7116	0.07736413
104	0x3d384064	0.044983283
105	0xbd896273	-0.06708231
106	0xbdbaa996	-0.09114377
107	0x3c0b1d15	0.00849082
108	0xbdc0524c	-0.09390697
109	0xbcfe7aa8	-0.031064346
110	0x3d929ac3	0.07158425
111	0xbdba59db	-0.0909917
112	0xbd75cd29	-0.06001011
113	0xbde09d8a	-0.10967548
114	0xbc6be6b2	-0.014398264
115	0x3d822d0e	0.0635625
116	0x3d6bb64a	0.05754689
117	0x3cbee42c	0.02330216
118	0x3d0fb47b	0.03508423
119	0xbc85dd92	-0.016341005
120	0x3dab7d71	0.083735354
121	0xbc37d9df	-0.011221378
122	0x3ce52b50	0.027974755
123	0xb980216d	-0.00024438967
124	0x3db9df5f	0.09075808
125	0x3d70163d	0.058614958
126	0x3d940ced	0.07229028
127	0xbd7dd9fa	-0.061975457

linear.3.bias f4 [2]
0	0x3c9a0d9d	0.01880532
1	0xbc39e410	-0.011345878
