meta/demos/multiple_experiments/results/models/run_0/emodb_mlp_praat_16-64_C_val-001_learning_rate-0-0001_0_003.model (torch, 10758 bytes, 6 tensors)

linear.0.weight f4 [16, 39]
0	0x3e2131f3	0.1574171
1	0x3ddd63f7	0.108100824
2	0xbe13e673	-0.14443378
3	0x3c0b04b9	0.008485013
4	0x3dc292fc	0.09500691
5	0x3d6c73be	0.057727568
6	0x3e1d5e17	0.15367924
7	0x3defef4c	0.11715564
8	0xbe1d922e	-0.15387794
9	0x3d96e0b3	0.07367077
10	0xbc85a1bd	-0.016312474
11	0xbaba7070	-0.0014224183
12	0xbd40f16e	-0.047105245
13	0xbda5532e	-0.08072506
14	0xbe1ea627	-0.1549307
15	0x3d9bfa18	0.07616061
16	0xbe02d3f8	-0.12776172
17	0xbe125498	-0.14290082
18	0x3dd1b96b	0.10240444
19	0xbe1636eb	-0.14669387
20	0x3c32d184	0.01091421
21	0xbdb3e98a	-0.087847784
22	0xbe1c1463	-0.15242152
23	0x3cf20376	0.029542666
24	0xbd053059	-0.03251681
25	0x3d7769bf	0.06040358
26	0x3dd3513e	0.1031823
27	0xbdeb55f4	-0.11491004
28	0xbd3a75d7	-0.045522537
29	0x3c7cf32f	0.015438839
30	0xbe109bf9	-0.14121999
31	0xbd59d3f7	-0.05318066
32	0x3d5fbe7a	0.054625012
33	0xbe19396e	-0.14963314
34	0xbe069f71	-0.1314676
35	0xbe0f743b	-0.14009182
36	0xbd3ff6d4	-0.046866253
37	0x3dc1416c	0.09436306
38	0xbe000530	-0.12501979
39	0x3dd373b9	0.10324807
40	0xbdba6b4f	-0.09102499
41	0x3af72791	0.0018856396
42	0xbd0e17e7	-0.034690764
43	0xbe0b989b	-0.13632433
44	0xbe18d5c9	-0.14925303
45	0xbe1889da	-0.14896336
46	0x3e13188c	0.14364833
47	0x3d3e6aab	0.046488445
48	0x3d01db71	0.031703416
49	0xbe0da2ee	-0.13831684
50	0xbdf115b6	-0.11771719
51	0xbdd50178	-0.10400671
52	0x3db3967c	0.08768937
53	0xbd774c14	-0.060375288
54	0xbd387f1b	-0.045043092
55	0x3de2333f	0.11044931
56	0xbbf98b45	-0.007615479
57	0x3d08116d	0.033219744
58	0xbdd0f536	-0.1020302
59	0x3dd9231b	0.10602399
60	0x3d287f6b	0.04113714
61	0x3d18ea25	0.037332673
62	0xbe1742c2	-0.1477156
63	0x3de7af97	0.11312788
64	0x3c9cc53b	0.019137016
65	0x3d9579f2	0.0729865
66	0x3e158ec5	0.14605244
67	0xbde160b8	-0.11004776
68	0x3deb65af	0.11494004
69	0x3e1fd00d	0.15606709
70	0x3dcf3b89	0.10118777
71	0x3e1f484e	0.15554926
72	0xbe090d90	-0.1338408
73	0x3df2b749	0.11851365
74	0x3da9ce76	0.082913324
75	0xbde96e70	-0.113980174
76	0xbc1f385a	-0.009718025
77	0x3d290f68	0.04127446
78	0xbc679bda	-0.014136279
79	0x3de6107c	0.11233613
80	0xbdeb5db8	-0.11492485
81	0x3dd66029	0.1046756
82	0x3de09f1c	0.10967848
83	0xbe1f830d	-0.15577336
84	0x3dd4c075	0.10388271
85	0xbcf0e8b7	-0.029407842
86	0xbe2148da	-0.15750447
87	0x3d4abe9e	0.049498193
88	0xbd111cf3	-0.035428
89	0x3dd8a2b1	0.10577906
90	0x3d7f36e3	0.062308203
91	0x3d75881f	0.05994427
92	0xbe15e282	-0.14637187
93	0xbd57d8ae	-0.052696876
94	0x3d079d39	0.033108924
95	0x3c2c1437	0.0105028665
96	0xbe1d1f06	-0.15343866
97	0xba4418d0	-0.0007480504
98	0x3d0b97c2	0.034080274
99	0xbd89573f	-0.06706094
100	0x3c852d67	0.016257001
101	0xbded42b8	-0.11584991
102	0x3d52c786	0.05145981
103	0xbdf5fd01	-0.12011147
104	0xbe09ec82	-0.13469127
105	0x3dee8794	0.11646953
106	0x3e09c9dc	0.1345591
107	0x3d9776da	0.07395716
108	0xbe13ddd5	-0.14440091
109	0xbcb4e476	-0.022081595
110	0xbda1f3f3	-0.07907858
111	0x3d35d6d5	0.044394333
112	0x3d13ba01	0.03606606
113	0xbc21b817	-0.009870551
114	0xbdfd067a	-0.12354751
115	0x3d924caa	0.07143529
116	0x3b3b46b0	0.0028576069
117	0xbe0c8d60	-0.13725805
118	0xbe0bf447	-0.13667403
119	0x3d77c165	0.06048717
120	0x3c8f7d23	0.017515725
121	0x3e1dfe64	0.15429074
122	0x3dad60eb	0.08465751
123	0xbc57f666	-0.013181305
124	0xbdbef006	-0.093231246
125	0x3e06dbfb	0.13169853
126	0xbd9cc237	-0.07654231
127	0xbd071d19	-0.032986734
128	0xbdb4859e	-0.08814548
129	0x3c07e3e3	0.0082940785
130	0x3dfca87d	0.12336824
131	0xbe099871	-0.13437058
132	0xbd9f9268	-0.07791597
133	0x3dcbe257	0.0995528
134	0x3c516554	0.012780506
135	0xbc82724e	-0.015923645
136	0x3e1b3c4b	0.15159719
137	0xbd861973	-0.06547823
138	0x3d6a3273	0.05717702
139	0x3c601247	0.013676233
140	0x3d85a10a	0.065248564
141	0xbdd2cb48	-0.10292679
142	0xba81a6a8	-0.0009891586
143	0x3da581db	0.080814086
144	0xbdfac88b	-0.12245282
145	0x3d1446ed	0.036200453
146	0xbd8b1c58	-0.067925155
147	0x3cff6fe7	0.031181289
148	0x3df6c96c	0.12050137
149	0x3e102410	0.14076257
150	0xbd1be41f	-0.03805935
151	0xbded103c	-0.11575362
152	0xbe124473	-0.14283924
153	0xbd8d9a7e	-0.06914233
154	0x3ddf9b6e	0.10918318
155	0x3e213cf9	0.15745915
156	0x3db5592a	0.08854897
157	0xbdafabf8	-0.08577722
158	0xbdc8050c	-0.097665876
159	0x3d22ff27	0.039794113
160	0xbd05c5aa	-0.03265921
161	0x3d92431b	0.071417056
162	0xbc43e340	-0.011956036
163	0xbda1af86	-0.078948066
164	0xbe209805	-0.15682991
165	0x3dd142c8	0.10217816
166	0xbdce1412	-0.10062422
167	0x3e201dbd	0.15636344
168	0xbb7c9cb6	-0.0038545555
169	0x3e0d1924	0.13779122
170	0xbcc094db	-0.02350848
171	0x3e1c02b5	0.15235408
172	0xbdbf9bc4	-0.09355882
173	0xbe0aa880	-0.1354084
174	0x3d74b9ff	0.059747692
175	0x3da982e8	0.082769215
176	0xbd19b42b	-0.037525337
177	0x3dabcefa	0.08389087
178	0xbc8cebb6	-0.01720224
179	0x3dbf76ce	0.09348832
180	0x3d71dbee	0.059047632
181	0x3de6c2ed	0.11267648
182	0xbe1f320b	-0.15546434
183	0xbe1357e7	-0.14389001
184	0xbd08f99f	-0.033441182
185	0x3e1b5889	0.15170492
186	0x3d6c5bdd	0.057704795
187	0xbc039799	-0.008031749
188	0xbe20bf64	-0.1569801
189	0xbe192306	-0.14954767
190	0x3de8b4bf	0.113625996
191	0x3d40e4d1	0.047093216
192	0x3de74cfa	0.11293979
193	0xbddaf5c5	-0.10691408
194	0x3c26a1a8	0.010170378
195	0x3df6f1e2	0.12057854
196	0x3dc0248b	0.0938197
197	0x3d70ff0e	0.05883699
198	0x3cf81df4	0.03028772
199	0x3deb7e53	0.11498704
200	0xbd679d1c	-0.056546316
201	0xbd4dc9bd	-0.05024122
202	0xbdd2869a	-0.102795795
203	0xbda7b8bb	-0.081895314
204	0x3dd4759e	0.10373996
205	0x3dbc64b0	0.09198892
206	0xbd19b645	-0.03752734
207	0x3d233885	0.039848823
208	0xbd18fe10	-0.037351668
209	0x3de4b930	0.11168134
210	0xbdeb4f26	-0.11489706
211	0xbe13dce1	-0.14439727
212	0xbd8e198d	-0.06938467
213	0xbdc65f0d	-0.09686098
214	0x3e0ab03d	0.13543792
215	0xbd1dc658	-0.038519233
216	0xbd58401a	-0.052795507
217	0xbd0013bd	-0.031268824
218	0xbdab8ede	-0.08376859
219	0x3ca3a917	0.01997809
220	0xbd46781f	-0.0484544
221	0xbe1d921f	-0.15387772
222	0x3e08483f	0.1330881
223	0xbd8dfd21	-0.06933046
224	0xbd6915c1	-0.05690551
225	0xbdd861cf	-0.105655305
226	0x3df2cb6e	0.118552074
227	0x3b992e6c	0.0046747234
228	0x3e026ef9	0.12737645
229	0xbe01c8ef	-0.12674306
230	0xbd40e68a	-0.04709486
231	0x3dab5f9f	0.08367848
232	0x3e01fdb7	0.12694441
233	0x3d831293	0.06400027
234	0x3ddb5c00	0.10710907
235	0x3dcf8eb4	0.1013464
236	0xbdcb3ab0	-0.09923303
237	0x3b6b6cb6	0.003592295
238	0x3e14745c	0.14497513
239	0xbd4fb6f4	-0.050711587
240	0x3d0adf50	0.033904374
241	0xbcbbaa3f	-0.022908328
242	0xbd2fb2e0	-0.042895198
243	0xbdd545c3	-0.104136966
244	0x3e130144	0.14355952
245	0x3d91dd7e	0.071223244
246	0xbb9a641c	-0.004711641
247	0x3dc890e1	0.097932585
248	0xbccdae42	-0.025107507
249	0xbd67ee6a	-0.056623854
250	0xbd20d888	-0.039269
251	0xbde0fb29	-0.10985405
252	0x3d7204ec	0.059086725
253	0x3e0fc3cf	0.14039539
254	0xbe073a12	-0.13205746
255	0x3dd5ec77	0.10445493

linear.0.bias f4 [16]
0	0x3d6c62cf	0.05771142
1	0x3e1f5c74	0.15562612
2	0x3dbb8b93	0.09157481
3	0xbdaa807b	-0.08325287
4	0xbe226ee7	-0.15862618
5	0xbdffd1da	-0.12491198
6	0x3d39a999	0.045327757
7	0x3d80e6cc	0.06294021
8	0xbda23338	-0.079199255
9	0x3dcb5cdf	0.09929823
10	0x3c872745	0.016498217
11	0x3caabbea	0.020841558
12	0xbd451141	-0.048112158
13	0xbdaf20dc	-0.08551189
14	0xbd6d2572	-0.05789704
15	0x3ccca07b	0.024978867

linear.1.weight f4 [64, 16]
0	0x3d84a270	0.06476295
1	0xbd81fc59	-0.063469596
2	0xbe7c7b0e	-0.24656317
3	0x3e6d00d4	0.23144847
4	0xbd74a8f8	-0.059731454
5	0x3e6923b8	0.22767532
6	0xbcbb2230	-0.02284345
7	0x3cef6105	0.029221067
8	0xbe46fc8b	-0.19432275
9	0x3d31fee8	0.04345599
10	0xbde60304	-0.11231044
11	0xbdfc1c9d	-0.12310145
12	0x3e18ff29	0.14941086
13	0x3ca5aad0	0.020223051
14	0xbdcb3870	-0.09922874
15	0xbdece2f0	-0.115667224
16	0x3d09f2b0	0.03367871
17	0xbd939663	-0.07206418
18	0xbe106528	-0.14101088
19	0x3e7166f3	0.23574428
20	0x3db0c2f0	0.086309314
21	0xbe78128a	-0.24225822
22	0x3e327cdc	0.17430443
23	0x3e2a5d3e	0.16637132
24	0xbe42b390	-0.1901381
25	0xbcb1c8ad	-0.021702135
26	0x3e676b3a	0.22599497
27	0xbdd978df	-0.106187575
28	0xbe77a6e1	-0.24184753
29	0x3dcc7b48	0.099844515
30	0x3e189bba	0.14903155
31	0x3db62c38	0.08895153
32	0x3cee6df0	0.029105157
33	0x3e6710ab	0.22564952
34	0x3ddbb27c	0.107274026
35	0xbd03fbc7	-0.032222535
36	0xbc2dede0	-0.010615796
37	0x3dd5b844	0.104355365
38	0x3dc130ec	0.09433159
39	0xbd8eaed4	-0.069669396
40	0x3e7dd3aa	0.24787775
41	0xbd53c83c	-0.05170463
42	0xbe2a30b3	-0.1662014
43	0xbe48495a	-0.19559231
44	0xbd94560d	-0.072429754
45	0xbe2f221a	-0.17102852
46	0xbe304c7e	-0.1721668
47	0x3dd5bc18	0.10436267
48	0x3e6c19a4	0.23056656
49	0x3debfa2c	0.11522326
50	0xbe440898	-0.19143903
51	0xbdaac1a6	-0.08337717
52	0x3e75f40c	0.24018878
53	0xbcc33b40	-0.023831964
54	0x3db8010c	0.08984575
55	0x3e57a3ae	0.21058533
56	0xbd98ccaf	-0.07460915
57	0x3dc012e7	0.09378605
58	0x3e4a819f	0.19776009
59	0xbe3d36e9	-0.18477978
60	0xbe51afad	-0.20477171
61	0xbe58920c	-0.21149462
62	0x3d15bd18	0.036557287
63	0x3e363e7a	0.1779727
64	0x3e6b6fd2	0.22991875
65	0x3e79cdf1	0.24394967
66	0xbe54f230	-0.20795512
67	0xbe2e52ce	-0.17023775
68	0x3e12e59c	0.14345402
69	0xbe49cd4c	-0.19707221
70	0x3e5806b8	0.21096313
71	0x3bfd91db	0.0077383346
72	0xbe642fc8	-0.22283852
73	0xbdca9a3e	-0.098927006
74	0xbe8011d7	-0.2501361
75	0xbd4fe48b	-0.050755065
76	0xbe628d73	-0.22124271
77	0xbdd6ef94	-0.10494915
78	0x3e41d84c	0.18930167
79	0x3dbae490	0.09125626
80	0xbd4f8bb8	-0.050670356
81	0x3d24884e	0.040169053
82	0xbe1e00ca	-0.15429989
83	0x3dd9087b	0.10597321
84	0xbd952eec	-0.0728434
85	0xbe5506e0	-0.20803404
86	0x3d9598a0	0.073045015
87	0xbe65264e	-0.22377893
88	0x3dc481e0	0.09595084
89	0x3e64f5dd	0.22359414
90	0x3dea7916	0.114488766
91	0xbdd4f33c	-0.10397956
92	0x3e46ce40	0.19414616
93	0x3cf19380	0.029489279
94	0xbd10d780	-0.035361767
95	0x3e71718a	0.23578468
96	0xbb6e7580	-0.0036385953
97	0x3d3a42e6	0.045473956
98	0xbe50ed5c	-0.20403045
99	0xbdf0fe40	-0.11767244
100	0xbe0fdcfa	-0.1404914
101	0x3d57b228	0.052660137
102	0xbd266b40	-0.040629625
103	0xbdc0d771	-0.09416092
104	0x3d946194	0.07245174
105	0xbe25b461	-0.1618209
106	0xbe788bd6	-0.24272093
107	0x3d5227e0	0.05130756
108	0x3e00fc6c	0.12596291
109	0xbd07cb30	-0.03315276
110	0xbe658d34	-0.22417146
111	0xbc81c400	-0.01584053
112	0xbe1218ba	-0.14267245
113	0xbde0acff	-0.109704964
114	0x3e412868	0.1886307
115	0x3d904093	0.070435666
116	0xbe6e33fc	-0.23262018
117	0xbd9c9a8c	-0.07646665
118	0xbe43d6b4	-0.19124871
119	0x3e49c553	0.1970418
120	0x3e383471	0.17988755
121	0xbe177a1b	-0.14792673
122	0x3dd5fc88	0.10448557
123	0xbe6fcbaf	-0.23417543
124	0xbd535d37	-0.05160257
125	0xbe1def66	-0.15423355
126	0xbd57fb00	-0.052729607
127	0x3d1300e0	0.035889506
128	0x3e00fe0e	0.12596914
129	0x3ceee2c0	0.029160857
130	0x3e167d8c	0.1469633
131	0xbd3e2674	-0.04642339
132	0x3e5f3622	0.21797994
133	0x3df55d4c	0.119806856
134	0xbe065552	-0.13118485
135	0x3be118cc	0.006869411
136	0xbe2838dd	-0.16427942
137	0x3e2eae60	0.17058706
138	0xbe5d3539	-0.21602334
139	0x3e739c8d	0.23790188
140	0xbe4e3e81	-0.20141031
141	0x3e47269c	0.19448322
142	0xbcfb5590	-0.030680448
143	0x3dd6f61c	0.104961604
144	0x3d26ccb8	0.04072258
145	0x3e0e552a	0.13899675
146	0xbe06df4c	-0.13171118
147	0xbd2203c9	-0.03955439
148	0x3e089400	0.13337708
149	0x3e3d5462	0.1848922
150	0xbc270080	-0.01019299
151	0xbe7c1e4e	-0.24620935
152	0xbe6585fa	-0.22414389
153	0x3d78bd1b	0.06072722
154	0x3e6d365f	0.23165272
155	0xbd7e1111	-0.062027995
156	0xbb81692b	-0.0039493046
157	0x3e101ebc	0.14074224
158	0xbe75a12e	-0.23987266
159	0x3e22b162	0.15887979
160	0x3e5a5d92	0.21324757
161	0x3d8f2282	0.06989004
162	0xbca62b30	-0.020284265
163	0x3e03a86c	0.12857217
164	0xbdb64728	-0.08900291
165	0x3e79c37a	0.24390975
166	0xbe70ebb2	-0.2352741
167	0xbe604d89	-0.21904577
168	0xbdf5bc6f	-0.119988315
169	0xbd56a93b	-0.052407485
170	0x3dfa2e20	0.12215829
171	0x3e512c68	0.20427096
172	0xbd94e8bd	-0.07270954
173	0xbe590bb8	-0.21195877
174	0x3e43ba1a	0.19113961
175	0x3e621a26	0.22080287
176	0xbd8e6918	-0.06953639
177	0x3dda390e	0.106554136
178	0x3e599576	0.21248421
179	0xbe593443	-0.21211343
180	0x3cc0c650	0.023532063
181	0x3df1f584	0.118144065
182	0x3d44ff50	0.048095047
183	0x3b86ef65	0.0041178935
184	0xbe09c283	-0.13453107
185	0x3df0fa44	0.117664844
186	0x3e05a778	0.13052166
187	0xbc85e781	-0.016345741
188	0x3d0250d8	0.03181538
189	0x3e07bfc8	0.13256752
190	0x3c6ecec0	0.01457566
191	0x3d4dcff8	0.050247163
192	0xbae2a500	-0.0017291605
193	0xbe6d8810	-0.23196435
194	0xbe51989a	-0.20468369
195	0x3d92b5b8	0.07163566
196	0x3db6c814	0.089248806
197	0xbd0717a0	-0.032981515
198	0xbd3295d8	-0.043599933
199	0x3e64beea	0.22338453
200	0x3dc7c954	0.09755197
201	0x3d69689f	0.05698454
202	0xbd2d6e26	-0.042341374
203	0x3e0fd091	0.14044406
204	0x3e4e1800	0.20126343
205	0xbe2e10d8	-0.16998613
206	0x3a19d800	0.00058686733
207	0x3e559600	0.20858002
208	0xbe37d12a	-0.17950884
209	0x3e65e983	0.22452359
210	0xbb68fa80	-0.00355497
211	0xbe57f246	-0.21088514
212	0x3e48d1aa	0.1961123
213	0x3bb2d2c0	0.0054572523
214	0xbe691686	-0.22762498
215	0xbd4e6078	-0.05038497
216	0x3e45bec2	0.1931105
217	0x3df1b2d2	0.118016854
218	0xbe524f58	-0.2053808
219	0x3dc9a40a	0.09845741
220	0x3df91390	0.121619344
221	0xbd236368	-0.039889723
222	0xbe794f04	-0.24346548
223	0xbe011a5a	-0.12607709
224	0xbd6550d8	-0.0559853
225	0xbe06c0dc	-0.13159508
226	0x3e73b9c6	0.23801336
227	0xbe5ed60b	-0.21761338
228	0xbcf9f930	-0.03051433
229	0xbd88c7d4	-0.06678739
230	0x3c126c60	0.008936971
231	0xbe58fd16	-0.21190295
232	0xbe6b3059	-0.22967662
233	0xbd19ae1c	-0.03751956
234	0xbd8c13e0	-0.06839728
235	0xba7bdc5d	-0.0009607727
236	0x3d527f77	0.05139109
237	0x3dca2244	0.09869817
238	0xbe4d9a54	-0.20078403
239	0xbe29a442	-0.16566566
240	0xbd259ea0	-0.04043448
241	0x3e143f2d	0.14477225
242	0xbc191fe0	-0.0093459785
243	0xbd96be5f	-0.07360529
244	0x3e2ed16e	0.17072079
245	0x3dcfeef4	0.101529986
246	0xbd4a0d58	-0.04932913
247	0x3ddf8987	0.10914903
248	0x3e2e0ffd	0.16998287
249	0x3dfc0969	0.12306482
250	0xbd859836	-0.065231726
251	0x3d8b8dfc	0.06814191
252	0x3d8b0bb4	0.067893416
253	0xbe62eec8	-0.221614
254	0x3dc91958	0.09819287
255	0x3db55664	0.08854368

linear.1.bias f4 [64]
0	0x3c45639b	0.012047674
1	0x3b8495c5	0.004046174
2	0x3e121f95	0.1426986
3	0x3c92b6f5	0.017909506
4	0xbe6edd71	-0.2332666
5	0x3da5ed49	0.08101899
6	0x3e2ebcee	0.17064258
7	0xbd944f57	-0.072416954
8	0xbe1ec1a8	-0.15503561
9	0x3c0833dc	0.0083131455
10	0xbdc10848	-0.09425408
11	0xbe21f825	-0.15817316
12	0x3e45153d	0.19246383
13	0x3da807e9	0.08204634
14	0x3e2c64ff	0.16835402
15	0x3dfc09a9	0.1230653
16	0x3d434966	0.04767742
17	0x3d88569b	0.06657144
18	0xbe5a1c72	-0.21299914
19	0xbe660974	-0.22464544
20	0xbe160ed1	-0.1465409
21	0xbe0fbe6d	-0.14037485
22	0xbdb4d72d	-0.08830104
23	0xbe0249bc	-0.1272344
24	0x3d8d1090	0.06887925
25	0xbcd8bd23	-0.026457375
26	0xbe3bd57e	-0.1834316
27	0xbe65eb7a	-0.22453108
28	0x3e6445dd	0.22292276
29	0x3e7f272b	0.24917285
30	0x3dc284fa	0.094980195
31	0x3d88cc06	0.066795394
32	0x3e6a8841	0.22903539
33	0x3e66baed	0.22532244
34	0x3cca2eb8	0.02468048
35	0x3cc3242e	0.023820963
36	0x3e77ca93	0.2419837
37	0x3e631649	0.2217647
38	0xbdb825e1	-0.089916
39	0x3e5b9b93	0.21446066
40	0xbe652651	-0.22377898
41	0xbe3e0464	-0.18556362
42	0x3dfc85ab	0.12330183
43	0xbe6335f6	-0.22188553
44	0xbe6fa194	-0.23401481
45	0x3e2cad43	0.16862969
46	0xbe8016cb	-0.2501739
47	0xbe250393	-0.16114645
48	0x3e77f04e	0.24212763
49	0xbe7186c8	-0.23586571
50	0xbd391287	-0.045183685
51	0xbcfd918e	-0.030953195
52	0x3e075b9b	0.13218538
53	0xbe137788	-0.14401066
54	0x3c724bd2	0.014788585
55	0xbd374ec9	-0.04475287
56	0x3db6b1bc	0.08920619
57	0xbde7bafd	-0.11314962
58	0x3e2fbbd9	0.17161502
59	0xbe080840	-0.13284397
60	0x3e7b2788	0.24526799
61	0xbe3e84d7	-0.18605362
62	0x3de24857	0.11048954
63	0x3d8992d9	0.06717462

linear.3.weight f4 [2, 64]
0	0x3d56c9ce	0.05243855
1	0x3ce7b48f	0.02828434
2	0xbdd0bfc0	-0.101928234
3	0x3b33b868	0.0027423147
4	0xbba22b32	-0.004948997
5	0x3d0ff0c5	0.035141725
6	0xbdf8ca2d	-0.12147937
7	0xbd8d906f	-0.06912314
8	0x3d90db4c	0.070730776
9	0xbde99a36	-0.114063665
10	0x3dbad4db	0.0912263
11	0xbd3a3f2e	-0.04547041
12	0x3d7b46b1	0.061346713
13	0xbd89275a	-0.06696959
14	0x3da41f6f	0.08013808
15	0x3d694bba	0.056956984
16	0x3c78c908	0.015184648
17	0xbd386f31	-0.045027915
18	0xbd55c35d	-0.052188266
19	0xbdd0c501	-0.101938255
20	0x3deb2452	0.11481537
21	0xbd81c7e1	-0.06336952
22	0x3df62b5b	0.12019988
23	0xbc3ea28d	-0.011635435
24	0xbdbe0f26	-0.09280233
25	0xbcd5d0fb	-0.026100626
26	0xbd02a4a1	-0.031895284
27	0x3dcc7829	0.09983856
28	0xbd8bb0dd	-0.06820843
29	0x3dd2b3bd	0.102881886
30	0xbdda3e31	-0.10656393
31	0x3db1f839	0.08689923
32	0xbdf4b2ea	-0.11948188
33	0x3ddda7cd	0.10823021
34	0x3d6937fb	0.056938153
35	0x3de4c3d4	0.11170164
36	0x3df61785	0.12016205
37	0xbc2a1059	-0.010379874
38	0xbd27d5f1	-0.040975515
39	0xbd9c8949	-0.076433726
40	0x3dbd66f8	0.09248155
41	0xbd8c1a3d	-0.06840942
42	0xbdde4ce4	-0.108545095
43	0x3a20f510	0.0006140033
44	0xbd7eea95	-0.062235434
45	0x3d44b597	0.04802474
46	0xbcfe26cb	-0.031024357
47	0x3daa687a	0.083207086
48	0x3cbc4f05	0.022986898
49	0x3cc19c89	0.023634212
50	0x3aa9e5db	0.0012962179
51	0xbd9548c5	-0.0728927
52	0xbdd1df8a	-0.10247715
53	0xbdbee387	-0.09320741
54	0x3b9ec677	0.004845436
55	0xbdad6a94	-0.08467594
56	0xbd9b9585	-0.07596878
57	0x3d4900bf	0.049072977
58	0xbd98877e	-0.07447718
59	0x3d08bfde	0.033386104
60	0x3d9762bb	0.07391878
61	0xbd9f088e	-0.077653036
62	0xbdaf92a2	-0.0857289
63	0xbdd43fd0	-0.10363734
64	0xbd4f085a	-0.050545074
65	0xbcd77737	-0.026301963
66	0x3d599dbd	0.053128947
67	0x3d863f40	0.06555033
68	0x3cbbc3d7	0.022920532
69	0x3d6ada8b	0.057337325
70	0x3ac5b388	0.0015083412
71	0x3d60248e	0.05472236
72	0xbda98a20	-0.082782984
73	0xbdcd665c	-0.10029289
74	0x3dc52187	0.096255355
75	0x3ca3e566	0.020006847
76	0x3c263acf	0.010145857
77	0xbd96669e	-0.073437914
78	0x3da993b9	0.08280129
79	0xbd7855d6	-0.060628735
80	0x3d9534ae	0.072854385
81	0x3d8b1b82	0.06792356
82	0x3d7fc886	0.062447093
83	0x3dccf739	0.100080915
84	0xbd21e259	-0.039522503
85	0x3d98f16b	0.07467922
86	0xbc0160c4	-0.007896606
87	0xbd810415	-0.06299607
88	0x3c51a742	0.012796225
89	0xbda6597c	-0.081225365
90	0x3de2f04f	0.110809915
91	0x3da3f23b	0.08005186
92	0xbdf547e9	-0.119766064
93	0xbcb14218	-0.021637961
94	0x3aa1e903	0.0012352768
95	0x3d433a04	0.04766275
96	0x3d1c0166	0.03808727
97	0x3e016216	0.12635073
98	0x3d8feaac	0.07027182
99	0x3dca6904	0.098833114
100	0x3dacd127	0.0843833
101	0x3d9ab90e	0.07554828
102	0xbc888f37	-0.016669853
103	0xbd512871	-0.05106396
104	0x3d8700ba	0.065919355
105	0x3de8443b	0.11341139
106	0xbd3171de	-0.043321483
107	0x3c5de250	0.013542727
108	0x3ddb69e5	0.10713557
109	0xbdf0c4cc	-0.11756286
110	0x3d49fb19	0.04931173
111	0x3a822e05	0.0009931928
112	0x3c0038d1	0.007826046
113	0xbd0ecd61	-0.034863833
114	0xbd2773a0	-0.040881753
115	0xbb0cc116	-0.0021477393
116	0xbca158f3	-0.019695735
117	0xbd7ad7a7	-0.06124082
118	0xbdc8ea27	-0.09810286
119	0xbd7a8111	-0.061158244
120	0x3dac0b5f	0.08400606
121	0x3dc154aa	0.094399765
122	0xbdad0310	-0.0844785
123	0xbcd86906	-0.026417267
124	0x3cd77e0e	0.026305225
125	0xbcacbd81	-0.021086456
126	0x3c8e35f9	0.01735972
127	0x3dff5cf8	0.12468904

linear.3.bias f4 [2]
0	0xbb5c06b1	-0.0033573324
1	0xbd119299	-0.035540197
