meta/demos/multiple_experiments/results/models/run_0/emodb_mlp_praat_16-64_C_val-001_learning_rate-0-0001_0_004.model (torch, 10758 bytes, 6 tensors)

linear.0.weight f4 [16, 39]
000000 f3 31 21 3e f7 63 dd 3d 73 e6 13 be b9 04 0b 3c
       0.1574171 0.108100824 -0.14443378 0.008485013
000010 fc 92 c2 3d be 73 6c 3d 17 5e 1d 3e 4c ef ef 3d
       0.09500691 0.057727568 0.15367924 0.11715564
000020 2e 92 1d be b3 e0 96 3d bd a1 85 bc 70 70 ba ba
       -0.15387794 0.07367077 -0.016312474 -0.0014224183
000030 6e f1 40 bd 2e 53 a5 bd 27 a6 1e be 18 fa 9b 3d
       -0.047105245 -0.08072506 -0.1549307 0.07616061
000040 f8 d3 02 be 98 54 12 be 6b b9 d1 3d eb 36 16 be
       -0.12776172 -0.14290082 0.10240444 -0.14669387
000050 84 d1 32 3c 8a e9 b3 bd 63 14 1c be 76 03 f2 3c
       0.01091421 -0.087847784 -0.15242152 0.029542666
000060 59 30 05 bd bf 69 77 3d 3e 51 d3 3d f4 55 eb bd
       -0.03251681 0.06040358 0.1031823 -0.11491004
000070 d7 75 3a bd 2f f3 7c 3c f9 9b 10 be f7 d3 59 bd
       -0.045522537 0.015438839 -0.14121999 -0.05318066
000080 7a be 5f 3d 6e 39 19 be 71 9f 06 be 3b 74 0f be
       0.054625012 -0.14963314 -0.1314676 -0.14009182
000090 d4 f6 3f bd 6c 41 c1 3d 30 05 00 be 05 67 d3 3d
       -0.046866253 0.09436306 -0.12501979 0.10322384
0000a0 88 68 ba bd ec bd fd 3a 5d a6 0d bd ae 8e 0b be
       -0.09101969 0.0019358969 -0.034582485 -0.13628647
0000b0 e8 c2 18 be 9d 8e 18 be a0 1d 13 3e 9e 57 3e 3d
       -0.14918101 -0.14898153 0.1436677 0.046470277
0000c0 2a f6 01 3d 04 97 0d be e5 29 f1 bd 2d f9 d4 bd
       0.0317289 -0.13827139 -0.11775569 -0.10399089
0000d0 0c d3 b3 3d 74 74 77 bd d1 94 38 bd d9 3c e2 3d
       0.08780488 -0.060413793 -0.045063797 0.11046762
0000e0 2c b4 f8 bb 25 2a 08 3d 19 fb d0 bd d5 27 d9 3d
       -0.0075898375 0.033243317 -0.10204143 0.106033005
0000f0 07 97 28 3d 3f fc 18 3d df 12 17 be 6c 3d e6 3d
       0.041159656 0.037349936 -0.14753293 0.11242184
000100 a1 72 94 3c 83 85 95 3d db 92 15 3e 3f 5c e1 bd
       0.018121066 0.07300856 0.14606802 -0.11003923
000110 a6 85 eb 3d a9 d4 1f 3e df 55 cf 3d 61 4e 1f 3e
       0.11500101 0.15608467 0.101238005 0.15557243
000120 7f 4c 09 be 95 aa f2 3d c2 c1 a9 3d e3 4a e9 bd
       -0.13408087 0.11848942 0.082889095 -0.11391237
000130 5c 7c 1e bc 78 26 29 3d da 9b 67 bc 7c 10 e6 3d
       -0.009673204 0.041296452 -0.014136279 0.11233613
000140 b8 5d eb bd 29 60 d6 3d 1c 9f e0 3d 0d 83 1f be
       -0.11492485 0.1046756 0.10967848 -0.15577336
000150 75 c0 d4 3d b7 e8 f0 bc da 48 21 be 9e be 4a 3d
       0.10388271 -0.029407842 -0.15750447 0.049498193
000160 f3 1c 11 bd b1 a2 d8 3d e3 36 7f 3d 1f 88 75 3d
       -0.035428 0.10577906 0.062308203 0.05994427
000170 82 e2 15 be ae d8 57 bd 39 9d 07 3d 37 14 2c 3c
       -0.14637187 -0.052696876 0.033108924 0.0105028665
000180 06 1f 1d be d0 18 44 ba c2 97 0b 3d 3f 57 89 bd
       -0.15343866 -0.0007480504 0.034080274 -0.06706094
000190 67 2d 85 3c b8 42 ed bd 86 c7 52 3d 01 fd f5 bd
       0.016257001 -0.11584991 0.05145981 -0.12011147
0001a0 82 ec 09 be 94 87 ee 3d dc c9 09 3e da 76 97 3d
       -0.13469127 0.11646953 0.1345591 0.07395716
0001b0 d5 dd 13 be 76 e4 b4 bc f3 f3 a1 bd d5 d6 35 3d
       -0.14440091 -0.022081595 -0.07907858 0.044394333
0001c0 01 ba 13 3d 17 b8 21 bc 7a 06 fd bd aa 4c 92 3d
       0.03606606 -0.009870551 -0.12354751 0.07143529
0001d0 b0 46 3b 3b 71 8d 0c be 57 fe 0b be 19 5d 77 3d
       0.0028576069 -0.1372583 -0.13671242 0.06039152
0001e0 35 24 8e 3c 8d e9 1d 3e e6 20 ad 3d 9f 14 58 bc
       0.01735125 0.15421124 0.084535405 -0.01318851
0001f0 33 0d bf bd 17 da 06 3e 88 e3 9c bd 8e 7a 07 bd
       -0.093286894 0.13169132 -0.07660586 -0.03307586
000200 db 79 b4 bd a8 0e 07 3c dd 4b fc 3d 8f 92 09 be
       -0.088123046 0.00824324 0.12319157 -0.13434814
000210 3a 94 9f bd a8 c5 cb 3d 1f 58 50 3c b3 f3 82 bc
       -0.07791944 0.09949809 0.012716322 -0.015985345
000220 22 38 1b 3e d4 2f 86 bd 5c f3 69 3d d8 30 5f 3c
       0.15158132 -0.06552091 0.05711685 0.013622485
000230 4a 35 85 3d 8f e3 d0 bd dc db 1b 39 82 62 a5 3d
       0.06504305 -0.10199653 0.00014863856 0.080754295
000240 7a e3 fa bd 97 1a 14 3d 38 55 8b bd a0 fe fe 3c
       -0.12250419 0.03615817 -0.068033636 0.031127274
000250 6e 97 f6 3d 3d 14 10 3e 46 c6 1a bd 58 10 ed bd
       0.12040602 0.1407022 -0.037786745 -0.11575383
000260 84 44 12 be da d7 8d bd 35 6d df 3d 5b 2d 21 3e
       -0.14283949 -0.06925936 0.109095015 0.15739958
000270 2a 59 b5 3d f8 ab af bd 0c 05 c8 bd 27 ff 22 3d
       0.08854897 -0.08577722 -0.097665876 0.039794113
000280 aa c5 05 bd 1b 43 92 3d 40 e3 43 bc 86 af a1 bd
       -0.03265921 0.071417056 -0.011956036 -0.078948066
000290 05 98 20 be c8 42 d1 3d 12 14 ce bd bd 1d 20 3e
       -0.15682991 0.10217816 -0.10062422 0.15636344
0002a0 b6 9c 7c bb 24 19 0d 3e db 94 c0 bc b5 02 1c 3e
       -0.0038545555 0.13779122 -0.02350848 0.15235408
0002b0 c4 9b bf bd 80 a8 0a be ff b9 74 3d e8 82 a9 3d
       -0.09355882 -0.1354084 0.059747692 0.082769215
0002c0 2b b4 19 bd fa ce ab 3d b6 eb 8c bc ce 76 bf 3d
       -0.037525337 0.08389087 -0.01720224 0.09348832
0002d0 ee db 71 3d ed c2 e6 3d 0b 32 1f be e7 57 13 be
       0.059047632 0.11267648 -0.15546434 -0.14389001
0002e0 9f f9 08 bd 89 58 1b 3e dd 5b 6c 3d 99 97 03 bc
       -0.033441182 0.15170492 0.057704795 -0.008031749
0002f0 64 bf 20 be 06 23 19 be bf b4 e8 3d d1 e4 40 3d
       -0.1569801 -0.14954767 0.113625996 0.047093216
000300 fa 4c e7 3d c5 f5 da bd a8 a1 26 3c e2 f1 f6 3d
       0.11293979 -0.10691408 0.010170378 0.12057854
000310 8b 24 c0 3d 0e ff 70 3d f4 1d f8 3c 53 7e eb 3d
       0.0938197 0.05883699 0.03028772 0.11498704
000320 1c 9d 67 bd bd c9 4d bd 9a 86 d2 bd bb b8 a7 bd
       -0.056546316 -0.05024122 -0.102795795 -0.081895314
000330 9e 75 d4 3d b0 64 bc 3d 45 b6 19 bd 85 38 23 3d
       0.10373996 0.09198892 -0.03752734 0.039848823
000340 10 fe 18 bd 30 b9 e4 3d 26 4f eb bd e1 dc 13 be
       -0.037351668 0.11168134 -0.11489706 -0.14439727
000350 8d 19 8e bd 0d 5f c6 bd 3d b0 0a 3e 58 c6 1d bd
       -0.06938467 -0.09686098 0.13543792 -0.038519233
000360 1a 40 58 bd bd 13 00 bd de 8e ab bd 17 a9 a3 3c
       -0.052795507 -0.031268824 -0.08376859 0.01997809
000370 1f 78 46 bd 1f 92 1d be 3f 48 08 3e 21 fd 8d bd
       -0.0484544 -0.15387772 0.1330881 -0.06933046
000380 c1 15 69 bd cf 61 d8 bd 6e cb f2 3d 6c 2e 99 3b
       -0.05690551 -0.105655305 0.118552074 0.0046747234
000390 f9 6e 02 3e ef c8 01 be 8a e6 40 bd 9f 5f ab 3d
       0.12737645 -0.12674306 -0.04709486 0.08367848
0003a0 b7 fd 01 3e 93 12 83 3d 00 5c db 3d b4 8e cf 3d
       0.12694441 0.06400027 0.10710907 0.1013464
0003b0 b0 3a cb bd b6 6c 6b 3b 5c 74 14 3e f4 b6 4f bd
       -0.09923303 0.003592295 0.14497513 -0.050711587
0003c0 50 df 0a 3d 3f aa bb bc e0 b2 2f bd c3 45 d5 bd
       0.033904374 -0.022908328 -0.042895198 -0.104136966
0003d0 44 01 13 3e 7e dd 91 3d 1c 64 9a bb e1 90 c8 3d
       0.14355952 0.071223244 -0.004711641 0.097932585
0003e0 42 ae cd bc 6a ee 67 bd 88 d8 20 bd 29 fb e0 bd
       -0.025107507 -0.056623854 -0.039269 -0.10985405
0003f0 ec 04 72 3d cf c3 0f 3e 12 3a 07 be 77 ec d5 3d
       0.059086725 0.14039539 -0.13205746 0.10445493

linear.0.bias f4 [16]
000000 cf 62 6c 3d 5a 65 1f 3e 93 8b bb 3d ae a7 aa bd
       0.05771142 0.15566006 0.09157481 -0.083327636
000010 e7 6e 22 be da d1 ff bd 99 a9 39 3d ab b9 80 3d
       -0.15862618 -0.12491198 0.045327757 0.06285413
000020 18 15 a2 bd 28 35 cb 3d a7 84 86 3c f7 16 aa 3c
       -0.079141796 0.09922248 0.016420675 0.020762904
000030 59 d0 44 bd dc 20 af bd 72 25 6d bd 7b a0 cc 3c
       -0.04805026 -0.08551189 -0.05789704 0.024978867

linear.1.weight f4 [64, 16]
000000 70 a2 84 3d 0b 18 82 bd 0e 7b 7c be 4f ed 6c 3e
       0.06476295 -0.06352242 -0.24656317 0.23137401
000010 f8 a8 74 bd b8 23 69 3e 30 22 bb bc 48 e6 ee 3c
       -0.059731454 0.22767532 -0.02284345 0.029162541
000020 14 09 47 be e2 b0 31 3d 41 3b e6 bd 73 33 fc bd
       -0.19437057 0.04338158 -0.112417705 -0.12314501
000030 bb f1 18 3e d0 aa a5 3c 70 38 cb bd f0 e2 ec bd
       0.14935963 0.020223051 -0.09922874 -0.115667224
000040 b0 f2 09 3d 8d b1 93 bd 28 65 10 be b6 53 71 3e
       0.03367871 -0.072115995 -0.14101088 0.2356709
000050 f0 c2 b0 3d 8a 12 78 be dc 7c 32 3e 2d 4e 2a 3e
       0.086309314 -0.24225822 0.17430443 0.16631384
000060 d5 bf 42 be 7d 62 b2 bc 58 4f 67 3e 35 8f d9 bd
       -0.1901849 -0.021775478 0.22588861 -0.10623018
000070 0b b4 77 be 48 7b cc 3d ba 9b 18 3e 38 2c b6 3d
       -0.24189775 0.099844515 0.14903155 0.08895153
000080 f0 6d ee 3c 9c 1e 67 3e 7c b2 db 3d 49 ad 03 bd
       0.029105157 0.2257027 0.107274026 -0.03214768
000090 e0 ed 2d bc 44 b8 d5 3d ec 30 c1 3d f0 8f 8e bd
       -0.010615796 0.104355365 0.09433159 -0.06961048
0000a0 4e e0 7d 3e ca 79 53 bd 7f 14 2a be d4 3d 48 be
       0.24792597 -0.05162982 -0.16609381 -0.19554836
0000b0 ff 3a 94 bd 1a 22 2f be 7e 4c 30 be 18 bc d5 3d
       -0.07237815 -0.17102852 -0.1721668 0.10436267
0000c0 a4 19 6c 3e 47 16 ec 3d 98 08 44 be 08 9a aa bd
       0.23056656 0.115276866 -0.19143903 -0.083301604
0000d0 0c f4 75 3e 40 3b c3 bc 0c 01 b8 3d 40 b3 57 3e
       0.24018878 -0.023831964 0.08984575 0.21064472
0000e0 42 b3 98 bd 75 3a c0 3d 02 9e 4a 3e 5a 2b 3d be
       -0.07456066 0.0938615 0.19786838 -0.18473569
0000f0 10 a2 51 be 0c 92 58 be 18 bd 15 3d 7a 3e 36 3e
       -0.20471978 -0.21149462 0.036557287 0.1779727
000100 d2 6f 6b 3e 2b dd 79 3e 30 f2 54 be e1 3d 2e be
       0.22991875 0.24400775 -0.20795512 -0.17015792
000110 9c e5 12 3e 4c cd 49 be b8 06 58 3e 70 a9 ff 3b
       0.14345402 -0.19707221 0.21096313 0.007802181
000120 e5 21 64 be 6b 70 ca bd 39 03 80 be 9f b1 4f bd
       -0.22278555 -0.09884723 -0.2500246 -0.050706502
000130 a0 7e 62 be 94 ef d6 bd 4c d8 41 3e 90 e4 ba 3d
       -0.22118616 -0.10494915 0.18930167 0.09125626
000140 b8 8b 4f bd c3 bb 24 3d ca 00 1e be 81 2d d9 3d
       -0.050670356 0.040218126 -0.15429989 0.10604382
000150 ec 2e 95 bd e0 06 55 be a0 98 95 3d f4 17 65 be
       -0.0728434 -0.20803404 0.073045015 -0.22372419
000160 06 99 c4 3d 5e 08 65 3e b5 af ea 3d 44 de d4 bd
       0.095994994 0.22366473 0.11459295 -0.10393956
000170 b0 da 46 3e 80 93 f1 3c 80 d7 10 bd 8a 71 71 3e
       0.1941936 0.029489279 -0.035361767 0.23578468
000180 80 75 6e bb 6f 7a 3a 3d 5c ed 50 be 26 d7 f0 bd
       -0.0036385953 0.045526918 -0.20403045 -0.11759786
000190 fa dc 0f be 28 b2 57 3d 40 6b 26 bd af b8 c0 bd
       -0.1404914 0.052660137 -0.040629625 -0.094102256
0001a0 ba 7a 94 3d d8 a0 25 be b2 6f 78 be b5 55 52 3d
       0.07249971 -0.16174638 -0.24261358 0.051351268
0001b0 e3 09 01 3e 30 cb 07 bd 34 8d 65 be 00 c4 81 bc
       0.12601428 -0.03315276 -0.22417146 -0.01584053
0001c0 ba 18 12 be 2e 91 e0 bd 68 28 41 3e bd 67 90 3d
       -0.14267245 -0.10965191 0.1886307 0.070510365
0001d0 fc 33 6e be 8c 9a 9c bd b4 d6 43 be bd d4 49 3e
       -0.23262018 -0.07646665 -0.19124871 0.1971006
0001e0 0a 41 38 3e 88 66 17 be de 34 d6 3d 35 c0 6f be
       0.1799356 -0.14785206 0.10459302 -0.23413165
0001f0 42 27 53 bd 66 ef 1d be 00 fb 57 bd e0 00 13 3d
       -0.05155111 -0.15423355 -0.052729607 0.035889506
000200 0e fe 00 3e 10 73 ee 3c 8c 7d 16 3e 03 75 3e bd
       0.12596914 0.0291076 0.1469633 -0.04649831
000210 22 36 5f 3e 4c 5d f5 3d 52 55 06 be 09 2a df 3b
       0.21797994 0.119806856 -0.13118485 0.006810431
000220 82 45 28 be be 9a 2e 3e 74 51 5d be 07 91 73 3e
       -0.16432765 0.17051217 -0.21613103 0.23785792
000230 0a 4c 4e be 9c 26 47 3e 90 55 fb bc 1c f6 d6 3d
       -0.20146194 0.19448322 -0.030680448 0.104961604
000240 b8 cc 26 3d b1 65 0e 3e 4c df 06 be ad aa 21 bd
       0.04072258 0.1390598 -0.13171118 -0.03946941
000250 00 94 08 3e 62 54 3d 3e 80 00 27 bc 3f 0c 7c be
       0.13337708 0.1848922 -0.01019299 -0.24614047
000260 d2 76 65 be 1c 16 79 3d af 54 6d 3e 4c d9 7d bd
       -0.22408608 0.0608121 0.23176835 -0.06197481
000270 0d cb 7e bb bc 1e 10 3e 2e a1 75 be 62 b1 22 3e
       -0.0038878352 0.14074224 -0.23987266 0.15887979
000280 92 5d 5a 3e b3 4b 8f 3d 30 2b a6 bc b3 c2 03 3e
       0.21324757 0.0699686 -0.020284265 0.1286724
000290 28 47 b6 bd 7a c3 79 3e b2 eb 70 be 6b 37 60 be
       -0.08900291 0.24390975 -0.2352741 -0.2189614
0002a0 10 96 f5 bd 52 40 56 bd ac 70 fa 3d 38 3e 51 3e
       -0.11991513 -0.052307434 0.12228522 0.20433891
0002b0 4b c0 94 bd b8 0b 59 be 1a ba 43 3e 26 1a 62 3e
       -0.072632395 -0.21195877 0.19113961 0.22080287
0002c0 18 69 8e bd af 54 da 3d 76 95 59 3e be 20 59 be
       -0.06953639 0.10660683 0.21248421 -0.21203896
0002d0 50 c6 c0 3c 84 f5 f1 3d 50 ff 44 3d 89 d9 88 3b
       0.023532063 0.118144065 0.048095047 0.004176323
0002e0 04 b6 09 be 3f 21 f1 3d 9e c3 05 3e 84 8c 85 bc
       -0.1344834 0.11773919 0.13062903 -0.016302355
0002f0 5f 86 02 3d c8 bf 07 3e c0 ce 6e 3c f8 cf 4d 3d
       0.031866428 0.13256752 0.01457566 0.050247163
000300 00 a5 e2 ba d1 96 6d be 9a 98 51 be cd 8c 92 3d
       -0.0017291605 -0.23202063 -0.20468369 0.07155762
000310 14 c8 b6 3d a0 17 07 bd d8 95 32 bd a5 ae 64 3e
       0.089248806 -0.032981515 -0.043599933 0.22332247
000320 79 ae c7 3d d6 16 69 3d a9 e1 2d bd 48 c4 0f 3e
       0.09750075 0.056906544 -0.042451534 0.14039719
000330 aa 09 4e 3e d8 10 2e be 00 d8 19 3a 00 96 55 3e
       0.20120874 -0.16998613 0.00058686733 0.20858002
000340 2a d1 37 be 43 d6 65 3e 80 fa 68 bb 45 0b 58 be
       -0.17950884 0.22445016 -0.00355497 -0.21098049
000350 aa d1 48 3e c0 d2 b2 3b 86 16 69 be a0 b3 4e bd
       0.1961123 0.0054572523 -0.22762498 -0.050464272
000360 e9 ac 45 3e ea 80 f1 3d b8 6f 52 be 01 83 c9 3d
       0.19304241 0.117921665 -0.2055043 0.0983944
000370 d9 ed f8 3d 68 63 23 bd 04 4f 79 be 5a 1a 01 be
       0.12154741 -0.039889723 -0.24346548 -0.12607709
000380 d8 50 65 bd 98 a6 06 be c6 b9 73 3e 4e b6 5e be
       -0.0559853 -0.13149488 0.23801336 -0.21749231
000390 30 f9 f9 bc d4 c7 88 bd 60 6c 12 3c 59 e1 58 be
       -0.03051433 -0.06678739 0.008936971 -0.21179713
0003a0 7e 17 6b be aa 2f 19 bd 6a c9 8b bd 92 90 64 ba
       -0.2295818 -0.03739897 -0.06825526 -0.00087190524
0003b0 27 e7 52 3d 44 22 ca 3d 54 9a 4d be 42 a4 29 be
       0.051489975 0.09869817 -0.20078403 -0.16566566
0003c0 a0 9e 25 bd c2 30 14 3e e0 1f 19 bc 98 e6 96 bd
       -0.04043448 0.14471725 -0.0093459785 -0.07368201
0003d0 6e d1 2e 3e f4 ee cf 3d 58 0d 4a bd ae 69 df 3d
       0.17072079 0.101529986 -0.04932913 0.10908829
0003e0 e4 02 2e 3e 37 e1 fb 3d 6a d1 85 bd 13 76 8b 3d
       0.1699329 0.12298816 -0.06534083 0.0680963
0003f0 b7 ef 8a 3d c8 ee 62 be 58 19 c9 3d 64 56 b5 3d
       0.06784003 -0.221614 0.09819287 0.08854368

linear.1.bias f4 [64]
000000 15 3f 44 3c 04 56 82 3b fa 31 12 3e a7 4b 93 3c
       0.011977931 0.003977539 0.14276877 0.01798041
000010 b0 c9 6e be c1 0f a6 3d 3f cf 2e 3e a3 2a 94 bd
       -0.23319125 0.081084736 0.17071246 -0.07234695
000020 10 d4 1e be ae 86 09 3c 5b d5 c0 bd df e5 21 be
       -0.15510583 0.008393927 -0.09415694 -0.15810345
000030 f9 01 45 3e be d7 a7 3d 47 84 2c 3e db e3 fb 3d
       0.19239034 0.081954464 0.16847335 0.12299319
000040 98 96 43 3d 46 7b 88 3d 20 0a 5a be ad f6 65 be
       0.04775104 0.066641375 -0.21292925 -0.2245738
000050 a6 21 16 be 9e ab 0f be ee fc b4 bd a1 5b 02 be
       -0.14661273 -0.1403031 -0.08837305 -0.12730266
000060 71 36 8d 3d 2b 4d d9 bc 1e c3 3b be da ff 65 be
       0.068951495 -0.026526054 -0.1833615 -0.22460881
000070 e8 33 64 3e d5 14 7f 3e d1 aa c2 3d 69 a8 88 3d
       0.22285426 0.2491029 0.09505237 0.06672747
000080 13 9b 6a 3e 6e cf 66 3e 40 b0 ca 3c db 78 c2 3c
       0.22910719 0.22540066 0.024742246 0.023739269
000090 21 b7 77 3e 82 28 63 3e d8 fd b7 bd e4 ac 5b 3e
       0.24190952 0.22183421 -0.08983964 0.21452671
0000a0 b8 37 65 be 95 f1 3d be d8 a9 fc 3d cf 25 63 be
       -0.22384536 -0.18549187 0.123370826 -0.22182392
0000b0 29 8f 6f be d9 9a 2c 3e b2 0d 80 be c8 15 25 be
       -0.23394455 0.16855945 -0.2501045 -0.1612159
0000c0 d8 df 77 3e da 98 71 be 56 60 39 bd 71 00 fd bc
       0.24206483 -0.23593464 -0.04525789 -0.030884
0000d0 d3 6d 07 3e d9 63 13 be 2c 27 71 3c 99 fe 36 bd
       0.13225488 -0.14393558 0.014718812 -0.044676397
0000e0 88 d6 b6 3d 31 97 e7 bd bc a5 2f 3e 58 1a 08 be
       0.08927637 -0.11308134 0.17153066 -0.132913
0000f0 9a 15 7b 3e ce 72 3e be 36 6e e2 3d 60 b8 89 3d
       0.24519959 -0.18598482 0.11056177 0.0672462

linear.3.weight f4 [2, 64]
000000 58 f0 56 3d 0c 05 e8 3c 4c d8 d0 bd c5 14 20 3b
       0.052475303 0.028322719 -0.10197505 0.0024426442
000010 ef 3c a0 bb 52 b3 0f 3d 81 d0 f8 bd 76 d2 8d bd
       -0.0048900764 0.035083123 -0.12149144 -0.06924908
000020 54 f9 90 3d ac 7f e9 bd b6 f5 ba 3d 6a 9c 3a bd
       0.070788056 -0.114013046 0.09128897 -0.045559324
000030 e2 0c 7b 3d de 40 89 bd 33 3d a4 3d f1 13 69 3d
       0.061291583 -0.067018256 0.08019485 0.056903783
000040 d2 d3 79 3c 56 be 38 bd 88 07 56 bd 86 9d d0 bd
       0.015248256 -0.045103393 -0.052253276 -0.10186295
000050 b8 08 eb 3d 46 4c 81 bd 1c 0e f6 3d 1c 37 3e bc
       0.11476272 -0.06313376 0.1201441 -0.011609819
000060 86 f3 bd bd 8b 6b d5 bc 4c d1 02 bd 1d 5d cc 3d
       -0.09274964 -0.026052257 -0.031937882 0.099786974
000070 3c 98 8b bd 27 d0 d2 3d 5c 0e da bd c0 19 b2 3d
       -0.06816146 0.10293608 -0.1064727 0.08696318
000080 6b 95 f4 bd 41 c2 dd 3d 2a 04 69 3d 30 af e4 3d
       -0.11942562 0.108280666 0.056888737 0.11166227
000090 a9 ed f5 3d 9f 12 2b bc 2c 9d 27 bd 8c 9d 9c bd
       0.12008221 -0.010441451 -0.040921375 -0.07647237
0000a0 40 83 bd 3d 82 fb 8b bd 35 60 de bd 6f ab 11 3a
       0.092535496 -0.06835081 -0.10858194 0.00055568566
0000b0 74 1e 7f bd 39 ef 44 3d 06 85 fe bc a6 86 aa 3d
       -0.0622849 0.048079703 -0.03106929 0.083264634
0000c0 75 b2 bc 3c 69 1c c2 3c 9e 82 a4 3a 91 61 95 bd
       0.023034314 0.023695188 0.0012551134 -0.07294
0000d0 31 fe d1 bd 88 cb be bd ca d8 a0 3b bc 4c ad bd
       -0.10253561 -0.09316164 0.004908656 -0.084619015
0000e0 a9 a8 9b bd 9b ba 48 3d 55 a5 98 bd ba 07 09 3d
       -0.07600529 0.049006086 -0.074534096 0.033454634
0000f0 f1 80 97 3d 86 26 9f bd b7 74 af bd ab 22 d4 bd
       0.073976405 -0.0777102 -0.085671835 -0.10358175
000100 e4 2e 4f bd b4 c7 d7 bc d1 ce 59 3d 5a dc 86 3d
       -0.050581828 -0.026340343 0.05317575 0.065849975
000110 47 48 bb 3c fe 17 6b 3d 0d 49 c7 3a 9b a8 60 3d
       0.022861613 0.057395928 0.0015204266 0.054848295
000120 28 a8 a9 bd e6 80 cd bd ac 00 c5 3d df 9f a4 3c
       -0.082840264 -0.10034351 0.09619269 0.020095764
000130 05 22 27 3c 1a 4d 96 bd f5 75 a9 3d 0d 1e 78 bd
       0.010200982 -0.07338925 0.08274452 -0.060575534
000140 52 13 95 3d 14 43 8b 3d 59 06 80 3d be cf cc 3d
       0.07279076 0.067999035 0.06251211 0.10000561
000150 26 ab 21 bd d0 75 98 3d d2 76 00 bc 85 11 81 bd
       -0.03946986 0.07444346 -0.007840829 -0.0630217
000160 3c ca 50 3c d8 72 a6 bd a2 06 e3 3d 47 0d a4 3d
       0.012743529 -0.081273735 0.110852495 0.08010345
000170 8a 60 f5 bd c2 b3 b1 bc a5 f3 95 3a f7 f6 42 3d
       -0.11981304 -0.02169216 0.001144041 0.047598805
000180 66 c6 1b 3d dc 54 01 3e 96 04 90 3d a8 7d ca 3d
       0.038031004 0.12630028 0.07032125 0.09887248
000190 03 fb ac 3d 57 d9 9a 3d c3 00 89 bc ed ff 50 bd
       0.08446314 0.075609855 -0.016723996 -0.05102532
0001a0 72 e4 86 3d 80 25 e8 3d 40 4b 31 bd ec d6 5e 3c
       0.06586541 0.113352776 -0.043284655 0.013601046
0001b0 d3 83 db 3d 9c e1 f0 bd 35 2a 4a 3d 78 46 75 3a
       0.10718503 -0.117617816 0.049356658 0.0009356509
0001c0 eb e3 fe 3b 51 0d 0f bd 86 48 27 bd f1 a7 09 bb
       0.007778635 -0.03492481 -0.040840648 -0.0021004642
0001d0 53 de a0 bc a2 07 7b bd 4a 0b c9 bd c0 bc 7a bd
       -0.019637262 -0.061286576 -0.09816606 -0.061215162
0001e0 83 1e ac 3d bd 77 c1 3d 39 e5 ac bd be f8 d8 bc
       0.08404257 0.094466664 -0.08442158 -0.026485797
0001f0 32 05 d7 3c a1 45 ac bc 4d be 8d 3c d3 3f ff 3d
       0.026247595 -0.021029295 0.017302657 0.124633454

linear.3.bias f4 [2]
000000 29 ae 60 bb 21 48 11 bd
       -0.0034283495 -0.035469178
