meta/demos/multiple_experiments/results/models/run_0/emodb_mlp_praat_16-64_C_val-001_learning_rate-0-0001_0_005.model (torch, 10758 bytes, 6 tensors)

linear.0.weight f4 [16, 39]
000000 f3 31 21 3e f7 63 dd 3d 73 e6 13 be b9 04 0b 3c
       0.1574171 0.108100824 -0.14443378 0.008485013
000010 fc 92 c2 3d be 73 6c 3d 17 5e 1d 3e 4c ef ef 3d
       0.09500691 0.057727568 0.15367924 0.11715564
000020 2e 92 1d be b3 e0 96 3d bd a1 85 bc 70 70 ba ba
       -0.15387794 0.07367077 -0.016312474 -0.0014224183
000030 6e f1 40 bd 2e 53 a5 bd 27 a6 1e be 18 fa 9b 3d
       -0.047105245 -0.08072506 -0.1549307 0.07616061
000040 f8 d3 02 be 98 54 12 be 6b b9 d1 3d eb 36 16 be
       -0.12776172 -0.14290082 0.10240444 -0.14669387
000050 84 d1 32 3c 8a e9 b3 bd 63 14 1c be 76 03 f2 3c
       0.01091421 -0.087847784 -0.15242152 0.029542666
000060 59 30 05 bd bf 69 77 3d 3e 51 d3 3d f4 55 eb bd
       -0.03251681 0.06040358 0.1031823 -0.11491004
000070 d7 75 3a bd 2f f3 7c 3c f9 9b 10 be f7 d3 59 bd
       -0.045522537 0.015438839 -0.14121999 -0.05318066
000080 7a be 5f 3d 6e 39 19 be 71 9f 06 be 3b 74 0f be
       0.054625012 -0.14963314 -0.1314676 -0.14009182
000090 d4 f6 3f bd 6c 41 c1 3d 30 05 00 be 9c 40 d3 3d
       -0.046866253 0.09436306 -0.12501979 0.10315058
0000a0 50 75 ba bd c9 15 ff 3a b6 55 0d bd 44 8f 0b be
       -0.09104407 0.0019461449 -0.03450557 -0.1362887
0000b0 3f bb 18 be 93 9e 18 be 8f 17 13 3e bd 17 3e 3d
       -0.14915179 -0.14904241 0.14364456 0.046409357
0000c0 bf ec 01 3d d0 93 0d be 59 4e f1 bd 4e 01 d5 bd
       0.03171992 -0.13825917 -0.11782522 -0.104006395
0000d0 1d f1 b3 3d 5d bd 77 bd 8c ac 38 bd bb 35 e2 3d
       0.08786223 -0.060483325 -0.04508643 0.110454045
0000e0 ba 0e f9 bb c9 1f 08 3d 1c fd d0 bd 5b 1d d9 3d
       -0.0076006325 0.033233438 -0.10204527 0.10601302
0000f0 1e 8a 28 3d 5d e7 18 3d 7a e5 16 be cb f9 e4 3d
       0.041147344 0.03733002 -0.14735976 0.11180457
000100 88 c9 8d 3c a6 79 95 3d 85 8e 15 3e 3e 64 e1 bd
       0.017308012 0.07298593 0.14605148 -0.11005448
000110 da 8e eb 3d 16 d0 1f 3e 26 5f cf 3d 94 48 1f 3e
       0.11501856 0.15606722 0.1012557 0.1555503
000120 19 5f 09 be 2c 84 f2 3d 59 9b a9 3d be 38 e9 bd
       -0.13415183 0.11841616 0.08281583 -0.11387776
000130 07 57 1e bc 04 18 29 3d da 9b 67 bc 7c 10 e6 3d
       -0.009664304 0.04128267 -0.014136279 0.11233613
000140 b8 5d eb bd 29 60 d6 3d 1c 9f e0 3d 0d 83 1f be
       -0.11492485 0.1046756 0.10967848 -0.15577336
000150 75 c0 d4 3d b7 e8 f0 bc da 48 21 be 9e be 4a 3d
       0.10388271 -0.029407842 -0.15750447 0.049498193
000160 f3 1c 11 bd b1 a2 d8 3d e3 36 7f 3d 1f 88 75 3d
       -0.035428 0.10577906 0.062308203 0.05994427
000170 82 e2 15 be ae d8 57 bd 39 9d 07 3d 37 14 2c 3c
       -0.14637187 -0.052696876 0.033108924 0.0105028665
000180 06 1f 1d be d0 18 44 ba c2 97 0b 3d 3f 57 89 bd
       -0.15343866 -0.0007480504 0.034080274 -0.06706094
000190 67 2d 85 3c b8 42 ed bd 86 c7 52 3d 01 fd f5 bd
       0.016257001 -0.11584991 0.05145981 -0.12011147
0001a0 82 ec 09 be 94 87 ee 3d dc c9 09 3e da 76 97 3d
       -0.13469127 0.11646953 0.1345591 0.07395716
0001b0 d5 dd 13 be 76 e4 b4 bc f3 f3 a1 bd d5 d6 35 3d
       -0.14440091 -0.022081595 -0.07907858 0.044394333
0001c0 01 ba 13 3d 17 b8 21 bc 7a 06 fd bd aa 4c 92 3d
       0.03606606 -0.009870551 -0.12354751 0.07143529
0001d0 b0 46 3b 3b f9 78 0c be d8 f9 0b be 3c 41 77 3d
       0.0028576069 -0.13718022 -0.13669527 0.060364947
0001e0 88 46 8d 3c ac e6 1d 3e 86 06 ad 3d 6b 09 57 bc
       0.017245546 0.15420026 0.0844851 -0.013124804
0001f0 10 05 bf bd cb ea 06 3e 95 e4 9c bd 0b 99 07 bd
       -0.093271375 0.13175504 -0.07660786 -0.033104938
000200 ac 50 b4 bd 63 2a 07 3c 89 1f fc 3d f9 7d 09 be
       -0.088044494 0.008249852 0.12310702 -0.13426961
000210 1d 8c 9f bd 6f c7 cb 3d 3e 57 50 3c a5 f6 82 bc
       -0.07790396 0.09950148 0.012716113 -0.01598675
000220 e8 35 1b 3e cd 29 86 bd 2a f5 69 3d 70 5f 5f 3c
       0.15157282 -0.065509416 0.057118572 0.013633594
000230 59 cd 84 3d f5 47 cf bd 94 77 87 3a ff 69 a5 3d
       0.064844795 -0.101211466 0.001033532 0.08076858
000240 c7 df fa bd 76 20 14 3d d2 67 8b bd 99 0f ff 3c
       -0.122497134 0.03616377 -0.068069115 0.031135367
000250 b1 84 f6 3d ea 17 10 3e c3 76 1a bd 64 e7 ec bd
       0.120370276 0.14071622 -0.037710916 -0.11567572
000260 0c 30 12 be 63 f5 8d bd 3f 60 df 3d 4a 2e 21 3e
       -0.14276141 -0.069315694 0.10907029 0.15740314
000270 2a 59 b5 3d f8 ab af bd 0c 05 c8 bd 27 ff 22 3d
       0.08854897 -0.08577722 -0.097665876 0.039794113
000280 aa c5 05 bd 1b 43 92 3d 40 e3 43 bc 86 af a1 bd
       -0.03265921 0.071417056 -0.011956036 -0.078948066
000290 05 98 20 be c8 42 d1 3d 12 14 ce bd bd 1d 20 3e
       -0.15682991 0.10217816 -0.10062422 0.15636344
0002a0 b6 9c 7c bb 24 19 0d 3e db 94 c0 bc b5 02 1c 3e
       -0.0038545555 0.13779122 -0.02350848 0.15235408
0002b0 c4 9b bf bd 80 a8 0a be ff b9 74 3d e8 82 a9 3d
       -0.09355882 -0.1354084 0.059747692 0.082769215
0002c0 2b b4 19 bd fa ce ab 3d b6 eb 8c bc ce 76 bf 3d
       -0.037525337 0.08389087 -0.01720224 0.09348832
0002d0 ee db 71 3d ed c2 e6 3d 0b 32 1f be e7 57 13 be
       0.059047632 0.11267648 -0.15546434 -0.14389001
0002e0 9f f9 08 bd 89 58 1b 3e dd 5b 6c 3d 99 97 03 bc
       -0.033441182 0.15170492 0.057704795 -0.008031749
0002f0 64 bf 20 be 06 23 19 be bf b4 e8 3d d1 e4 40 3d
       -0.1569801 -0.14954767 0.113625996 0.047093216
000300 fa 4c e7 3d c5 f5 da bd a8 a1 26 3c e2 f1 f6 3d
       0.11293979 -0.10691408 0.010170378 0.12057854
000310 8b 24 c0 3d 0e ff 70 3d f4 1d f8 3c 53 7e eb 3d
       0.0938197 0.05883699 0.03028772 0.11498704
000320 1c 9d 67 bd bd c9 4d bd 9a 86 d2 bd bb b8 a7 bd
       -0.056546316 -0.05024122 -0.102795795 -0.081895314
000330 9e 75 d4 3d b0 64 bc 3d 45 b6 19 bd 85 38 23 3d
       0.10373996 0.09198892 -0.03752734 0.039848823
000340 10 fe 18 bd 30 b9 e4 3d 26 4f eb bd e1 dc 13 be
       -0.037351668 0.11168134 -0.11489706 -0.14439727
000350 8d 19 8e bd 0d 5f c6 bd 3d b0 0a 3e 58 c6 1d bd
       -0.06938467 -0.09686098 0.13543792 -0.038519233
000360 1a 40 58 bd bd 13 00 bd de 8e ab bd 17 a9 a3 3c
       -0.052795507 -0.031268824 -0.08376859 0.01997809
000370 1f 78 46 bd 1f 92 1d be 3f 48 08 3e 21 fd 8d bd
       -0.0484544 -0.15387772 0.1330881 -0.06933046
000380 c1 15 69 bd cf 61 d8 bd 6e cb f2 3d 6c 2e 99 3b
       -0.05690551 -0.105655305 0.118552074 0.0046747234
000390 f9 6e 02 3e ef c8 01 be 8a e6 40 bd 9f 5f ab 3d
       0.12737645 -0.12674306 -0.04709486 0.08367848
0003a0 b7 fd 01 3e 93 12 83 3d 00 5c db 3d b4 8e cf 3d
       0.12694441 0.06400027 0.10710907 0.1013464
0003b0 b0 3a cb bd b6 6c 6b 3b 5c 74 14 3e f4 b6 4f bd
       -0.09923303 0.003592295 0.14497513 -0.050711587
0003c0 50 df 0a 3d 3f aa bb bc e0 b2 2f bd c3 45 d5 bd
       0.033904374 -0.022908328 -0.042895198 -0.104136966
0003d0 44 01 13 3e 7e dd 91 3d 1c 64 9a bb e1 90 c8 3d
       0.14355952 0.071223244 -0.004711641 0.097932585
0003e0 42 ae cd bc 6a ee 67 bd 88 d8 20 bd 29 fb e0 bd
       -0.025107507 -0.056623854 -0.039269 -0.10985405
0003f0 ec 04 72 3d cf c3 0f 3e 12 3a 07 be 77 ec d5 3d
       0.059086725 0.14039539 -0.13205746 0.10445493

linear.0.bias f4 [16]
000000 cf 62 6c 3d 6b 65 1f 3e 93 8b bb 3d 04 af aa bd
       0.05771142 0.15566032 0.09157481 -0.08334163
000010 e7 6e 22 be da d1 ff bd 99 a9 39 3d 2d b0 80 3d
       -0.15862618 -0.12491198 0.045327757 0.06283603
000020 e4 10 a2 bd 96 2d cb 3d 47 65 86 3c d3 f6 a9 3c
       -0.07913378 0.09920804 0.016405715 0.020747578
000030 89 c6 44 bd dc 20 af bd 72 25 6d bd 7b a0 cc 3c
       -0.0480409 -0.08551189 -0.05789704 0.024978867

linear.1.weight f4 [64, 16]
000000 70 a2 84 3d 2b 13 82 bd 0e 7b 7c be f9 e9 6c 3e
       0.06476295 -0.06351312 -0.24656317 0.23136128
000010 f8 a8 74 bd b8 23 69 3e 30 22 bb bc 2e ea ee 3c
       -0.059731454 0.22767532 -0.02284345 0.0291644
000020 8d 05 47 be fb a0 31 3d c3 1e e6 bd c3 2d fc bd
       -0.19435711 0.043366414 -0.11236336 -0.12313416
000030 91 f4 18 3e d0 aa a5 3c 70 38 cb bd f0 e2 ec bd
       0.14937045 0.020223051 -0.09922874 -0.115667224
000040 b0 f2 09 3d 8e ac 93 bd 28 65 10 be 7b 50 71 3e
       0.03367871 -0.072106466 -0.14101088 0.23565857
000050 f0 c2 b0 3d 8a 12 78 be dc 7c 32 3e c0 4e 2a 3e
       0.086309314 -0.24225822 0.17430443 0.16631603
000060 3c bc 42 be 79 81 b2 bc a6 5d 67 3e 60 89 d9 bd
       -0.19017118 -0.021790253 0.22594318 -0.10621905
000070 25 b1 77 be 48 7b cc 3d ba 9b 18 3e 38 2c b6 3d
       -0.24188669 0.099844515 0.14903155 0.08895153
000080 f0 6d ee 3c 30 1c 67 3e 7c b2 db 3d cd 9f 03 bd
       0.029105157 0.22569346 0.107274026 -0.03213482
000090 e0 ed 2d bc 44 b8 d5 3d ec 30 c1 3d da 90 8e bd
       -0.010615796 0.104355365 0.09433159 -0.06961222
0000a0 cc dc 7d 3e b9 69 53 bd b9 22 2a be a6 40 48 be
       0.24791259 -0.051614497 -0.16614808 -0.19555911
0000b0 9d 40 94 bd 1a 22 2f be 7e 4c 30 be 18 bc d5 3d
       -0.072388865 -0.17102852 -0.1721668 0.10436267
0000c0 a4 19 6c 3e 3b 11 ec 3d 98 08 44 be 38 93 aa bd
       0.23056656 0.11526724 -0.19143903 -0.08328861
0000d0 0c f4 75 3e 40 3b c3 bc 0c 01 b8 3d bb b2 57 3e
       0.24018878 -0.023831964 0.08984575 0.21064274
0000e0 91 ba 98 bd 97 42 c0 3d 48 8f 4a 3e 49 2e 3d be
       -0.0745746 0.09387701 0.1978122 -0.18474688
0000f0 fe a4 51 be 0c 92 58 be 18 bd 15 3d 7a 3e 36 3e
       -0.20473096 -0.21149462 0.036557287 0.1779727
000100 d2 6f 6b 3e 26 db 79 3e 30 f2 54 be 04 3a 2e be
       0.22991875 0.24400005 -0.20795512 -0.17014319
000110 9c e5 12 3e 4c cd 49 be b8 06 58 3e a1 a8 ff 3b
       0.14345402 -0.19707221 0.21096313 0.0078020846
000120 0a 25 64 be 63 67 ca bd 20 0a 80 be 55 bb 4f bd
       -0.22279754 -0.09883001 -0.25007725 -0.050715763
000130 10 81 62 be 94 ef d6 bd 4c d8 41 3e 90 e4 ba 3d
       -0.22119546 -0.10494915 0.18930167 0.09125626
000140 b8 8b 4f bd dd b0 24 3d ca 00 1e be 68 33 d9 3d
       -0.050670356 0.040207732 -0.15429989 0.10605508
000150 ec 2e 95 bd e0 06 55 be a0 98 95 3d c6 18 65 be
       -0.0728434 -0.20803404 0.073045015 -0.22372732
000160 69 91 c4 3d f6 0b 65 3e 7a 92 ea 3d 8c e4 d4 bd
       0.09598047 0.22367844 0.114537194 -0.10395154
000170 8f d7 46 3e 80 93 f1 3c 80 d7 10 bd 8a 71 71 3e
       0.19418167 0.029489279 -0.035361767 0.23578468
000180 80 75 6e bb c9 70 3a 3d 5c ed 50 be 73 d0 f0 bd
       -0.0036385953 0.045517717 -0.20403045 -0.117585085
000190 fa dc 0f be 28 b2 57 3d 40 6b 26 bd 9e b9 c0 bd
       -0.1404914 0.052660137 -0.040629625 -0.09410404
0001a0 b3 73 94 3d db 9c 25 be e3 7d 78 be 6a 4a 52 3d
       0.072486304 -0.16173117 -0.24266772 0.051340498
0001b0 13 07 01 3e 30 cb 07 bd 34 8d 65 be 00 c4 81 bc
       0.12600355 -0.03315276 -0.22417146 -0.01584053
0001c0 ba 18 12 be 02 96 e0 bd 68 28 41 3e 79 6e 90 3d
       -0.14267245 -0.10966112 0.1886307 0.07052321
0001d0 fc 33 6e be 8c 9a 9c bd b4 d6 43 be 46 d4 49 3e
       -0.23262018 -0.07646665 -0.19124871 0.19709882
0001e0 89 3d 38 3e 85 62 17 be 5b 18 d6 3d 08 c3 6f be
       0.17992224 -0.14783676 0.10453864 -0.23414242
0001f0 8a 32 53 bd 66 ef 1d be 00 fb 57 bd e0 00 13 3d
       -0.05156187 -0.15423355 -0.052729607 0.035889506
000200 0e fe 00 3e 5a 86 ee 3c 8c 7d 16 3e 83 82 3e bd
       0.12596914 0.029116798 0.1469633 -0.046511184
000210 22 36 5f 3e 4c 5d f5 3d 52 55 06 be ab 38 df 3b
       0.21797994 0.119806856 -0.13118485 0.0068121753
000220 fe 41 28 be b9 96 2e 3e 36 43 5d be d9 93 73 3e
       -0.16431424 0.17049684 -0.2160767 0.23786868
000230 37 49 4e be 9c 26 47 3e 90 55 fb bc 1c f6 d6 3d
       -0.20145117 0.19448322 -0.030680448 0.104961604
000240 b8 cc 26 3d ff 63 0e 3e 4c df 06 be 57 99 21 bd
       0.04072258 0.13905333 -0.13171118 -0.039452877
000250 00 94 08 3e 62 54 3d 3e 80 00 27 bc e6 0b 7c be
       0.13337708 0.1848922 -0.01019299 -0.24613914
000260 b0 79 65 be 17 2a 79 3d 1d 47 6d 3e bc e1 7d bd
       -0.22409701 0.060831156 0.23171659 -0.061982855
000270 ba 52 7f bb bc 1e 10 3e 2e a1 75 be 62 b1 22 3e
       -0.003895922 0.14074224 -0.23987266 0.15887979
000280 92 5d 5a 3e ed 4a 8f 3d 30 2b a6 bc 93 c8 03 3e
       0.21324757 0.06996713 -0.020284265 0.12869482
000290 28 47 b6 bd 7a c3 79 3e b2 eb 70 be a6 35 60 be
       -0.08900291 0.24390975 -0.2352741 -0.21895465
0002a0 43 99 f5 bd 2f 26 56 bd 5a 58 fa 3d 6f 3d 51 3e
       -0.11992123 -0.05228251 0.12223883 0.20433591
0002b0 ee c1 94 bd b8 0b 59 be 1a ba 43 3e 26 1a 62 3e
       -0.07263552 -0.21195877 0.19113961 0.22080287
0002c0 18 69 8e bd b7 4f da 3d 76 95 59 3e 6d 1d 59 be
       -0.06953639 0.10659736 0.21248421 -0.21202631
0002d0 50 c6 c0 3c 84 f5 f1 3d 50 ff 44 3d a1 c8 88 3b
       0.023532063 0.118144065 0.048095047 0.0041743075
0002e0 9d b9 09 be 2b 29 f1 3d 31 b5 05 3e b4 a3 85 bc
       -0.13449712 0.1177543 0.130574 -0.016313411
0002f0 cc 7a 02 3d c8 bf 07 3e c0 ce 6e 3c f8 cf 4d 3d
       0.03185539 0.13256752 0.01457566 0.050247163
000300 00 a5 e2 ba a2 94 6d be 9a 98 51 be 72 85 92 3d
       -0.0017291605 -0.2320123 -0.20468369 0.07154359
000310 14 c8 b6 3d a0 17 07 bd d8 95 32 bd d8 ae 64 3e
       0.089248806 -0.032981515 -0.043599933 0.22332323
000320 14 b5 c7 3d 88 05 69 3d b5 a9 2d bd df c6 0f 3e
       0.09751335 0.05689004 -0.042398173 0.14040707
000330 43 0c 4e 3e d8 10 2e be 00 d8 19 3a 00 96 55 3e
       0.20121865 -0.16998613 0.00058686733 0.20858002
000340 2a d1 37 be 2a d7 65 3e 80 fa 68 bb 9d 10 58 be
       -0.17950884 0.2244536 -0.00355497 -0.21100087
000350 aa d1 48 3e c0 d2 b2 3b 86 16 69 be 96 b8 4e bd
       0.1961123 0.0054572523 -0.22762498 -0.050469004
000360 06 af 45 3e e4 74 f1 3d e7 62 52 be 9f 85 c9 3d
       0.19305047 0.11789873 -0.20545541 0.09839939
000370 84 f0 f8 3d 68 63 23 bd 04 4f 79 be 5a 1a 01 be
       0.1215525 -0.039889723 -0.24346548 -0.12607709
000380 d8 50 65 bd eb a4 06 be c6 b9 73 3e 3d ae 5e be
       -0.0559853 -0.13148849 0.23801336 -0.21746154
000390 30 f9 f9 bc d4 c7 88 bd 60 6c 12 3c 74 dd 58 be
       -0.03051433 -0.06678739 0.008936971 -0.21178228
0003a0 11 17 6b be d3 0c 19 bd c1 dd 8b bd 8d 4a 63 ba
       -0.22958018 -0.037365746 -0.068294056 -0.0008670472
0003b0 29 ec 52 3d 44 22 ca 3d 54 9a 4d be 42 a4 29 be
       0.05149475 0.09869817 -0.20078403 -0.16566566
0003c0 a0 9e 25 bd 0b 33 14 3e e0 1f 19 bc ae ed 96 bd
       -0.04043448 0.14472596 -0.0093459785 -0.073695526
0003d0 6e d1 2e 3e f4 ee cf 3d 58 0d 4a bd 4f 6a df 3d
       0.17072079 0.101529986 -0.04932913 0.10908949
0003e0 4b 06 2e 3e d5 d8 fb 3d 34 b5 85 bd 79 7b 8b 3d
       0.16994588 0.12297217 -0.065287024 0.0681066
0003f0 1a f5 8a 3d c8 ee 62 be 58 19 c9 3d 64 56 b5 3d
       0.06785031 -0.221614 0.09819287 0.08854368

linear.1.bias f4 [64]
000000 fe 0b 44 3c 15 f3 81 3b 34 35 12 3e d0 65 93 3c
       0.01196575 0.003965745 0.14278108 0.017992884
000010 f7 c5 6e be 61 15 a6 3d 75 d2 2e 3e 31 24 94 bd
       -0.23317705 0.081095465 0.1707247 -0.072334655
000020 4a d7 1e be 11 ca 09 3c c2 c9 c0 bd b4 e2 21 be
       -0.15511814 0.008409993 -0.09413482 -0.15809137
000030 6e fe 44 3e 3e cd a7 3d 5a 8c 2c 3e 0b dd fb 3d
       0.19237682 0.08193444 0.16850415 0.1229802
000040 9f a4 43 3d ae 81 88 3d ec 06 5a be 4d f3 65 be
       0.047764417 0.066653594 -0.21291703 -0.22456093
000050 08 25 16 be 3b a8 0f be b8 03 b5 bd b6 5e 02 be
       -0.14662564 -0.14029019 -0.088386 -0.12731442
000060 46 3d 8d 3d eb 65 d9 bc e4 bf 3b be c9 03 66 be
       0.068964526 -0.026537856 -0.18334919 -0.22462381
000070 d3 30 64 3e a0 11 7f 3e a3 b1 c2 3d 61 a2 88 3d
       0.2228425 0.24909067 0.09506538 0.06671596
000080 74 9e 6a 3e 67 d3 66 3e fb c3 ca 3c ac 56 c2 3c
       0.22912008 0.22541581 0.024751654 0.023722969
000090 7f b3 77 3e ae 2b 63 3e 3f f6 b7 bd bf af 5b 3e
       0.24189566 0.22184631 -0.089825146 0.2145376
0000a0 9b 3a 65 be 36 ee 3d be 18 b0 fc 3d 5d 23 63 be
       -0.22385637 -0.18547902 0.12338275 -0.22181459
0000b0 ec 8b 6f be 9e 97 2c 3e 1e 0c 80 be f3 18 25 be
       -0.2339322 0.16854712 -0.25009245 -0.16122799
0000c0 45 dd 77 3e f7 9b 71 be ab 6e 39 bd 52 e7 fc bc
       0.24205501 -0.23594652 -0.045271557 -0.03087202
0000d0 fc 70 07 3e 29 60 13 be 1a f4 70 3c 59 ef 36 bd
       0.13226694 -0.14392151 0.014706636 -0.044661853
0000e0 00 dd b6 3d 0f 91 e7 bd 38 a1 2f 3e 76 1d 08 be
       0.08928871 -0.113069646 0.17151344 -0.13292488
0000f0 8a 12 7b 3e b6 6f 3e be 0d 75 e2 3d 17 bf 89 3d
       0.24518791 -0.18597302 0.11057482 0.067259006

linear.3.weight f4 [2, 64]
000000 ef d4 56 3d 6f e1 e7 3c 20 d1 d0 bd cf cb 18 3b
       0.052449163 0.028305737 -0.101961374 0.0023314839
000010 ce ab a0 bb 30 c6 0f 3d 09 c2 f8 bd 2d ce 8d bd
       -0.004903293 0.035101116 -0.12146384 -0.069240905
000020 77 e9 90 3d b7 81 e9 bd 8a f6 ba 3d 0d 84 3a bd
       0.0707578 -0.11401694 0.09129055 -0.04553609
000030 42 10 7b 3d 57 3b 89 bd ec 39 a4 3d 3d 1c 69 3d
       0.0612948 -0.06700771 0.0801886 0.056911696
000040 b4 0f 7a 3c a0 c2 38 bd 51 0d 56 bd aa 93 d0 bd
       0.015262533 -0.045107484 -0.052258793 -0.10184415
000050 d9 10 eb 3d 1d e1 80 bd 9d 11 f6 3d dd 86 3e bc
       0.11477823 -0.06292937 0.12015078 -0.011628834
000060 84 fa bd bd 48 7f d5 bc 3b c7 02 bd 6a 5c cc 3d
       -0.09276298 -0.026061669 -0.031928282 0.09978564
000070 5f a1 8b bd 22 cd d2 3d fb 00 da bd a1 17 b2 3d
       -0.068178885 0.10293032 -0.10644718 0.08695913
000080 2b 9a f4 bd 1c be dd 3d 6e 11 69 3d 23 b6 e4 3d
       -0.11943468 0.10827276 0.056901388 0.11167552
000090 38 e9 f5 3d 63 29 2b bc 2d a5 27 bd 19 90 9c bd
       0.120073736 -0.010446879 -0.04092901 -0.07644672
0000a0 a7 7b bd 3d 98 fd 8b bd b8 56 de bd c9 ef 13 3a
       0.092521004 -0.068354785 -0.10856384 0.0005643336
0000b0 0b 15 7f bd 03 f2 44 3d 73 71 fe bc c9 86 aa 3d
       -0.062275928 0.048082363 -0.031059956 0.083264895
0000c0 54 95 bc 3c bf 0f c2 3c 45 23 a7 3a 5e 5b 95 bd
       0.023020424 0.023689149 0.00127516 -0.072928175
0000d0 55 fd d1 bd dc d2 be bd b9 f9 a0 3b 2d 51 ad bd
       -0.102533974 -0.09317562 0.0049125818 -0.08462749
0000e0 db a1 9b bd 7a b1 48 3d b3 a0 98 bd b6 01 09 3d
       -0.07599231 0.04899738 -0.07452526 0.033448897
0000f0 e1 7b 97 3d 9f 24 9f bd 4e 76 af bd 11 26 d4 bd
       0.07396675 -0.07770657 -0.08567487 -0.10358823
000100 7b 13 4f bd 17 a4 d7 bc 7b c0 59 3d a2 16 87 3d
       -0.050555687 -0.026323361 0.05316208 0.06596114
000110 ff 63 bb 3c 20 05 6b 3d 57 ab c3 3a 07 a0 60 3d
       0.02287483 0.057377934 0.0014928383 0.054840114
000120 4b 98 a9 bd db 7e cd bd d8 ff c4 3d 22 6f a4 3c
       -0.08281001 -0.100339614 0.09619111 0.020072524
000130 8e 14 27 3c a1 52 96 bd 3c 79 a9 3d 59 26 78 bd
       0.010197772 -0.07339979 0.08275077 -0.060583446
000140 d6 0b 95 3d 3a 45 8b 3d 3d 09 80 3d e2 c5 cc 3d
       0.07277648 0.06800313 0.06251762 0.09998681
000150 6c bb 21 bd a7 0a 98 3d d6 92 00 bc 8c 07 81 bd
       -0.03948538 0.07423907 -0.007847508 -0.063002676
000160 29 02 51 3c eb 6d a6 bd 99 01 e3 3d fa 0d a4 3d
       0.012756863 -0.08126434 0.11084289 0.08010478
000170 67 57 f5 bd a9 a7 b1 bc 06 9b 92 3a 32 fb 42 3d
       -0.11979561 -0.021686392 0.0011185117 0.04760284
000180 eb cf 1b 3d ed 56 01 3e f4 fd 8f 3d b5 76 ca 3d
       0.038040083 0.12630816 0.070308596 0.09885923
000190 74 ff ac 3d 31 dc 9a 3d bf f0 88 bc cf 1a 51 bd
       0.08447161 0.075615294 -0.01671636 -0.051050957
0001a0 0b ec 86 3d 96 27 e8 3d 3b 5e 31 bd a4 b2 5e 3c
       0.065879904 0.113356754 -0.043302756 0.013592396
0001b0 1d 7f db 3d 02 e3 f0 bd 6b 20 4a 3d 04 35 75 3a
       0.10717604 -0.11762048 0.049347322 0.0009353908
0001c0 6c 58 ff 3b fc 06 0f bd 8a 5d 27 bd 76 6e 0a bb
       0.007792523 -0.03491877 -0.04086069 -0.0021122969
0001d0 c1 e1 a0 bc fa f8 7a bd 58 0d c9 bd d7 b3 7a bd
       -0.019638898 -0.0612726 -0.09816998 -0.061206665
0001e0 b5 17 ac 3d 4e 7c c1 3d db e9 ac bd ba ec d8 bc
       0.08402959 0.09447537 -0.08443042 -0.026480068
0001f0 71 19 d7 3c 3c 4d ac bc a0 c4 8d 3c 39 43 ff 3d
       0.026257249 -0.021032922 0.017305672 0.124639936

linear.3.bias f4 [2]
000000 b7 81 61 bb e7 3a 11 bd
       -0.0034409591 -0.035456564
