meta/demos/multiple_experiments/results/models/run_0/emodb_mlp_os_16-64-128_C_val-001_drop-3_learning_rate-01_0_006.model (torch, 48468 bytes, 8 tensors)

linear.0.weight f4 [16, 88]
00000000: 54d0 563c 7c9d 39bd e2eb 3b3d 6fd4 943c
00000010: 6c62 0fbe e85e 1ebe 430e 043d 56fc 15be
00000020: 4ab5 8ebd 5e23 00be d378 e1bb 08ae 91bb
00000030: 7915 d4bd 30b4 0bbe afb5 293d bb56 bdbd
00000040: a352 a6bd 60c9 2dbd cfe7 8dbd ac09 f03c
00000050: 3685 a2bd d8b1 36bd 7f16 2dbd 0725 16be
00000060: 0c41 513d 309d 3d3e 0772 22be b5fa 773d
00000070: db4d b03d 5c7c 673e 075f b2bb 1a3b 95bd
00000080: 3ef5 35bd ba0a 92bd ca67 63bd 4273 babd
00000090: f8e2 18be f447 99bd e716 553d 3e12 073d
000000a0: 2106 d1bc 954c 13be ea7f 33bd fb39 52bd
000000b0: 6035 d63d d197 f93d e9fc fa3c f1cd f13c
000000c0: 3621 80bd b9e7 18be 9d79 1c3e 5eb1 fc3d
000000d0: cbbd d5bd 0ff5 c1bd df76 a03b 6bc4 90bd
000000e0: 0ea7 e13c ad74 b0bc 68d2 823d e1f6 1f3e
000000f0: ec47 22be a0db c1bd b3c0 87bd fcca 393c
00000100: 5298 8b3d 5255 58bd 8eb6 0bbb e3bf 283d
00000110: bc8b 0bbe c05a 07be 7e8b f83d e4d5 25be
00000120: 8a13 09be 414c 343e 848b 1e3e 1690 3b3c
00000130: d625 013e cf4f e6ba c5fa 12be 00f5 a6bc
00000140: 00cd 443c be85 bebd e243 753c e0bf 753b
00000150: 7d6f 7f3c 97c2 d3bd c743 cabd 02d9 d03d
00000160: f627 09bd 357f 263d cb42 163d c1fa d4bd
00000170: b8d1 96bc 429d efbb cfe5 d6bc 5da1 d03c
00000180: 306f 24bd a016 8dbd 8e9e 1fbd 5d0f 3ebd
00000190: 87d6 babd 6a9f c83b 6699 d0bd 8cf0 24bd
000001a0: 708d fbbc 8aab 243b 2262 6d3d c8de 933d
000001b0: 4a86 8bbc f1d1 483c c081 d63d 6c80 b9bd
000001c0: 456e 57bd 87b1 be3d 5dfa 83bd 56b9 d13d
000001d0: 4550 d83d ac8d 9d3d 2d5a ad3d 2c36 8bbd
000001e0: ac65 b93d 164e dabd 1ab3 c03c 2e8f b1bd
000001f0: 93f0 55bd 4e4e da3c ca3c d23c d94e 58bd
00000200: 6258 5fbc 6632 c63d 1e19 d8bd 711a d9bc
00000210: 69f1 733d 067a 9ebd 7ec3 52bd fc45 ca3d
00000220: 3ec2 67bc 6ca4 81bb ec4b a93c 4839 3b3d
00000230: 8616 7bbd 16e1 b73d 4567 8c3c d9ab 2abd
00000240: 4f96 8ebd 296f cf3d 59ef 9fbd ec4a 3cbd
00000250: 7d3e 6d3c 8bf1 74bd a975 2fbc 1e1e a9bd
00000260: e704 8a3c de51 d0bd 1353 d7bd 67d7 11bd
00000270: bed6 4e3b 2847 a8bd 5b28 85bd fcc5 20bd
00000280: 4211 86bd 59cb b83d 20a5 9dbd 3190 663c
00000290: f7d1 a23d 16c4 ccbb d384 8abc 15c9 9c3d
000002a0: 5a59 6c3d 276b 8abd e800 a4bd f443 86bc
000002b0: 7d1c 2e3d 4f9b 69bd aadb c2bd ae0d 5e3d
000002c0: 09b0 c13b f9ee 1a3d d96c 4ebd 7c25 fcbc
000002d0: 4d0e 743d eaa6 30bd d331 ef3d 36b5 4e3d
000002e0: 7bc6 b8b7 e196 0ebe 7b8a 783b 4101 12be
000002f0: de00 b23c 10a6 5ebc 9ad1 aabc 2cb4 d5bd
00000300: 3494 633d 956f 13be 780a 2cbd f6e2 d3bd
00000310: c2ca 593c 7f81 f6bd 0670 e7bd 0b0d b7bd
00000320: 8025 67bb aa79 96bd e8c8 663b dd15 aa3d
00000330: 4cb1 873d 6dfb 1fbc dce1 19bd 3d41 f7bd
00000340: 11e1 afbc 1546 6a3d 1724 0fbe 83ab d5bd
00000350: 0e6d a0bd f800 9b3c 5bc0 05be f375 e5bd
00000360: 323d 0f3d b88f 133d d09b 04be 49c4 2abc
00000370: b897 363c 4f5e f4bc a62c e33c 4dd1 c63b
00000380: 7319 cf3c 2c8e 3b3d 7134 1c3e 646d 013d
00000390: 8daf c0bb 4f28 0d3d 3cd6 c2bd d9d5 a3bd
000003a0: 89d8 da3d 99d6 403d fe75 8d3d 702b f0bc
000003b0: d234 b7bd 722e 06be b20e 163d f65c 0fbe
000003c0: 4474 ee3d 7e06 37bd 417a 93bd fe47 dabc
000003d0: febb 96bd 9c38 12bd 9dcf babd 3453 6d3d
000003e0: 9598 1abe e247 49bd 80c4 4d3d 4f9e ee3c
000003f0: c43e 8abb 4310 a3bd 4ae9 063d 0df0 0dbe
0.013111193 -0.045316204 0.045879252 0.018167702 -0.14002389 -0.15465891 0.032240164 -0.1464704
-0.06968172 -0.12513492 -0.0068808584 -0.004445795 -0.10355658 -0.13642955 0.041433033 -0.09245058
-0.081212305 -0.042428374 -0.069289796 0.029301487 -0.07935564 -0.0446032 -0.042257782 -0.14662562
0.051087424 0.18516994 -0.1586381 0.060541827 0.086086 0.22606033 -0.005443457 -0.07286663
-0.044423334 -0.07130952 -0.055518903 -0.09104015 -0.14930332 -0.07484427 0.052023795 0.03297638
-0.025515618 -0.14384682 -0.04382316 -0.051324826 0.10459399 0.1218716 0.030638175 0.029517146
-0.062563345 -0.14932145 0.15280767 0.123385176 -0.10436591 -0.09470569 0.004896983 -0.07068714
0.027545478 -0.02154001 0.06387788 0.1562152 -0.15847749 -0.09465718 -0.06628551 0.011339899
0.06816162 -0.052815743 -0.0021318528 0.041198622 -0.13627523 -0.13218212 0.12135981 -0.16194874
-0.1338636 0.17607214 0.15482908 0.011447927 0.1261209 -0.0017571392 -0.14353473 -0.020380497
0.012011766 -0.09302853 0.014969798 0.00374984 0.015590546 -0.103398494 -0.09876209 0.10197641
-0.033485375 0.040648658 0.036684792 -0.1039939 -0.018410549 -0.0073124478 -0.026232628 0.025467569
-0.0401451 -0.06889081 -0.03896957 -0.04640137 -0.09122949 0.0061225193 -0.101855084 -0.040268466
-0.030707091 0.002512666 0.057954915 0.072202265 -0.017031807 0.012257085 0.104739666 -0.09057698
-0.052595396 0.093112044 -0.064442374 0.10240428 0.10562185 0.076930374 0.08464465 -0.06797442
0.090525955 -0.10659425 0.023522902 -0.086698875 -0.052231383 0.026648667 0.025663752 -0.05280957
-0.013631912 0.096775815 -0.10551666 -0.026501866 0.0595564 -0.07738118 -0.051455967 0.0987663
-0.014145432 -0.003956368 0.020666085 0.045708925 -0.061300777 0.089784786 0.017139086 -0.041667793
-0.06962263 0.10128624 -0.07809324 -0.04596989 0.01448023 -0.059800666 -0.010709205 -0.082576975
0.01684804 -0.10171865 -0.10513892 -0.035605814 0.0031561102 -0.08216697 -0.06501838 -0.039251313
-0.065462604 0.090231605 -0.07697511 0.014072464 0.07950204 -0.006248961 -0.016909039 0.07655541
0.0577024 -0.06758719 -0.08007985 -0.016389824 0.042507637 -0.05703288 -0.09514554 0.054212265
0.0059108776 0.03782556 -0.050396774 -0.030779593 0.05958395 -0.04312793 0.11679425 0.050465785
-2.2026934e-05 -0.13924743 0.0037924338 -0.14258291 0.02172893 -0.013589397 -0.020851899 -0.10434756
0.05556126 -0.14398034 -0.04200217 -0.10346024 0.01329297 -0.12036418 -0.11300664 -0.089380346
-0.0035270154 -0.07347424 0.0035214964 0.08304951 0.066256136 -0.009764534 -0.037568912 -0.1207299
-0.021469625 0.05719574 -0.13978611 -0.10433104 -0.078333005 0.01892136 -0.13061659 -0.11204138
0.03497047 0.036025733 -0.12950063 -0.010422775 0.011144571 -0.029830126 0.027731251 0.006067431
0.02528069 0.045789883 0.1525438 0.031598464 -0.0058803023 0.03446227 -0.09513518 -0.079997726
0.10685832 0.047079656 0.06907271 -0.029317588 -0.089456216 -0.13103655 0.03663511 -0.14000306
0.1164327 -0.044683926 -0.072010525 -0.026645657 -0.073600754 -0.03569852 -0.0912163 0.057940677
-0.15097268 -0.04914082 0.050236225 0.029128222 -0.004218908 -0.07962086 0.032937326 -0.13861103

linear.0.bias f4 [16]
00000000: 55e9 02be d85d 183d 642e 5a3d 7e17 07be
00000010: 9499 503c 3615 17bd 962c b8bd 6d52 31bd
00000020: 7051 68bc 8dac 7d3d 3fda a9bd 00b3 10be
00000030: c3bc 3bbd 71d1 b3bd 8e3c 55bc ec14 8cbd
-0.12784322 0.03719887 0.053266898 -0.13192555 0.012731928 -0.036885463 -0.08992879 -0.043291498
-0.014179572 0.061932135 -0.0829358 -0.14130783 -0.045834314 -0.08780182 -0.013014926 -0.06839928

linear.1.weight f4 [64, 16]
00000000: 19db febd b4c0 37be 7912 173e 777a 0e3e
00000010: 827b 093e 6d6f ecbd 07cd 3f3e c822 b0be
00000020: 8657 923d 60b5 163e 7c2e 863d 44bd 8ebe
00000030: 3537 adbd c174 e63d a468 6ebc c10b 55be
00000040: 8cc5 5a3e 807b d53d fbb1 21be e4ad 4fbd
00000050: b39a e73c 1d60 e23d 43e6 223e e2ff 373e
00000060: e512 173e fa62 54be 389a 6fbd dcd0 253e
00000070: 818a ec3d e586 593e 0127 39be 4633 2bbe
00000080: 929f 22be 7022 01bd 0b7e 403e 53d9 073d
00000090: 59ff f93d f525 c4bc 7065 ba3d 39e1 63be
000000a0: 7086 4cbe 745b 7d3e 18b9 523e 7e05 0fbe
000000b0: 6adc d73d 1356 ffbb 0800 88be b93a 90bd
000000c0: 7ba4 d6bd c00d 73bc f405 1abd 67ea 273e
000000d0: b4bf fd3d ca2d 45be 881c 3a3e 319a 83be
000000e0: 8df0 a93b b0de 983c 4062 553d 50f4 febd
000000f0: f520 473e deb7 453d 56c4 303e a8a7 15be
00000100: 3920 dfbc 0813 3d3e 03b5 46be 444a babc
00000110: 85fa ec3d 7b94 91be 88e3 043d 81ed 163d
00000120: bda7 adbc 8064 5e3e 905c 9e3d 03bd d5bd
00000130: 2f79 d4bd ed7f d3bd 684e c93d 3df1 72bd
00000140: c930 d9bd f2b8 74be 4507 21be 54b0 b73d
00000150: 48a3 973d c727 16be 6be7 d1bc 9669 423d
00000160: 9cfc 993d a0e5 99bd 1c9f b13d 2020 2ebd
00000170: 38c1 c03d a75d 8dbe 4bad 58bc c8d6 6e3d
00000180: 8aa3 56be 3e56 7b3e 1eb0 4a3e f3e7 a63e
00000190: e70d 06bd ce99 d0bc f572 dcbd b831 2fbe
000001a0: 1c8d a1ba b4f8 103e 6c9d 20be a46c 183e
000001b0: 8332 523e 758f 6f3e 5ff5 cabd c529 edbd
000001c0: 5715 8dbd a44a 3ebe 9e87 95bc a598 7b3e
000001d0: c193 8f3e 4e44 15be 0d9b 3ebe 687d 9c3e
000001e0: 4d0b dcbd a685 383e ae62 433e b310 8abd
000001f0: 30e4 f8bc 87ce a53e 4b44 c53d 65b6 0b3e
00000200: 18d5 923d b69f 123e e410 813e 564f babd
00000210: b1dd f2bd 318d 45be 4c92 0a3e bf53 eebd
00000220: ce2f 153e 9e9b 6bbe 6c7a 713e 79e1 7f3e
00000230: 86f4 fabb 1940 09be 5a09 3dbe 1ebc e6bd
00000240: 7003 153e befb 133e 149d 19be b37b 323e
00000250: 7877 93bc 9e5f 84be 0ecb ccbd 7f3a 06be
00000260: 04f3 ccbd 1854 453d 1ca6 99bd d813 2e3e
00000270: 987d 263e 205e f3bd 6e0d 413e d03f 85bd
00000280: b593 13be 307a 95bc d8ba 8a3d 7cba 7e3e
00000290: aacf 933e 5e58 f6bd 1941 b63d cb06 20be
000002a0: 056e 54bc 2ed8 00be d2ea 72be 53bc 603b
000002b0: 6c36 883d b53a 3cbe 28c6 0cbe 032b 40bc
000002c0: 53fd c33c 2c5d 51be fcee ee3d 0622 27be
000002d0: 443d 433d 0030 3f3c 71ea 92be cc77 d03d
000002e0: d00a a33c 04b2 ad3d 9e6a 68be 1f00 443d
000002f0: 90ae 8c3d b0f5 3abe 0217 3b3e 0c4e 65be
00000300: 641d 7ebe 127c 103e be18 853e 0145 023d
00000310: 5f02 063e 29ee 1e3e 736f 90be fbc4 39be
00000320: 0219 323e 9ef8 273e c2c0 22be 0476 283c
00000330: fd7d e73d 67dc 89be 3db3 fdbd 9499 adbd
00000340: 6991 243e 0cd9 36be 8181 903d 8a31 4abe
00000350: 64f1 7c3d e566 c2bc 8606 0bbe d32f 1f3e
00000360: 8892 023e 482b 503e fc35 fbbd 322b a53d
00000370: 6f45 51be 19aa a6bd 02e8 373e 10b2 e13d
00000380: 8311 b43e 30b3 14be b3f3 9ebd dc86 a1bd
00000390: e636 74be a7e7 d6bc bec7 c5bc d4c7 a13d
000003a0: 3200 2a3e 701a 793e d047 f73d ee0c 433e
000003b0: 6e1c 483e a1a7 ae3d 44b8 0dbe 9431 b0bd
000003c0: 3802 f0bd b0f2 843c 2dd7 093e a8ba 3d3e
000003d0: 7dd8 f73c 5379 3bbd 5f46 d93c 8e84 9f3c
000003e0: b77f bc3d 6484 8a3d b838 7dbd 2a48 433e
000003f0: 25fc 91be 3b06 72bc b861 f33b 1ee3 14be
-0.12444133 -0.17944604 0.1475314 0.13913904 0.1342602 -0.1154469 0.18730555 -0.34401536
0.071456 0.14717627 0.06551835 -0.27878773 -0.084577955 0.11252738 -0.014551315 -0.20805265
0.2136442 0.104239464 -0.1579055 -0.050702944 0.028272009 0.110534884 0.1590815 0.17968705
0.14753301 -0.20740882 -0.058496684 0.16192955 0.11549855 0.21242864 -0.18081285 -0.16718778
-0.15881184 -0.031526983 0.18798082 0.03316624 0.12206907 -0.02394388 0.09101379 -0.22253884
-0.19973159 0.24741918 0.2057842 -0.13966939 0.105400875 -0.0077922433 -0.26562524 -0.070424505
-0.10480591 -0.014834821 -0.037603334 0.16398011 0.1239008 -0.19255748 0.18174946 -0.25703576
0.0051861466 0.018660873 0.05209565 -0.12448943 0.19446166 0.048271053 0.17262396 -0.14614737
-0.027237045 0.18464291 -0.19404988 -0.02274049 0.1157122 -0.28433594 0.032443553 0.036847595
-0.021198148 0.21718025 0.07732499 -0.10436442 -0.103746764 -0.10327134 0.09829408 -0.059312094
-0.10605008 -0.23898676 -0.1572543 0.08969179 0.0740419 -0.14663611 -0.025623044 0.047463976
0.075188845 -0.075145006 0.08672926 -0.042511106 0.094118536 -0.27610514 -0.01322491 0.0583103
-0.20960823 0.24544618 0.19793746 0.32598838 -0.032728102 -0.025463965 -0.10764114 -0.1710881
-0.0012325379 0.14157373 -0.15685052 0.14885193 0.20527081 0.23394568 -0.09910082 -0.115802325
-0.06888836 -0.1858316 -0.018253144 0.24569948 0.28042415 -0.14576837 -0.18613835 0.30564427
-0.10744343 0.18019733 0.19080612 -0.067414664 -0.030382246 0.3238413 0.096321665 0.13643797
0.07169551 0.14318737 0.252082 -0.090971634 -0.118586905 -0.19292141 0.1353237 -0.11637067
0.14569017 -0.23008582 0.23581856 0.24988355 -0.007658544 -0.13403358 -0.18460599 -0.11266349
0.14552093 0.14451501 -0.15001327 0.1743 -0.018001303 -0.258542 -0.09999667 -0.13108252
-0.10007289 0.0481759 -0.07502386 0.16999757 0.16258848 -0.11883187 0.1885278 -0.06506312
-0.14411815 -0.01824674 0.06773919 0.24875826 0.28869373 -0.120285735 0.08899135 -0.15627591
-0.012965684 -0.12582466 -0.2372239 0.0034291937 0.06651005 -0.1838177 -0.13747466 -0.011729005
0.023924505 -0.20445698 0.116666764 -0.16321573 0.04766585 0.011669159 -0.2869449 0.101790994
0.019902617 0.084812194 -0.22696921 0.047851678 0.06869233 -0.18257785 0.18270496 -0.22393054
-0.24815899 0.14109829 0.2599544 0.03180409 0.13086842 0.15520538 -0.2821003 -0.18141548
0.17392352 0.16403434 -0.15893844 0.010282043 0.11303327 -0.26925966 -0.123877026 -0.08476558
0.16071095 -0.17856234 0.07055951 -0.1974546 0.061753646 -0.023730705 -0.13576707 0.15545587
0.1275121 0.2032901 -0.12266156 0.080648795 -0.20436643 -0.08137912 0.17959598 0.11020291
0.3516961 -0.1452148 -0.07761326 -0.078870505 -0.23849067 -0.026233507 -0.024143096 0.07899442
0.16601637 0.24326491 0.12074244 0.19047901 0.19542095 0.085280664 -0.13839823 -0.08603206
-0.11719173 0.016229004 0.1346099 0.18528235 0.030254597 -0.04577 0.026522813 0.019472387
0.09204047 0.06763533 -0.06182167 0.19070497 -0.28512684 -0.014771993 0.0074274205 -0.14539763

linear.1.bias f4 [64]
00000000: 277f 643d 8c27 8dbe b0dd e03d 8911 0fbe
00000010: 3336 6abe e207 9c3e efe0 99bd 07b4 70be
00000020: 2f48 903e 7fc9 10be da62 43bb e646 88be
00000030: e574 f3bc fb99 493d b296 c33b b9be 51be
00000040: 2c33 5cbe baf5 dab9 04a3 823e 38c1 453d
00000050: 964a c63e f5e8 aa3d 0589 37be 99bc 043e
00000060: 6cad 8bbe 94c4 f23d b389 a4be 0271 e6bb
00000070: 253c 65bd 3791 223e 29e4 323e 7707 0a3e
00000080: 1201 863d 58ca 383e 9716 f7bd bd05 b1bd
00000090: 63f8 b3bd b199 f43d 85df 463d 8cd3 0d3e
000000a0: 5a79 873e fd46 3e3d 06cd 78bc 256b ccbd
000000b0: c6b8 f3bd 9858 223e d795 553e afd6 4e3c
000000c0: 7735 c23d 36e7 6fbe 271f d4bd ff2b a03c
000000d0: 5303 59be 6065 773e 57b8 c93d 0768 57be
000000e0: 3dee 80bd 25ec 27be 6281 83be 9023 7cbd
000000f0: 0756 6bbe 59cf c0bd 0ef1 283e d4e6 d5bd
0.055785324 -0.27569234 0.109797835 -0.13971533 -0.22872238 0.30474764 -0.07513606 -0.23506175
0.28180072 -0.14139365 -0.0029813559 -0.2661659 -0.029718826 0.049219113 0.005968892 -0.20482911
-0.21503896 -0.0004176328 0.25514996 0.04827997 0.3872878 0.08345214 -0.17923363 0.1296257
-0.27280748 0.118539006 -0.32136306 -0.0070325145 -0.05596556 0.15875708 0.17469849 0.1347941
0.06543173 0.18045938 -0.120648555 -0.086436726 -0.087876104 0.11943377 0.04855301 0.1385023
0.2645977 0.04645442 -0.0151856 -0.09981374 -0.11900477 0.15854108 0.2085794 0.012624427
0.09482854 -0.23428044 -0.10357504 0.019552229 -0.21192674 0.24159765 0.09849613 -0.21035777
-0.0629544 -0.16398676 -0.2568465 -0.061557353 -0.22982036 -0.094145484 0.16498205 -0.104444176

linear.2.weight f4 [128, 64]
00000000: 9c95 1a3e c979 4e3d 21db c63d 3f54 83bd
00000010: 6390 fbbd 8f35 063d b014 9bbd a685 b3bd
00000020: d80a fbbc 906f 3c3c 157a aa3c 952c 3dbd
00000030: 7359 e2bd f833 3a3d b597 b2bd d5c9 a53d
00000040: 03aa 4cbe fd7a 33bd a505 a1bb e07f afbb
00000050: fd5e a9bd 53c7 e1bc 0cf0 a03c 31f5 98bd
00000060: 73c3 92bd b543 07be c9ef 8a3d 16a6 cbbd
00000070: 553b 00be b347 853c b9d7 b83d eb4e 253d
00000080: 2b3c 103c f464 02be dd70 e93d 312c bbbd
00000090: 44ba 15be c967 823d d3b0 953d 250c 883d
000000a0: 3364 d5bd 7c4e 0b3d 4f34 f63c 6324 223d
000000b0: ebdc 15bc 54e6 e7bb b72d e9bb 74fd bd3d
000000c0: 6088 4cbd 06d3 933d c49b 4c3e 36b6 193c
000000d0: 7b9c dd3d dbf3 613d 3c27 8e3d 6e01 4b3d
000000e0: 2125 a43b edd3 b33a 29d7 de3d 7439 b23a
000000f0: f167 973d a949 463d 476a 7f3d 4c26 f5bd
00000100: cc6f ae3d 0245 823c 2dc5 583d 16d7 5dbd
00000110: 9f3e 93bd 4d4e 6d3d 5e12 fabb 3c8b 30bd
00000120: dc54 293e dfe8 71bd 5106 67bb 8e67 a63d
00000130: aa5a 05be 222a 19bb 5bfc 88bd 508e 9ebd
00000140: 7118 09bd a1c5 193e 7ac4 263e c0f4 023e
00000150: 30a6 c4bc 3e6b a0ba 8e3b 13be 46aa f53d
00000160: ff89 a8ba f614 bd3d 32af a73c 1367 d337
00000170: 96b6 a13d 8243 fd3d 9bc8 363e f722 a73d
00000180: 9b2a 8fbd 0b17 e2bc 0695 1bbd 4cd0 1cbe
00000190: 481b b1bd 25b0 9c3d 834c 8abc f9fd c53c
000001a0: 6590 01be f976 b53d 4792 253a 5d2a 5dbd
000001b0: c9a3 5abd dd7c cebc 4d91 f6bd dcd1 c23d
000001c0: b4d0 b8bc d3be 2c3c 3ec4 d13d 1576 643e
000001d0: 8b83 a73d 475c 8d3d 486e 55bc b4e5 af3b
000001e0: 979c e0bc a5f1 90bd 28c7 813d e028 a93d
000001f0: c224 f23d c3bd fdbd f9fd 92bd 98fb b1bd
00000200: b80d 79bc e7cf 9fbd 5056 3a3d da65 ff3d
00000210: 5373 1b3e dba7 a13d e370 2b3d 6f08 33bd
00000220: bcdc 85bd 3eda e6bd 6eb2 73bc f252 c33d
00000230: 82b9 1ebc 9884 90bd dec7 d2bd 4756 233e
00000240: f5be 86bc a101 a3bd c320 2cbe 9a61 55bd
00000250: 9b95 cdbc a8e3 5abc 2a30 0dbd 53e2 28be
00000260: 7bb2 013e 1aae 35be 92bf ca3d ce1f 84bd
00000270: 151b 8f3d 8420 8c3c 0d23 e83d e5ce 0fbe
00000280: 2756 8fbd b061 42bd 1f39 41bd 5f7b 58bd
00000290: d4fe 57bd 14d3 a33c a70e 773d e66f e93c
000002a0: 2c05 13be d83a d8bd 2686 70bc c92d a5bd
000002b0: ad1a a2bc 8fa0 51bc 07ba 3cbe f919 eabd
000002c0: e2ea 8abc 69b0 3cbd 24fd 4c3c e988 5b3e
000002d0: 2b90 063e 7476 253c 03b0 e8bd ba87 0d3e
000002e0: c6cd d5bd 12bb a2bd 7292 1ebc 9438 ccbd
000002f0: 8b47 5f3d 112a 0ebb 75b2 c8bd 46da 03be
00000300: 4b56 d53b f559 cfbd 8436 8d3d cda4 803d
00000310: f30f 733d 53a5 873d c885 b93c ec6b 043e
00000320: a3ad 93bd 1322 9d3d 7e74 7e3d 737d ab3d
00000330: 080f 863d 70b7 16bc 00f2 263c 8221 edbc
00000340: 45bd a1bd ede1 29bd 075c 463c 0cb3 523d
00000350: 57d4 983c 725a 443d 4c73 8f3d de33 bf3d
00000360: b133 b8bc e147 10bd 7e25 86bc 5ac7 413d
00000370: e24a e33d dad5 bfbd 5589 f73c 7605 9ebd
00000380: 532a 14be c690 333c fbed a1bd 3956 2ebd
00000390: a995 95bd fc6a 0b3c 44bf fe3c f8e9 63bd
000003a0: d714 6dbd 97df d93d 7dcb 253d 6b80 1bbe
000003b0: e42f 2ebd ced6 253e 148d 833d 84fb a9bd
000003c0: 7df0 00bd 68ce 5b3d aa9b e03c 4b26 6ebd
000003d0: dacf 23bd 101b 9dbd b3b2 aabd a6c7 dc3d
000003e0: bfd8 e73d 3776 193c 9e5f 973d 1b76 39bd
000003f0: b597 f83c 5216 f13d f015 84bc 9340 9abc
0.15096134 0.050409112 0.09709764 -0.06412553 -0.12283399 0.03276592 -0.07572305 -0.08765726
-0.03064482 0.011501208 0.020810166 -0.046185095 -0.11052217 0.045459718 -0.08720342 0.08095137
-0.1998673 -0.043818463 -0.004914003 -0.00535582 -0.08270071 -0.027560866 0.019645713 -0.074686415
-0.07166185 -0.13209422 0.06784017 -0.09943788 -0.12522633 0.01626954 0.09025521 0.040358465
0.008803408 -0.12733823 0.1139848 -0.09139288 -0.14621836 0.06367452 0.07309117 0.066429414
-0.10419502 0.034010395 0.03005424 0.039585482 -0.009146909 -0.007077018 -0.0071160453 0.09276858
-0.049934745 0.07217984 0.19981295 0.009381821 0.10820862 0.0551642 0.06941077 0.04956191
0.005009309 0.0013719775 0.10880882 0.0013597445 0.07392872 0.04841009 0.062357213 -0.11970195
0.08517417 0.015902046 0.052922416 -0.0541602 -0.071896784 0.057936 -0.007631584 -0.043101534
0.16536278 -0.059059974 -0.0035251568 0.0812522 -0.13022867 -0.002337106 -0.06688758 -0.07741988
-0.033470575 0.15016796 0.16285887 0.12788677 -0.024005026 -0.0012238992 -0.14378187 0.11995368
-0.0012858509 0.092325136 0.020469282 2.5201158e-05 0.07896154 0.12366392 0.17849962 0.08160966
-0.06990548 -0.027598878 -0.037983917 -0.15313834 -0.086477816 0.076507844 -0.016882187 0.024168955
-0.12652738 0.08860583 0.00063160475 -0.05399548 -0.053378854 -0.025206024 -0.12039433 0.09512684
-0.022560455 0.010543543 0.10242508 0.2231067 0.08179387 0.06902366 -0.013026781 0.005367959
-0.027418418 -0.0707734 0.06336814 0.082597494 0.11823417 -0.1238971 -0.07177348 -0.08690566
-0.015201025 -0.07803326 0.04549247 0.124705985 0.15180711 0.07893344 0.041855704 -0.043709215
-0.06536242 -0.11272095 -0.014874084 0.09537305 -0.009687783 -0.0705654 -0.10292028 0.15950881
-0.016448477 -0.07959295 -0.16809373 -0.052095033 -0.025095752 -0.013359942 -0.03446976 -0.16492586
0.12665741 -0.17742196 0.098998204 -0.06451379 0.06987587 0.017105348 0.113348104 -0.14043768
-0.06998854 -0.047456443 -0.047173616 -0.05285203 -0.052733257 0.01999811 0.060316708 0.02849574
-0.14357442 -0.105580986 -0.014680421 -0.080653735 -0.01978811 -0.012794628 -0.18430339 -0.11430735
-0.016957704 -0.046066675 0.012511525 0.21438946 0.13140933 0.010099042 -0.113616966 0.13821307
-0.10439639 -0.07945837 -0.00967847 -0.09971729 0.054511588 -0.0021692554 -0.09799663 -0.12876233
0.006510531 -0.1012458 0.06895164 0.06281433 0.059341382 0.0662333 0.0226468 0.12931794
-0.07210853 0.07672515 0.062122814 0.08373537 0.06545836 -0.009199008 0.010189533 -0.028946642
-0.078974284 -0.041475225 0.012106902 0.051440284 0.018655939 0.047937818 0.07004413 0.09336065
-0.022485586 -0.0352248 -0.0163753 0.047309257 0.11098267 -0.09366961 0.030216852 -0.07715885
-0.1446927 0.01095981 -0.07906719 -0.042562697 -0.07303936 0.008509394 0.031097062 -0.055643052
-0.057881203 0.106383495 0.040477265 -0.15185706 -0.04252614 0.16195223 0.06423393 -0.08299926
-0.031479347 0.05366364 0.027417976 -0.058141988 -0.039993145 -0.076711774 -0.083348654 0.107802674
0.11320638 0.0093665635 0.073912844 -0.04527865 0.030345777 0.117718354 -0.016123742 -0.01882962

linear.2.bias f4 [128]
00000000: dbc4 3dbd 2575 2a3e 5e21 a43d 2f82 b0bd
00000010: 65a3 803c 6f65 f33b bc74 803d f4cf 1bbe
00000020: b980 cebc b1fd 2bbe ba81 99bc 6eed 8c3d
00000030: 1398 62bd 89fd 06bd e308 07be d354 65bd
00000040: 8b03 5ebe 90f6 8dbd f5a9 28be 4156 1d3e
00000050: 4b4a 1bbd c855 543d 2975 a93d c14c e93d
00000060: 0358 8c3d 2fd8 c93c adcd c1bd 1064 92be
00000070: 1143 9f3d c2fd 1d3e fccf 7cbd 4457 053e
00000080: e67d 983c d77b 08be 8bca d6bc d54e 3b3c
00000090: c0f7 f4bd f148 263e 01d9 07be 855b 033e
000000a0: c580 27be 0bfc 94bd c730 94bd 20b3 c1bd
000000b0: 5503 c2bc c5c1 26be 5b21 ebbd 8c81 27be
000000c0: 8ea8 e73d cd89 3fbc 10e9 723d 37dd 1cbe
000000d0: 038c 913d dfc5 6a3d 965c 94bd 7f62 14be
000000e0: 9149 a9bd 36d0 60bd f4f2 93bd c401 023d
000000f0: 844c edbb 37e1 91bc 29a3 1ebe 1e52 813d
00000100: a940 80bd 98d9 bfbd a680 3cbd 4c0a 56be
00000110: a1ce 07bd 0a5f 67bb bb4a 013d edbb fa3d
00000120: 1ce9 783d 3a72 b0bb bc5e 2ebd 08c7 8d3d
00000130: 357e c8bd 325d b6bc b9f5 3abd 9f79 b43c
00000140: 9e8b 12be d3ba cebd 56c2 2cbe fbe3 fabd
00000150: fd55 363e 9996 0bbe 9365 acbc 8407 53bc
00000160: f416 4d3d d23c 533d 5778 823e 38a6 6abd
00000170: af6f e2bd 5272 80be cd7a 313d 2b3d 8bbd
00000180: 08b2 0e3e 451d 7ebe a48b 0bbd 578d 12bc
00000190: b422 29bd d090 64bd 5f01 cd3d 48e6 23be
000001a0: 8a99 233d c735 84bd 3f86 70bd e3ea 4c3c
000001b0: 3a49 92bd b824 763e 126f 60bc 569a 58bd
000001c0: 3192 7dbd 4231 23bd 12a3 0a3b b921 41bd
000001d0: 61aa 70be 85c0 83bd 0a7e 55bd 023c fabd
000001e0: d271 80be 59d1 99bb de0c e13d 5c58 103d
000001f0: 3e86 63bd 5bc1 18bd bd59 0ebd d8ae d13d
-0.046330314 0.1664625 0.08014177 -0.086185805 0.015702913 0.0074278633 0.06272265 -0.15216047
-0.025207864 -0.16795994 -0.018738616 0.068812236 -0.05532081 -0.032956634 -0.13186984 -0.055989098
-0.21681039 -0.06931794 -0.16471083 0.15364935 -0.03791265 0.05183962 0.082743 0.11391593
0.068527244 0.024639217 -0.09463058 -0.28591967 0.07776464 0.15428832 -0.061721787 0.1302157
0.01861472 -0.13328491 -0.026219627 0.011432369 -0.11961317 0.16238762 -0.13266374 0.1282788
-0.16357715 -0.07274636 -0.07235866 -0.094579935 -0.02368323 -0.16284855 -0.114809714 -0.16358012
0.11311446 -0.011690569 0.059304297 -0.15318762 0.07106783 0.05731761 -0.07244222 -0.14490698
-0.08265985 -0.054886065 -0.07224074 0.031739965 -0.0072417874 -0.017807586 -0.15491928 0.06314491
-0.06262333 -0.093676746 -0.046021126 -0.20902365 -0.03315604 -0.003530445 0.03156541 0.12242875
0.060769185 -0.0053847106 -0.042570814 0.06922728 -0.09789697 -0.022261236 -0.045644496 0.02203065
-0.14311072 -0.10094228 -0.16871008 -0.12250515 0.1780624 -0.13631667 -0.021044528 -0.01288021
0.050070718 0.051571675 0.25482437 -0.057287425 -0.11056458 -0.2508722 0.043330003 -0.06798776
0.13935101 -0.24815853 -0.03406872 -0.008944831 -0.04129286 -0.055802166 0.10010027 -0.16005814
0.039941348 -0.0645557 -0.058721777 0.012507173 -0.07142873 0.24037445 -0.013698356 -0.05288156
-0.061906997 -0.039841898 0.0021154326 -0.0471513 -0.23502494 -0.064332046 -0.052122153 -0.12218477
-0.25086838 -0.0046941456 0.10988782 0.035240516 -0.055547945 -0.037293773 -0.03475355 0.10238427

linear.4.weight f4 [2, 128]
00000000: cc13 12bd e800 a43b ef4c bebd be9a 1bbd
00000010: 8455 af3b 8b08 83bd d122 a03d f33f 2fbd
00000020: bbbc 823c 033e 793a 3d87 f23a a7ac 68bd
00000030: 449f 7fbd 275f c93c 78b5 113d bd8f 9eba
00000040: 5359 cfbd 5948 7bbc bba8 e7bd 7576 5c3d
00000050: bbbf cabd 4174 bc3c 0190 c4bc 5d48 82bd
00000060: e213 5dbc 29ec 163d b8d1 21bd 4030 7b3c
00000070: 57cd 0f3d 3082 64ba 6319 17be eefc ba3d
00000080: 34c1 343d b945 2b3c 8a35 da3c 529f acbd
00000090: 034a b5bd c517 943d 722c ce3c 1303 bebc
000000a0: 6249 453d d9e9 48bd be0f 44bd e4b8 46bc
000000b0: 4fd0 34bd be9e 25bc 6ce3 aabd 5442 083d
000000c0: 7e10 aa3d 4612 60bc b27e 83bd 449b 60bd
000000d0: d18c 1cbd d3d1 c93c 2d9a 45bc c443 593c
000000e0: 271b a63c 4d6d de3c a184 6c3d 592b 663d
000000f0: 3d47 393d 546b 463d 7ff4 9dbd 635e ff3c
00000100: 3d13 df3b c141 b13d 57a3 4bbc e9a6 843d
00000110: d058 86bd 47e7 bfbc 10a0 86bd 0858 973c
00000120: 1931 8cbd 24d3 6ebd 7475 0dbe 6677 2dbb
00000130: 5a9e e43c acdf 0a3d c93e 59bd 2e9b a4bd
00000140: 7696 50bd f492 b03b a9cf f1bc 901b 57bd
00000150: 9aa8 f0bd 52ed bebd f5bd 19bd 29cd 323d
00000160: ade9 863c 25c3 e73c 6e73 bb3d 388d a93b
00000170: a282 a13d a79f 8c3d 21a5 853c 89af 95bd
00000180: 3dfb b03d 6f57 8fbd f41b c73d a001 1e3d
00000190: ae8e 413d 60ff fdbc 1255 793d d09c 363d
000001a0: bc74 1abd daea 98bc 2a16 413b d48a 90bd
000001b0: 3803 643c ff66 0e3e 618d ab3d b651 f03a
000001c0: 809e 2d3d 9b02 b0bd 5464 153e 8c82 573d
000001d0: 859d a0bc a7ba a8bd 1c49 ff3c 84d3 ba3d
000001e0: 7080 6c3d 1574 c93c 9fba d1bd dff9 90bd
000001f0: 74ff 03bc f4c4 4cbd 1036 9dbd a631 253d
00000200: 4247 713d c8f3 05bd 8e32 3b3d 438f 353d
00000210: 276b de3b 34fc 96bd 5ead 7abd 601e 0dbd
00000220: d3b2 633d 79fc 4dbd 585a 573d 8eb9 973d
00000230: 9ac8 5ebd 9b29 c1bc e245 343d b459 ba3c
00000240: ff2d c9bc fa0b 913c e8d7 243d 17a0 48bd
00000250: 86ee 8a3d c82d 243c 3ab1 24bd 8fa8 8bbd
00000260: d6e4 63bd d862 10bd 1a64 203d 9cdb 8a3d
00000270: d0f1 ce3c 5cb1 d43c 336b 8c3d 83c6 8b3d
00000280: b969 4f3d 8507 253c b662 9cbc f02b 22bc
00000290: 2c84 db3d 021d 20bd 9c32 673b 80c7 c0bd
000002a0: a74e 23bd ca68 483d 2ad0 bebd 699e 763a
000002b0: 0e8c 3bbd e0f7 cdbd c4df 233d 6cd0 0e3d
000002c0: ffcb b3bc cb78 d23c 0ba5 093c 78db 04bd
000002d0: 83df 29bd 8547 9cbb 9e78 8bbd 35be 50bd
000002e0: bec8 823d 9f73 cb3c 1b34 453d b057 a13c
000002f0: b72f 4b3d 1e07 973c 88ad a3bd 4b90 d6bc
00000300: 15f8 f6bc 25e0 b1bd f8bf a33d c2e2 ae3b
00000310: 56e5 873d b35a 533d 3614 c93d 8180 18bc
00000320: 0c68 d43d ca48 003e dd59 aa3d e0da c7bd
00000330: 6bf6 54bd 8f80 933c c353 febc f8e4 94bd
00000340: 621d 9d3d d8c0 3b3b e3b4 77bc b60a b13d
00000350: 58dc 8c3d c41e 393e 1b2d 563d 14c3 da3c
00000360: fd5d 0abd f8b6 2dbc 3467 33be 0873 e23b
00000370: 7a59 00bd 8b71 8a3c 263a 67bd 72cb 123e
00000380: 79fd 303d 2db0 e43c a24c 243c c605 e7bd
00000390: aed2 0a3c c249 133d 02cc 913c 176b 093c
000003a0: d931 223d 06ea aabd b215 053c 95a7 a2bb
000003b0: 85ad e1bb 01fa b3bd ac52 063d a8da 3c3d
000003c0: 0b0e af3c 1e55 4e3c c7eb 23be 54da 363d
000003d0: 4729 1c3d 138b 49bc bff3 3abd f3f5 a9bd
000003e0: 63df f4bd 9941 0e3c 9fe4 9cbb 332d 233e
000003f0: dde9 24bd 8331 863d aad4 50bc 8599 5c3c
-0.03566341 0.005004991 -0.09292018 -0.03798937 0.0053507704 -0.06398114 0.07819141 -0.042785596
0.015959134 0.00095078367 0.0018503439 -0.05680528 -0.062407747 0.024581505 0.035573453 -0.0012097281
-0.10124459 -0.015337073 -0.1131148 0.053823907 -0.09899851 0.023004653 -0.023994448 -0.063614585
-0.01349351 0.036846314 -0.039506644 0.015331328 0.035107937 -0.0008716909 -0.14755778 0.09130274
0.044129565 0.010453635 0.026636858 -0.084288254 -0.08852007 0.07231096 0.025167678 -0.023194825
0.048165686 -0.04905114 -0.047866575 -0.012129042 -0.04414397 -0.010108648 -0.083441585 0.03326638
0.08303927 -0.013676232 -0.064206496 -0.054835573 -0.03822023 0.024636185 -0.012060684 0.0132607855
0.02027662 0.027151728 0.057743672 0.056193683 0.045233954 0.0484422 -0.077126496 0.031172937
0.0068077133 0.0865512 -0.01242908 0.06477148 -0.065599084 -0.023425711 -0.06573498 0.018474594
-0.06845302 -0.05830683 -0.13814336 -0.0026468872 0.02790754 0.033904716 -0.053038392 -0.08037411
-0.05092474 0.005388612 -0.029517965 -0.05251652 -0.11750908 -0.09322609 -0.037534673 0.043652687
0.016468847 0.028291294 0.09152876 0.0051743053 0.07886244 0.06866389 0.016314091 -0.07308871
0.0864167 -0.069990985 0.097221285 0.03857577 0.04725521 -0.031005561 0.060872145 0.04458314
-0.037708983 -0.018666673 0.0029462674 -0.07057729 0.013916783 0.13906477 0.08376575 0.0018334899
0.042387486 -0.08594247 0.14589053 0.052614734 -0.019606361 -0.08238726 0.031162791 0.09122375
0.057739675 0.024591485 -0.10240673 -0.07078909 -0.00805651 -0.049992517 -0.07676327 0.04033055
0.058905847 -0.03270319 0.04570251 0.04432608 0.006787676 -0.07372323 -0.061200492 -0.034452796
0.055590462 -0.050289605 0.052576393 0.074084386 -0.054390527 -0.02357941 0.044011958 0.022747852
-0.024558065 0.017705906 0.040244967 -0.0489808 0.06783776 0.010020681 -0.04020808 -0.068192594
-0.055638157 -0.035250515 0.039157964 0.067801684 0.02526179 0.025963478 0.06856384 0.068249725
0.050637934 0.010072594 -0.019090038 -0.009898171 0.10718569 -0.039090164 0.0035277968 -0.094130516
-0.03986993 0.04892806 -0.09317048 0.000940776 -0.045787863 -0.10057044 0.04000832 0.034866735
-0.021947859 0.025692364 0.008401166 -0.032435864 -0.041472923 -0.004769268 -0.06810115 -0.050962646
0.06385945 0.024835406 0.048145395 0.019695133 0.04960605 0.01843601 -0.07992083 -0.026191851
-0.030147592 -0.0868533 0.079955995 0.00533709 0.06635539 0.05160017 0.09818308 -0.0093079815
0.10371408 0.12527767 0.08317921 -0.09758544 -0.051992815 0.018005637 -0.0310458 -0.07270235
0.0767162 0.002864888 -0.01511881 0.08644621 0.06877965 0.18078142 0.05228911 0.026704349
-0.03378104 -0.010602705 -0.17519838 0.0069106854 -0.03133533 0.016899845 -0.05645194 0.1433542
0.04321048 0.027916038 0.010028036 -0.11280398 0.0084730815 0.035959013 0.017797474 0.008387349
0.03959832 -0.08345418 0.008122848 -0.004963825 -0.00688714 -0.08787919 0.032793686 0.046106964
0.021369 0.012593536 -0.1600791 0.044641808 0.038125303 -0.012301224 -0.04564261 -0.08298864
-0.1195667 0.008682632 -0.004787996 0.15935211 -0.040262092 0.06552412 -0.012746016 0.013464336

linear.4.bias f4 [2]
00000000: e5ef c13d 40e0 1a3a
0.094695844 0.00059080496
