meta/demos/multiple_experiments/results/models/run_0/emodb_mlp_os_16-64_C_val-001_learning_rate-0-0001_0_008.model (torch, 13864 bytes, 6 tensors)

linear.0.weight f4 [16, 88]
0.09489108 0.07525371 0.10040358 0.026768044 0.04804899 0.033983532 0.09032652 -0.0026091433
0.0632397 0.06431104 0.052744966 -0.04159386 0.023818217 -0.06890303 0.07070748 -0.048907578
0.10576262 -0.08368133 0.07148805 -0.03559415 -0.06234678 0.09245138 0.04483163 0.080975495
0.068998195 -0.017756302 0.05844892 0.039120473 0.03215664 -0.02675048 0.056622304 0.08370442
-0.09385608 0.041550502 -0.06751642 -0.03282142 0.07744566 0.06675862 -0.0598486 -0.023549551
0.029901318 0.048571333 0.008524793 -0.008894525 -0.029233728 0.017620685 -0.06504557 -0.086550616
0.0548979 0.0432248 0.00041161684 0.06962447 -0.09636854 0.074031875 0.07335178 0.035927106
-0.025677832 -0.09653724 -0.058795534 -0.060396012 0.051406216 0.041305535 -0.04432135 0.035496835
0.026394423 -0.0783506 0.03187167 0.014290631 0.06469043 -0.023573747 0.0060492335 0.0142388595
-0.042912673 -0.027708303 -0.01194647 -0.088360846 0.048584115 -0.041950595 0.0033490395 0.07340359
0.04351591 0.06283538 0.048101705 0.06929365 -0.10548635 -0.0785921 -0.052063525 -0.039436772
-0.05948006 -0.012945159 -0.056410924 0.048427213 -0.04248695 -0.079906285 0.06202334 0.02533217
-0.025038594 0.07647277 0.012766946 -0.05873071 -0.05494553 0.098479964 0.09044961 0.0042163054
0.08641803 -0.008602717 -0.06532654 0.07914353 -0.08198835 0.09431388 0.09140847 -0.034959015
-0.0416551 -0.06409604 -0.081205055 -0.10404201 -0.043234583 0.023696758 0.02409634 0.025279356
-0.07430893 -0.07826675 -0.018672671 -0.00468714 -0.055224974 0.071816064 -0.06570024 0.01597137
0.025906267 -0.059807133 0.03805165 0.06984853 -0.024440352 0.0772241 -0.021102699 -0.015231055
-0.024338448 -0.010448696 0.07180769 0.069662146 -0.062673174 0.05202393 -0.07285899 -0.100099176
0.038396757 -0.011328911 0.005138621 -0.05655062 -0.050135236 0.05160686 0.05450964 0.10280788
0.03195075 0.014419094 -0.039921355 0.0072823176 -0.065698475 0.050202485 -0.08059614 0.02935233
0.07706084 0.05050276 -0.030366866 0.083943926 0.09417624 -0.040602896 -0.018884547 0.023158697
0.0035443702 0.078750655 -0.090630464 -0.09021639 0.04140149 -0.012459787 -0.007086822 -0.078953356
0.104123525 -0.052523356 0.03475376 0.0022388084 -0.038532384 0.10728433 0.05706879 0.08618965
-0.016956305 0.06623061 0.044155885 0.028349856 -0.008196842 0.0311394 -0.06114627 -0.042773325
-0.03334378 -0.0795279 -0.08103359 -0.047159757 -0.050101563 -0.007847067 0.012605314 -0.097450726
-0.026034119 0.018575655 -0.024445897 0.07015607 0.07585058 0.04945561 -0.011934653 -0.10440325
-0.041170087 0.025355356 0.092165135 0.091648936 0.08733523 -0.09967199 0.07449706 -0.051333994
0.05694316 0.06829103 0.047384042 0.06723948 0.07398657 0.062403806 0.04688314 0.021931626
-0.025175102 0.021629663 -0.026939668 0.105874665 -0.03102586 -0.08314237 0.067607224 -0.101740025
-0.013900699 -0.08950386 -0.02401928 -0.009156962 -0.013037817 0.016705444 0.044977803 -0.004758591
-0.07706609 -0.088022456 -0.037507728 0.030159988 0.07569128 -0.008314258 0.08245596 0.093651675
0.10234724 0.097827636 0.033520143 -0.027459675 0.094392516 -0.016219635 0.0070931455 0.04181036
00000000: 4156 c23d 9e1e 9a3d 64a0 cd3d a848 db3c
00000010: 05cf 443d 5132 0b3d 1cfd b83d 29fe 2abb
00000020: d183 813d 82b5 833d 1b0b 583d 535e 2abd
00000030: 6c1e c33c 081d 8dbd 15cf 903d 5053 48bd
00000040: 139a d83d 1e61 abbd 5468 923d 2ccb 11bd
00000050: 565f 7fbd 2657 bd3d 5fa1 373d 7bd6 a53d
00000060: ed4e 8d3d aa75 91bc 2268 6f3d ca3c 203d
00000070: aeb6 033d d323 dbbc caec 673d 396d ab3d
00000080: 9e37 c0bd dc30 2a3d 0c46 8abd c16f 06bd
00000090: d59b 9e3d beb8 883d ce23 75bd fdea c0bc
000000a0: 9cf3 f43c bcf2 463d 93ab 0b3c 57ba 11bc
000000b0: 927b efbc 4159 903c 9d36 85bd 7341 b1bd
000000c0: 9fdc 603d 7d0c 313d 47ce d739 4697 8e3d
000000d0: de5c c5bd 069e 973d 7539 963d 4d28 133d
000000e0: 515a d2bc 51b5 c5bd 96d3 70bd cf61 77bd
000000f0: 538f 523d fe2f 293d 4e8a 35bd 2165 113d
00000100: 1e39 d83c 4876 a0bd de8b 023d 4023 6a3c
00000110: 6b7c 843d bb1d c1bc a638 c63b 1b4a 693c
00000120: 33c5 2fbd 86fc e2bc 20bb 43bc 88f6 b4bd
00000130: 2300 473d 63d4 2bbd 8f7b 5b3b 9f54 963d
00000140: bd3d 323d d6af 803d 4b06 453d d4e9 8d3d
00000150: 3a09 d8bd e5f4 a0bd 9040 55bd 7488 21bd
00000160: 5da1 73bd ef17 54bc 240f 67bd 9d5b 463d
00000170: cc06 2ebd e8a5 a3bd 300c 7e3d 6985 cf3c
00000180: bd1d cdbc c19d 9c3d 742c 513c 9d8f 70bd
00000190: 900e 61bd ddaf c93d a53d b93d ef28 8a3b
000001a0: f0fb b03d 69f2 0cbc ecc9 85bd 0116 a23d
000001b0: 82e9 a7bd a327 c13d 5d34 bb3d 2f31 0fbd
000001c0: 8a9e 2abd c944 83bd d64e a6bd fa13 d5bd
000001d0: bf16 31bd b41f c23c b065 c53c a716 cf3c
000001e0: 482f 98bd 514a a0bd 6ef7 98bc 9596 99bb
000001f0: 9533 62bd 4d14 933d d98d 86bd 64d6 823c
00000200: 6139 d43c 53f8 74bd 0cdc 1b3d bf0c 8f3d
00000210: 2237 c8bc ab27 9e3d 91df acbc ad8b 79bc
00000220: 6d61 c7bc 0231 2bbc e90f 933d 07ab 8e3d
00000230: cb5a 80bd 0b17 553d 1837 95bd cc00 cdbd
00000240: eb45 1d3d e69c 39bc e161 a83b 9fa1 67bd
00000250: 9b5a 4dbd b761 533d 8045 5f3d f08c d23d
00000260: cade 023d 103e 6c3c 9384 23bd 82a0 ee3b
00000270: ec8c 86bd 1fa1 4d3d 970f a5bd 4c74 f03c
00000280: 13d2 9d3d fbdb 4e3d efc3 f8bc cbea ab3d
00000290: 79df c03d 394f 26bd c4b3 9abc 4fb7 bd3c
000002a0: aa48 683b 0648 a13d 779c b9bd 5fc3 b8bd
000002b0: 9c94 293d 2224 4cbc 9238 e8bb 4cb2 a1bd
000002c0: b73e d53d bb22 57bd f559 0e3d f9b8 123b
000002d0: 22d4 1dbd e3b7 db3d f7c0 693d 3384 b03d
000002e0: f3e7 8abc eaa3 873d cddc 343d f53d e83c
000002f0: 0c4c 06bc 0e18 ff3c 8374 7abd 1533 2fbd
00000300: 7d93 08bd 86df a2bd f0f4 a5bd 972a 41bd
00000310: 4c37 4dbd fc90 00bc 8586 4e3c 3f94 c7bd
00000320: 8145 d5bc f92b 983c c342 c8bc fcad 8f3d
00000330: 8d57 9b3d f791 4a3d 9089 43bc 5fd1 d5bd
00000340: f7a1 28bd 09b6 cf3c 13c1 bc3d 70b2 bb3d
00000350: d0dc b23d d420 ccbd ea91 983d 9843 52bd
00000360: 3b3d 693d 2bdc 8b3d c515 423d dab4 893d
00000370: 4586 973d 229b 7f3d 8908 403d f4a9 b33c
00000380: 043c cebc b130 b13c 94b0 dcbc d1d4 d83d
00000390: f229 febc 8c46 aabd a875 8a3d 135d d0bd
000003a0: c2bf 63bc cd4d b7bd 15c4 c4bc 1507 16bc
000003b0: 919c 55bc dbd9 883c a53a 383d f4ed 9bbb
000003c0: d4d4 9dbd 1e45 b4bd b4a1 19bd 1412 f73c
000003d0: 0804 9b3d 8738 08bc acde a83d 73cc bf3d
000003e0: 6e9b d13d db59 c83d 6b4c 093d 1df3 e0bc
000003f0: dd50 c13d 0adf 84bc 9e6d e83b 5741 2b3d

linear.0.bias f4 [16]
0.0018914347 0.087153725 0.040764622 0.01387238 -0.054904915 0.0058792676 -0.055318054 0.02757118
0.09102735 0.07322356 -0.04518642 0.06924696 0.08354165 0.10691262 0.01072026 -0.041409146
00000000: 04ea f73a a77d b23d cef8 263d fb48 633c
00000010: fae3 60bd dfa6 c03b 2f95 62bd f5dc e13c
00000020: 8c6c ba3d 3cf6 953d 6515 39bd 5ad1 8d3d
00000030: e217 ab3d 01f5 da3d 08a4 2f3c a39c 29bd

linear.1.weight f4 [64, 16]
-0.14342538 -0.06808418 -0.22756371 0.09143087 0.013920486 0.2434479 0.12797448 0.06199913
0.11779696 -0.09219588 0.23207566 -0.20138666 0.12086747 -0.15580192 0.15135038 -0.049659748
0.08221486 0.24021459 0.12288763 0.17140236 0.021023124 -0.019642293 0.24630019 -0.22169165
-0.031847507 0.112979576 -0.07224936 0.034518674 0.13580316 -0.1331518 0.067138925 -0.056625623
-0.17000806 0.17187747 0.051756524 0.23990032 0.0035195053 0.072039574 0.17169598 -0.08253032
0.19626606 -0.05580864 0.1354807 -0.13011158 -0.17107125 0.043852452 0.004967869 0.18165281
-0.232478 -0.10596183 -0.22341071 -0.18794438 0.13156539 0.12509331 -0.11113903 -0.10553831
0.035890967 -0.02145775 -0.23903936 -0.22911279 0.13885115 0.023681253 -0.07582742 0.13572262
-0.027791291 0.13056016 -0.15104267 0.048216343 0.1409398 -0.16827825 -0.21784846 -0.19658251
0.040064245 0.08837961 0.20638266 -0.22997144 -0.22494484 -0.027920088 -0.0906278 0.20166495
0.11501783 0.06695524 -0.0066587483 0.1584171 0.0008994937 0.15583622 -0.15073808 0.019805074
-0.22439715 -0.14786935 0.05819253 0.22249687 -0.11340613 0.0037310207 -0.22500071 -0.04445489
0.08141717 0.23334464 0.19314878 -0.08455342 -0.002224207 0.15040612 -0.09381915 -0.16009954
0.05045569 -0.086845964 0.2061658 0.055681158 0.18231855 0.09211863 0.21645872 -0.16571221
0.04442942 0.09494719 -0.20904185 -0.12711647 0.2029934 0.09634066 0.23515393 -0.19381128
-0.15055665 0.24219753 -0.2141687 0.077209316 -0.23799053 0.20514584 -0.22901082 -0.111950375
-0.19682845 -0.0075754225 -0.1977423 -0.1321471 -0.09393436 0.18014392 0.19510214 0.112227626
0.2255424 0.08462093 -0.24395734 0.16720258 -0.09834007 0.12015977 -0.032590736 0.12872058
0.06299999 0.14735729 -0.16592097 -0.17739993 0.23143533 -0.026648879 0.029058142 0.031612363
0.046283633 0.14544569 0.024174938 -0.013230399 0.08950192 6.043361e-05 -0.21868888 0.1465356
0.04339078 -0.2427223 -0.13724908 -0.059613377 0.18897656 0.11532518 -0.23148823 -0.17145386
-0.21035856 0.18475768 -0.24902076 -0.18070589 0.1558948 0.023998199 -0.02847806 -0.011753079
0.20110273 -0.010595202 -0.13006428 -0.017295808 0.030900985 -0.08973032 -0.17091022 0.12204755
0.02604723 0.19247921 -0.12252974 -0.07802085 -0.08694915 0.12892541 0.15595919 -0.011221908
-0.22738916 -0.105612874 -0.12278541 -0.043177933 -0.23868692 -0.054488868 -0.01095777 -0.031774078
-0.18215898 -0.21399939 -0.053436965 0.034297526 -0.038180184 -0.21250214 0.035658393 0.042845007
-0.20388931 0.18100259 0.23826125 -0.1556072 -0.15564048 0.22603849 -0.09370299 0.15156716
-0.089705974 -0.23356304 -0.044046346 0.22962146 0.025562169 -0.03882602 -0.17328833 -0.18201178
0.23522618 0.028925478 0.24710096 -0.07988626 -0.07868248 0.18278205 0.22576182 -0.22172931
0.10909444 0.0037823974 0.18081431 -0.14490736 -0.04109198 -0.027547192 0.12645648 0.21658859
-0.12298921 -0.18879038 -0.1390646 -0.124705315 0.13461769 -0.06419468 -0.010340772 0.23218146
-0.15160707 -0.14500453 -0.12764922 -0.015188399 -0.20966017 0.052146096 0.24838471 -0.119434066
00000000: 1ade 12be b86f 8bbd 7606 69be 1c40 bb3d
00000010: c012 643c 684a 793e be0b 033e cdf2 7d3d
00000020: 883f f13d 32d1 bcbd 3ea5 6d3e 4e38 4ebe
00000030: 5d89 f73d 8a8a 1fbe 98fb 1a3e 0568 4bbd
00000040: 4460 a83d d0fa 753e 82ac fb3d 1a84 2f3e
00000050: b038 ac3c e0e8 a0bc 1e36 7c3e 2303 63be
00000060: 8872 02bd d661 e73d 79f7 93bd 7463 0d3d
00000070: fc0f 0b3e f258 08be 2280 893d 45f0 67bd
00000080: 9816 2ebe a600 303e a6fe 533d 6ea8 753e
00000090: 80a7 663b 7c89 933d 12d1 2f3e a805 a9bd
000000a0: f8f9 483e 9a97 64bd 74bb 0a3e f83b 05be
000000b0: 4d2d 2fbe a19e 333d 81c9 a23b 3203 3a3e
000000c0: b60e 6ebe 8402 d9bd c7c5 64be 7e74 40be
000000d0: 14b9 063e 7618 003e dc9c e3bd 7824 d8bd
000000e0: 6802 133d 2ac8 afbc bcc6 74be 8b9c 6abe
000000f0: ff2e 0e3e 30ff c13c 684b 9bbd dffa 0a3e
00000100: 90aa e3bc 90b1 053e eeaa 1abe 807e 453d
00000110: 8652 103e 2251 2cbe ab13 5fbe ed4c 49be
00000120: 681a 243d 5e00 b53d fa55 533e a27d 6bbe
00000130: f157 66be abb8 e4bc 119b b9bd 4281 4e3e
00000140: 788e eb3d d41f 893d a131 dabb 1838 223e
00000150: 00cc 6b3a 8893 1f3e 155b 1abe 403e a23c
00000160: 5ec8 65be 106b 17be 4a5b 6e3d 38d6 633e
00000170: 7941 e8bd 2484 743b 9666 66be 5516 36bd
00000180: 0cbe a63d e6f1 6e3e cbc8 453e 582a adbd
00000190: 00c4 11bb 1004 1a3e 4124 c0bd 22f1 23be
000001a0: a0aa 4e3d 4cdc b1bd 211d 533e ed11 643d
000001b0: b7b1 3a3e b1a8 bc3d 5ba7 5d3e 76b0 29be
000001c0: a0fb 353d ac73 c23d 110f 56be d22a 02be
000001d0: 80dd 4f3e 404e c53d 31cc 703e 7776 46be
000001e0: 862b 1abe a102 783e 0a4f 5bbe eb1f 9e3d
000001f0: cab3 73be c011 523e d081 6abe 3d46 e5bd
00000200: 668d 49be 403b f8bb f57c 4abe 9251 07be
00000210: a860 c0bd a677 383e dbc8 473e 99d7 e53d
00000220: 96f4 663e bd4d ad3d f4cf 79be 2737 2b3e
00000230: 8566 c9bd 5316 f63d dd7d 05bd 54cf 033e
00000240: 2406 813d d4e4 163e 30e7 29be 54a8 35be
00000250: 62fd 6c3e c04e dabc 570b ee3c f77b 013d
00000260: e893 3d3d b7ef 143e 850a c63c 51c4 58bc
00000270: c84c b73d 187a 7d38 faef 5fbe 6e0d 163e
00000280: 88ba 313d 328c 78be 068b 0cbe 282d 74bd
00000290: 1283 413e 9c2f ec3d 400b 6dbe 9a91 2fbe
000002a0: 3c68 57be 1e31 3d3e 4cff 7ebe f70a 39be
000002b0: e3a2 1f3e df97 c43c d24a e9bc fc8f 40bc
000002c0: e0ed 4d3e 8097 2dbc 922f 05be f0af 8dbc
000002d0: 1024 fd3c 88c4 b7bd 1703 2fbe 11f4 f93d
000002e0: 0061 d53c 4519 453e dff0 fabd 65c9 9fbd
000002f0: 6512 b2bd 0605 043e c4b3 1f3e 18dc 37bc
00000300: b4d8 68be 904b d8bd eb76 fbbd 58db 30bd
00000310: 586a 74be b82f 5fbd 3888 33bc 8925 02bd
00000320: e287 3abe a822 5bbe b8e0 5abd 907b 0c3d
00000330: d362 1cbd 299a 59be 890e 123d 3f7e 2f3d
00000340: 5cc8 50be be58 393e c2fa 733e 7e57 1fbe
00000350: 3860 1fbe a276 673e 5ae7 bfbd 6c34 1b3e
00000360: c4b7 b7bd 262b 6fbe f169 34bd e321 6b3e
00000370: c167 d13c 0808 1fbd 7f72 31be 4c61 3abe
00000380: 22df 703e 20f5 ec3c 0908 7d3e 689b a3bd
00000390: 4824 a1bd 382b 3b3e 1b2e 673e 020d 63be
000003a0: e86c df3d 19e2 773b 6327 393e 9862 14be
000003b0: 1050 28bd a6aa e1bc cf7d 013e 66c9 5d3e
000003c0: c4e1 fbbd 4452 41be f366 0ebe 8065 ffbd
000003d0: 38d9 093e 8078 83bd 576c 29bc fac0 6d3e
000003e0: e23e 1bbe 117c 14be 7ab6 02be c3d8 78bc
000003f0: 28b1 56be 2597 553d 9058 7e3e d999 f4bd

linear.1.bias f4 [64]
0.20037325 0.1759641 0.011220069 0.006188942 -0.19689406 -0.12942454 -0.0086684385 0.22545566
0.10143165 0.22751415 0.09262084 0.19806865 -0.043470696 0.16686857 -0.06475933 0.20641202
0.23966187 0.12769073 0.13776672 -0.0030071104 -0.21050729 -0.068971746 -0.079093724 0.07064471
-0.22509788 -0.07903426 -0.047483593 0.05836977 -0.08068853 0.115362175 -0.21673349 -0.17164189
0.059137467 0.1331165 -0.14094768 -0.16877463 -0.12099512 -0.0075316853 -0.02155681 0.22815199
-0.12230045 0.0993976 0.00280108 0.10462714 -0.1769334 0.06668562 -0.18637489 -0.23388621
0.21741512 -0.09274478 -0.06246661 0.11773385 0.14806606 0.0014239956 0.122747496 0.17893957
-0.2001239 0.21000496 0.07695943 0.210417 0.109467804 0.12848532 0.05478314 0.106454216
00000000: a52e 4d3e ef2f 343e 61d4 373c 9ccc ca3b
00000010: 999e 49be de87 04be 1106 0ebc d9dd 663e
00000020: 66bb cf3d 78f9 683e ffaf bd3d 82d2 4a3e
00000030: 540e 32bd 98df 2a3e 8aa0 84bd ac5d 533e
00000040: ec69 753e 5cc1 023e b812 0d3e f112 45bb
00000050: 398f 57be 0f41 8dbd e4fb a1bd 2cae 903d
00000060: 0f80 66be b7dc a1bd 287e 42bd 2415 6f3d
00000070: 0740 a5bd 0143 ec3d 62ef 5dbe e4c2 2fbe
00000080: 213a 723d b14f 083e 9754 10be 42d3 2cbe
00000090: 4acc f7bd 5bcc f6bb e897 b0bc ada0 693e
000000a0: a978 fabd f890 cb3d 5392 373b c146 d63d
000000b0: 072e 35be 7892 883d 0fd9 3ebe de7f 6fbe
000000c0: 12a2 5e3e faf0 bdbd fddc 7fbd 721e f13d
000000d0: a19e 173e 5da5 ba3a 0a63 fb3d ef3b 373e
000000e0: 48ed 4cbe 8a0b 573e e89c 9d3d 8e77 573e
000000f0: a830 e03d a891 033e 4964 603d ab04 da3d

linear.3.weight f4 [2, 64]
0.059389867 0.1222361 0.063637644 -0.0059507745 0.11482323 0.051353723 0.04774927 0.10747167
-0.084832214 0.11503924 0.09023896 0.090833634 0.030048706 0.06027047 0.096962415 0.06748013
-0.06093814 -0.07729318 0.10720074 -0.064254805 0.12554745 -0.013164434 -0.066842526 0.0690494
-0.059365273 0.014674169 0.118527904 0.08666137 -0.06636104 0.084796384 0.047943156 -0.11012534
0.05574626 0.11015226 -0.05855221 -0.06124579 -0.12069292 -0.090610504 0.0969829 0.0173723
-0.036192704 0.055551827 0.013804185 0.10482748 0.12071038 0.07825664 -0.12095501 -0.11808977
0.078112304 0.079766296 0.019186212 -0.09416992 -0.0369954 0.00079007057 -0.045930393 0.09144234
-0.1066212 0.0301437 -0.08285097 -0.03141444 -0.05994418 0.07822019 -0.059216898 -0.073102854
0.09666267 0.08435018 -0.03240101 -0.09894836 0.056542818 0.12355085 0.013030782 0.049566176
-0.04215884 -0.090612285 -0.023148455 0.10332398 -0.05468277 -0.055199366 0.1022714 -0.048553206
0.10801423 0.030929536 -0.09867148 -0.021078194 -0.02557996 0.10614982 -0.04298803 -0.065081015
0.11788627 0.036346693 -0.10292481 0.07395321 -0.097555146 0.034341455 0.015358361 0.058642775
0.019867886 0.03717165 -0.06153096 0.0073735327 -0.037262794 0.022713749 -0.11472909 0.077580795
0.045177076 -0.067288704 -0.0913941 0.008371724 -0.09378768 -0.031054681 0.07149891 -0.090909
-0.059831966 -0.109480746 -0.01458116 0.06371067 0.05775847 0.023093985 0.034910373 -0.016606124
0.083906405 -0.011065364 0.027847514 -0.0001355124 0.090887375 0.058436044 0.072127365 -0.062189348
00000000: ca42 733d ec56 fa3d 7454 823d b7fe c2bb
00000010: 7128 eb3d 4858 523d bd94 433d 1b1a dc3d
00000020: 83bc adbd b199 eb3d 34cf b83d fc06 ba3d
00000030: b428 f63c 2bde 763d 3b94 c63d 0633 8a3d
00000040: 459a 79bd e34b 9ebd 108c db3d 0698 83bd
00000050: 838f 003e a3af 57bc bce4 88bd c669 8d3d
00000060: 0029 73bd ed6b 703c c2be f23d 847b b13d
00000070: 4ce8 87bd baa9 ad3d 0b60 443d 6589 e1bd
00000080: 3156 643d 8297 e13d 71d4 6fbd dedc 7abd
00000090: da2d f7bd 0092 b9bd f89e c63d 5b50 8e3c
000000a0: cd3e 14bd 508a 633d f32a 623c caaf d63d
000000b0: 0137 f73d 0445 a03d 43b7 f7bd 0dd9 f1bd
000000c0: 58f9 9f3d 835c a33d 672c 9d3c 29dc c0bd
000000d0: 7d88 17bd bd1c 4f3a 8221 3cbd 1f46 bb3d
000000e0: 375c dabd ecef f63c c5ad a9bd 6eac 00bd
000000f0: 0788 75bd e831 a03d 6b8d 72bd f3b6 95bd
00000100: 14f7 c53d cabf ac3d ecb6 04bd 70a5 cabd
00000110: 7199 673d 3a08 fd3d 107f 553c e705 4b3d
00000120: bfae 2cbd ef92 b9bd d4a1 bdbc 869b d33d
00000130: 0afb 5fbd bb18 62bd ab73 d13d badf 46bd
00000140: 9136 dd3d f05f fd3c 4614 cabd 2dac acbc
00000150: 108d d1bc 1465 d93d 3714 30bd 3249 85bd
00000160: 5b6e f13d 45e0 143d 3eca d2bd c874 973d
00000170: feca c7bd a0a9 0c3d a3a1 7b3c 6833 703d
00000180: fac1 a23c 4d41 183d e307 7cbd ad9d f13b
00000190: dfa0 18bd 2f12 ba3c 16f7 eabd aee2 9e3d
000001a0: 990b 393d a9ce 89bd d42c bbbd 8e29 093c
000001b0: c113 c0bd 6366 febc 056e 923d 7f2e babd
000001c0: 5d12 75bd 7137 e0bd d1e5 6ebc bd7a 823d
000001d0: 2594 6c3d 992f bd3c 2efe 0e3d 9109 88bc
000001e0: 1fd7 ab3d 804b 35bc 7820 e43c 5518 0eb9
000001f0: 2923 ba3d a25a 6f3d 83b7 933d 42ba 7ebd

linear.3.bias f4 [2]
0.018675562 -0.01121612
00000000: 7efd 983c d1c3 37bc
