meta/demos/multiple_experiments/results/models/run_0/emodb_mlp_os_16-64-128_C_val-001_drop-3_learning_rate-01_0_001.model (torch, 48468 bytes, 8 tensors)

linear.0.weight f4 [16, 88]
0	0x3c3d404a	0.011550972
1	0xbd4e9ef6	-0.050444566
2	0x3d360d8a	0.044446506
3	0x3c876206	0.016526233
4	0xbe113203	-0.14179234
5	0xbe21f58a	-0.15816322
6	0x3d06e04c	0.03292875
7	0xbe15edc3	-0.1464148
8	0xbd935ce6	-0.07195453
9	0xbe03dc7f	-0.12877081
10	0xbc05cfd5	-0.008167227
11	0xbbd21dd8	-0.006412249
12	0xbdd9b848	-0.10630852
13	0xbe0d4f4d	-0.13799782
14	0x3d256bb0	0.040385902
15	0xbdbee393	-0.0932075
16	0xbdac7a11	-0.0842172
17	0xbd3dd1db	-0.046342712
18	0xbd91f7b7	-0.07127326
19	0x3cd9af4c	0.026572846
20	0xbda79dc3	-0.081843875
21	0xbd430c3b	-0.047619086
22	0xbd491137	-0.049088683
23	0xbe173071	-0.14764573
24	0x3d3c7d5f	0.046018
25	0x3e0fb9ad	0.14035673
26	0xbe260d42	-0.16215995
27	0x3d654726	0.055976056
28	0x3daaa38e	0.08331977
29	0x3e1e8103	0.15478902
30	0xbc3832ee	-0.011242611
31	0xbd98da01	-0.07463456
32	0xbd50c446	-0.05096843
33	0xbd95673e	-0.072950825
34	0xbd662e06	-0.056196235
35	0xbdc57688	-0.09641749
36	0xbe1ae082	-0.15124705
37	0xbd9eb6cf	-0.07749712
38	0x3d3dbc72	0.046322294
39	0x3d055b9e	0.032558076
40	0xbce0cde5	-0.027441928
41	0xbe1651f3	-0.14679699
42	0xbd3f664b	-0.046728414
43	0xbd61770e	-0.05504518
44	0x3ddda62e	0.10822712
45	0x3dfdad94	0.12386623
46	0x3ce768ba	0.02824818
47	0x3cceb778	0.02523397
48	0xbd85fdd3	-0.06542554
49	0xbe1ab595	-0.1510833
50	0x3e213f74	0.15746862
51	0x3dffb51b	0.12485715
52	0xbddb3275	-0.10702983
53	0xbdc82997	-0.09773558
54	0x3b242dde	0.0025051753
55	0xbd952564	-0.07282522
56	0x3d045b65	0.032313723
57	0xbca57a52	-0.020199928
58	0x3d904c2a	0.07045777
59	0x3e1eeb01	0.15519334
60	0xbe2719be	-0.16318414
61	0xbdc6c014	-0.09704605
62	0xbd853e85	-0.06506065
63	0xbc2cff7c	-0.010558959
64	0x3d96ebec	0.07369217
65	0xbd0f9270	-0.035051763
66	0xbb8dd681	-0.0043285494
67	0x3d1d3a18	0.03838548
68	0xbe137151	-0.14398696
69	0xbe07db6f	-0.13267301
70	0x3df2ee42	0.1186185
71	0xbdb51d57	-0.08843487
72	0xbe0d260d	-0.13784046
73	0x3e18242d	0.1485755
74	0x3e1c9cd9	0.15294208
75	0x3d3bea02	0.045877464
76	0x3e04c4da	0.12965718
77	0xbb997257	-0.00468282
78	0xbe016afd	-0.12638469
79	0xbca3c204	-0.019989975
80	0x3baf0614	0.0053413007
81	0xbdc7b74d	-0.09751759
82	0x3c1db2f2	0.009625183
83	0x3b7abe00	0.0038260221
84	0x3c7fae2e	0.0156054925
85	0xbdd8374e	-0.105574235
86	0xbdd9c612	-0.10633482
87	0x3dd6d27c	0.104893655
88	0xbd0927f6	-0.033485375
89	0x3d267f35	0.040648658
90	0x3d1642cb	0.036684792
91	0xbdd4fac1	-0.1039939
92	0xbc96d1b8	-0.018410549
93	0xbbef9d42	-0.0073124478
94	0xbcd6e5cf	-0.026232628
95	0x3cd0a15d	0.025467569
96	0xbd246f30	-0.0401451
97	0xbd8d16a0	-0.06889081
98	0xbd1f9e8e	-0.03896957
99	0xbd3e0f5d	-0.04640137
100	0xbdbad687	-0.09122949
101	0x3bc89f6a	0.0061225193
102	0xbdd09966	-0.101855084
103	0xbd24f08c	-0.040268466
104	0xbcfb8d70	-0.030707091
105	0x3b24ab8a	0.002512666
106	0x3d6d6222	0.057954915
107	0x3d93dec8	0.072202265
108	0xbc8b864a	-0.017031807
109	0x3c48d1f1	0.012257085
110	0x3dd681c0	0.104739666
111	0xbdb9806c	-0.09057698
112	0xbd576e45	-0.052595396
113	0x3dbeb187	0.093112044
114	0xbd83fa5d	-0.064442374
115	0x3dd1b956	0.10240428
116	0x3dd85045	0.10562185
117	0x3d9d8dac	0.076930374
118	0x3dad5a2d	0.08464465
119	0xbd8b362c	-0.06797442
120	0x3db965ac	0.090525955
121	0xbdda4e16	-0.10659425
122	0x3cc0b31a	0.023522902
123	0xbdb18f2e	-0.086698875
124	0xbd55f093	-0.052231383
125	0x3cda4e4e	0.026648667
126	0x3cd23cca	0.025663752
127	0xbd584ed9	-0.05280957
128	0xbc5f5862	-0.013631912
129	0x3dc63266	0.096775815
130	0xbdd8191e	-0.10551666
131	0xbcd91a71	-0.026501866
132	0x3d73f169	0.0595564
133	0xbd9e7a06	-0.07738118
134	0xbd52c37e	-0.051455967
135	0x3dca45fc	0.0987663
136	0xbc67c23e	-0.014145432
137	0xbb81a46c	-0.003956368
138	0x3ca94bec	0.020666085
139	0x3d3b3948	0.045708925
140	0xbd7b1686	-0.061300777
141	0x3db7e116	0.089784786
142	0x3c8c6745	0.017139086
143	0xbd2aabd9	-0.041667793
144	0xbd8e964f	-0.06962263
145	0x3dcf6f29	0.10128624
146	0xbd9fef59	-0.07809324
147	0xbd3c4aec	-0.04596989
148	0x3c6d3e7d	0.01448023
149	0xbd74f18b	-0.059800666
150	0xbc2f75a9	-0.010709205
151	0xbda91e1e	-0.082576975
152	0x3c8a04e7	0.01684804
153	0xbdd051de	-0.10171865
154	0xbdd75313	-0.10513892
155	0xbd11d767	-0.035605814
156	0x3b4ed6be	0.0031561102
157	0xbda84728	-0.08216697
158	0xbd85285b	-0.06501838
159	0xbd20c5fc	-0.039251313
160	0xbd861142	-0.065462604
161	0x3db8cb59	0.090231605
162	0xbd9da520	-0.07697511
163	0x3c669031	0.014072464
164	0x3da2d1f7	0.07950204
165	0xbbccc416	-0.006248961
166	0xbc8a84d3	-0.016909039
167	0x3d9cc915	0.07655541
168	0x3d6c595a	0.0577024
169	0xbd8a6b27	-0.06758719
170	0xbda400e8	-0.08007985
171	0xbc8643f4	-0.016389824
172	0x3d2e1c7d	0.042507637
173	0xbd699b4f	-0.05703288
174	0xbdc2dbaa	-0.09514554
175	0x3d5e0dae	0.054212265
176	0x3ca2f2b2	0.019891117
177	0x3d55c88e	0.052193217
178	0xbd148bcc	-0.036266133
179	0xbc89fff4	-0.01684568
180	0x3d95b06d	0.07309041
181	0xbd05f53f	-0.032704588
182	0x3e13321e	0.14374587
183	0x3da75d54	0.08172098
184	0x3b24c427	0.002514133
185	0xbe0a5ee9	-0.13512768
186	0x3c9794f9	0.018503653
187	0xbe04077a	-0.12893477
188	0x3d15648d	0.036472846
189	0x3aa0cbc0	0.0012267753
190	0xbbc787be	-0.00608918
191	0xbdb78a78	-0.08961958
192	0x3d91bfe5	0.07116679
193	0xbe04d52d	-0.12971945
194	0xbce9668a	-0.028491277
195	0xbdb6ec4b	-0.08931788
196	0x3cdf4d15	0.027258435
197	0xbddd5b8b	-0.10808476
198	0xbdcc0083	-0.09961035
199	0xbd9540b8	-0.07287735
200	0xbb42e461	-0.0029738175
201	0xbdc8416b	-0.097781025
202	0x3c6dbd8f	0.014510526
203	0x3dbed923	0.09318759
204	0x3d39d486	0.045368694
205	0xbc0d0ee5	-0.008609508
206	0xbc977c7e	-0.01849198
207	0xbdd4d5f7	-0.10392373
208	0xbbfdef4a	-0.0077494727
209	0x3d90d7e2	0.070724264
210	0xbe030f60	-0.12798834
211	0xbdb57b6d	-0.08861432
212	0xbd86d37d	-0.06583307
213	0x3d0239ed	0.031793524
214	0xbdf0d02e	-0.11758457
215	0xbdc6cf03	-0.09707453
216	0x3d4df9eb	0.05028717
217	0x3d4b553f	0.049641844
218	0xbded8a93	-0.115986966
219	0x3b9a895d	0.004716082
220	0xbb4caa70	-0.0031229518
221	0xbd324258	-0.0435203
222	0x3d2ba431	0.041904632
223	0x3cad4d3e	0.021154996
224	0x3d203d25	0.039120812
225	0x3d711c6f	0.058865007
226	0x3e0dad68	0.1383568
227	0x3c916ed1	0.017753037
228	0x3c044c93	0.008074897
229	0x3d4a2d70	0.04935974
230	0xbda74a48	-0.08168465
231	0xbd85fb13	-0.06542029
232	0x3dbe7a3d	0.09300659
233	0x3d05a5be	0.032628767
234	0x3d698126	0.05700793
235	0xbd33ec77	-0.043926682
236	0xbd9d741f	-0.07688164
237	0xbde7f466	-0.11325912
238	0x3d4fdfe1	0.050750617
239	0xbdf854f6	-0.1212558
240	0x3dbe2187	0.092837386
241	0xbd45b642	-0.048269518
242	0xbd6feaef	-0.05857366
243	0xbc6d7bfd	-0.014494893
244	0xbd75884a	-0.05994443
245	0xbc998b47	-0.01874317
246	0xbdda14b6	-0.106484815
247	0x3d61decb	0.055144113
248	0xbe1374d8	-0.14400041
249	0xbbd00698	-0.0063484423
250	0x3cdc555b	0.02689617
251	0x3cb6801d	0.022277886
252	0xbc9d56de	-0.01920646
253	0xbd86f57f	-0.065897934
254	0x3c1c172f	0.009527012
255	0xbe01754e	-0.12642404

linear.0.bias f4 [16]
0	0xbe05b019	-0.13055457
1	0x3d185dd8	0.03719887
2	0x3d898347	0.06714492
3	0xbe022739	-0.12710275
4	0x3c70063c	0.014649924
5	0xbd0a9bb6	-0.033839904
6	0xbdb28eca	-0.08718641
7	0xbd42f676	-0.047598325
8	0x3a70d048	0.000918631
9	0x3d7dac8d	0.061932135
10	0xbda9da3f	-0.0829358
11	0xbe0ab08e	-0.13543913
12	0xbd13b9c0	-0.036065817
13	0xbd17d034	-0.037063792
14	0xbc284e69	-0.010272601
15	0xbd8362b9	-0.06415314

linear.1.weight f4 [64, 16]
0	0xbd2cec4d	-0.04221754
1	0xbe37c0b4	-0.17944604
2	0x3e1e4bf9	0.15458669
3	0x3e12ea88	0.14347279
4	0x3e0db04f	0.13836788
5	0xbdf2ac29	-0.11849243
6	0x3e3cfe21	0.18456317
7	0xbe936319	-0.28786543
8	0x3e0c5174	0.13702947
9	0x3e16b560	0.14717627
10	0x3d862e7c	0.06551835
11	0xbe8e871e	-0.2783746
12	0xbdc2c78f	-0.09510719
13	0x3e46a690	0.19399476
14	0xbc8dab84	-0.0172937
15	0xbe531f0c	-0.20617312
16	0x3e57f6a6	0.21090183
17	0x3dd57b80	0.104239464
18	0xbe1eb365	-0.15498121
19	0xbd3a5b31	-0.045497123
20	0x3cf91778	0.030406699
21	0x3de89cd9	0.11358041
22	0x3e20175d	0.15633912
23	0x3e39b5a8	0.18135703
24	0x3e184866	0.14871368
25	0xbe5462fa	-0.20740882
26	0xbd6f9a38	-0.058496684
27	0x3e2dc676	0.16970238
28	0x3dffc218	0.12488192
29	0x3e599820	0.21249437
30	0xbe3bf5e7	-0.18355523
31	0xbe2b72a2	-0.16742948
32	0xbda7af85	-0.081877746
33	0xbd012270	-0.031526983
34	0x3e3d7154	0.18500262
35	0x3d26076f	0.040534433
36	0x3df1af30	0.118009925
37	0xbcab32f1	-0.020898314
38	0x3dc0033e	0.093756184
39	0xbe235d88	-0.15953648
40	0xbe0d6558	-0.13808191
41	0x3e7d5b74	0.24741918
42	0x3e52b918	0.2057842
43	0xbe09b8ce	-0.13449404
44	0x3df0a2e9	0.11749823
45	0x3d8ce75f	0.06880068
46	0xbe869897	-0.26288292
47	0xbda071d3	-0.0783421
48	0xbcbc433c	-0.022981279
49	0xbc730dc0	-0.014834821
50	0xbd1052c3	-0.035235178
51	0x3e209228	0.15680754
52	0x3e02cf6c	0.12774438
53	0xbe452dca	-0.19255748
54	0x3e3a1c88	0.18174946
55	0xbe4ae05c	-0.19812149
56	0x3d769477	0.06020018
57	0x3c98deb0	0.018660873
58	0x3d556240	0.05209565
59	0xbe03c374	-0.12867528
60	0x3e5249e2	0.20535997
61	0x3e05faa6	0.13083896
62	0x3e30c456	0.17262396
63	0xbe1663fb	-0.14686577
64	0x3d499c8a	0.049221553
65	0x3e3d1308	0.18464291
66	0xbe4473ee	-0.19184849
67	0xbca88a74	-0.020573832
68	0x3deea518	0.11652583
69	0xbe900549	-0.28129032
70	0x3d04e388	0.032443553
71	0x3db4c346	0.08826308
72	0x3d30ee29	0.043195877
73	0x3e5e6480	0.21718025
74	0x3d9e5c90	0.07732499
75	0xbdd1c660	-0.10242915
76	0xbdf7a226	-0.12091474
77	0xbcdfedb5	-0.027335027
78	0x3dc94e68	0.09829408
79	0xbd7d96d7	-0.06191143
80	0xbcbc6976	-0.022999506
81	0xbe74b8f2	-0.23898676
82	0xbe29deab	-0.16588847
83	0x3da5844d	0.08081875
84	0x3d8f2835	0.06990091
85	0xbe194627	-0.14968167
86	0xbce85e9e	-0.02836543
87	0x3dc9d44d	0.09854946
88	0x3e069ee1	0.13146545
89	0xbd99e5a0	-0.075145006
90	0x3db19f1c	0.08672926
91	0xbd4392ae	-0.047747307
92	0x3dca011c	0.09863493
93	0xbe495c4c	-0.19664115
94	0xbc82cdd8	-0.015967295
95	0x3d5781d4	0.052614048
96	0xbe09fd68	-0.13475573
97	0x3e7b563e	0.24544618
98	0x3e3c11f8	0.1836623
99	0x3ea07764	0.31341088
100	0xbd11aeac	-0.03556697
101	0xbce98cd1	-0.02850953
102	0xbde210c3	-0.11038353
103	0xbdd47854	-0.10374513
104	0x3d96d854	0.0736548
105	0x3e10f8b4	0.14157373
106	0xbe209d6c	-0.15685052
107	0x3e0b8703	0.13625722
108	0x3e3f4995	0.18680413
109	0x3e9cd660	0.30632305
110	0xbdd0932d	-0.101843216
111	0xbdeeeff0	-0.11666858
112	0xbda3af48	-0.079924166
113	0xbe3e4aa4	-0.1858316
114	0xbc643def	-0.013930782
115	0x3e78337d	0.24238391
116	0x3e8dc177	0.27686664
117	0xbe15444e	-0.14576837
118	0xbe4169f3	-0.18888073
119	0x3e97d945	0.2965795
120	0xbde6094b	-0.11232241
121	0x3e3885a6	0.18019733
122	0x3e4362ae	0.19080612
123	0xbd8979e6	-0.067127034
124	0xbc9b8224	-0.018982954
125	0x3ea11838	0.3146379
126	0x3dbfa67d	0.09357927
127	0x3e0d7d69	0.13817371
128	0x3d8d374a	0.06895311
129	0x3e129fb6	0.14318737
130	0x3e75afef	0.23992895
131	0xbdc35ea9	-0.09539539
132	0xbdfaa2b2	-0.12238063
133	0xbe48ab91	-0.19596697
134	0x3e0a924c	0.1353237
135	0xbdf6e221	-0.120548494
136	0x3e101783	0.14071469
137	0xbe6b9b9e	-0.23008582
138	0x3e717a6c	0.23581856
139	0x3e7a0e61	0.24419548
140	0xbcc3318d	-0.023827339
141	0xbe0cc576	-0.137472
142	0xbe3d095a	-0.18460599
143	0xbdf41660	-0.1191833
144	0x3e4e6bbe	0.20158288
145	0x3e13fbbe	0.14451501
146	0xbe1ab4f2	-0.15108088
147	0x3e32cd70	0.1746118
148	0xbca7464e	-0.020419266
149	0xbe82d06c	-0.25549638
150	0xbdd268dc	-0.102739066
151	0xbdafb5b3	-0.08579578
152	0xbd2110ed	-0.039322782
153	0x3d455418	0.0481759
154	0xbd99a61c	-0.07502386
155	0x3e36e066	0.17859039
156	0x3e3457c4	0.17611605
157	0xbd92a8d2	-0.07161106
158	0x3e3e3e88	0.18578541
159	0xbd877afb	-0.066152535
160	0xbda18fdb	-0.078887664
161	0xbc957a30	-0.01824674
162	0x3d8a8323	0.067632936
163	0x3e812d6f	0.25229976
164	0x3e9300e5	0.2871162
165	0xbdf01ba2	-0.117240205
166	0x3dbbdee7	0.091733746
167	0xbe151066	-0.14557037
168	0x3c08b738	0.008344464
169	0xbe00d82e	-0.12582466
170	0xbe72ead2	-0.2372239
171	0x3a5733b4	0.00082093035
172	0x3d7c3897	0.061577406
173	0xbe0927d3	-0.13394098
174	0xbe09f742	-0.13473228
175	0xbc1c27d6	-0.009530982
176	0x3dd8e8d6	0.10591285
177	0xbe515d2c	-0.20445698
178	0x3dfd92a4	0.12381485
179	0xbe2310db	-0.15924399
180	0x3d52db59	0.051478717
181	0x3c3f3000	0.011669159
182	0xbe918300	-0.28420258
183	0x3e250dd7	0.1611856
184	0x3dba491b	0.09095975
185	0x3dadb204	0.084812194
186	0xbe686a9e	-0.22696921
187	0x3d53f414	0.051746443
188	0x3d7377e2	0.0594405
189	0xbdcedd8f	-0.10100853
190	0x3e3de5e5	0.18544729
191	0xbe6174cc	-0.2201721
192	0xbe2e2c9f	-0.17009209
193	0x3e107c12	0.14109829
194	0x3e8446cd	0.25835267
195	0x3cdbce91	0.026831897
196	0x3e059751	0.13046004
197	0x3e220c89	0.15825094
198	0xbe8f0802	-0.27935797
199	0xbe0800b2	-0.13281515
200	0x3e717606	0.23580179
201	0x3e27f89e	0.16403434
202	0xbe22c0c2	-0.15893844
203	0x3be45556	0.0069681806
204	0x3df5b7c5	0.11997942
205	0xbe3ee9db	-0.18643896
206	0xbdf8156f	-0.12113463
207	0xbda977ba	-0.08274789
208	0x3e2949af	0.16532014
209	0xbe36d90c	-0.17856234
210	0x3d965c9b	0.07341882
211	0xbe47db3a	-0.19517222
212	0x3d86031f	0.06543564
213	0xbca973e2	-0.02068514
214	0xbe0b0686	-0.13576707
215	0x3e232bf6	0.15934739
216	0x3e0785e1	0.13234664
217	0x3e502b48	0.2032901
218	0xbdfb35fc	-0.12266156
219	0x3daee869	0.085404225
220	0xbe4ab1c8	-0.1979438
221	0xbd9c84f8	-0.07642549
222	0x3e37e802	0.17959598
223	0x3de7ea9f	0.11324047
224	0x3e9327c8	0.28741288
225	0xbe14b330	-0.1452148
226	0xbda74b51	-0.08168662
227	0xbdaf607d	-0.085633256
228	0xbe7388a2	-0.2378259
229	0xbcbdf4a4	-0.023187943
230	0xbcdc3ef2	-0.026885483
231	0x3c85f243	0.016350871
232	0x3ded5800	0.1158905
233	0x3e791a70	0.24326491
234	0x3df747d0	0.12074244
235	0x3e44fe5e	0.19237658
236	0x3e46f030	0.19427562
237	0x3d10a667	0.035314944
238	0xbe10872a	-0.14114061
239	0xbdb9e7f0	-0.09077442
240	0xbd9c5858	-0.07634038
241	0x3c84f2b0	0.016229004
242	0x3e09891f	0.13431214
243	0x3e3ab36b	0.18232505
244	0x3cd1c380	0.025605917
245	0xbd2effcd	-0.04272442
246	0x3cc2cf2c	0.023780428
247	0x3d2e0312	0.042483397
248	0x3e0bc142	0.13647941
249	0x3d8a8464	0.06763533
250	0xbd7d38b8	-0.06182167
251	0x3e469fa5	0.19396837
252	0xbe8b73b1	-0.27236703
253	0x3cb3a11a	0.021927405
254	0x3b9984ed	0.0046850354
255	0xbe1950c1	-0.14972211

linear.1.bias f4 [64]
0	0x3e00c0e6	0.12573585
1	0xbe864eef	-0.26232097
2	0x3cbdcb5e	0.023168262
3	0xbdad3bcc	-0.08458671
4	0xbe280897	-0.16409527
5	0x3e6925b5	0.2276829
6	0xbdb203f2	-0.08692159
7	0xbe06106e	-0.13092205
8	0x3e380625	0.17971094
9	0xbe388887	-0.18020831
10	0xbd8876ab	-0.06663259
11	0xbe0e0fc5	-0.13873203
12	0x3c8d424c	0.017243527
13	0x3c67024a	0.014099667
14	0xbce0ed9b	-0.02745705
15	0xbe066a71	-0.13126542
16	0xbe3080b4	-0.17236596
17	0xbc1c7b20	-0.00955084
18	0x3e82ace2	0.25522524
19	0xbd805fb6	-0.062682554
20	0x3e951d43	0.29123887
21	0x3d9c3c41	0.0762868
22	0xbe1c427f	-0.15259741
23	0x3d29e88f	0.04148155
24	0xbe6a7314	-0.22895461
25	0x3db9551f	0.09049439
26	0xbe99f5ac	-0.30070245
27	0xbd1b9a60	-0.03798902
28	0xbd93b147	-0.07211547
29	0x3e31dc38	0.17369163
30	0x3db45414	0.08805099
31	0x3e4827b5	0.19546397
32	0x3e3bdeef	0.18346761
33	0x3e1ae736	0.15127262
34	0xbe2f0704	-0.1709252
35	0xbe3edcd3	-0.18638925
36	0xbc893e4a	-0.016753335
37	0x3e60e034	0.21960527
38	0x3cfeb60d	0.031092668
39	0xbcc4c851	-0.0240213
40	0x3e5963e7	0.21229516
41	0x3d974783	0.07386687
42	0xbcda42bc	-0.02664315
43	0xbdee96df	-0.1164987
44	0xbe2b9518	-0.16756094
45	0x3df7adc5	0.12093691
46	0x3dbc1203	0.09183123
47	0x3cfcea3a	0.030873407
48	0x3e0be13a	0.13660136
49	0xbe75d9c7	-0.24008857
50	0xbe359ffe	-0.17736813
51	0x3dc080ad	0.09399543
52	0xbe415a21	-0.18882038
53	0x3e8f9b66	0.28048247
54	0x3db83d03	0.08996012
55	0xbe26d89c	-0.16293567
56	0xbda4ba53	-0.08043351
57	0xbe80cb36	-0.25155038
58	0xbe741b1e	-0.2383847
59	0x3c8599b5	0.016308645
60	0xbe23af2b	-0.1598479
61	0xbe28cc73	-0.16484241
62	0x3e599d35	0.21251376
63	0xbcc46321	-0.02397305

linear.2.weight f4 [128, 64]
0	0x3e193cb7	0.14964567
1	0x3d6ca24b	0.057771962
2	0x3ddcff4e	0.10790883
3	0xbd896608	-0.06708914
4	0xbdfcf3d7	-0.12351196
5	0x3c899ce1	0.016798439
6	0xbd752ba9	-0.05985609
7	0xbdbee7fd	-0.09321592
8	0xbba72a33	-0.005101466
9	0x3ca4a717	0.020099206
10	0x3d0a079a	0.033698656
11	0xbc78b985	-0.01518095
12	0xbdce4bae	-0.100730285
13	0x3d269895	0.040672857
14	0xbdb56d40	-0.088587284
15	0x3db8435c	0.08997223
16	0xbe3bae42	-0.18328193
17	0xbd42f493	-0.047596525
18	0xbc6b6613	-0.014367598
19	0xbc55bf88	-0.013046153
20	0xbdb1367f	-0.086529724
21	0xbd2b12f9	-0.04176614
22	0x3cbefedf	0.023314891
23	0xbd8ee502	-0.069772735
24	0xbd6c938c	-0.0577579
25	0xbde77ac9	-0.11302716
26	0x3d7fc7c6	0.06244638
27	0xbdbd1545	-0.092325725
28	0xbdf6a422	-0.120430246
29	0x3bb29b06	0.005450609
30	0x3daa98d8	0.08329934
31	0x3cd1bd3c	0.02560293
32	0x3c6fa606	0.014626985
33	0xbdfe6baa	-0.12422879
34	0x3dd8d9a7	0.10588389
35	0xbdce0e55	-0.10061327
36	0xbe136007	-0.143921
37	0x3d8adc9e	0.06780361
38	0x3d8adf6a	0.06780894
39	0x3d9ab8b7	0.07554763
40	0xbdd46381	-0.10370541
41	0x3d8c927f	0.068638794
42	0x3c702c52	0.014659004
43	0x3cfbf874	0.03075812
44	0xbcdd1f3b	-0.02699243
45	0x3b3730c3	0.0027952648
46	0x3b0b14a0	0.002122201
47	0x3dc4cc06	0.09609227
48	0xbd7e10cb	-0.062027734
49	0x3d8808ff	0.06642341
50	0x3e36d685	0.1785527
51	0x3bdff0d3	0.0068341284
52	0x3de6923f	0.11258363
53	0x3d65598f	0.055993613
54	0x3d805710	0.06266606
55	0x3d2ee0bb	0.04269479
56	0x3afe8763	0.001941901
57	0xbc8a369a	-0.01687174
58	0x3dedbcc3	0.11608269
59	0x3bab9de1	0.0052373265
60	0x3d80a46d	0.06281362
61	0x3d08d8c8	0.033409864
62	0x3d783f97	0.06060752
63	0xbdef77c4	-0.11692765
64	0x3dabecd6	0.08394782
65	0x3c941489	0.018076198
66	0x3d4a0ad7	0.049326744
67	0xbd57e0ad	-0.052704502
68	0xbd90ad4b	-0.07064303
69	0x3d3fea26	0.04685416
70	0xbbb80521	-0.005615846
71	0xbd229ae2	-0.03969849
72	0x3e247570	0.16060424
73	0xbd7df5ed	-0.06200211
74	0xba82481d	-0.0009939704
75	0x3daaddfd	0.08343122
76	0xbe02a628	-0.12758696
77	0x3a8184cc	0.0009881495
78	0xbd8d09dd	-0.06886647
79	0xbd97bfab	-0.07409605
80	0xbd00b4fc	-0.0314226
81	0x3e126946	0.14297971
82	0x3e214ef0	0.15752769
83	0x3e019b15	0.12656815
84	0xbcd6c6b1	-0.02621779
85	0x396efc6c	0.00022791483
86	0xbe11c59e	-0.14235541
87	0x3df797a9	0.12089474
88	0x3aca703b	0.0015444824
89	0x3dc1ff3b	0.094725095
90	0x3cd45858	0.025921032
91	0x3b21cd1a	0.00246889
92	0x3da16cb5	0.07882062
93	0x3df6ee4f	0.120571725
94	0x3e32847f	0.17433356
95	0x3da3d8cb	0.08000334
96	0xbd9322ad	-0.07184348
97	0xbce3b2ef	-0.027795283
98	0xbd22f6d9	-0.039786194
99	0xbe1c45f4	-0.1526106
100	0xbdae225e	-0.08502649
101	0x3d954cde	0.07290052
102	0xbca0c90f	-0.019627122
103	0x3cd8ba09	0.026455896
104	0xbdfc7a4d	-0.123280145
105	0x3d9f08b0	0.07765329
106	0xbb077c74	-0.0020673545
107	0xbd44fb4c	-0.048091218
108	0xbd59bb12	-0.05315692
109	0xbccd9604	-0.025095947
110	0xbdf5e5db	-0.12006732
111	0x3dc2be71	0.0950898
112	0xbcb85eb9	-0.022506105
113	0x3bbe14ed	0.0058008344
114	0x3dce8ea4	0.100858
115	0x3e5b41e8	0.2141186
116	0x3daa183b	0.08305403
117	0x3d8a01b5	0.06738607
118	0xbc751003	-0.014957431
119	0x3ba9a2e2	0.005176888
120	0xbcc334c5	-0.023828873
121	0xbd8b8342	-0.06812145
122	0x3d8824d1	0.06647647
123	0x3da0a263	0.07843473
124	0x3dee4aab	0.116353355
125	0xbdf77fad	-0.12084899
126	0xbd8e2ad5	-0.06941763
127	0xbdb761c1	-0.08954192
128	0xbb1937de	-0.0023379247
129	0xbda63703	-0.081159614
130	0x3d3ebaf2	0.046565004
131	0x3df2e165	0.11859397
132	0x3e0dec89	0.13859762
133	0x3d26b8c3	0.040703546
134	0x3d5fa12e	0.054597072
135	0xbd3f5527	-0.046712067
136	0xbd6c0d48	-0.057629853
137	0xbded373a	-0.11582799
138	0xbc3ee8ce	-0.011652185
139	0x3dc52c67	0.0962761
140	0xbbe5898d	-0.0070049227
141	0xbd92f3cd	-0.071754076
142	0xbdd252bf	-0.10269689
143	0x3e238dc7	0.15972053
144	0xbc86d3d7	-0.016458435
145	0xbd97921b	-0.07400914
146	0xbe28001b	-0.1640629
147	0xbd4c3c9a	-0.04986248
148	0xbcc04529	-0.023470478
149	0xbcab1ff1	-0.020889254
150	0xbd095556	-0.03352865
151	0xbe2429b8	-0.1603154
152	0x3e032a87	0.12809192
153	0xbe2ebc13	-0.17063932
154	0x3dbd6a0f	0.09248745
155	0xbd65c3be	-0.056094877
156	0x3d85f7e2	0.065414205
157	0x3c939d1f	0.018019257
158	0x3df1d1fb	0.11807629
159	0xbe104fd7	-0.14092956
160	0xbd97c828	-0.07411224
161	0xbd2edc3a	-0.042690493
162	0xbd35fada	-0.044428684
163	0xbd801ad0	-0.06255114
164	0xbd65208f	-0.055939253
165	0x3ca97c10	0.02068904
166	0x3d776178	0.060395688
167	0x3cbd5294	0.023110665
168	0xbe1155f1	-0.1419294
169	0xbd1deb28	-0.03855434
170	0xbcb13cc0	-0.021635413
171	0xbda9a530	-0.0828346
172	0xbd110606	-0.035406135
173	0xbc4304df	-0.011903017
174	0xbe378bd5	-0.17924435
175	0xbde92c52	-0.113854066
176	0xbcbb62e9	-0.022874312
177	0xbd456f4e	-0.04820185
178	0x3c296e83	0.010341289
179	0x3e3161a4	0.17322403
180	0x3e0616b0	0.13094592
181	0x3c49d7a4	0.012319479
182	0xbde51344	-0.11185315
183	0x3e0bdabd	0.13657661
184	0xbdd5c393	-0.104376934
185	0xbda901fd	-0.08252332
186	0x3ad504a6	0.0016251996
187	0xbdd4cfbe	-0.10391186
188	0x3d5d96e5	0.054098982
189	0xbbd54fac	-0.006509742
190	0xbdbe6269	-0.09296114
191	0xbe063a15	-0.13108094
192	0x3c1639ca	0.009169051
193	0xbdcd2d02	-0.1001835
194	0x3d8aa165	0.06769065
195	0x3d80e978	0.06294531
196	0x3d73f67c	0.059561238
197	0x3d822eb2	0.06356563
198	0x3d05da36	0.032678805
199	0x3e039c7d	0.12852664
200	0xbd8f2da2	-0.06991126
201	0x3d9f2226	0.07770185
202	0x3d8a47ee	0.06752001
203	0x3dab8bba	0.0837626
204	0x3d85a797	0.06526106
205	0xbc184bf4	-0.009295452
206	0x3c3b9ee1	0.011451454
207	0xbce1291e	-0.027485427
208	0xbda00e27	-0.07815199
209	0xbd342518	-0.043980688
210	0x3c378a30	0.01120238
211	0x3d434022	0.047668584
212	0x3c95f617	0.018305821
213	0x3d3683f1	0.044559423
214	0x3d9186a8	0.07105762
215	0x3dc206f6	0.09473984
216	0xbcab749d	-0.020929629
217	0xbd0bb3d2	-0.034107037
218	0xbcb885b8	-0.0225247
219	0x3d4bb948	0.049737245
220	0x3de32e62	0.11092831
221	0xbdc4a14b	-0.09601077
222	0x3cf23eb0	0.029570907
223	0xbd9be2e5	-0.07611636
224	0xbe11d3d8	-0.14240968
225	0x3c12498e	0.00892867
226	0xbda03bef	-0.078239314
227	0xbd322990	-0.04349667
228	0xbd93b4bd	-0.072122075
229	0x3c159eb1	0.009132073
230	0x3cf548b2	0.02994189
231	0xbd494c1f	-0.04914486
232	0xbd6dce33	-0.058057975
233	0x3de43d38	0.11144489
234	0x3d134e1e	0.03596317
235	0xbe1ab8e9	-0.151096
236	0xbd23240e	-0.039829306
237	0x3e24997e	0.16074178
238	0x3d8ca928	0.068682015
239	0xbdaaab41	-0.08333445
240	0xbd034f4e	-0.032058053
241	0x3d57bb0b	0.052668612
242	0x3cea2d07	0.028585924
243	0xbd6dba3f	-0.058038946
244	0xbd1f9578	-0.038960904
245	0xbd9c97a2	-0.07646109
246	0xbdad2caf	-0.08455788
247	0x3ddc7973	0.10765352
248	0x3de7ca99	0.11317939
249	0x3bbbec4b	0.0057349554
250	0x3d962351	0.07330955
251	0xbd3adf38	-0.045623034
252	0x3cf32fb4	0.029685833
253	0x3de6ff32	0.112791434
254	0xbc917eb3	-0.01776061
255	0xbcbac26a	-0.022797782

linear.2.bias f4 [128]
0	0x3bc8adb6	0.0061242236
1	0x3d2ef931	0.042718116
2	0x3ddd0718	0.10792369
3	0xbdbdc52d	-0.09266124
4	0x3d5ac803	0.053413402
5	0xbd25dc0a	-0.04049305
6	0x3dcc9595	0.09989468
7	0xbe192136	-0.14954075
8	0xbd945f95	-0.07244793
9	0xbdd07fd9	-0.10180635
10	0x3d3a3b08	0.045466453
11	0xbd31db7f	-0.04342222
12	0xbd9cec10	-0.07662213
13	0x3d98a492	0.07453264
14	0xbd7339f8	-0.059381455
15	0xbbb41374	-0.005495483
16	0xbe486838	-0.19571006
17	0xbce33a21	-0.027737679
18	0xbdab01f9	-0.08349986
19	0x3dd0dcaf	0.10198342
20	0xbc549b67	-0.012976504
21	0x3cdd77c1	0.027034642
22	0xbcec3520	-0.028833926
23	0x3dfc2e2f	0.12313496
24	0x3de30c4a	0.11086328
25	0xbd94f175	-0.07272617
26	0xbd8740c6	-0.066041514
27	0xbe101dc2	-0.14073852
28	0x3d64d393	0.055865835
29	0x3d87d178	0.0663175
30	0xbd23ddae	-0.040006332
31	0x3d294fc1	0.041335825
32	0x3d8ab180	0.06772137
33	0xbe01a7c7	-0.12661658
34	0xbd789b78	-0.06069514
35	0xbbcb70c6	-0.006208512
36	0xbdacb6e9	-0.08433325
37	0x3e19ba47	0.15012465
38	0xbe06c317	-0.13160358
39	0x3de2e0a0	0.11078
40	0xbdcaaefb	-0.09896656
41	0xbd8fd708	-0.07023436
42	0xbd42ffb4	-0.04760714
43	0xbda5cc08	-0.080955565
44	0xbc732afb	-0.01484179
45	0xbe1d03cc	-0.1533348
46	0xbd7d264b	-0.061804097
47	0xbe2619ee	-0.16220829
48	0x3e2fb560	0.17159033
49	0xbd268b7f	-0.040660378
50	0x3d97705f	0.0739448
51	0xbe122cbc	-0.14274877
52	0x3d416f55	0.047225315
53	0x3d9e7b82	0.07738401
54	0xbd65bbf0	-0.056087434
55	0xbe12dbcb	-0.14341657
56	0xbd26d568	-0.040730864
57	0xbd54a99c	-0.051919565
58	0xbdaa5744	-0.08317426
59	0xb9184e41	-0.00014525001
60	0x3c2926ee	0.010324223
61	0xbb58046c	-0.003296162
62	0xbe1ec4c7	-0.15504752
63	0x3d0523fb	0.032505017
64	0xbd1dd497	-0.03853282
65	0xbb782c53	-0.0037868216
66	0xbd6fd8b5	-0.058556277
67	0xbe1cd3b1	-0.15315129
68	0xbb9d2594	-0.0047957394
69	0xbd19708f	-0.03746086
70	0x3d38b9aa	0.045098938
71	0x3def0d12	0.11672415
72	0x3d43a1e8	0.047761828
73	0x3d07b55c	0.033131942
74	0xbd58f21d	-0.052965272
75	0x3d71fae7	0.05907717
76	0xbdc822da	-0.097722724
77	0xbd8a361b	-0.06748601
78	0xbde1aa86	-0.11018853
79	0x3ce95e88	0.028487459
80	0xbe17a34a	-0.14808384
81	0xbdc2223c	-0.09479186
82	0xbe09a75a	-0.13442746
83	0xbdea51d5	-0.114413895
84	0x3e3a3d02	0.18187335
85	0xbddf4635	-0.10902063
86	0x3db1144a	0.08646448
87	0x3c766805	0.015039449
88	0x3d97027e	0.07373522
89	0x3c203bfc	0.009779926
90	0x3e415c32	0.18882826
91	0xbd66d283	-0.056353103
92	0xbda577e4	-0.08079508
93	0xbe68d61e	-0.22737929
94	0xbd8d9b09	-0.06914336
95	0xbca06fff	-0.019584654
96	0x3dee1c79	0.116265245
97	0xbe2362ff	-0.15955733
98	0xbdb757a9	-0.08952267
99	0xbbb2b68e	-0.005453891
100	0xba6852d8	-0.00088624423
101	0xbd9ca384	-0.07648376
102	0x3d3573de	0.044299953
103	0xbe201cd1	-0.15635993
104	0xbdf3af2d	-0.118986465
105	0xbddaea41	-0.10689212
106	0xbb0e503b	-0.0021715302
107	0x3c3cbb65	0.011519288
108	0xbd928929	-0.071550675
109	0x3e56401f	0.20922898
110	0xbc03d906	-0.008047348
111	0xbd8285ee	-0.06373201
112	0xbd898e7a	-0.067166284
113	0xbd0b81ee	-0.034059457
114	0xbc0cb7a6	-0.008588707
115	0xbcab6b05	-0.020925054
116	0xbe0242d8	-0.12720811
117	0xbd5696d2	-0.052389927
118	0xbc2f32ed	-0.010693294
119	0xbded85a6	-0.11597757
120	0xbe06c427	-0.13160764
121	0xbd054e53	-0.0325454
122	0x3d01ce7f	0.03169107
123	0xbcb29352	-0.021798763
124	0xbc7d2574	-0.015450824
125	0xbcda0e1e	-0.02661806
126	0x3d94c144	0.07263425
127	0x3dc8fe4a	0.09814127

linear.4.weight f4 [2, 128]
0	0xbd42a8a7	-0.04752412
1	0x3add777e	0.0016896573
2	0xbdbf40e9	-0.093385525
3	0xbd25cf33	-0.040480804
4	0x3c1eab4c	0.009684395
5	0xbd80424a	-0.06262644
6	0x3da94e22	0.08266856
7	0xbd3663b4	-0.044528678
8	0x3c92b6e7	0.01790948
9	0xbb1e8002	-0.0024185185
10	0x3b8f6bc2	0.0043768594
11	0x3c5405f2	0.012940871
12	0xbd8b75c9	-0.06809575
13	0x3ca1e2e3	0.019761508
14	0x3d11ac25	0.03556456
15	0x3937e18a	0.0001753626
16	0xbdcb31b7	-0.09921592
17	0xbc8dd4d2	-0.017313395
18	0xbdf6cbad	-0.12050567
19	0x3d40d7e5	0.047080893
20	0xbc969458	-0.018381283
21	0x3cd4bf69	0.025970178
22	0xbcd104fe	-0.025515076
23	0xbd8fb071	-0.070160754
24	0x3c164b00	0.009173155
25	0x3d0f2094	0.03494318
26	0xbd15eba0	-0.036601663
27	0x3cdf6308	0.027268901
28	0x3d0f8228	0.035036236
29	0x3ba9829b	0.00517304
30	0xbdeff732	-0.11717071
31	0x3e07814e	0.1323292
32	0x3d35c3e3	0.044376265
33	0x3c59cd3f	0.013293563
34	0x3ccb3c55	0.024809042
35	0xbd692d37	-0.056927886
36	0xbd092efc	-0.033492073
37	0x3dbe591c	0.0929434
38	0x3cc112a3	0.023568457
39	0xbcc9240d	-0.024553323
40	0x3d4ab038	0.04948446
41	0xbd447d7f	-0.047971245
42	0xbd43a7a5	-0.0477673
43	0xbc0208ff	-0.007936715
44	0xbcd1f784	-0.02563072
45	0xbc5a4e12	-0.0133242775
46	0xbd8dec6f	-0.06929862
47	0x3cffb55b	0.031214407
48	0x3e1a800a	0.15087906
49	0xbc7a61a8	-0.015282072
50	0xbc9a31cd	-0.018822575
51	0xbd031bff	-0.03200912
52	0xbc0f29d3	-0.008737999
53	0x3ce48859	0.027897047
54	0x3d20131f	0.039080735
55	0x3c3b7835	0.011442234
56	0x3c82684e	0.015918877
57	0x3d09f64c	0.033682153
58	0x3d736af3	0.059428167
59	0x3d5d18a8	0.053978592
60	0x3d364957	0.044503536
61	0x3d9e5b3a	0.07732244
62	0xbd9f93bf	-0.07791852
63	0x3cefdec4	0.029281028
64	0x3cba02e9	0.022706466
65	0x3d8b6a2b	0.06807359
66	0xbc1f7ed6	-0.00973483
67	0x3d819a9c	0.063283175
68	0xbd88983f	-0.06669664
69	0xbc9e1dbb	-0.019301286
70	0xbd81b666	-0.06333618
71	0x3d123827	0.035698082
72	0x3bf47ac0	0.007460922
73	0xbcdc0545	-0.026857981
74	0xbd596843	-0.053077947
75	0xbba3b587	-0.004996005
76	0x3cf9fd77	0.03051637
77	0x3d0c19fb	0.034204464
78	0xbd4fa1a5	-0.050691266
79	0xbda53a8b	-0.08067807
80	0xbc643b28	-0.01393012
81	0x3c92bc7a	0.017912138
82	0xbcd93401	-0.026514055
83	0xbd6ddc25	-0.058071274
84	0xbd9a6507	-0.07538801
85	0xbc048caa	-0.008090178
86	0xbd10000c	-0.035156295
87	0x3d350aa7	0.044199612
88	0x3c9a4a67	0.018834306
89	0x3cc86040	0.024459958
90	0x3d829248	0.06375557
91	0x3b2d9f8e	0.0026492807
92	0x3da807c0	0.08204603
93	0x3d8e3a5e	0.069447264
94	0x3c7dc95b	0.015489901
95	0xbd61f0a7	-0.055161145
96	0x3daf773c	0.08567664
97	0xbcdcccd3	-0.026953137
98	0x3dbdf3ab	0.092749916
99	0x3d155124	0.036454335
100	0x3d45b2d4	0.048266247
101	0x3d2d0026	0.04223647
102	0x3d893226	0.06699018
103	0x3d2e6d3e	0.04258465
104	0xbd0291ce	-0.03187733
105	0xbc9f011f	-0.019409714
106	0x39f58f52	0.00046836823
107	0xbd28aeeb	-0.04118244
108	0x3c24dcfd	0.010062453
109	0x3e1bd3b1	0.15217473
110	0x3d9dae40	0.07699251
111	0x3d1b76d1	0.03795511
112	0x3d36b1ca	0.044603147
113	0xbda6c8a5	-0.08143739
114	0x3e102c98	0.14079511
115	0x3d41973c	0.04726337
116	0xbc80c2f5	-0.015717963
117	0xbdb7993f	-0.08964776
118	0x3cf03ecf	0.029326824
119	0x3dbc7062	0.09201123
120	0x3d290bfd	0.0412712
121	0x3cd1ec03	0.025625234
122	0xbd260f0d	-0.040541697
123	0x3cb1122a	0.021615107
124	0xbb95e40c	-0.0045743044
125	0xbd38f279	-0.045153115
126	0xbd9b72c1	-0.07590247
127	0x3d2b2af0	0.041788995
128	0x3d90ee11	0.070766576
129	0xbcf0beca	-0.02938785
130	0x3d3d1a84	0.046167865
131	0x3d3fc3b8	0.04681751
132	0x3b20d430	0.0024540536
133	0xbd99c275	-0.07507793
134	0xbd868202	-0.06567766
135	0xbd05fa9f	-0.032709714
136	0x3d5bb5bd	0.053640116
137	0xbd402f81	-0.046920303
138	0x3d4d011e	0.050049894
139	0x3b8e27e6	0.0043382524
140	0xbd477c4f	-0.048702534
141	0xbc99ad58	-0.018759415
142	0x3d344f35	0.04402085
143	0x3caf00f5	0.021362761
144	0xbcd9cc78	-0.026586756
145	0x3ca13c9e	0.019682225
146	0x3d431dcd	0.047635842
147	0xbd2d0187	-0.042237785
148	0xbc516108	-0.012779482
149	0x3be72efd	0.007055162
150	0xbd1e76b3	-0.03868742
151	0xbd7c80f5	-0.06164642
152	0xbda05e48	-0.07830483
153	0xbd089743	-0.03334738
154	0x3d147e03	0.036252987
155	0x3d64d1c2	0.055864103
156	0x3ccf882d	0.025333488
157	0x3ca32ca5	0.01991875
158	0x3d1c5f31	0.03817672
159	0x3cdf0352	0.027223263
160	0x3d4e6709	0.05039123
161	0x3becfff8	0.0072326623
162	0xbc8d6981	-0.017262222
163	0xbd189c67	-0.037258532
164	0x3d55a34c	0.052157685
165	0xbd749fa6	-0.059722565
166	0x3ba80092	0.005127021
167	0xbdbdff41	-0.092772014
168	0xbd28b57d	-0.041188706
169	0x3d43fc70	0.047848165
170	0xbdbf0438	-0.093269765
171	0xbb551802	-0.003251553
172	0xbd83b04e	-0.06430112
173	0xbdc761f3	-0.09735479
174	0x3cd3e37e	0.025865313
175	0x3d173812	0.036918707
176	0xbdb7e29a	-0.08978768
177	0x3cdfa080	0.027298212
178	0xbd177b41	-0.03698278
179	0xbd625abf	-0.055262323
180	0xbd9150f0	-0.07095516
181	0xbc0390ce	-0.00803013
182	0xbdf43571	-0.11924256
183	0xbd494b51	-0.049144093
184	0x3d8bb573	0.06821718
185	0x3c95f456	0.018304985
186	0x3d3e4dc9	0.0464609
187	0x3cb37d15	0.02191023
188	0x3d4e2d9d	0.05033647
189	0xbc2b1e2f	-0.010444208
190	0xbda20e48	-0.0791288
191	0xbcc710a8	-0.024299935
192	0xbd3c9b17	-0.046046343
193	0xbd8c088f	-0.0683757
194	0x3d9e3b6b	0.07726177
195	0x3bdfa7c3	0.0068254187
196	0x3d8a24c5	0.067452945
197	0x3d4275eb	0.047475737
198	0x3dc42a8c	0.09578428
199	0xbcd9588b	-0.026531478
200	0x3ce3bd29	0.02780016
201	0x3dc02952	0.09382881
202	0xbaf73a77	-0.0018862028
203	0xbdc30b40	-0.0952363
204	0xbd5fa5f8	-0.05460164
205	0x3c910bea	0.017705876
206	0xbd08c705	-0.033392925
207	0xbd94459b	-0.07239839
208	0x3d22b315	0.039721567
209	0xbc1e3f47	-0.009658641
210	0xbc947616	-0.018122714
211	0x3dbc6afe	0.09200095
212	0x3cda6319	0.026658582
213	0x3dc3e1c9	0.095645495
214	0x3d4c6f33	0.049910735
215	0x3cd6481c	0.026157431
216	0xbd140e59	-0.036146495
217	0xbbdde25b	-0.0067713684
218	0xbe16f6a0	-0.14742517
219	0x3c1a983b	0.009435709
220	0xbd0d63b5	-0.034518916
221	0x3c8406ae	0.016116466
222	0xbd63d9e8	-0.055627733
223	0x3e006fd5	0.1254266
224	0x3d34057b	0.04395054
225	0xbc77c189	-0.015121826
226	0x3c6d8ef7	0.0144994175
227	0xbde2ad89	-0.110682555
228	0x3bf48412	0.007462033
229	0xbd18b618	-0.037283033
230	0x3c3f5b23	0.0116794435
231	0x3c2a2953	0.010385829
232	0x3d0a4eeb	0.03376667
233	0xbda96479	-0.08271117
234	0x3c2daec4	0.010600749
235	0xbd0cbbb1	-0.034358684
236	0xbb46c222	-0.0030328115
237	0xbdced368	-0.10098916
238	0x3d2210ef	0.03956693
239	0x3c239989	0.009985336
240	0x3c9ce77c	0.01915335
241	0x3c048577	0.008088461
242	0xbe1eb40b	-0.15498368
243	0x3d4cc5a4	0.049993172
244	0x3d0c3c00	0.034236908
245	0xbba52c86	-0.005040708
246	0xbd336e99	-0.043806646
247	0xbdab92d1	-0.083776124
248	0xbdd3252d	-0.10309825
249	0x3bfaa385	0.0076488876
250	0xbd888161	-0.06665302
251	0x3d891bfe	0.06694792
252	0xbd332d39	-0.0437443
253	0x3d78908b	0.060684722
254	0xbc5eef0f	-0.013606801
255	0x3c44b455	0.012005885

linear.4.bias f4 [2]
0	0x3da7307b	0.08163544
1	0x3c5fa93e	0.01365119
