meta/demos/multiple_experiments/results/models/run_0/emodb_mlp_os_16-64_C_val-001_learning_rate-0-0001_0_004.model (torch, 13864 bytes, 6 tensors)

linear.0.weight f4 [16, 88]
000000 41 56 c2 3d 9e 1e 9a 3d 64 a0 cd 3d a8 48 db 3c
       0.09489108 0.07525371 0.10040358 0.026768044
000010 05 cf 44 3d 51 32 0b 3d 1c fd b8 3d 29 fe 2a bb
       0.04804899 0.033983532 0.09032652 -0.0026091433
000020 d1 83 81 3d 82 b5 83 3d 1b 0b 58 3d 53 5e 2a bd
       0.0632397 0.06431104 0.052744966 -0.04159386
000030 6c 1e c3 3c 08 1d 8d bd 15 cf 90 3d 50 53 48 bd
       0.023818217 -0.06890303 0.07070748 -0.048907578
000040 13 9a d8 3d 1e 61 ab bd 54 68 92 3d 2c cb 11 bd
       0.10576262 -0.08368133 0.07148805 -0.03559415
000050 56 5f 7f bd 26 57 bd 3d 5f a1 37 3d 7b d6 a5 3d
       -0.06234678 0.09245138 0.04483163 0.080975495
000060 ed 4e 8d 3d aa 75 91 bc 22 68 6f 3d ca 3c 20 3d
       0.068998195 -0.017756302 0.05844892 0.039120473
000070 ae b6 03 3d d3 23 db bc ca ec 67 3d 39 6d ab 3d
       0.03215664 -0.02675048 0.056622304 0.08370442
000080 9e 37 c0 bd dc 30 2a 3d 0c 46 8a bd c1 6f 06 bd
       -0.09385608 0.041550502 -0.06751642 -0.03282142
000090 d5 9b 9e 3d be b8 88 3d ce 23 75 bd fd ea c0 bc
       0.07744566 0.06675862 -0.0598486 -0.023549551
0000a0 9c f3 f4 3c bc f2 46 3d 93 ab 0b 3c 57 ba 11 bc
       0.029901318 0.048571333 0.008524793 -0.008894525
0000b0 92 7b ef bc 41 59 90 3c 9d 36 85 bd 73 41 b1 bd
       -0.029233728 0.017620685 -0.06504557 -0.086550616
0000c0 9f dc 60 3d 7d 0c 31 3d 47 ce d7 39 46 97 8e 3d
       0.0548979 0.0432248 0.00041161684 0.06962447
0000d0 de 5c c5 bd 06 9e 97 3d 75 39 96 3d 4d 28 13 3d
       -0.09636854 0.074031875 0.07335178 0.035927106
0000e0 51 5a d2 bc 51 b5 c5 bd 96 d3 70 bd cf 61 77 bd
       -0.025677832 -0.09653724 -0.058795534 -0.060396012
0000f0 53 8f 52 3d fe 2f 29 3d 4e 8a 35 bd 21 65 11 3d
       0.051406216 0.041305535 -0.04432135 0.035496835
000100 1e 39 d8 3c 48 76 a0 bd de 8b 02 3d 40 23 6a 3c
       0.026394423 -0.0783506 0.03187167 0.014290631
000110 6b 7c 84 3d bb 1d c1 bc a6 38 c6 3b 1b 4a 69 3c
       0.06469043 -0.023573747 0.0060492335 0.0142388595
000120 33 c5 2f bd 86 fc e2 bc 20 bb 43 bc 88 f6 b4 bd
       -0.042912673 -0.027708303 -0.01194647 -0.088360846
000130 23 00 47 3d 63 d4 2b bd 8f 7b 5b 3b 9f 54 96 3d
       0.048584115 -0.041950595 0.0033490395 0.07340359
000140 bd 3d 32 3d d6 af 80 3d 4b 06 45 3d d4 e9 8d 3d
       0.04351591 0.06283538 0.048101705 0.06929365
000150 3a 09 d8 bd e5 f4 a0 bd 90 40 55 bd 74 88 21 bd
       -0.10548635 -0.0785921 -0.052063525 -0.039436772
000160 5d a1 73 bd ef 17 54 bc 24 0f 67 bd 9d 5b 46 3d
       -0.05948006 -0.012945159 -0.056410924 0.048427213
000170 cc 06 2e bd e8 a5 a3 bd 30 0c 7e 3d 69 85 cf 3c
       -0.04248695 -0.079906285 0.06202334 0.02533217
000180 bd 1d cd bc c1 9d 9c 3d 74 2c 51 3c 9d 8f 70 bd
       -0.025038594 0.07647277 0.012766946 -0.05873071
000190 90 0e 61 bd dd af c9 3d a5 3d b9 3d ef 28 8a 3b
       -0.05494553 0.098479964 0.09044961 0.0042163054
0001a0 f0 fb b0 3d 69 f2 0c bc ec c9 85 bd 01 16 a2 3d
       0.08641803 -0.008602717 -0.06532654 0.07914353
0001b0 82 e9 a7 bd a3 27 c1 3d 5d 34 bb 3d 2f 31 0f bd
       -0.08198835 0.09431388 0.09140847 -0.034959015
0001c0 8a 9e 2a bd c9 44 83 bd d6 4e a6 bd fa 13 d5 bd
       -0.0416551 -0.06409604 -0.081205055 -0.10404201
0001d0 bf 16 31 bd b4 1f c2 3c b0 65 c5 3c a7 16 cf 3c
       -0.043234583 0.023696758 0.02409634 0.025279356
0001e0 48 2f 98 bd 51 4a a0 bd 6e f7 98 bc 95 96 99 bb
       -0.07430893 -0.07826675 -0.018672671 -0.00468714
0001f0 95 33 62 bd 4d 14 93 3d d9 8d 86 bd 64 d6 82 3c
       -0.055224974 0.071816064 -0.06570024 0.01597137
000200 61 39 d4 3c 53 f8 74 bd 0c dc 1b 3d bf 0c 8f 3d
       0.025906267 -0.059807133 0.03805165 0.06984853
000210 22 37 c8 bc ab 27 9e 3d 91 df ac bc ad 8b 79 bc
       -0.024440352 0.0772241 -0.021102699 -0.015231055
000220 6d 61 c7 bc 02 31 2b bc e9 0f 93 3d 07 ab 8e 3d
       -0.024338448 -0.010448696 0.07180769 0.069662146
000230 cb 5a 80 bd 0b 17 55 3d 18 37 95 bd cc 00 cd bd
       -0.062673174 0.05202393 -0.07285899 -0.100099176
000240 eb 45 1d 3d e6 9c 39 bc e1 61 a8 3b 9f a1 67 bd
       0.038396757 -0.011328911 0.005138621 -0.05655062
000250 9b 5a 4d bd b7 61 53 3d 80 45 5f 3d f0 8c d2 3d
       -0.050135236 0.05160686 0.05450964 0.10280788
000260 ca de 02 3d 10 3e 6c 3c 93 84 23 bd 82 a0 ee 3b
       0.03195075 0.014419094 -0.039921355 0.0072823176
000270 ec 8c 86 bd 1f a1 4d 3d 97 0f a5 bd 4c 74 f0 3c
       -0.065698475 0.050202485 -0.08059614 0.02935233
000280 13 d2 9d 3d fb db 4e 3d ef c3 f8 bc cb ea ab 3d
       0.07706084 0.05050276 -0.030366866 0.083943926
000290 79 df c0 3d 39 4f 26 bd c4 b3 9a bc 4f b7 bd 3c
       0.09417624 -0.040602896 -0.018884547 0.023158697
0002a0 aa 48 68 3b 06 48 a1 3d 77 9c b9 bd 5f c3 b8 bd
       0.0035443702 0.078750655 -0.090630464 -0.09021639
0002b0 9c 94 29 3d 22 24 4c bc 92 38 e8 bb 4c b2 a1 bd
       0.04140149 -0.012459787 -0.007086822 -0.078953356
0002c0 44 f3 d4 3d b3 0c 58 bd d6 0e 0e 3d 00 84 07 3b
       0.10397962 -0.052746486 0.034682117 0.0020678043
0002d0 14 86 1e bd db 65 da 3d 6b 04 6f 3d 59 41 b3 3d
       -0.038702086 0.10663959 0.058353823 0.087526985
0002e0 b9 d5 73 bc b0 49 8c 3d 0a cc 33 3d 13 44 ea 3c
       -0.014882498 0.06849992 0.04389576 0.028596913
0002f0 28 fe 12 bc 99 fc f9 3c de 4f 7b bd 0a 9a 2f bd
       -0.008971728 0.030515956 -0.061355464 -0.042871512
000300 cc a1 08 bd be 9f a2 bd ed 7a a6 bd 00 0c 42 bd
       -0.033357427 -0.07940625 -0.08128915 -0.047374725
000310 10 cd 4f bd 06 e3 f1 bb 83 47 36 3c 2c 2d c5 bd
       -0.050732672 -0.0073817996 0.011125448 -0.096277565
000320 69 2b f4 bc 27 10 9e 3c 22 a0 cc bc 39 15 8e 3d
       -0.029805856 0.019294811 -0.024978701 0.06937642
000330 49 02 98 3d 20 80 45 3d 62 a1 3f bc 02 00 d7 bd
       0.07422311 0.048217893 -0.0116961915 -0.10498048
000340 57 5f 28 bd d5 a9 cb 3c c4 23 ba 3d 30 41 be 3d
       -0.04110655 0.024861256 0.09088853 0.09289777
000350 47 c5 b1 3d 0c f7 cb bd 03 ff 95 3d 3c 72 4e bd
       0.08680206 -0.0995923 0.0732403 -0.05040191
000360 53 91 6a 3d 25 0c 8b 3d ff b0 40 3d c7 9c 8a 3d
       0.0572675 0.06789426 0.047043797 0.06768184
000370 ed 7e 97 3d 4d 3e 80 3d 17 1b 40 3d 53 69 b1 3c
       0.07397256 0.06261883 0.046900835 0.021656668
000380 3c 03 d0 bc 0d 57 b2 3c 12 10 dc bc e8 dd d8 3d
       -0.025392167 0.021770025 -0.026863132 0.105892
000390 f8 13 ff bc 4e ef aa bd cb 5c 8a 3d 24 0b d1 bd
       -0.031137452 -0.08346425 0.0675598 -0.10207203
0003a0 2b 9d 61 bc 2b 81 b7 bd 0d 46 b3 bc 76 42 31 bc
       -0.013770382 -0.08960184 -0.021883989 -0.010819068
0003b0 1c 1c 69 bc 38 80 8e 3c c5 d3 3c 3d 1b 0a a0 bb
       -0.014227893 0.017395124 0.046100397 -0.004884017
0003c0 bd 9a 97 bd df 1f b7 bd 8c 39 1b bd 5f b8 fa 3c
       -0.07402561 -0.08941626 -0.037896678 0.030605493
0003d0 e1 d5 98 3d 85 8f 05 bc 74 b7 a2 3d af 21 c0 3d
       0.07462669 -0.0081518935 0.07945147 0.09381425
0003e0 a2 74 d1 3d a8 ef c7 3d 9a a2 04 3d f7 0f e2 bc
       0.10227324 0.09762508 0.03238163 -0.027595503
0003f0 c5 cb c6 3d 55 2b 90 bc 58 e1 38 3c d4 d4 30 3d
       0.09706835 -0.017598787 0.011284195 0.04317172

linear.0.bias f4 [16]
000000 04 ea f7 3a a7 7d b2 3d a9 56 26 3d fb 48 63 3c
       0.0018914347 0.087153725 0.04060999 0.01387238
000010 fa e3 60 bd df a6 c0 3b 06 7f 61 bd 51 82 e0 3c
       -0.054904915 0.0058792676 -0.05505278 0.02740589
000020 8c 6c ba 3d be 7a 97 3d 61 62 37 bd 14 80 8c 3d
       0.09102735 0.07396458 -0.044771556 0.068603665
000030 65 bc a9 3d 13 71 da 3d a9 cb 33 3c 71 d3 27 bd
       0.082878865 0.106660984 0.010973849 -0.04097313

linear.1.weight f4 [64, 16]
000000 1a de 12 be b8 6f 8b bd 30 b8 68 be 1c 40 bb 3d
       -0.14342538 -0.06808418 -0.22726512 0.09143087
000010 c0 12 64 3c 68 4a 79 3e 47 e3 02 3e 01 1d 7e 3d
       0.013920486 0.2434479 0.12782012 0.06203938
000020 88 3f f1 3d 1f 92 c0 bd 4d 8b 6d 3e 34 e9 4e be
       0.11779696 -0.094028704 0.2319767 -0.20206147
000030 dc 31 f6 3d 24 05 20 be c3 9f 1a 3e 13 5c 4d bd
       0.12021229 -0.15626961 0.15100007 -0.050136637
000040 44 60 a8 3d d0 fa 75 3e de 1a fb 3d 1a 84 2f 3e
       0.08221486 0.24021459 0.12260984 0.17140236
000050 b0 38 ac 3c e0 e8 a0 bc ae 61 7c 3e ab 09 63 be
       0.021023124 -0.019642293 0.24646637 -0.22171657
000060 88 72 02 bd c7 06 eb 3d cd bc 93 bd d4 1f 10 3d
       -0.031847507 0.11475902 -0.07213745 0.035186604
000070 e8 b9 0b 3e 1c dd 07 be 81 3b 8a 3d db fa 65 bd
       0.13645136 -0.1326794 0.06749631 -0.056147438
000080 98 16 2e be a6 00 30 3e 62 d2 52 3d 6e a8 75 3e
       -0.17000806 0.17187747 0.051470168 0.23990032
000090 80 a7 66 3b 7c 89 93 3d 37 fc 2f 3e f0 14 a9 bd
       0.0035195053 0.072039574 0.17186056 -0.08255947
0000a0 f8 f9 48 3e 17 27 5d bd 32 d8 0a 3e 6c 8b 04 be
       0.19626606 -0.053992357 0.13559034 -0.1294381
0000b0 e5 81 2e be 90 91 35 3d e7 8d ae 3b 36 81 3a 3e
       -0.17041738 0.044328272 0.0053269747 0.18213353
0000c0 b6 0e 6e be 84 02 d9 bd 49 12 65 be 7e 74 40 be
       -0.232478 -0.10596183 -0.22370256 -0.18794438
0000d0 14 b9 06 3e 76 18 00 3e fa 49 e3 bd 02 37 d8 bd
       0.13156539 0.12509331 -0.11098094 -0.10557367
0000e0 68 02 13 3d d6 e9 a0 bc b5 ab 74 be 37 ec 69 be
       0.035890967 -0.019642752 -0.23893626 -0.22844015
0000f0 32 da 0e 3e f0 d6 c5 3c a0 92 9a bd fd 77 0b 3e
       0.13950422 0.024150342 -0.07547498 0.1361999
000100 90 aa e3 bc 90 b1 05 3e 06 f8 1a be 80 7e 45 3d
       -0.027791291 0.13056016 -0.15133676 0.048216343
000110 86 52 10 3e 22 51 2c be b3 ea 5e be b7 56 49 be
       0.1409398 -0.16827825 -0.21769218 -0.19661985
000120 68 1a 24 3d b0 b9 b8 3d 88 70 53 3e 33 cd 6a be
       0.040064245 0.09019792 0.20648396 -0.2292984
000130 a8 ac 65 be bb e3 e0 bc 0a e3 b8 bd 37 fe 4e 3e
       -0.22429144 -0.02745234 -0.09027679 0.20214163
000140 78 8e eb 3d d4 1f 89 3d e0 e0 d0 bb 18 38 22 3e
       0.11501783 0.06695524 -0.0063744634 0.1584171
000150 00 cc 6b 3a 88 93 1f 3e 45 86 1a be 90 79 a2 3c
       0.0008994937 0.15583622 -0.15090282 0.019833356
000160 5e c8 65 be 7f 44 19 be f8 e7 6d 3d 0b 26 63 3e
       -0.22439715 -0.14967535 0.05808255 0.22182481
000170 84 97 e9 bd b1 69 55 3b 86 c4 66 be 83 0d 38 bd
       -0.114058524 0.0032564218 -0.22535905 -0.04493476
000180 0c be a6 3d e6 f1 6e 3e c5 7f 45 3e 58 2a ad bd
       0.08141717 0.23334464 0.19287021 -0.08455342
000190 00 c4 11 bb 10 04 1a 3e 96 cc bf bd 9b f7 23 be
       -0.002224207 0.15040612 -0.093651935 -0.16012423
0001a0 a0 aa 4e 3d 89 33 ae bd b7 3a 53 3e b9 d0 66 3d
       0.05045569 -0.08505923 0.20627867 0.056351397
0001b0 44 5c 3b 3e 95 a1 bd 3d 86 05 5e 3e a3 32 29 be
       0.18296915 0.09259335 0.21681795 -0.16523223
0001c0 a0 fb 35 3d ac 73 c2 3d 3c 5a 56 be d2 2a 02 be
       0.04442942 0.09494719 -0.20932859 -0.12711647
0001d0 80 dd 4f 3e 40 4e c5 3d 20 f4 70 3e 28 80 46 be
       0.2029934 0.09634066 0.23530626 -0.19384825
0001e0 86 2b 1a be 82 d0 79 3e 36 35 5b be 16 7c 9f 3d
       -0.15055665 0.24395946 -0.21407017 0.077873394
0001f0 e9 0a 73 be 5e 89 52 3e 37 28 6a be e5 4f e4 bd
       -0.2373463 0.20560214 -0.22866903 -0.11148051
000200 66 8d 49 be 40 3b f8 bb c8 2d 4a be 92 51 07 be
       -0.19682845 -0.0075754225 -0.19744027 -0.1321471
000210 a8 60 c0 bd a6 77 38 3e 75 9f 47 3e 2a ec e5 3d
       -0.09393436 0.18014392 0.19494422 0.11226685
000220 96 f4 66 3e dc 7a a9 3d b3 ea 79 be ba 84 2a 3e
       0.2255424 0.08275387 -0.24405937 0.16652194
000230 24 c1 ca bd ce 1c f5 3d 4f f4 06 bd 08 51 03 3e
       -0.0990012 0.11968385 -0.032947835 0.1282388
000240 24 06 81 3d d4 e4 16 3e 28 33 2a be 54 a8 35 be
       0.06299999 0.14735729 -0.16621077 -0.17739993
000250 62 fd 6c 3e c0 4e da bc 1a 5a ef 3c c6 58 01 3d
       0.23143533 -0.026648879 0.029217768 0.0315788
000260 e8 93 3d 3d 89 ca 16 3e 3f e6 c6 3c c8 c0 4d bc
       0.046283633 0.14725699 0.024279712 -0.01255817
000270 ea a2 b8 3d 2b 17 0b 3a 44 93 5f be aa 8a 16 3e
       0.090154484 0.00053058815 -0.21833521 0.14701334
000280 88 ba 31 3d 32 8c 78 be 8a d7 0c be 28 2d 74 bd
       0.04339078 -0.2427223 -0.13754097 -0.059613377
000290 12 83 41 3e 9c 2f ec 3d 9f e1 6c be bb 9a 2f be
       0.18897656 0.11532518 -0.23132943 -0.17148869
0002a0 3c 68 57 be b8 0d 3f 3e 17 e4 7e be 78 5a 38 be
       -0.21035856 0.18657577 -0.24891697 -0.18003261
0002b0 3b 4e 20 3e 1d 72 c8 3c 6c 65 e6 bc 35 bb 38 bc
       0.15654843 0.024468476 -0.028124534 -0.011275102
0002c0 e0 ed 4d 3e 80 97 2d bc f6 e5 04 be f0 af 8d bc
       0.20110273 -0.010595202 -0.12978348 -0.017295808
0002d0 10 24 fd 3c 88 c4 b7 bd 38 38 2f be bf f5 f9 3d
       0.030900985 -0.08973032 -0.1711129 0.122050755
0002e0 00 61 d5 3c 90 15 43 3e a5 3c fb bd fb 36 a1 bd
       0.02604723 0.19051194 -0.122674264 -0.07871815
0002f0 0b 76 b3 bd 2a 79 03 3e ff 47 1f 3e 47 3d 40 bc
       -0.08762749 0.12839189 0.15554808 -0.01173336
000300 b4 d8 68 be 90 4b d8 bd e4 10 fc bd 58 db 30 bd
       -0.22738916 -0.105612874 -0.12307909 -0.043177933
000310 58 6a 74 be b8 2f 5f bd bb ee 30 bc ed 4a 02 bd
       -0.23868692 -0.054488868 -0.010799105 -0.031809736
000320 e2 87 3a be af 43 59 be 2d 74 5a bd e0 3e 0f 3d
       -0.18215898 -0.21217225 -0.05333345 0.03497207
000330 0f b4 19 bd 9d 1e 59 be ef 81 13 3d 22 74 31 3d
       -0.037525233 -0.21203084 0.036012586 0.043323644
000340 5c c8 50 be be 58 39 3e 12 ac 73 3e 7e 57 1f be
       -0.20388931 0.18100259 0.23796108 -0.1556072
000350 38 60 1f be a2 76 67 3e 2f 90 bf bd a6 2b 1b 3e
       -0.15564048 0.22603849 -0.09353673 0.1515337
000360 c4 b7 b7 bd f7 39 6d be e7 f6 33 bd 9d d5 6b 3e
       -0.089705974 -0.23166643 -0.043936636 0.23030706
000370 18 dd d6 3c 4c 08 1d bd 0e 12 31 be 3c e1 39 be
       0.026228473 -0.03833799 -0.17292044 -0.18152326
000380 22 df 70 3e 20 f5 ec 3c b4 65 7d 3e 68 9b a3 bd
       0.23522618 0.028925478 0.24745828 -0.07988626
000390 48 24 a1 bd 38 2b 3b 3e 9f 11 67 3e 20 f5 62 be
       -0.07868248 0.18278205 0.22565316 -0.2216382
0003a0 e8 6c df 3d 20 fa f2 3a ce 19 39 3e 86 16 15 be
       0.10909444 0.0018537678 0.1807625 -0.14559373
0003b0 68 0b 2b bd 13 3a e5 bc cb 2b 01 3e 15 50 5d 3e
       -0.041758925 -0.027981794 0.12614362 0.2161258
0003c0 c4 e1 fb bd 44 52 41 be 79 b2 0e be 80 65 ff bd
       -0.12298921 -0.18879038 -0.1393527 -0.124705315
0003d0 38 d9 09 3e 80 78 83 bd cb b9 26 bc 29 b9 6d 3e
       0.13461769 -0.06419468 -0.010176132 0.23215164
0003e0 e2 3e 1b be 85 9d 12 be c3 99 02 be 5a c9 6d bc
       -0.15160707 -0.14317901 -0.12753968 -0.014513338
0003f0 56 05 56 be 6c 8b 57 3d ed b6 7e 3e 61 9d f3 bd
       -0.20900473 0.052623197 0.24874468 -0.11895252

linear.1.bias f4 [64]
000000 85 f0 4c 3e 7f 70 34 3e 67 de 3b 3c d2 a8 d2 3b
       0.20013626 0.17621039 0.011466599 0.0064288164
000010 23 60 49 be 66 c8 04 be 6b f7 09 bc 84 1a 67 3e
       -0.1966558 -0.12967071 -0.008420805 0.22568709
000020 4d 3c cf 3d b7 38 69 3e 3f 2e be 3d ca 85 4a 3e
       0.10118923 0.22775541 0.092861645 0.19777599
000030 84 11 31 bd af 21 2b 3e 1a 07 85 bd 6f 9e 53 3e
       -0.043229595 0.16712068 -0.06495495 0.20665906
000040 67 2a 75 3e af 82 02 3e 02 53 0d 3e 99 b7 55 bb
       0.23941956 0.12745164 0.13801196 -0.0032610653
000050 da 4d 57 be 23 c2 8d bd fb 72 a2 bd e8 2c 91 3d
       -0.21025792 -0.06921794 -0.07932087 0.07088643
000060 e8 bf 66 be 14 70 a2 bd 1d 7f 41 bd 18 f5 6f 3d
       -0.22534144 -0.079315335 -0.047240365 0.05858335
000070 ed c4 a4 bd 9a bf ec 3d 68 af 5d be 6c 03 30 be
       -0.08045373 0.115599826 -0.21648943 -0.17188805
000080 55 45 73 3d 57 8f 08 3e ef f9 0f be 3e 14 2d be
       0.059392292 0.1333593 -0.14060186 -0.16902253
000090 25 4b f8 bd 61 07 ff bb f4 99 ae bc 5a 62 69 3e
       -0.12123708 -0.007782862 -0.021313645 0.22791424
0000a0 60 f6 fa bd 4b 0d cc 3d b4 33 47 3b c6 c5 d6 3d
       -0.122540236 0.09963473 0.0030395808 0.10486941
0000b0 ee ed 34 be cc 13 89 3d 05 19 3f be 6d bb 6f be
       -0.17668888 0.06693229 -0.18661888 -0.23411341
0000c0 ac e2 5e 3e ac 71 bd bd 5d e8 7e bd 4b 9f f0 3d
       0.21766156 -0.09250197 -0.062233318 0.11749133
0000d0 a5 60 17 3e cd 3d 97 3a c6 e0 fa 3d 96 7a 37 3e
       0.1478296 0.0011538804 0.122499034 0.17917857
0000e0 a4 2c 4d be ef 4c 57 3e 19 1c 9d 3d bf 38 57 3e
       -0.2003656 0.21025442 0.07671375 0.2101774
0000f0 78 b1 df 3d f2 cc 03 3e a6 61 5f 3d eb 4c d9 3d
       0.10922521 0.12871149 0.054536484 0.10610374

linear.3.weight f4 [2, 64]
000000 61 21 74 3d 70 00 fb 3d b2 a4 82 3d 40 26 c3 bb
       0.059602145 0.12255943 0.063790694 -0.0059554875
000010 ed 04 eb 3d 4d 0a 51 3d 70 fd 44 3d 22 6f dd 3d
       0.11475549 0.051035214 0.04809326 0.108122125
000020 3e d4 ac bd b0 fc eb 3d 52 c2 b8 3d 59 f9 ba 3d
       -0.084389195 0.11522806 0.09021439 0.091295905
000030 40 56 f4 3c f9 76 70 3d 48 e5 c6 3d 00 71 8a 3d
       0.029826283 0.05870721 0.09711701 0.06759834
000040 4d b1 7d bd b7 e2 a0 bd 34 e0 db 3d 98 78 83 bd
       -0.061936665 -0.078557424 0.10736123 -0.06419486
000050 23 c4 ff 3d 70 88 57 bc 76 06 89 bd 2a 2e 8d 3d
       0.12488582 -0.013155088 -0.066906855 0.06893571
000060 93 d0 71 bd e2 2c 79 3c af 3f f2 3d 7d 77 b3 3d
       -0.059036803 0.015208455 0.11828553 0.08763025
000070 53 03 88 bd 49 77 ad 3d c4 df 45 3d 92 94 e1 bd
       -0.06641259 0.084700175 0.048309103 -0.11014666
000080 cd 2c 64 3d ad db e2 3d 65 6e 6f bd 8d 5e 7b bd
       0.055706788 0.11077056 -0.05845489 -0.061369468
000090 c0 a5 f8 bd cb 2c b8 bd 27 1c c6 3d 0f 52 80 3c
       -0.12140989 -0.089929186 0.096733384 0.015664129
0000a0 c9 19 14 bd f9 03 68 3d d8 19 68 3c ad 08 d6 3d
       -0.036157403 0.056644414 0.014166318 0.104508735
0000b0 7f f0 f7 3d b4 74 9e 3d df b7 f8 bd b0 39 f4 bd
       0.12106418 0.07737103 -0.12144446 -0.119250655
0000c0 03 07 a0 3d 64 5b a2 3d 94 11 9d 3c 42 64 c0 bd
       0.078138374 0.07927588 0.019173421 -0.09394123
0000d0 3c a8 19 bd 50 80 86 3a f8 46 3c bd 99 f3 bb 3d
       -0.037513956 0.0010261629 -0.04596612 0.09177322
0000e0 c6 6d da bd c3 70 f8 3c 10 45 aa bd 5e b9 fd bc
       -0.10665469 0.030327206 -0.08313954 -0.030972179
0000f0 61 8c 74 bd e0 21 a0 3d 64 cc 72 bd e5 0c 94 bd
       -0.05970419 0.07818961 -0.059276953 -0.07229022
000100 c7 87 c5 3d 46 16 ac 3d 68 57 05 bd f3 a2 ca bd
       0.09645038 0.08402686 -0.03255406 -0.09894361
000110 7e e0 67 3d 31 af fd 3d 3e dc 4f 3c d4 5b 48 3d
       0.056610577 0.12386931 0.012686787 0.0489157
000120 4f 7f 2e bd ee f5 b9 bd 44 6e bd bc 29 a9 d2 3d
       -0.04260188 -0.090801105 -0.023123868 0.10286171
000130 d3 11 5f bd 89 b1 5b bd 9e 22 d1 3d ad 5b 47 bd
       -0.054460358 -0.053636108 0.10211681 -0.048671413
000140 15 42 df 3d a0 dd 03 3d 6a 68 ca bd ea 29 ad bc
       0.10901276 0.03219378 -0.09883197 -0.02113815
000150 99 21 cc bc 2b 60 d9 3d bb d0 2f bd 96 0d 85 bd
       -0.024918364 0.10614046 -0.04292367 -0.06496732
000160 26 c2 f0 3d 09 b0 12 3d 2b 4b d2 bd cf 78 95 3d
       0.11755781 0.03581241 -0.102682434 0.07298433
000170 f7 af c7 bd 7c 0e 0d 3d c3 a2 75 3c c9 49 70 3d
       -0.097503595 0.03443764 0.014992419 0.058664117
000180 bc 14 a3 3c f9 b8 15 3d ef 6d 7c bd 2b ab f5 3b
       0.019907348 0.036553357 -0.06162828 0.0074972115
000190 18 b1 15 bd 66 7d b4 3c 45 74 ea bd 44 62 a2 3d
       -0.036545843 0.02203245 -0.11447958 0.07928899
0001a0 95 e6 38 3d 80 0b 8c bd b0 ea bb bd 7d 62 0e 3c
       0.045141775 -0.06838131 -0.091756225 0.008690474
0001b0 3f cd c0 bd 27 25 f7 bc a1 6e 93 3d dc cd b7 bd
       -0.094141476 -0.030169083 0.07198835 -0.089748114
0001c0 b3 2d 75 bd 52 36 df bd 31 b0 6e bc d6 02 82 3d
       -0.059858035 -0.10899033 -0.0145683745 0.06348197
0001d0 e4 b3 6e 3d 7b 40 bb 3c a4 23 0f 3d 83 bf 8a bc
       0.058277026 0.022857895 0.0349461 -0.016937023
0001e0 ae e8 ab 3d 31 4d 38 bc a7 7d e6 3c f1 74 17 ba
       0.083939895 -0.011248873 0.028136088 -0.00057776185
0001f0 53 a5 b9 3d b6 7a 6f 3d fc d6 93 3d 2f 07 81 bd
       0.09064736 0.058466636 0.072187394 -0.06300198

linear.3.bias f4 [2]
000000 16 fd 9a 3c fe c2 3b bc
       0.018919509 -0.011460064
