meta/demos/multiple_experiments/results/models/run_0/emodb_mlp_praat_16-64-128_C_val-001_drop-3_learning_rate-01_0_002.model (torch, 45432 bytes, 8 tensors)

linear.0.weight f4 [16, 39]
00000000: d1b7 00be 411a 89be e9ae b8bd c412 efbd
00000010: de93 14be dd58 5ebe b245 15be 9117 64be
00000020: b43e 88be 6d50 e2bc f9aa 99bb fcf1 6dbc
00000030: 0115 5dbe 86e4 f3bd 4d5d 8ebd 6c59 79be
00000040: 99c8 683b 4137 efbc d07d 8abd 890d 4abe
00000050: 8ed4 63be 5615 353d f2bb a1bd 3512 dbba
00000060: f714 ed3d 6bd9 f63c 02f7 f1bd 7459 58be
00000070: 5633 333d 230e 61be 7c36 6fbe aa0b 01bd
00000080: 515e bdbd 556b 0e3c 1376 a7bd 3ff3 69be
00000090: 78f8 373d 2ac0 54be b22b 55be 1c74 59bd
000000a0: 6392 80bb 1220 35be 9691 19be ff32 3e3a
000000b0: 8d45 76be 0dbe 76be 25a9 003d 030d b3bc
000000c0: 745d 75bc f745 c6bd cc07 d13c b98d ff3c
000000d0: 34d8 c03c 70cd 1cbe a5e3 adbd 4f71 8fbd
000000e0: 1013 6fbd c407 043c 068f 09bd 2414 8fbd
000000f0: 3a41 a5bd 9ccd a1bd 0746 82bd 39d5 ac3a
00000100: 35a3 7b3d 448a 27be 3e7e 40bd 66c0 aebd
00000110: 8a55 62be cbce 4dbe 2bb3 44be 0e89 85bd
00000120: de4f 743d 5f74 18be 5adc 2bbd 40f5 58bd
00000130: 16cd 72be cbd7 cdbd 4ce7 e23d 28ad d9bd
00000140: 4540 0bbe af39 2cbd 7c29 d0bc b26c d7bd
00000150: a94e f43d 3528 23be d44f 5f3d a7c8 75bd
00000160: 5532 dcbd befb c93d ef87 0dbd 5563 afbd
00000170: c75e 393d 2eb3 ba3d 5fe0 2b3d b9a8 b2bd
00000180: bf70 d3bd 15fb 043e 19f3 883c 257a a63c
00000190: e242 ecbd 3d97 cdbb 7532 8f3c f9aa ddbc
000001a0: 2b63 e43d 85b1 e1bd 4633 ef3d e27b be3d
000001b0: 7bab 7b3c aacf 07bd 7221 d33d 2cae 12be
000001c0: bf6d aebd f4c8 863d e6a3 0abe 3425 8a3d
000001d0: 2065 053e 5999 293d 6e5c db3d 17ef ee3d
000001e0: 58b1 0c3e 93de bebd 77a9 c1bd 6ae0 84bd
000001f0: 357e c43d 3480 ecbd 779b c93c a9bf 17be
00000200: c3c5 043e ddd5 a93d 51b8 aebc c276 5e3d
00000210: 679d 813d d0f4 59bc 5a2a 49bd 752e a8bb
00000220: 5c22 b1bd a6da a1bd 9a06 e7bd 846e d73d
00000230: 8656 133d 19f8 183d 5b05 1abd 32d2 03be
00000240: 4449 b63d c607 8d3d 12d0 ef3d bd34 11be
00000250: fb76 57bd e555 05bd 80c1 dbbc 6a52 aebd
00000260: 0fdb 0fbe 3a98 423d d8b0 d2bd 4270 043e
00000270: d102 18be ace4 4fbc c671 7fbd c315 05be
00000280: c865 ec3d a00a 383d 9e0a 1ebc 5d1a b3bd
00000290: 6fa0 1ebe 7a60 e6bd a04a 133e 0080 1fbe
000002a0: 784a f6bd 3757 63bc 2aaf 823d a45b 263d
000002b0: 4180 c3bc 972a 09be 13c2 1c3d c534 a03d
000002c0: b977 113d 61dc 0cbd c0d9 c0bc 4ddd 1ebe
000002d0: c4f0 88bd 298b cfbb ca99 16be 3128 bd3b
000002e0: 3baa e13c da52 1b3e 6770 f9bd cd8d 113d
000002f0: d3ff e43d 50f1 20be 2ed7 5bbd 5ed4 93bd
00000300: 1a51 1bbe 8185 fe3d 7a3e 833d 8cb2 3dbe
00000310: 7b56 57be 39e4 18be c002 fdbd 45bb 0abc
00000320: d69a 963d 27d9 6abe 6f8a d5bd 60af 643d
00000330: 641d 68be 648a fe3c b3de 24bd de9e 37bc
00000340: 9419 70bd 2533 9dbc ef1e 0fbe 92c3 5cbd
00000350: dcf4 7f3d 2450 1fbe 475d 9f3c a430 43bd
00000360: 1e28 f6bd 1ffe b3bd 8ea1 5bbd a018 4bbc
00000370: 74ba c03d c776 36be cdbb a2bc 8971 363d
00000380: 0745 b0bd 5d47 babb 33d4 783d 94c7 47be
00000390: f48c 0bbe 22ea 63be d5aa c5bc e93e 32be
000003a0: d0f1 aa3a 1e9e 483d 40b3 26be e50f 1bbe
000003b0: eb63 4ebe 4b6d edbb 0ae2 86bd 256e 9d3d
000003c0: 5751 01be a345 dbbd 554c 2b3d 4a79 373c
000003d0: 75f1 9b3c 4472 41be 208f 74bd 5f27 cebc
000003e0: 9331 ccbd 1b3e 62be 625d 9e3d 0d7f 63bd
000003f0: bae3 2d3d 35ea 3cbd 6edb 34be a26e 12bd
-0.1257012 -0.26777843 -0.090177365 -0.11673501 -0.14509532 -0.21713586 -0.14577368 -0.22274615
-0.2661034 -0.02762624 -0.004689571 -0.014523026 -0.21590044 -0.11908822 -0.069513895 -0.24350518
0.0035519956 -0.029201152 -0.06762278 -0.19731726 -0.22249052 0.0442098 -0.07897176 -0.00167138
0.11576264 0.03013297 -0.11814691 -0.21127874 0.04375013 -0.21978049 -0.23360628 -0.031505264
-0.09246505 0.008692582 -0.08176818 -0.22846697 0.044914693 -0.2077643 -0.2081745 -0.053089246
-0.0039237007 -0.17688015 -0.14996943 0.0007255524 -0.24049969 -0.24095936 0.03141131 -0.02185679
-0.014975894 -0.096813135 0.025516413 0.031195508 0.023540594 -0.15312743 -0.084906854 -0.07004034
-0.05836779 0.008058492 -0.033583663 -0.069862634 -0.080690816 -0.07900545 -0.06361013 0.0013186104
0.061434943 -0.16361338 -0.046995394 -0.08532791 -0.22102943 -0.20098417 -0.19208972 -0.06520282
0.05964648 -0.14888142 -0.04195819 -0.052968264 -0.23711047 -0.10050925 0.11079273 -0.1062873
-0.13598736 -0.0420472 -0.025410406 -0.10518779 0.11929066 -0.15933307 0.05451949 -0.06000581
-0.107517876 0.09862469 -0.034553465 -0.08563868 0.045256402 0.09116207 0.041962024 -0.087235875
-0.10324239 0.12986405 0.01671748 0.020321915 -0.115361944 -0.0062741325 0.017480114 -0.027059065
0.11151727 -0.11020187 0.116797015 0.093009725 0.015360708 -0.03315703 0.103091136 -0.14324254
-0.08517026 0.065812975 -0.13539085 0.06745377 0.13026857 0.04140601 0.10710989 0.116666965
0.13739526 -0.093197964 -0.09456151 -0.06488116 0.095943846 -0.1154789 0.024610264 -0.14819206
0.12966065 0.08292744 -0.021328123 0.054312475 0.0632885 -0.013302997 -0.049112655 -0.0051324912
-0.08649132 -0.07903032 -0.11280556 0.10519126 0.035971187 0.03734598 -0.037602764 -0.12873152
0.08900693 0.06886248 0.11709608 -0.14180274 -0.052603703 -0.03255262 -0.026825666 -0.08511813
-0.14048408 0.047508456 -0.102876365 0.12933448 -0.14844824 -0.012688797 -0.062364362 -0.12996583
0.11542851 0.044932008 -0.009646086 -0.08745263 -0.15490888 -0.1124887 0.14383936 -0.15576172
-0.120259225 -0.013875774 0.06381066 0.04061474 -0.023864867 -0.13395153 0.03827102 0.07822565
0.035514567 -0.034389857 -0.023541331 -0.15514107 -0.066865474 -0.006333728 -0.14707103 0.0057726135
0.027546993 0.15168324 -0.12179642 0.035535622 0.11181607 -0.15717053 -0.05367201 -0.0721824
-0.15167657 0.124278076 0.06408401 -0.18525141 -0.21029083 -0.1493081 -0.1235404 -0.0084675
0.07353751 -0.229344 -0.10426795 0.055831313 -0.22667462 0.03107185 -0.040251445 -0.0112073105
-0.058618143 -0.019189427 -0.13976644 -0.053897448 0.062489375 -0.15557915 0.019453658 -0.04765381
-0.120193705 -0.08788704 -0.053620867 -0.012396008 0.09410563 -0.17818747 -0.019864941 0.04454187
-0.08606916 -0.0056847767 0.060749244 -0.19509727 -0.13627988 -0.22257283 -0.02412931 -0.17406811
0.0013042036 0.048978917 -0.16279316 -0.15142782 -0.20155303 -0.0072456948 -0.06586082 0.07687024
-0.12628685 -0.107066415 0.041820843 0.011198351 0.019036034 -0.18891245 -0.059706807 -0.025165258
-0.09970393 -0.22094004 0.07732655 -0.055541087 0.042453505 -0.046121795 -0.17661831 -0.03575004

linear.0.bias f4 [16]
00000000: 7ec5 d6bd e545 d2ba 870f 803d cb50 bf3b
00000010: 82eb 043e 4853 0abe 1b78 54be 99de f23d
00000020: dc4e 183e f30e 83bd fa6e 1bbe 4d2c 193e
00000030: 6c88 1dbe 235a d0bd 7ae4 9dbd 6750 aa3d
-0.104868874 -0.0016042559 0.062529616 0.0058384887 0.12980464 -0.13508332 -0.20748942 0.118588634
0.14873832 -0.06399336 -0.15179053 0.14958306 -0.15384072 -0.10173442 -0.07709594 0.08316117

linear.1.weight f4 [64, 16]
00000000: bbc4 703e 77a6 51bd bc89 a63d bca9 87bd
00000010: b881 203e 85b2 a33d fdaf 23be 085c 8c3d
00000020: 1866 a33d f27c 133e 05e9 2b3e 86e7 06be
00000030: e42e 09be 86bf 5f3e ec5e 10be 245f 3bbe
00000040: 0003 fabd 60ba 2ebe 44d3 bcbd 6c7e 643e
00000050: ae7b 77be 2bc7 a3bd 8c7a 79bb 0000 c7bb
00000060: d4a1 05be 76ac 223e 3439 c23d 54da 54be
00000070: 6279 74be 003a 8ebd 8000 45be 1ee9 303e
00000080: c4a8 f4bd 535d f1bc 2473 ad3d 4ea7 603e
00000090: b0e9 803d d282 77be 3172 ba3b 8078 54bc
000000a0: e087 8b3c f85b 233e d695 fcbd 402b a83b
000000b0: 8862 66be c04e 7fbc 14a8 4d3e 5642 513e
000000c0: 8ab8 ddbd e8b1 08bd 6614 123e 7690 4a3e
000000d0: c033 dbbd 15e5 ecbb e637 803e e8d5 81bd
000000e0: 5081 683e 104c f1bd 2110 01bd f069 0f3e
000000f0: 406e 55bd a0cf 103c fa2b 03be 1695 153e
00000100: c8c1 5a3d 5105 a53d c091 10bd 6c22 a4bd
00000110: d4ae babd 60a0 f7bd 9ecf 2a3c b422 713e
00000120: 2810 d03d 7212 14be c701 32bd e85d 33be
00000130: 08a1 2fbe 8a9f 173e d84e 8ebd 40bf 0a3e
00000140: a7de 19be ca4a d3bd 5033 363d 5e6b 5e3e
00000150: d0d4 54be 6a59 f03d 8d00 2a3e 78db 7fbd
00000160: 982f 483e e0ff fdbc 88e7 65be 9c23 0bbe
00000170: 5416 2f3e d882 783e c018 a03d 36e4 14be
00000180: 2047 323d 0234 063e 68b4 cb3d cc43 51be
00000190: 68ab 7dbe caaf 223e 44a3 383c 9ac7 06be
000001a0: c038 72be 9ab9 78be 5ec1 693c 109e 783e
000001b0: 189c 403e 02eb 5e3e 94a2 68be 708b 683e
000001c0: 13bd 5d3c e768 14bd 0074 663e 0040 6439
000001d0: 3ccb 1d3e e8cc 303e 50b5 29be 5c82 9f3d
000001e0: a08c cc3d 4c1b 743e 16c8 483e 489c 13be
000001f0: 522e 413e f2b2 5d3e cacb 3dbe 2856 a3bd
00000200: c408 8cbc 1190 1bbe 306c 27be ae44 11be
00000210: 7c10 ccbd 7b0f 113e 55e7 7bbd 20b0 583e
00000220: 8025 33be 40ad 7d3c aacf d0bd cc51 8abd
00000230: e09a 523e 30b3 773e 04cc 0b3e a81d 3fbe
00000240: 33e9 aebd 46b9 1ebe 6c03 d73d ce6d 3dbe
00000250: f802 7ebd d80a 1abe 2e86 edbd 60a3 c53d
00000260: a0d7 ed3c 8a5a 0dbe 66a9 903e 000e 203a
00000270: 30c4 7f3d e05c 6f3d f2a2 133e f849 103e
00000280: ef82 703b 6179 7a3e 7c81 35be 5898 4fbd
00000290: f019 df3c e829 edbd 1bec 3bbc 0642 733e
000002a0: 48f0 7fbd f0c7 14be 7a99 623e dc00 943d
000002b0: e4b0 b43d 002c 99ba 9cbd 30be 5866 783e
000002c0: 0674 823e 6418 03be e2ae 303e 9023 edbc
000002d0: 8003 fe3c a6c5 263e a500 243e a8ce 78bd
000002e0: becf 173e 7879 26be 7ed7 013e 70a4 2ebe
000002f0: bcdc 1fbe 2a29 42be 36aa 6e3e e401 6abe
00000300: 2ea0 823e 334a bfbd 209e 853d b066 403e
00000310: 1ce1 8abd bd87 a7bc 6a6b 7bbc 6a8d 263e
00000320: 8c3e 0bbe d012 06be 1019 64bd 7097 563d
00000330: feaf 743e f4f5 ffbd 44dc cf3d 1e6e 183e
00000340: 0a41 883d 1b29 ce3d cc82 47be da44 1bbe
00000350: 8070 98bb b7d0 9b3d 5fde 043d 0017 23bb
00000360: 1274 1f3e a060 043d 1024 79be 82d2 50be
00000370: 64b8 553e b032 59bd 5055 fc3c cc8d bdbd
00000380: c970 1abd cd6b ac3d 4c6c a0bd c4fe 983d
00000390: 4064 f13b 3afc 913e 8a9f 3abe befd 5fbe
000003a0: c0bd f73d 20f1 fabd 36cf 193e b260 69be
000003b0: 0015 ed3d 184c ed3d 8eb2 1cbe eea1 2d3e
000003c0: 33a5 00be c87c 98bd e0aa 4f3d 8066 3c3c
000003d0: 7c86 e7bd 39f7 9c3d 2075 fcbd 902b 00bd
000003e0: 285d 66bd 047b 69be 50ef a7bd a8c5 03be
000003f0: a45c 00be 64f2 4f3e 6c46 0abe f67c 3abe
0.23512547 -0.051184144 0.081317395 -0.06624171 0.15674484 0.07993034 -0.15985103 0.06853491
0.07978457 0.14403132 0.16788109 -0.13174257 -0.13396794 0.21850404 -0.1409871 -0.18298012
-0.122076035 -0.17063284 -0.09219983 0.22313851 -0.24168274 -0.07996973 -0.0038067428 -0.006072998
-0.13050014 0.15886101 0.09483567 -0.2078641 -0.23874429 -0.06944656 -0.19238472 0.17276427
-0.11946252 -0.029463446 0.08469227 0.21938822 0.06294572 -0.24170998 0.005689882 -0.012968183
0.017032564 0.15953052 -0.123332664 0.005132109 -0.22498524 -0.01558274 0.20083648 0.20435461
-0.10826214 -0.03337279 0.14265594 0.1978167 -0.1070323 -0.007229457 0.25042647 -0.063396275
0.22705579 -0.11782086 -0.031509522 0.14005256 -0.052107096 0.008838564 -0.12809744 0.14607653
0.05340746 0.08057655 -0.035295248 -0.08014378 -0.09115377 -0.12091136 0.010425476 0.23548394
0.101593316 -0.14460161 -0.043458726 -0.17516291 -0.17151272 0.14806953 -0.06948632 0.13549519
-0.15026341 -0.10316999 0.04448253 0.21720645 -0.20784307 0.117358044 0.16601773 -0.06246516
0.19549406 -0.0310058 -0.22451603 -0.13587803 0.17098361 0.24268663 0.07817221 -0.1454018
0.04352486 0.13105777 0.09946519 -0.20436019 -0.24772418 0.1588737 0.011269394 -0.1316208
-0.23654461 -0.24289551 0.014267294 0.24279046 0.18809545 0.21769336 -0.22718269 0.22709441
0.013533848 -0.036232855 0.22505188 0.00021767616 0.15409559 0.17265666 -0.16573071 0.07788536
0.099877596 0.23838538 0.19607577 -0.14415085 0.18865326 0.21650293 -0.1853477 -0.079754174
-0.017094024 -0.15191676 -0.16349864 -0.14186355 -0.09964082 0.14166062 -0.061499912 0.21160936
-0.17494774 0.015483201 -0.10195859 -0.06753883 0.20566893 0.24189448 0.13652045 -0.18663657
-0.08540573 -0.15500364 0.104986995 -0.18498918 -0.06201455 -0.15043199 -0.11597858 0.09650302
0.029033482 -0.13804069 0.2825424 0.0006105602 0.06244296 0.058438182 0.14417627 0.14090717
0.0036699136 0.24460365 -0.17725176 -0.050682396 0.027234048 -0.115802586 -0.011469866 0.23755655
-0.06248501 -0.14529395 0.22128859 0.072267264 0.08822802 -0.0011686087 -0.1725983 0.24257791
0.25479144 -0.12802273 0.17254212 -0.028947622 0.031007528 0.16286334 0.16015871 -0.060743958
0.14825341 -0.16257274 0.1267986 -0.17054915 -0.15611547 -0.18961015 0.23307118 -0.22852284
0.25512832 -0.09340324 0.065243006 0.18789172 -0.067812175 -0.020450467 -0.015345434 0.16264883
-0.13598078 -0.13093114 -0.055687964 0.052390516 0.2389526 -0.12498084 0.10149434 0.14885756
0.0665303 0.10066434 -0.19483489 -0.15162984 -0.004652083 0.076081686 0.032438632 -0.0024885535
0.15571621 0.03231871 -0.24330163 -0.20392802 0.2087112 -0.053026855 0.030802399 -0.09255561
-0.037705217 0.08418999 -0.07833156 0.07470468 0.007366687 0.28512746 -0.18224922 -0.21874139
0.12096739 -0.12253022 0.15020451 -0.22790793 0.11576271 0.11586779 -0.15302488 0.16956303
-0.12563019 -0.07445675 0.05070007 0.011499047 -0.11304948 0.076643415 -0.12327027 -0.031291544
-0.056241184 -0.22800833 -0.08199942 -0.12868369 -0.1253534 0.20307308 -0.13503426 -0.18211731

linear.1.bias f4 [64]
00000000: c91c 903e 9505 1ebd e743 11be 1333 c43c
00000010: fc97 7fbd 74ee 63be eac3 9a3e eea6 bd3d
00000020: c4f8 5c3e 9791 9e3d 88aa fbbd d656 98bd
00000030: 8607 57bd f420 c1bd 7249 723e 1748 983e
00000040: 2cf6 33bd f6d1 87be 69ce 12be 71b1 073e
00000050: 471c 073e 9a47 5dbd 1d8d 3a3b 07f0 9ebe
00000060: 3b94 21be 274d aabe 1562 bfbd ab53 c9bc
00000070: 887a 943c 780c 5cbd 8ba0 7abd d565 33be
00000080: 222a a03d 6d44 143e 5ff8 84bd b6e9 873e
00000090: 8f91 8cbe 4b80 6fbe 5b8f a53d 6180 4ebe
000000a0: f5a8 15bd cbe2 aa3c b3c7 253e fe06 943d
000000b0: a613 a43e ab60 61be 57bf f73c d516 afbc
000000c0: ebd3 ed3d 1a55 c33d 7aa2 8ebd 0845 0fbe
000000d0: a03d c8bc b6ca 5c3d 4e80 ce3c 15a8 873e
000000e0: 1184 023e ce4a debb bcfb 323d 4b90 003d
000000f0: 57be 953d ae87 91bd 4731 d5bc c5f0 28be
0.2814696 -0.038579542 -0.14186059 0.023950135 -0.062400803 -0.22258931 0.30227596 0.09260355
0.21579272 0.07742613 -0.12288386 -0.07438438 -0.05249741 -0.094301134 0.2366083 0.297425
-0.04393594 -0.26527375 -0.14336552 0.13251282 0.1319438 -0.054023363 0.0028465458 -0.310425
-0.15779202 -0.33261988 -0.093448795 -0.024576029 0.018124834 -0.05372283 -0.061188262 -0.17519315
0.07820536 0.14479227 -0.064926855 0.26545495 -0.27454802 -0.23388784 0.080839835 -0.2016616
-0.036538083 0.020860096 0.1618946 0.07227896 0.3204624 -0.22009532 0.030242605 -0.021373192
0.11612686 0.09537716 -0.06964584 -0.13991177 -0.024443448 0.053904258 0.025207665 0.26495424
0.12745692 -0.0067838198 0.043697104 0.03138761 0.07311695 -0.07105957 -0.026024474 -0.16498096

linear.2.weight f4 [128, 64]
00000000: a408 26bd 914e f53d d343 273e b603 503c
00000010: 0323 54bd 79f0 84bd 956f 43bd 92b3 e13d
00000020: 59c7 ae3d b262 8fbc c035 123e 9c04 dc3a
00000030: 65d4 973d 07f8 91bd 9320 f93d e06d 183d
00000040: 3fd9 2c3e af83 07be 0d97 083e f04b 923c
00000050: 4a63 753d dc6e 283e b98a 08be 5644 903c
00000060: 8e2b 41bd 1443 bf3c 89a8 33bd b1de da3d
00000070: 515b 25bd ede6 67bd 5e80 a43d 25d0 b23d
00000080: 3dfc 393d 689c 103e 0ad6 e3bd 9fd2 eebd
00000090: d7b1 0dbe 5cc2 4dbd b781 0abd a75c 8cbd
000000a0: d776 b1bd 4c4e 4dbb 485d 0fbe 9f49 c33b
000000b0: 7d9c f33b 64dc 133d 3626 73bd bcde fe3b
000000c0: 1b82 083d 2007 c13d e4f2 00be dff3 323e
000000d0: 2642 3b3d 89c7 943d 67c5 d6bd 69b5 273e
000000e0: 755f 6fbd 7860 ef3d bbbc 353d 492b 87bb
000000f0: 2cf1 7abc fd72 9abc 221d d1bd a854 a1bd
00000100: ab5c c03c 0db5 62bd f93c 28bc 1d4f ac3c
00000110: a546 81bb 19c2 293d 1370 57bd 9d04 de3c
00000120: 1f22 b13d f8ef f93d 4bed 9cbc ea06 fdbd
00000130: f5a1 f33d 74d0 d6bd e775 f53c 69b2 c4bd
00000140: 8b2e 8ebd 2809 f43d 70a3 203d dad5 083d
00000150: e9a0 5f3d fa5c f83d c765 09bc 73a8 223a
00000160: f3a2 193d 6004 183e d7ba ef3c a188 dcbd
00000170: 91f8 56bd f7c1 1ebe 7d8a 88bd 5f3b 0b3e
00000180: b9ab 60bd b875 b73d 1df1 bcbc 2c6b b63d
00000190: 3b51 1dbe 31a9 f93d afb5 b6bb eee5 783d
000001a0: 6cb8 023d 8b66 30bc 3303 3a3c 2681 ff3c
000001b0: 5b53 9ebd 7cdb 18be 5781 103d 54fe 12bc
000001c0: 2603 ea3c 08b7 813c 3a1f 043e 8121 773d
000001d0: a893 f1bc 7555 23bc eddd b73c c4f4 cc3c
000001e0: 6f39 8a3d a22b 123d c590 5dba 6a5f ce3b
000001f0: bdd9 ae3d dd47 c5bd 9bba c8bd cae3 c6bc
00000200: 8173 b8bd 9b3d 15bd 6e5b b23c 8ce0 c23b
00000210: a10e 72bc 9a6a 863d 77fb d93d 6355 f73d
00000220: 8dd2 27bd 7509 1f3e 6b99 9d3c 8fd3 93bd
00000230: 78ce c63d 84bd dbbc 5422 c8b9 d0f8 383d
00000240: eaa2 c13d 8ff2 993c 286f 603d 9d4c 35bd
00000250: 4e3b 94bd 9dd5 413e cc9a 403c 84b1 3fbe
00000260: 6c7e 523d 7bfc f23c 8f79 29bb a4a9 8b3c
00000270: 2953 343e c4e6 78bd 79df 4cbc 9a06 c73c
00000280: 2257 6cbd c1c5 ff3d 6c55 f9bc 6abb e53d
00000290: 2add 78bd 6c9c 443d b230 8bbd 909b d73c
000002a0: 9f5a bb3d 654c f83c 6c28 34be 732f 333c
000002b0: 1506 b33d 92f9 ac3d e940 773c 94b5 09be
000002c0: be53 4b3d cb3d c23d d813 b5bd ea61 023e
000002d0: 1004 683d 0e6c a23d 9017 cbbd 784e 2a3d
000002e0: 9551 6ebd a93b 043e 4329 eabc 866e e2b9
000002f0: 1936 16be baee 8f3c b4e2 95bd 3552 543d
00000300: 4792 f53d 6d76 e7bd 634e 1cbe e29b 853d
00000310: 24a8 373d c192 d93d 7f41 623d abc1 08be
00000320: c0d4 f2bc f083 c13c 2512 463c daa0 b4bd
00000330: b07e cf3d e0da b7bc c9bb f63d c048 413c
00000340: c1dc 6abd fb87 f93d 1e6d 9b3b bd6f ecbb
00000350: d80d f53d 10ec 82bd 5b4e cd3d 94b6 3fbd
00000360: a40a 2f3d 301c ec3d a1b3 243d 898f 06be
00000370: 37cd 853d 2227 ddbc 353e 163e 5954 2bbd
00000380: d1ae a2bd 0893 213e 21ed 63bb dd50 ccbc
00000390: 5ae4 8dbd d570 123e e939 a93d 6903 6abd
000003a0: 6a19 0bbd ca0c 78bd 4d28 04be de54 373c
000003b0: d1d9 6f3d 969f 7fbd 52a0 30bd cf4d bb3d
000003c0: fd0b 883d bbac e53d 90ff b0bc ed1e aa3c
000003d0: f0a9 afbd 5bef d53d 1511 a9bc 2089 96bd
000003e0: ff39 b63d 53cb 6abd 1552 67bc 30f9 60bd
000003f0: 435e e9bd 4ede b5bd 12c6 1cbe 3e6f 62bc
-0.040535584 0.11977876 0.16334467 0.012696197 -0.051791202 -0.06491179 -0.047713835 0.110205784
0.08534116 -0.017503116 0.14278316 0.0016786042 0.07413558 -0.071273856 0.12164416 0.03721416
0.16879748 -0.13233827 0.13338871 0.017858475 0.059909143 0.1644854 -0.13334168 0.01761071
-0.047160678 0.023347415 -0.0438619 0.10687006 -0.04037029 -0.056616712 0.080322966 0.08731107
0.04540657 0.14122164 -0.11124809 -0.116612665 -0.13837372 -0.050234184 -0.033815112 -0.068536095
-0.08665245 -0.0031327186 -0.14000428 0.005959704 0.0074344263 0.036098853 -0.059362613 0.007778017
0.033327203 0.09425187 -0.12592655 0.17475842 0.04571738 0.07264621 -0.1048687 0.16377796
-0.058440644 0.11688322 0.04436944 -0.004125033 -0.015316289 -0.018853659 -0.10210635 -0.07877475
0.023481688 -0.055348445 -0.010268443 0.021033818 -0.003945189 0.04144487 -0.052597117 0.02710181
0.08649086 0.122039735 -0.019156119 -0.123548344 0.11896125 -0.10488978 0.029963447 -0.096043415
-0.06942471 0.11915809 0.039218366 0.03340707 0.054596815 0.12127109 -0.008386082 0.00062049105
0.037508916 0.14845419 0.029263897 -0.107682474 -0.052483145 -0.15503679 -0.066670395 0.13596867
-0.054851267 0.08958 -0.02306419 0.0890716 -0.15363018 0.12190474 -0.0055758576 0.060766153
0.03191416 -0.010766636 0.011353302 0.031189512 -0.077307425 -0.14927477 0.035279598 -0.008971769
0.028565954 0.015834346 0.12902537 0.060334686 -0.029489353 -0.009969105 0.02244469 0.025019057
0.06749236 0.035686143 -0.00084520533 0.0062979953 0.08537624 -0.096328475 -0.09801217 -0.02427854
-0.090064056 -0.036435705 0.021772113 0.005947178 -0.014773996 0.065633014 0.10643666 0.12076833
-0.04097228 0.15530951 0.019238194 -0.07218086 0.097073495 -0.026823767 -0.0003817255 0.04515916
0.094549015 0.018792419 0.054793507 -0.044262517 -0.07237874 0.18929143 0.011755656 -0.1872006
0.051390097 0.029661408 -0.0025859808 0.017048664 0.17609848 -0.06076695 -0.012504452 0.02429514
-0.057700284 0.124888904 -0.03043624 0.11217387 -0.060757793 0.048000738 -0.06796397 0.026319295
0.09148144 0.030309865 -0.17593545 0.010936606 0.087413944 0.08446039 0.015091159 -0.13448173
0.04964041 0.09484442 -0.088416755 0.12732664 0.0566445 0.07930766 -0.099166036 0.04157874
-0.05818327 0.12913384 -0.028584128 -0.00043188425 -0.14669074 0.017569888 -0.07318631 0.05183621
0.11990791 -0.11301885 -0.15264277 0.06523873 0.044838086 0.10623694 0.055238243 -0.13355128
-0.029642463 0.023622483 0.012089287 -0.088197425 0.101315856 -0.022443235 0.12047536 0.01179713
-0.057339434 0.12184139 0.0047432324 -0.0072154687 0.11965531 -0.063926816 0.10024711 -0.04680498
0.042734757 0.11528814 0.04021037 -0.13140692 0.06533282 -0.026996199 0.14672168 -0.041828487
-0.079435 0.15778744 -0.003477879 -0.024940902 -0.0692832 0.14300855 0.082629986 -0.05713216
-0.033959784 -0.06055907 -0.12905999 0.0111896675 0.058557335 -0.062408052 -0.043121643 0.091457
0.066429116 0.11214586 -0.021606237 0.0207667 -0.08577335 0.10446044 -0.020638028 -0.07350373
0.088977806 -0.05732281 -0.014118691 -0.054925144 -0.11394932 -0.08880292 -0.15309933 -0.0138204675

linear.2.bias f4 [128]
00000000: 40f6 73bd e679 163d ae79 3d3d 30d3 3fbd
00000010: 4e11 8d3d 84d9 a0bd a1ad 29be 1d51 89bd
00000020: 2c67 023b ec6f 263d ac79 eabc 0ac5 083d
00000030: 8254 4dbd fe09 ba3d 59e4 893d 80cf b9bc
00000040: d547 d8bb 02e8 fc3d 10b5 1bbe 10e7 b73d
00000050: f329 28bd 675f 12bd b5f3 3fbe 84a7 323c
00000060: fbd0 c3bd 78cc 733c 73b2 a1bd 147c 47bd
00000070: 3334 06be e100 783a 8e02 77bd ce09 e2bd
00000080: 0d60 f03c 8301 93bd 8b88 fe3c ee72 50be
00000090: 8129 753c 5e57 7fbd 3113 433d 8ee8 3b3c
000000a0: 1575 b6bd 50f4 2bbd bfcc 0dbe b68d f93d
000000b0: ceda 113d 9387 33bc 695c 3bbe ebe4 3a3d
000000c0: 46c9 3fbc a2d8 8d3d 02c0 0cbe c57e 10be
000000d0: 3b81 7b3d 7364 2dbc b7fd 813c 3204 1dbe
000000e0: f93c 863d 1732 933d 045c b8bd 8617 1f3d
000000f0: 9268 ef3c 339c 0fbe 52d1 2d3d 062b 47bd
00000100: a19b 0b3d 4e86 97bc 67f4 d23c 4ada 783d
00000110: 5435 93bd 10d5 7cbd 6e7d e23d 46b1 1fbe
00000120: 527d aabd 8465 f9b8 b5f9 d2bc 8061 103e
00000130: edaf 1ebc 8dca eebd 17c4 dcbd fe5a 303d
00000140: 0821 f1bd b346 3c3d 5b79 40be 6b47 33be
00000150: 7aa4 3f3b 14e3 a6bb 210a e4bd 4054 f63d
00000160: 9188 b5bd c1bf 603d a3b4 11bc 786c b6bd
00000170: 102a 6bbd 46d0 cb3d 4784 fcbd be75 3d3c
00000180: 22b5 c3bd b76f d1bc d2f8 59bd 394f cabd
00000190: bb90 6b3d 79e6 2cbd b72e 683d 6af0 e6bd
000001a0: 7bfc c3bc 00b1 043d d328 3d3d ee42 b73d
000001b0: 4226 82bd b777 c6bb 5349 1c3d 29f2 1abe
000001c0: a045 30bd 6494 8e3d 6a82 89bd c2f4 2bbe
000001d0: b9aa 10be ee4e febd fe02 b1bd 13cd 523d
000001e0: a11f debd 14e8 5f3d 69d2 c9bd 7a92 debc
000001f0: 6ae7 19be f646 dabc ab86 69bd 1dac e3bc
-0.059561014 0.036737345 0.04625862 -0.046832263 0.06888066 -0.07853988 -0.1657014 -0.06704924
0.001989792 0.04063408 -0.02862247 0.033391036 -0.05012942 0.09083937 0.06733007 -0.022681952
-0.00660036 0.123489395 -0.15205789 0.089796185 -0.04105563 -0.035735514 -0.1874531 0.010904197
-0.09561344 0.014880292 -0.078953646 -0.048702314 -0.1310585 0.000946058 -0.06030517 -0.11037026
0.029342676 -0.07178023 0.031070968 -0.20356342 0.014963509 -0.06233918 0.047625724 0.01146902
-0.089090504 -0.04198104 -0.13847636 0.12185232 0.03560906 -0.010957616 -0.1829697 0.04562847
-0.011705702 0.06926085 -0.1374512 -0.14110859 0.06140254 -0.010583031 0.015868051 -0.15333632
0.06554598 0.07187288 -0.090019256 0.038840793 0.029224668 -0.14024429 0.04243595 -0.048625015
0.034083966 -0.018496659 0.025751306 0.06075505 -0.07187906 -0.06172663 0.1105908 -0.15594968
-0.08324684 -0.00011892154 -0.025753835 0.14099693 -0.009685499 -0.11659727 -0.10779589 0.043055527
-0.11773878 0.04596586 -0.18796293 -0.17507713 0.0029242323 -0.005092988 -0.111347444 0.12027788
-0.088639386 0.05487037 -0.008893165 -0.089074075 -0.05741316 0.099518344 -0.123299174 0.011563716
-0.09556033 -0.025565965 -0.05321581 -0.09878392 0.057511073 -0.042211983 0.056685176 -0.11276324
-0.023924103 0.032395363 0.04618151 0.08948313 -0.06354953 -0.0060567516 0.038155865 -0.1513144
-0.04303515 0.06961897 -0.06714328 -0.16792586 -0.14127626 -0.124173984 -0.08643149 0.051465105
-0.108458765 0.054664686 -0.09854586 -0.027169455 -0.15029684 -0.026645165 -0.057013195 -0.027792031

linear.4.weight f4 [2, 128]
00000000: 6c07 733c 5c2e 023d 8ad8 af3c 9adf 5dbd
00000010: 3925 73bb 74a3 92bc cd0d babc 6e3f 91bd
00000020: 4ef8 5c3d 22bd d83c 6fe0 cebc ab63 1abc
00000030: 5a19 443d 6ede b23d 524e 243d ad21 0b3c
00000040: 7114 9dbb e781 c83d 8bba ec3c cb47 7b3c
00000050: 8f5c f7bc 2622 1f3d d6d3 d8bd 35dc a53c
00000060: 7846 57bc c8a8 dd3c 7954 13bd c01d fabb
00000070: 0709 17bd b811 05bc aaae 6e3d 6efa 493c
00000080: 8557 ed3d 8420 943d 4a4f 26bc dcba f73c
00000090: 3471 f13c 60e3 86bb fe42 f43d eeb4 813c
000000a0: 427f 08bd 1a13 3ebd e41c 853c ce6b 863d
000000b0: 8d25 d23b 9d86 ab3d 1c37 413d f2f2 7dbc
000000c0: f610 8d3d 1c3f 8ebd 2476 583d 0538 4dbd
000000d0: af13 cfbc 2b15 46bc a2d8 d5bc 7d32 7e3c
000000e0: 314a 9a3d 236f b13d 4a3d 933a 39c5 e6bc
000000f0: f1c6 bf3d b13e c73c 0736 1dbc b9ee 9bbc
00000100: edf3 d03c 3471 74bd 6449 613d 0a2c 05bd
00000110: 13b2 933c 1e51 cd3c b827 9e3d b5da 82bd
00000120: 47f6 ad3d 2bb6 293d 8c31 c7bd 7f72 183d
00000130: 62d7 243d 2240 a7bc bc54 2a3d 57c7 003e
00000140: df8b ff3d 9492 233c 9b05 c8bc da0e 713d
00000150: 43a8 643b f4db 8f39 44aa 58bc 87b8 033e
00000160: ea57 7bbd 4ee9 bd3d 4c41 02bd e605 853d
00000170: d83c d33c 4d29 58bd 3a0a 2a3d fb37 aa3a
00000180: 6851 6b3c ab6d 7b3c ff41 873d e82c 19bd
00000190: a5b9 133d 542b db3c 13fe 00bd 79dd bb3d
000001a0: 1ae2 25bd f00b 813b abbc b3bd 9a20 993d
000001b0: f3e9 8e3c 08c3 1a3b 2f07 0cbd e92f c1bd
000001c0: d2af ab3d 093d 0b3e 68c7 733d d62b 0d3d
000001d0: 2392 c03d 3443 d33c 2c75 b93d 5d38 3e3d
000001e0: e683 003d b1b3 3a3c 0822 63bb 148e c83a
000001f0: 93d3 46bd c939 813c cabc be3d c4be 133d
00000200: 420d 92bd 9026 a5bb 243b 38bd e3d7 36bc
00000210: 643c 77bd 8d5b 8c3d ceef 1e3c 7da1 693b
00000220: b5d9 f53c 8156 373d e7c3 9bbb 376d d1bc
00000230: 4a7d 5f3c bdd6 d9bc e4b5 5a3d ffca 19bc
00000240: d1e5 6dbc 6cbc 7ebc a593 293d 90ce eebd
00000250: 18c8 7f3d 15ab 3b3c a3d0 e23b cb21 5ebd
00000260: 9c8e 8a3c 5a1f d53d d502 c5bc 549d adbc
00000270: ede6 3b3d 9c50 cf3a 15df fa3b 0bc2 ff3d
00000280: 5b52 843c 06a7 bebc 5afe c5bd 7e3a e43c
00000290: bff4 923d d888 1fbc 7006 50bc ce97 d73d
000002a0: 4606 5e3c 1024 f5bc dc93 b03d dd48 1f3c
000002b0: acf2 733d fb9e e8bc 54ae 753c 04b9 14be
000002c0: 3325 f3bb 872a 49bb ea70 883d 1761 b83c
000002d0: d2f6 803c ec9f 5abc b205 b3bd c858 193d
000002e0: db99 ff3a d461 eabb db65 8dbc f897 91bd
000002f0: a53f 733d aad8 2c3d bba9 9ebd 5f61 9d3d
00000300: 59d1 c63b 20b4 d0bb a56e 7b3d 48f9 a9bd
00000310: dc6f a6bd ca86 443d 5c70 25be ee39 0b3d
00000320: f7b0 4e3d 1c79 693b d21f 1abd 6f4e 0a3d
00000330: 70f1 333d 483f 0bbe 138e c1bc c30d c6bd
00000340: 5f1a b3bd be67 bdbd 3026 c23c 22ba 20bb
00000350: c3cc 00ba 3516 36bd a312 183d e100 90bd
00000360: e574 65bc 67d7 26bc 4e58 7cbd 3e12 10bc
00000370: 29ed 1b3c 7fc8 84bd fee3 f23c 7caf 2dbc
00000380: f411 74bc d544 c4bb 5e30 d23c 9eb9 7bbd
00000390: c885 b3bc 7510 52bd 048b 00be 43b4 80bd
000003a0: e74d 693c 93b4 033d 7825 a13c 04f2 aabd
000003b0: 41f9 a23d 9178 163c 69b8 023d 928b 62bc
000003c0: aad4 69b9 6cdd 6fbd e154 583c 6393 ce3c
000003d0: 3b88 e0bc 6bdf f43c 0aab a73b 76f3 843d
000003e0: bf2a 863d 8b08 07bd 4641 4fbc 84fb cdbd
000003f0: da47 29bd 3938 1e3c 62c4 37bd 30a8 6039
0.0148333125 0.031782493 0.021465559 -0.05416832 -0.0037101044 -0.017900206 -0.022711659 -0.070921764
0.05394774 0.026457373 -0.025253503 -0.009423177 0.04787574 0.08733831 0.040113755 0.008491916
-0.0047936966 0.09790402 0.028897544 0.015336941 -0.030195503 0.038850926 -0.105872795 0.020246604
-0.01313936 0.02705802 -0.03596923 -0.007632941 -0.036873844 -0.0081219 0.05827204 0.0123277735
0.11588959 0.07232764 -0.01015074 0.030240469 0.029472925 -0.0041164607 0.1192684 0.015833344
-0.033324488 -0.046404935 0.016249128 0.06563531 0.006413168 0.08375285 0.047171697 -0.015499817
0.06888001 -0.06945631 0.052847043 -0.050102253 -0.02527794 -0.012090008 -0.026104275 0.015514967
0.07533682 0.08663776 0.0011233476 -0.028170215 0.09364117 0.024321886 -0.009595401 -0.01903473
0.025506938 -0.05967827 0.05500163 -0.032512702 0.018029248 0.025063094 0.077224195 -0.06389371
0.08494239 0.041433495 -0.09726247 0.037218567 0.040244468 -0.020416323 0.041584715 0.12576042
0.1247785 0.009983677 -0.024416735 0.058852054 0.003489033 0.00027438963 -0.013224188 0.1286336
-0.06136314 0.09273015 -0.031800553 0.06495266 0.025785848 -0.052773762 0.04151366 0.0012986654
0.0143626705 0.015345971 0.06604385 -0.03739634 0.036065716 0.026754059 -0.031492304 0.09173102
-0.04049883 0.0039381906 -0.0877622 0.074769214 0.01744554 0.0023614783 -0.03418654 -0.09432966
0.083831444 0.13597502 0.05951634 0.034465633 0.09402873 0.02578888 0.09055552 0.04644047
0.03137579 0.011395381 -0.0034657735 0.0015301132 -0.048541617 0.015774624 0.093133524 0.0360706
-0.07131435 -0.0050399974 -0.044978276 -0.01115987 -0.060360327 0.068533994 0.009700729 0.0035649233
0.030011037 0.04476023 -0.004753578 -0.025564773 0.013640711 -0.026591653 0.05339612 -0.009386777
-0.0145201245 -0.015547853 0.04140057 -0.116604924 0.062446684 0.011454363 0.006921844 -0.054231446
0.016913705 0.104063705 -0.024049202 -0.021193184 0.045874525 0.001581687 0.007655988 0.12488183
0.016152551 -0.023273002 -0.09667654 0.027859922 0.07175588 -0.009737216 -0.012696847 0.10527001
0.0135513 -0.029924423 0.08621952 0.009721962 0.0595576 -0.02839612 0.014995176 -0.14523703
-0.007420206 -0.0030695514 0.06662162 0.022507234 0.015742693 -0.013343792 -0.08741321 0.037438184
0.0019500809 -0.0071527753 -0.017260483 -0.07109064 0.059386868 0.042198814 -0.07747217 0.07684588
0.0060674367 -0.006369129 0.061384816 -0.082995 -0.08126804 0.047980107 -0.16156143 0.033990793
0.050461736 0.0035625165 -0.037628002 0.033766206 0.043931425 -0.13598359 -0.023627317 -0.096705936
-0.08745264 -0.09248303 0.02369985 -0.0024525006 -0.00049133244 -0.044454772 0.03712715 -0.07031418
-0.014004921 -0.010183192 -0.06160765 -0.008793412 0.009516993 -0.06483554 0.02964973 -0.010600921
-0.0148968585 -0.0059896507 0.025657829 -0.061456315 -0.021914378 -0.051285226 -0.1255303 -0.06284382
0.014239765 0.03215463 0.019671187 -0.08346942 0.07957698 0.009184019 0.03191415 -0.0138272215
-0.00022299835 -0.058560774 0.01320383 0.025216764 -0.02740871 0.02989169 0.005116825 0.06491749
0.06551122 -0.03296713 -0.01264984 -0.100577384 -0.04132829 0.009656959 -0.04486502 0.0002142496

linear.4.bias f4 [2]
00000000: 10c8 0b3e e978 83bc
0.13650537 -0.016048865
