meta/demos/multiple_experiments/results/models/run_0/emodb_mlp_os_16-64_C_val-001_learning_rate-0-0001_0_014.model (torch, 13864 bytes, 6 tensors)

linear.0.weight f4 [16, 88]
0	0x3dc25641	0.09489108
1	0x3d9a1e9e	0.07525371
2	0x3dcda064	0.10040358
3	0x3cdb48a8	0.026768044
4	0x3d44cf05	0.04804899
5	0x3d0b3251	0.033983532
6	0x3db8fd1c	0.09032652
7	0xbb2afe29	-0.0026091433
8	0x3d8183d1	0.0632397
9	0x3d83b582	0.06431104
10	0x3d580b1b	0.052744966
11	0xbd2a5e53	-0.04159386
12	0x3cc31e6c	0.023818217
13	0xbd8d1d08	-0.06890303
14	0x3d90cf15	0.07070748
15	0xbd485350	-0.048907578
16	0x3dd89a13	0.10576262
17	0xbdab611e	-0.08368133
18	0x3d926854	0.07148805
19	0xbd11cb2c	-0.03559415
20	0xbd7f5f56	-0.06234678
21	0x3dbd5726	0.09245138
22	0x3d37a15f	0.04483163
23	0x3da5d67b	0.080975495
24	0x3d8d4eed	0.068998195
25	0xbc9175aa	-0.017756302
26	0x3d6f6822	0.05844892
27	0x3d203cca	0.039120473
28	0x3d03b6ae	0.03215664
29	0xbcdb23d3	-0.02675048
30	0x3d67ecca	0.056622304
31	0x3dab6d39	0.08370442
32	0xbdc0379e	-0.09385608
33	0x3d2a30dc	0.041550502
34	0xbd8a460c	-0.06751642
35	0xbd066fc1	-0.03282142
36	0x3d9e9bd5	0.07744566
37	0x3d88b8be	0.06675862
38	0xbd7523ce	-0.0598486
39	0xbcc0eafd	-0.023549551
40	0x3cf4f39c	0.029901318
41	0x3d46f2bc	0.048571333
42	0x3c0bab93	0.008524793
43	0xbc11ba57	-0.008894525
44	0xbcef7b92	-0.029233728
45	0x3c905941	0.017620685
46	0xbd85369d	-0.06504557
47	0xbdb14173	-0.086550616
48	0x3d60dc9f	0.0548979
49	0x3d310c7d	0.0432248
50	0x39d7ce47	0.00041161684
51	0x3d8e9746	0.06962447
52	0xbdc55cde	-0.09636854
53	0x3d979e06	0.074031875
54	0x3d963975	0.07335178
55	0x3d13284d	0.035927106
56	0xbcd25a51	-0.025677832
57	0xbdc5b551	-0.09653724
58	0xbd70d396	-0.058795534
59	0xbd7761cf	-0.060396012
60	0x3d528f53	0.051406216
61	0x3d292ffe	0.041305535
62	0xbd358a4e	-0.04432135
63	0x3d116521	0.035496835
64	0x3cd8391e	0.026394423
65	0xbda07648	-0.0783506
66	0x3d028bde	0.03187167
67	0x3c6a2340	0.014290631
68	0x3d847c6b	0.06469043
69	0xbcc11dbb	-0.023573747
70	0x3bc638a6	0.0060492335
71	0x3c694a1b	0.0142388595
72	0xbd2fc533	-0.042912673
73	0xbce2fc86	-0.027708303
74	0xbc43bb20	-0.01194647
75	0xbdb4f688	-0.088360846
76	0x3d470023	0.048584115
77	0xbd2bd463	-0.041950595
78	0x3b5b7b8f	0.0033490395
79	0x3d96549f	0.07340359
80	0x3d323dbd	0.04351591
81	0x3d80afd6	0.06283538
82	0x3d45064b	0.048101705
83	0x3d8de9d4	0.06929365
84	0xbdd8093a	-0.10548635
85	0xbda0f4e5	-0.0785921
86	0xbd554090	-0.052063525
87	0xbd218874	-0.039436772
88	0xbd73a15d	-0.05948006
89	0xbc5417ef	-0.012945159
90	0xbd670f24	-0.056410924
91	0x3d465b9d	0.048427213
92	0xbd2e06cc	-0.04248695
93	0xbda3a5e8	-0.079906285
94	0x3d7e0c30	0.06202334
95	0x3ccf8569	0.02533217
96	0xbccd1dbd	-0.025038594
97	0x3d9c9dc1	0.07647277
98	0x3c512c74	0.012766946
99	0xbd708f9d	-0.05873071
100	0xbd610e90	-0.05494553
101	0x3dc9afdd	0.098479964
102	0x3db93da5	0.09044961
103	0x3b8a28ef	0.0042163054
104	0x3db0fbf0	0.08641803
105	0xbc0cf269	-0.008602717
106	0xbd85c9ec	-0.06532654
107	0x3da21601	0.07914353
108	0xbda7e982	-0.08198835
109	0x3dc127a3	0.09431388
110	0x3dbb345d	0.09140847
111	0xbd0f312f	-0.034959015
112	0xbd2a9e8a	-0.0416551
113	0xbd8344c9	-0.06409604
114	0xbda64ed6	-0.081205055
115	0xbdd513fa	-0.10404201
116	0xbd3116bf	-0.043234583
117	0x3cc21fb4	0.023696758
118	0x3cc565b0	0.02409634
119	0x3ccf16a7	0.025279356
120	0xbd982f48	-0.07430893
121	0xbda04a51	-0.07826675
122	0xbc98f76e	-0.018672671
123	0xbb999695	-0.00468714
124	0xbd623395	-0.055224974
125	0x3d93144d	0.071816064
126	0xbd868dd9	-0.06570024
127	0x3c82d664	0.01597137
128	0x3cd43961	0.025906267
129	0xbd74f853	-0.059807133
130	0x3d1bdc0c	0.03805165
131	0x3d8f0cbf	0.06984853
132	0xbcc83722	-0.024440352
133	0x3d9e27ab	0.0772241
134	0xbcacdf91	-0.021102699
135	0xbc798bad	-0.015231055
136	0xbcc7616d	-0.024338448
137	0xbc2b3102	-0.010448696
138	0x3d930fe9	0.07180769
139	0x3d8eab07	0.069662146
140	0xbd805acb	-0.062673174
141	0x3d55170b	0.05202393
142	0xbd953718	-0.07285899
143	0xbdcd00cc	-0.100099176
144	0x3d1d45eb	0.038396757
145	0xbc399ce6	-0.011328911
146	0x3ba861e1	0.005138621
147	0xbd67a19f	-0.05655062
148	0xbd4d5a9b	-0.050135236
149	0x3d5361b7	0.05160686
150	0x3d5f4580	0.05450964
151	0x3dd28cf0	0.10280788
152	0x3d02deca	0.03195075
153	0x3c6c3e10	0.014419094
154	0xbd238493	-0.039921355
155	0x3beea082	0.0072823176
156	0xbd868cec	-0.065698475
157	0x3d4da11f	0.050202485
158	0xbda50f97	-0.08059614
159	0x3cf0744c	0.02935233
160	0x3d9dd213	0.07706084
161	0x3d4edbfb	0.05050276
162	0xbcf8c3ef	-0.030366866
163	0x3dabeacb	0.083943926
164	0x3dc0df79	0.09417624
165	0xbd264f39	-0.040602896
166	0xbc9ab3c4	-0.018884547
167	0x3cbdb74f	0.023158697
168	0x3b6848aa	0.0035443702
169	0x3da14806	0.078750655
170	0xbdb99c77	-0.090630464
171	0xbdb8c35f	-0.09021639
172	0x3d29949c	0.04140149
173	0xbc4c2422	-0.012459787
174	0xbbe83892	-0.007086822
175	0xbda1b24c	-0.078953356
176	0x3dd57e12	0.10424437
177	0xbd565fb7	-0.052337375
178	0x3d0e5548	0.0347493
179	0x3b1cdd95	0.0023935784
180	0xbd1d2cb6	-0.038372718
181	0x3dddae3e	0.1082425
182	0x3d64def9	0.055876706
183	0x3dae78b5	0.08519117
184	0xbca052dc	-0.01957076
185	0x3d819deb	0.063289486
186	0x3d35b9c5	0.044366617
187	0x3ce43497	0.027857108
188	0xbbed33fc	-0.007238863
189	0x3d027e28	0.031858593
190	0xbd79df16	-0.061003767
191	0xbd2f452d	-0.04279058
192	0xbd093007	-0.033493068
193	0xbda3912f	-0.07986676
194	0xbda5a9af	-0.08089005
195	0xbd40df18	-0.04708776
196	0xbd4a0761	-0.049323443
197	0xbc0cb301	-0.0085876
198	0x3c6ea802	0.014566423
199	0xbdcb4229	-0.099247284
200	0xbcadcbd0	-0.02121535
201	0x3c910af2	0.017705414
202	0xbcc8540e	-0.024454143
203	0x3d929d20	0.071588755
204	0x3da01e13	0.07818236
205	0x3d51fdbc	0.05126737
206	0xbc4a6270	-0.012352571
207	0xbdd44ab8	-0.10365814
208	0xbd29c2cb	-0.041445535
209	0x3cd5078a	0.026004571
210	0x3dc05afc	0.09392354
211	0x3db7a4ef	0.089670055
212	0x3db37198	0.08761901
213	0xbdcbc1a1	-0.09949041
214	0x3d9bf456	0.07614963
215	0xbd585c44	-0.052822366
216	0x3d66e1b8	0.056367606
217	0x3d8c7c85	0.06859688
218	0x3d439f45	0.047759313
219	0x3d87fdc1	0.066401966
220	0x3d98066a	0.074230984
221	0x3d7ea5d0	0.06216985
222	0x3d3f4793	0.046699118
223	0x3cb55f3a	0.022140134
224	0xbccc2de5	-0.024924228
225	0x3cae0476	0.021242362
226	0xbcdbece4	-0.026846357
227	0x3dd90395	0.10596386
228	0xbcfe14c3	-0.03101576
229	0xbda9a804	-0.082839996
230	0x3d8a3f56	0.067503616
231	0xbdcf8bf4	-0.10134116
232	0xbc63c29b	-0.013901378
233	0xbdb6b5df	-0.08921408
234	0xbcdc6ff8	-0.02690886
235	0xbbde264c	-0.0067794677
236	0xbc3b193b	-0.01141959
237	0x3c7e74a4	0.015530739
238	0x3d30ffb0	0.043212593
239	0xbb8f617e	-0.0043756356
240	0xbda51464	-0.0806053
241	0xbdb0b381	-0.08627988
242	0xbd17f9fd	-0.03710364
243	0x3cf16760	0.029468238
244	0x3d9dc559	0.07703657
245	0xbc0d82c5	-0.008637135
246	0x3db0e6ef	0.08637797
247	0x3dbe04c9	0.092782564
248	0x3dcfe5f1	0.1015128
249	0x3dc96322	0.09833361
250	0x3d103400	0.03520584
251	0xbce1fdda	-0.027586866
252	0x3db9c0b4	0.09069958
253	0xbc6b66b4	-0.014367748
254	0x3a9f2bed	0.0012143828
255	0x3d22c049	0.03973416

linear.0.bias f4 [16]
0	0x3af7ea04	0.0018914347
1	0x3db27da7	0.087153725
2	0x3d274162	0.04083384
3	0x3c6348fb	0.01387238
4	0xbd60e3fa	-0.054904915
5	0x3bc0a6df	0.0058792676
6	0xbd631821	-0.055442933
7	0x3ce20d20	0.02759415
8	0x3dba6c8c	0.09102735
9	0x3d95c13f	0.073122494
10	0xbd3a2b75	-0.0454516
11	0x3d8dd231	0.069248565
12	0x3dab18c2	0.083543316
13	0x3ddb1ef0	0.1069926
14	0x3c2db7ae	0.010602875
15	0xbd2b3f56	-0.04180845

linear.1.weight f4 [64, 16]
0	0xbe12de1a	-0.14342538
1	0xbd8b6fb8	-0.06808418
2	0xbe697ce7	-0.22801553
3	0x3dbb401c	0.09143087
4	0x3c6412c0	0.013920486
5	0x3e794a68	0.2434479
6	0x3e02e9e3	0.12784533
7	0x3d7d1d12	0.0617953
8	0x3df13f88	0.11779696
9	0xbdb86f46	-0.09005599
10	0x3e6d8df2	0.23198679
11	0xbe4e37e0	-0.20138502
12	0x3df78a3a	0.120869115
13	0xbe1f619e	-0.15564582
14	0x3e1b435f	0.15162419
15	0xbd4d5f31	-0.05013961
16	0x3da86044	0.08221486
17	0x3e75fad0	0.24021459
18	0x3dfc8af4	0.12331191
19	0x3e2f841a	0.17140236
20	0x3cac38b0	0.021023124
21	0xbca0e8e0	-0.019642293
22	0x3e7c529b	0.24640886
23	0xbe62d388	-0.22151005
24	0xbd027288	-0.031847507
25	0x3de3279e	0.11091541
26	0xbd93d2dc	-0.072179526
27	0x3d0d61b0	0.03451699
28	0x3e0b0f90	0.13580155
29	0xbe08855b	-0.13332121
30	0x3d88eb1c	0.066854686
31	0xbd6612a3	-0.056170117
32	0xbe2e1698	-0.17000806
33	0x3e3000a6	0.17187747
34	0x3d55c80e	0.05219274
35	0x3e75a86e	0.23990032
36	0x3b66a780	0.0035195053
37	0x3d93897c	0.072039574
38	0x3e2fef56	0.17181143
39	0xbda8a240	-0.08234072
40	0x3e48f9f8	0.19626606
41	0xbd6d3fcf	-0.05792218
42	0x3e0acf50	0.13555646
43	0xbe053c66	-0.13011321
44	0xbe2f2dba	-0.17107287
45	0x3d32ef18	0.04368505
46	0x3b9978e5	0.004683601
47	0x3e3a7df2	0.18212107
48	0xbe6e0eb6	-0.232478
49	0xbdd90284	-0.10596183
50	0xbe645207	-0.22296916
51	0xbe40747e	-0.18794438
52	0x3e06b914	0.13156539
53	0x3e001876	0.12509331
54	0xbde35cc8	-0.11101681
55	0xbdd7bda8	-0.10534221
56	0x3d130268	0.035890967
57	0xbcc10c88	-0.023565546
58	0xbe74b118	-0.23895681
59	0xbe6a9cf9	-0.22911443
60	0x3e0e2e92	0.13884953
61	0x3cc0b005	0.023521433
62	0xbd9bdc3b	-0.07610365
63	0x3e0b7614	0.13619262
64	0xbce3aa90	-0.027791291
65	0x3e05b190	0.13056016
66	0xbe1a3688	-0.15059865
67	0x3d457e80	0.048216343
68	0x3e105286	0.1409398
69	0xbe2c5122	-0.16827825
70	0xbe5ef304	-0.2177239
71	0xbe4918df	-0.19638394
72	0x3d241a68	0.040064245
73	0x3db0adcc	0.08626899
74	0x3e536c31	0.2064674
75	0xbe6b7e10	-0.22997308
76	0xbe66585e	-0.22494647
77	0xbce60350	-0.028077751
78	0xbdba2aca	-0.090901926
79	0x3e4efce7	0.20213662
80	0x3deb8e78	0.11501783
81	0x3d891fd4	0.06695524
82	0xbbe8578b	-0.007090514
83	0x3e223818	0.1584171
84	0x3a6bcc00	0.0008994937
85	0x3e1f9388	0.15583622
86	0xbe1a78d2	-0.15085152
87	0x3ca0b615	0.019618073
88	0xbe65c85e	-0.22439715
89	0xbe154678	-0.14577663
90	0x3d6e0d96	0.058118425
91	0x3e63d6a6	0.2224985
92	0xbde8409e	-0.1134045
93	0x3b7f7a3d	0.0038982772
94	0xbe661c5d	-0.22471757
95	0xbd37fbb2	-0.04491777
96	0x3da6be0c	0.08141717
97	0x3e6ef1e6	0.23334464
98	0x3e463725	0.19356973
99	0xbdad2a58	-0.08455342
100	0xbb11c400	-0.002224207
101	0x3e1a0410	0.15040612
102	0xbdbfebd5	-0.09371153
103	0xbe23c1ea	-0.15991941
104	0x3d4eaaa0	0.05045569
105	0xbdb60e94	-0.08889499
106	0x3e532f40	0.20623493
107	0x3d641028	0.05567947
108	0x3e3ab14b	0.18231694
109	0x3dbc5081	0.091950424
110	0x3e5d5d6a	0.21617666
111	0xbe293a3f	-0.16526125
112	0x3d35fba0	0.04442942
113	0x3dc273ac	0.09494719
114	0xbe559edf	-0.20861386
115	0xbe022ad2	-0.12711647
116	0x3e4fdd80	0.2029934
117	0x3dc54e40	0.09634066
118	0x3e70eb8e	0.23527357
119	0xbe464456	-0.19362006
120	0xbe1a2b86	-0.15055665
121	0x3e75f253	0.2401822
122	0xbe5b39ac	-0.21408719
123	0x3d9e1f0a	0.07720764
124	0xbe73b436	-0.23799214
125	0x3e51e9b4	0.20499307
126	0xbe6ac739	-0.2292756
127	0xbde45a4e	-0.11150037
128	0xbe498d66	-0.19682845
129	0xbbf83b40	-0.0075754225
130	0xbe4af4e7	-0.19819985
131	0xbe075192	-0.1321471
132	0xbdc060a8	-0.09393436
133	0x3e3877a6	0.18014392
134	0x3e47a6cf	0.19497226
135	0x3de56bbf	0.112021916
136	0x3e66f496	0.2255424
137	0x3db1c6f4	0.086805254
138	0xbe79e746	-0.2440463
139	0x3e2b3795	0.16720422
140	0xbdc965a6	-0.09833841
141	0x3df669fc	0.12031934
142	0xbd04592e	-0.03231161
143	0x3e034f26	0.12823161
144	0x3d810624	0.06299999
145	0x3e16e4d4	0.14735729
146	0xbe2973f4	-0.16548139
147	0xbe35a854	-0.17739993
148	0x3e6cfd62	0.23143533
149	0xbcda4ec0	-0.026648879
150	0x3cef0769	0.029178338
151	0x3d02477e	0.03180646
152	0x3d3d93e8	0.046283633
153	0x3e12c7bf	0.1433401
154	0x3cc6b37a	0.024255503
155	0xbc58cb71	-0.013232098
156	0x3db74bed	0.089500286
157	0xb8d46d12	-0.00010129264
158	0xbe6038e2	-0.21896699
159	0x3e168854	0.14700443
160	0x3d31ba88	0.04339078
161	0xbe788c32	-0.2427223
162	0xbe0c1749	-0.13680758
163	0xbd742d28	-0.059613377
164	0x3e418312	0.18897656
165	0x3dec2f9c	0.11532518
166	0xbe6ceb59	-0.23136653
167	0xbe2f5e48	-0.17125809
168	0xbe57683c	-0.21035856
169	0x3e3b07ad	0.18264647
170	0xbe7ee9ca	-0.24893871
171	0xbe390b65	-0.18070753
172	0x3e1fa276	0.15589318
173	0x3cc34703	0.023837572
174	0xbceb901a	-0.028755236
175	0xbc38dacc	-0.011282634
176	0x3e4dede0	0.20110273
177	0xbc2d9780	-0.010595202
178	0xbe05adc9	-0.13054575
179	0xbc8daff0	-0.017295808
180	0x3cfd2410	0.030900985
181	0xbdb7c488	-0.08973032
182	0xbe2f1fec	-0.17102021
183	0x3df98dde	0.12185262
184	0x3cd56100	0.02604723
185	0x3e47af5d	0.1950049
186	0xbdfb1248	-0.12259346
187	0xbd9fc87c	-0.07801911
188	0xbdb21183	-0.08694746
189	0x3e043de0	0.12914228
190	0x3e20108e	0.15631315
191	0xbc40f66a	-0.0117775
192	0xbe68d8b4	-0.22738916
193	0xbdd84b90	-0.105612874
194	0xbdfa8d86	-0.12234025
195	0xbd30db58	-0.043177933
196	0xbe746a58	-0.23868692
197	0xbd5f2fb8	-0.054488868
198	0xbc318289	-0.010834345
199	0xbd01560e	-0.03157621
200	0xbe3a87e2	-0.18215898
201	0xbe5d508f	-0.21612762
202	0xbd5a8940	-0.053353548
203	0x3d0c79c7	0.034295823
204	0xbd1c648b	-0.038181823
205	0xbe59c449	-0.21266283
206	0x3d10eb11	0.035380427
207	0x3d317010	0.04331976
208	0xbe50c85c	-0.20388931
209	0x3e3958be	0.18100259
210	0x3e74738e	0.23872206
211	0xbe1f577e	-0.1556072
212	0xbe1f6038	-0.15564048
213	0x3e6776a2	0.22603849
214	0xbdbfa56b	-0.09357723
215	0x3e1b69a9	0.15177025
216	0xbdb7b7c4	-0.089705974
217	0xbe71775b	-0.23580687
218	0xbd3411ce	-0.043962292
219	0x3e6b2172	0.22961977
220	0x3cd1643b	0.025560489
221	0xbd1fba4f	-0.038996037
222	0xbe31bf2b	-0.17358081
223	0xbe39de7d	-0.18151279
224	0x3e70df22	0.23522618
225	0x3cecf520	0.028925478
226	0x3e7c81f2	0.24658945
227	0xbda39b68	-0.07988626
228	0xbda12448	-0.07868248
229	0x3e3b2b38	0.18278205
230	0x3e66fd06	0.22557458
231	0xbe6351e3	-0.22199206
232	0x3ddf6ce8	0.10909444
233	0x3bc466cf	0.005993701
234	0x3e390160	0.18066931
235	0xbe146227	-0.14490567
236	0xbd284e4c	-0.041090295
237	0xbce0d421	-0.027444901
238	0x3e01b7ad	0.12667723
239	0x3e5d411a	0.21606866
240	0xbdfbe1c4	-0.12298921
241	0xbe415244	-0.18879038
242	0xbe0df45d	-0.13862748
243	0xbdff6580	-0.124705315
244	0x3e09d938	0.13461769
245	0xbd837880	-0.06419468
246	0xbc2785c6	-0.010224765
247	0x3e6df2db	0.23237173
248	0xbe1b3ee2	-0.15160707
249	0xbe16a763	-0.1471229
250	0xbe02a27c	-0.12757295
251	0xbc78dfea	-0.015190104
252	0xbe56b195	-0.2096618
253	0x3d54e7eb	0.051978987
254	0x3e7e0e15	0.2481006
255	0xbdf3a3e9	-0.11896498

linear.1.bias f4 [64]
0	0x3e4d434d	0.20045204
1	0x3e341721	0.17586948
2	0x3c3655ec	0.011128884
3	0x3bc80f60	0.0061053485
4	0xbe49b3ed	-0.19697542
5	0xbe046fd9	-0.12933291
6	0xbc0f90ac	-0.00876252
7	0x3e66c91d	0.22537656
8	0x3dcfe5ec	0.10151276
9	0x3e68e307	0.22742854
10	0x3dbd83c6	0.092536494
11	0x3e4af465	0.19819792
12	0xbd326640	-0.043554544
13	0x3e2ac7ff	0.16677855
14	0xbd84950b	-0.0647374
15	0x3e5345df	0.20632122
16	0x3e758108	0.23975003
17	0x3e02d840	0.12777805
18	0x3e0cfb4d	0.13767739
19	0xbb3eb021	-0.002909668
20	0xbe57a70d	-0.21059819
21	0xbd8d114d	-0.068880655
22	0xbda1d68b	-0.07902249
23	0x3d908196	0.070559666
24	0xbe666979	-0.22501172
25	0xbda1a26c	-0.07892308
26	0xbd42d894	-0.047569826
27	0x3d6ebcc4	0.05828549
28	0xbda567ba	-0.08076425
29	0x3dec18d7	0.11528175
30	0xbe5e086e	-0.21682903
31	0xbe2fab53	-0.17155199
32	0x3d71d2e3	0.059039008
33	0x3e08382f	0.13302682
34	0xbe1089f5	-0.14115126
35	0xbe2cbafb	-0.16868202
36	0xbdf79d89	-0.12090594
37	0xbbf3c6f7	-0.00743949
38	0xbcb14c9d	-0.021642977
39	0x3e69b73f	0.22823809
40	0xbdfa4d1b	-0.12221738
41	0x3dcb6471	0.09931267
42	0x3b321d82	0.0027178233
43	0x3dd61a63	0.104542516
44	0xbe35455f	-0.17702244
45	0x3d8864e4	0.06659868
46	0xbe3ec1c5	-0.18628605
47	0xbe6f6959	-0.2338003
48	0x3e5e8a64	0.2173248
49	0xbdbe1eb8	-0.09283203
50	0xbd80169b	-0.06254312
51	0x3df14b55	0.117819466
52	0x3e17b451	0.14814879
53	0x3ac8d16b	0.00153212
54	0x3dfb9371	0.122839816
55	0x3e372609	0.17885603
56	0xbe4cd6d5	-0.20003827
57	0x3e56f285	0.20990951
58	0x3d9dcc4f	0.077049844
59	0x3e578c30	0.21049571
60	0x3de05d95	0.10955349
61	0x3e037f96	0.12841639
62	0x3d60c31f	0.054873582
63	0x3dda4ce0	0.10659194

linear.3.weight f4 [2, 64]
0	0x3d731252	0.059343643
1	0x3dfa6871	0.12226952
2	0x3d82a399	0.0637886
3	0xbbc7bd5e	-0.0060955724
4	0x3dead972	0.11467256
5	0x3d52c3fe	0.051456444
6	0x3d4187bf	0.0472486
7	0x3ddafa33	0.10692253
8	0xbdadc64f	-0.0848509
9	0x3debb3f6	0.11508934
10	0x3db86b3c	0.09004828
11	0x3db7e2a6	0.08978777
12	0x3cf63357	0.030053778
13	0x3d7ccecd	0.061720658
14	0x3dc6da5b	0.09709617
15	0x3d89ea8a	0.06734188
16	0xbd7608a2	-0.060066827
17	0xbd9d0a0c	-0.07667932
18	0x3ddba2c2	0.10724403
19	0xbd842f84	-0.064543754
20	0x3e00bbd4	0.1257165
21	0xbc62b7ea	-0.013837794
22	0xbd885cf8	-0.066583574
23	0x3d8d22ce	0.06891404
24	0xbd72f687	-0.059317138
25	0x3c6a2dba	0.014293129
26	0x3df284a2	0.11841704
27	0x3db02908	0.08601576
28	0xbd88d4cc	-0.06681213
29	0x3dad62b9	0.084660955
30	0x3d45d27d	0.04829644
31	0xbde1ce33	-0.110256575
32	0x3d655dcd	0.05599766
33	0x3de09a68	0.10966951
34	0xbd6f7999	-0.058465574
35	0xbd7b875d	-0.06140839
36	0xbdf6095e	-0.120135054
37	0xbdbabfc3	-0.09118607
38	0x3dc636d3	0.09678426
39	0x3ca583e4	0.020204492
40	0xbd1327e5	-0.03592672
41	0x3d5fe9eb	0.05466644
42	0x3c58ae0e	0.013225092
43	0x3dd6ff2b	0.10497888
44	0x3df707ef	0.1206206
45	0x3da1a88d	0.07893477
46	0xbdf76786	-0.120802924
47	0xbdefe448	-0.11713463
48	0x3da0598f	0.07829582
49	0x3da7495d	0.0816829
50	0x3c9bcc96	0.019018453
51	0xbdc0d216	-0.09415071
52	0xbd166632	-0.036718555
53	0x3a11067f	0.0005532279
54	0xbd3c9a1c	-0.046045408
55	0x3db9ef1b	0.09078809
56	0xbdda16fc	-0.10648915
57	0x3cf7ab48	0.03023304
58	0xbda97757	-0.082747154
59	0xbd020da4	-0.03175129
60	0xbd75fe91	-0.060057227
61	0x3d9fe33d	0.07807014
62	0xbd72bc87	-0.059261825
63	0xbd96be24	-0.07360485
64	0x3dc60f4b	0.09670886
65	0x3dacae45	0.08431677
66	0xbd055536	-0.032551967
67	0xbdca5987	-0.09880357
68	0x3d683769	0.05669347
69	0x3dfcd260	0.12344813
70	0x3c5db2fb	0.013531442
71	0x3d4d45b8	0.050115317
72	0xbd2c9b27	-0.042140152
73	0xbdb9ad34	-0.09066239
74	0xbcbc11e3	-0.022957748
75	0x3dd5bfdc	0.10436985
76	0xbd600058	-0.054687828
77	0xbd68095d	-0.056649555
78	0x3dd12d8b	0.10213765
79	0xbd464ebd	-0.048414934
80	0x3ddb6dc3	0.10714295
81	0x3cf858a6	0.030315708
82	0xbdca2af8	-0.09871477
83	0xbcaa4e3c	-0.020789258
84	0xbcd2efb6	-0.025749069
85	0x3ddac61e	0.10682319
86	0xbd3123c4	-0.043247
87	0xbd85023a	-0.06494565
88	0x3df15521	0.11783815
89	0x3d166fd0	0.036727726
90	0xbdd2901e	-0.102813944
91	0x3d98c744	0.07459882
92	0xbdc6de7e	-0.09710406
93	0x3d0d37a2	0.034476884
94	0x3c75d7df	0.015005081
95	0x3d70bcff	0.05877399
96	0x3ca0b2be	0.01961648
97	0x3d1a3b74	0.037654355
98	0xbd7c62bb	-0.061617594
99	0x3bf6f190	0.0075361207
100	0xbd1ae9d5	-0.037820656
101	0x3cbec938	0.023289308
102	0xbdea8ef1	-0.11453045
103	0x3d9915cc	0.074748605
104	0x3d37f4b1	0.04491109
105	0xbd87fe75	-0.06640331
106	0xbdb9fd34	-0.09081498
107	0x3c06ae6d	0.008220297
108	0xbdbfe4af	-0.0936979
109	0xbd01fa41	-0.0317328
110	0x3d921e48	0.07134682
111	0xbdbc2344	-0.09186414
112	0xbd75d2cb	-0.06001548
113	0xbde4244b	-0.11139735
114	0xbc6c2639	-0.01441341
115	0x3d8270aa	0.06369145
116	0x3d6b71da	0.057481624
117	0x3cbf204e	0.023330834
118	0x3d0f76c8	0.035025388
119	0xbc82ad87	-0.015951885
120	0x3dab91e4	0.08377436
121	0xbc36c238	-0.011154704
122	0x3ce346b2	0.027743671
123	0x39531dbc	0.00020133605
124	0x3dba5e71	0.091000445
125	0x3d6ff801	0.058586124
126	0x3d93cf10	0.072172284
127	0xbd7cabe5	-0.06168737

linear.3.bias f4 [2]
0	0x3c9845a7	0.0185879
1	0xbc365421	-0.011128456
