meta/demos/multiple_experiments/results/models/run_0/emodb_mlp_os_16-64_C_val-001_learning_rate-0-0001_0_002.model (torch, 13864 bytes, 6 tensors)

linear.0.weight f4 [16, 88]
0	0x3dc25641	0.09489108
1	0x3d9a1e9e	0.07525371
2	0x3dcda064	0.10040358
3	0x3cdb48a8	0.026768044
4	0x3d44cf05	0.04804899
5	0x3d0b3251	0.033983532
6	0x3db8fd1c	0.09032652
7	0xbb2afe29	-0.0026091433
8	0x3d8183d1	0.0632397
9	0x3d83b582	0.06431104
10	0x3d580b1b	0.052744966
11	0xbd2a5e53	-0.04159386
12	0x3cc31e6c	0.023818217
13	0xbd8d1d08	-0.06890303
14	0x3d90cf15	0.07070748
15	0xbd485350	-0.048907578
16	0x3dd89a13	0.10576262
17	0xbdab611e	-0.08368133
18	0x3d926854	0.07148805
19	0xbd11cb2c	-0.03559415
20	0xbd7f5f56	-0.06234678
21	0x3dbd5726	0.09245138
22	0x3d37a15f	0.04483163
23	0x3da5d67b	0.080975495
24	0x3d8d4eed	0.068998195
25	0xbc9175aa	-0.017756302
26	0x3d6f6822	0.05844892
27	0x3d203cca	0.039120473
28	0x3d03b6ae	0.03215664
29	0xbcdb23d3	-0.02675048
30	0x3d67ecca	0.056622304
31	0x3dab6d39	0.08370442
32	0xbdc0379e	-0.09385608
33	0x3d2a30dc	0.041550502
34	0xbd8a460c	-0.06751642
35	0xbd066fc1	-0.03282142
36	0x3d9e9bd5	0.07744566
37	0x3d88b8be	0.06675862
38	0xbd7523ce	-0.0598486
39	0xbcc0eafd	-0.023549551
40	0x3cf4f39c	0.029901318
41	0x3d46f2bc	0.048571333
42	0x3c0bab93	0.008524793
43	0xbc11ba57	-0.008894525
44	0xbcef7b92	-0.029233728
45	0x3c905941	0.017620685
46	0xbd85369d	-0.06504557
47	0xbdb14173	-0.086550616
48	0x3d60dc9f	0.0548979
49	0x3d310c7d	0.0432248
50	0x39d7ce47	0.00041161684
51	0x3d8e9746	0.06962447
52	0xbdc55cde	-0.09636854
53	0x3d979e06	0.074031875
54	0x3d963975	0.07335178
55	0x3d13284d	0.035927106
56	0xbcd25a51	-0.025677832
57	0xbdc5b551	-0.09653724
58	0xbd70d396	-0.058795534
59	0xbd7761cf	-0.060396012
60	0x3d528f53	0.051406216
61	0x3d292ffe	0.041305535
62	0xbd358a4e	-0.04432135
63	0x3d116521	0.035496835
64	0x3cd8391e	0.026394423
65	0xbda07648	-0.0783506
66	0x3d028bde	0.03187167
67	0x3c6a2340	0.014290631
68	0x3d847c6b	0.06469043
69	0xbcc11dbb	-0.023573747
70	0x3bc638a6	0.0060492335
71	0x3c694a1b	0.0142388595
72	0xbd2fc533	-0.042912673
73	0xbce2fc86	-0.027708303
74	0xbc43bb20	-0.01194647
75	0xbdb4f688	-0.088360846
76	0x3d470023	0.048584115
77	0xbd2bd463	-0.041950595
78	0x3b5b7b8f	0.0033490395
79	0x3d96549f	0.07340359
80	0x3d323dbd	0.04351591
81	0x3d80afd6	0.06283538
82	0x3d45064b	0.048101705
83	0x3d8de9d4	0.06929365
84	0xbdd8093a	-0.10548635
85	0xbda0f4e5	-0.0785921
86	0xbd554090	-0.052063525
87	0xbd218874	-0.039436772
88	0xbd73a15d	-0.05948006
89	0xbc5417ef	-0.012945159
90	0xbd670f24	-0.056410924
91	0x3d465b9d	0.048427213
92	0xbd2e06cc	-0.04248695
93	0xbda3a5e8	-0.079906285
94	0x3d7e0c30	0.06202334
95	0x3ccf8569	0.02533217
96	0xbccd1dbd	-0.025038594
97	0x3d9c9dc1	0.07647277
98	0x3c512c74	0.012766946
99	0xbd708f9d	-0.05873071
100	0xbd610e90	-0.05494553
101	0x3dc9afdd	0.098479964
102	0x3db93da5	0.09044961
103	0x3b8a28ef	0.0042163054
104	0x3db0fbf0	0.08641803
105	0xbc0cf269	-0.008602717
106	0xbd85c9ec	-0.06532654
107	0x3da21601	0.07914353
108	0xbda7e982	-0.08198835
109	0x3dc127a3	0.09431388
110	0x3dbb345d	0.09140847
111	0xbd0f312f	-0.034959015
112	0xbd2a9e8a	-0.0416551
113	0xbd8344c9	-0.06409604
114	0xbda64ed6	-0.081205055
115	0xbdd513fa	-0.10404201
116	0xbd3116bf	-0.043234583
117	0x3cc21fb4	0.023696758
118	0x3cc565b0	0.02409634
119	0x3ccf16a7	0.025279356
120	0xbd982f48	-0.07430893
121	0xbda04a51	-0.07826675
122	0xbc98f76e	-0.018672671
123	0xbb999695	-0.00468714
124	0xbd623395	-0.055224974
125	0x3d93144d	0.071816064
126	0xbd868dd9	-0.06570024
127	0x3c82d664	0.01597137
128	0x3cd43961	0.025906267
129	0xbd74f853	-0.059807133
130	0x3d1bdc0c	0.03805165
131	0x3d8f0cbf	0.06984853
132	0xbcc83722	-0.024440352
133	0x3d9e27ab	0.0772241
134	0xbcacdf91	-0.021102699
135	0xbc798bad	-0.015231055
136	0xbcc7616d	-0.024338448
137	0xbc2b3102	-0.010448696
138	0x3d930fe9	0.07180769
139	0x3d8eab07	0.069662146
140	0xbd805acb	-0.062673174
141	0x3d55170b	0.05202393
142	0xbd953718	-0.07285899
143	0xbdcd00cc	-0.100099176
144	0x3d1d45eb	0.038396757
145	0xbc399ce6	-0.011328911
146	0x3ba861e1	0.005138621
147	0xbd67a19f	-0.05655062
148	0xbd4d5a9b	-0.050135236
149	0x3d5361b7	0.05160686
150	0x3d5f4580	0.05450964
151	0x3dd28cf0	0.10280788
152	0x3d02deca	0.03195075
153	0x3c6c3e10	0.014419094
154	0xbd238493	-0.039921355
155	0x3beea082	0.0072823176
156	0xbd868cec	-0.065698475
157	0x3d4da11f	0.050202485
158	0xbda50f97	-0.08059614
159	0x3cf0744c	0.02935233
160	0x3d9dd213	0.07706084
161	0x3d4edbfb	0.05050276
162	0xbcf8c3ef	-0.030366866
163	0x3dabeacb	0.083943926
164	0x3dc0df79	0.09417624
165	0xbd264f39	-0.040602896
166	0xbc9ab3c4	-0.018884547
167	0x3cbdb74f	0.023158697
168	0x3b6848aa	0.0035443702
169	0x3da14806	0.078750655
170	0xbdb99c77	-0.090630464
171	0xbdb8c35f	-0.09021639
172	0x3d29949c	0.04140149
173	0xbc4c2422	-0.012459787
174	0xbbe83892	-0.007086822
175	0xbda1b24c	-0.078953356
176	0x3dd54f6b	0.104155384
177	0xbd57b4e2	-0.052662738
178	0x3d0eef04	0.03489591
179	0x3b1280fb	0.002235471
180	0xbd1de516	-0.03854855
181	0x3dda15de	0.10648702
182	0x3d7310fa	0.059342362
183	0x3db56a2f	0.088581435
184	0xbc60f8ff	-0.01373124
185	0x3d8efc41	0.06981707
186	0x3d342c35	0.04398747
187	0x3ced5504	0.028971203
188	0xbc166f05	-0.009181743
189	0x3cf937c4	0.030422099
190	0xbd7ae87a	-0.061256863
191	0xbd2ef5d2	-0.0427149
192	0xbd07a6b2	-0.033117957
193	0xbda1f160	-0.07907367
194	0xbda62a29	-0.0811351
195	0xbd412eff	-0.04716396
196	0xbd501c7b	-0.05080841
197	0xbbe2724e	-0.006910599
198	0x3c2d370a	0.010572204
199	0xbdc3522b	-0.09537157
200	0xbd0315ef	-0.03200334
201	0x3c9ec53b	0.019381156
202	0xbcce1e2f	-0.025160877
203	0x3d8db606	0.06919484
204	0x3d95b3fe	0.073097214
205	0x3d41d07a	0.04731796
206	0xbc393b50	-0.011305645
207	0xbdd70413	-0.10498824
208	0xbd272744	-0.04080893
209	0x3ccb5773	0.024821972
210	0x3db95117	0.0904867
211	0x3dbffa99	0.093739696
212	0x3db1a4cb	0.0867401
213	0xbdcb3a85	-0.09923271
214	0x3d9529b2	0.072833434
215	0xbd4b95f0	-0.04970354
216	0x3d6c3744	0.057669893
217	0x3d8b1b09	0.06792266
218	0x3d40f91b	0.047112565
219	0x3d8b7ebb	0.06811281
220	0x3d96f650	0.07371199
221	0x3d800557	0.062510185
222	0x3d4115ae	0.047139816
223	0x3cb239cf	0.02175608
224	0xbccedaf9	-0.025250899
225	0x3cb4e8ab	0.022083601
226	0xbcddc2b3	-0.027070379
227	0x3dd86aaf	0.10567223
228	0xbcfd99f3	-0.030957198
229	0xbdaac993	-0.083392285
230	0x3d8ac57d	0.06775949
231	0xbdd0e00f	-0.10198986
232	0xbc649d7a	-0.013953561
233	0xbdb80db0	-0.08986986
234	0xbcabf192	-0.020989213
235	0xbc3faa97	-0.011698387
236	0xbc6f0f7b	-0.014591093
237	0x3c93526b	0.017983636
238	0x3d400ffb	0.04689024
239	0xbba72b9a	-0.0051016333
240	0xbd948ff2	-0.07254018
241	0xbdb882d8	-0.090093315
242	0xbd1aff96	-0.037841402
243	0x3cfe8a58	0.031071827
244	0x3d981eb7	0.074277334
245	0xbc07e408	-0.008294113
246	0x3d9f0395	0.07764355
247	0x3dc06501	0.09394265
248	0x3dd16d10	0.1022588
249	0x3dc7aa79	0.09749312
250	0x3d010029	0.031494293
251	0xbce245f7	-0.027621252
252	0x3dc93c5f	0.09825968
253	0xbc93d17f	-0.018044231
254	0x3c5e2822	0.013559373
255	0x3d3496ac	0.044089004

linear.0.bias f4 [16]
0	0x3af7ea04	0.0018914347
1	0x3db27da7	0.087153725
2	0x3d26fd1e	0.040768735
3	0x3c6348fb	0.01387238
4	0xbd60e3fa	-0.054904915
5	0x3bc0a6df	0.0058792676
6	0xbd61c038	-0.055114955
7	0x3ce15a77	0.027508957
8	0x3dba6c8c	0.09102735
9	0x3d982742	0.07429363
10	0xbd3755f9	-0.044759724
11	0x3d8b10cc	0.06790313
12	0x3da84455	0.08216158
13	0x3ddaa8d0	0.1067673
14	0x3c32a9d9	0.010904753
15	0xbd27b9dc	-0.040948734

linear.1.weight f4 [64, 16]
0	0xbe12de1a	-0.14342538
1	0xbd8b6fb8	-0.06808418
2	0xbe685078	-0.22686946
3	0x3dbb401c	0.09143087
4	0x3c6412c0	0.013920486
5	0x3e794a68	0.2434479
6	0x3e02fb20	0.12791109
7	0x3d7f2791	0.062293593
8	0x3df13f88	0.11779696
9	0xbdc24e2d	-0.09487567
10	0x3e6db2e7	0.23212777
11	0xbe4fa7c2	-0.20278838
12	0x3df4bd94	0.11950222
13	0xbe20252c	-0.1563918
14	0x3e1a9e69	0.15099491
15	0xbd4f6fbf	-0.05064368
16	0x3da86044	0.08221486
17	0x3e75fad0	0.24021459
18	0x3dfa5335	0.12222902
19	0x3e2f841a	0.17140236
20	0x3cac38b0	0.021023124
21	0xbca0e8e0	-0.019642293
22	0x3e7c4d20	0.24638796
23	0xbe6348b7	-0.22195707
24	0xbd027288	-0.031847507
25	0x3decbeea	0.115598515
26	0xbd940551	-0.072275765
27	0x3d13151f	0.035908815
28	0x3e0c72d3	0.13715677
29	0xbe07ba5a	-0.13254681
30	0x3d8a444e	0.06751309
31	0xbd63e420	-0.05563748
32	0xbe2e1698	-0.17000806
33	0x3e3000a6	0.17187747
34	0x3d513c2e	0.051082782
35	0x3e75a86e	0.23990032
36	0x3b66a780	0.0035195053
37	0x3d93897c	0.072039574
38	0x3e2fe689	0.17177786
39	0xbda995e5	-0.08280543
40	0x3e48f9f8	0.19626606
41	0xbd59b015	-0.05314644
42	0x3e0ab2b7	0.13544737
43	0xbe03ccfd	-0.12871166
44	0xbe2dc7d6	-0.16970763
45	0x3d3619dc	0.044458255
46	0x3baefd0b	0.0053402237
47	0x3e3b0742	0.18264487
48	0xbe6e0eb6	-0.232478
49	0xbdd90284	-0.10596183
50	0xbe6578c7	-0.22409354
51	0xbe40747e	-0.18794438
52	0x3e06b914	0.13156539
53	0x3e001876	0.12509331
54	0xbde37798	-0.11106795
55	0xbdd8ba0a	-0.10582359
56	0x3d130268	0.035890967
57	0xbc99fe7b	-0.018798104
58	0xbe74d246	-0.23908338
59	0xbe692e0c	-0.22771472
60	0x3e0f93f3	0.14021282
61	0x3cc6de02	0.024275783
62	0xbd9a8dfc	-0.075466126
63	0x3e0bfd22	0.13670781
64	0xbce3aa90	-0.027791291
65	0x3e05b190	0.13056016
66	0xbe1b5eeb	-0.15172927
67	0x3d457e80	0.048216343
68	0x3e105286	0.1409398
69	0xbe2c5122	-0.16827825
70	0xbe5f01e9	-0.21778072
71	0xbe4998a0	-0.19687128
72	0x3d241a68	0.040064245
73	0x3dba7489	0.091042586
74	0x3e534995	0.20633538
75	0xbe6a0f05	-0.22857292
76	0xbe64f2e4	-0.2235828
77	0xbcdfdfbf	-0.02732837
78	0xbdb8df31	-0.090269454
79	0x3e4f8325	0.20264871
80	0x3deb8e78	0.11501783
81	0x3d891fd4	0.06695524
82	0xbbc43d33	-0.005988741
83	0x3e223818	0.1584171
84	0x3a6bcc00	0.0008994937
85	0x3e1f9388	0.15583622
86	0xbe1a70df	-0.1508212
87	0x3ca47a7b	0.020077934
88	0xbe65c85e	-0.22439715
89	0xbe1a21d5	-0.15051968
90	0x3d6e7cb9	0.058224414
91	0x3e6267e7	0.22109948
92	0xbdeb0afb	-0.11476704
93	0x3b4cdac0	0.0031258315
94	0xbe66c83b	-0.2253732
95	0xbd3a253a	-0.04544566
96	0x3da6be0c	0.08141717
97	0x3e6ef1e6	0.23334464
98	0x3e451b92	0.19248798
99	0xbdad2a58	-0.08455342
100	0xbb11c400	-0.002224207
101	0x3e1a0410	0.15040612
102	0xbdbff611	-0.09373105
103	0xbe2436f3	-0.16036586
104	0x3d4eaaa0	0.05045569
105	0xbdac7b02	-0.084218994
106	0x3e53163f	0.20613955
107	0x3d69c77d	0.057075012
108	0x3e3c158a	0.18367592
109	0x3dbde6ef	0.09272563
110	0x3e5e09c9	0.2168342
111	0xbe28acce	-0.1647217
112	0x3d35fba0	0.04442942
113	0x3dc273ac	0.09494719
114	0xbe56bf88	-0.20971501
115	0xbe022ad2	-0.12711647
116	0x3e4fdd80	0.2029934
117	0x3dc54e40	0.09634066
118	0x3e70dd8b	0.23522012
119	0xbe46c0ee	-0.19409534
120	0xbe1a2b86	-0.15055665
121	0x3e7aab82	0.24479488
122	0xbe5b5b55	-0.21421559
123	0x3da0f4b8	0.078591764
124	0xbe725304	-0.2366448
125	0x3e52a9d5	0.20572598
126	0xbe6a25f5	-0.22866042
127	0xbde34896	-0.11097829
128	0xbe498d66	-0.19682845
129	0xbbf83b40	-0.0075754225
130	0xbe49c536	-0.19704136
131	0xbe075192	-0.1321471
132	0xbdc060a8	-0.09393436
133	0x3e3877a6	0.18014392
134	0x3e47b786	0.19503602
135	0x3de67298	0.11252326
136	0x3e66f496	0.2255424
137	0x3da7bbd0	0.08190119
138	0xbe79c2be	-0.24390694
139	0x3e29c4ff	0.16579054
140	0xbdcc37cf	-0.09971582
141	0x3df4dc65	0.119560994
142	0xbd06f990	-0.032952845
143	0x3e02cb3c	0.1277284
144	0x3d810624	0.06299999
145	0x3e16e4d4	0.14735729
146	0xbe2a9946	-0.16660032
147	0xbe35a854	-0.17739993
148	0x3e6cfd62	0.23143533
149	0xbcda4ec0	-0.026648879
150	0x3ceea67b	0.029132118
151	0x3d005431	0.03133029
152	0x3d3d93e8	0.046283633
153	0x3e17a7dc	0.14810127
154	0x3cc5b49f	0.024133978
155	0xbc41df2b	-0.011832993
156	0x3dba164f	0.09086286
157	0x3a2c4bf9	0.00065726
158	0xbe5f909e	-0.21832511
159	0x3e170ff9	0.14752187
160	0x3d31ba88	0.04339078
161	0xbe788c32	-0.2427223
162	0xbe0d3e09	-0.13793196
163	0xbd742d28	-0.059613377
164	0x3e418312	0.18897656
165	0x3dec2f9c	0.11532518
166	0xbe6cf85b	-0.23141615
167	0xbe2fdc35	-0.17173846
168	0xbe57683c	-0.21035856
169	0x3e3feb4e	0.18742105
170	0xbe7f0a97	-0.24906383
171	0xbe379c2c	-0.17930669
172	0x3e21081f	0.15725754
173	0x3cc97a0f	0.024594335
174	0xbce65230	-0.028115362
175	0xbc306669	-0.010766604
176	0x3e4dede0	0.20110273
177	0xbc2d9780	-0.010595202
178	0xbe048004	-0.12939459
179	0xbc8daff0	-0.017295808
180	0x3cfd2410	0.030900985
181	0xbdb7c488	-0.08973032
182	0xbe2f2572	-0.17104128
183	0x3dfa746a	0.122292355
184	0x3cd56100	0.02604723
185	0x3e423072	0.18963793
186	0xbdfaf5ec	-0.12253937
187	0xbda2bf7a	-0.079466775
188	0xbdb4f5eb	-0.08835968
189	0x3e035233	0.12824325
190	0x3e1f40c7	0.15552054
191	0xbc490c49	-0.012270995
192	0xbe68d8b4	-0.22738916
193	0xbdd84b90	-0.105612874
194	0xbdfcdea5	-0.123471536
195	0xbd30db58	-0.043177933
196	0xbe746a58	-0.23868692
197	0xbd5f2fb8	-0.054488868
198	0xbc325e73	-0.010886776
199	0xbd03521d	-0.03206073
200	0xbe3a87e2	-0.18215898
201	0xbe5865bd	-0.2113256
202	0xbd5b0f3f	-0.053481337
203	0x3d123919	0.035698984
204	0xbd16cb75	-0.036815125
205	0xbe58fdc4	-0.21190554
206	0x3d138ac2	0.036021
207	0x3d3389b7	0.043832507
208	0xbe50c85c	-0.20388931
209	0x3e3958be	0.18100259
210	0x3e734384	0.23756224
211	0xbe1f577e	-0.1556072
212	0xbe1f6038	-0.15564048
213	0x3e6776a2	0.22603849
214	0xbdbfbeaf	-0.09362542
215	0x3e1ae8db	0.1512789
216	0xbdb7b7c4	-0.089705974
217	0xbe6c5841	-0.23080541
218	0xbd349439	-0.04408667
219	0x3e6c96b1	0.23104359
220	0x3cdcc2b2	0.026948307
221	0xbd1c823b	-0.038210135
222	0xbe310fb3	-0.17291145
223	0xbe3959b6	-0.18100628
224	0x3e70df22	0.23522618
225	0x3cecf520	0.028925478
226	0x3e7dd835	0.24789508
227	0xbda39b68	-0.07988626
228	0xbda12448	-0.07868248
229	0x3e3b2b38	0.18278205
230	0x3e6733e7	0.22578393
231	0xbe62a7dc	-0.22134346
232	0x3ddf6ce8	0.10909444
233	0x3a82f0d9	0.0009989991
234	0x3e394ba7	0.18095265
235	0xbe15d6af	-0.14632677
236	0xbd2dfa4e	-0.042475037
237	0xbce5ed1d	-0.028067166
238	0x3e013485	0.12617691
239	0x3e5ccfe7	0.21563683
240	0xbdfbe1c4	-0.12298921
241	0xbe415244	-0.18879038
242	0xbe0f185f	-0.1397414
243	0xbdff6580	-0.124705315
244	0x3e09d938	0.13461769
245	0xbd837880	-0.06419468
246	0xbc28177c	-0.010259505
247	0x3e6d7868	0.23190463
248	0xbe1b3ee2	-0.15160707
249	0xbe11bf4d	-0.14233132
250	0xbe02bf77	-0.1276835
251	0xbc61dd16	-0.013785621
252	0xbe554af6	-0.20829377
253	0x3d58137a	0.05275295
254	0x3e7eba4a	0.24875751
255	0xbdf290ef	-0.1184405

linear.1.bias f4 [64]
0	0x3e4d099c	0.20023197
1	0x3e345aaf	0.17612718
2	0x3c3a6f55	0.011379083
3	0x3bcfa711	0.0063370545
4	0xbe497896	-0.19674906
5	0xbe04b1be	-0.12958428
6	0xbc0b57bd	-0.008504805
7	0x3e6702bc	0.22559637
8	0x3dcf6efa	0.10128589
9	0x3e692102	0.22766498
10	0x3dbdfe43	0.09277012
11	0x3e4a9a07	0.1978532
12	0xbd317274	-0.04332204
13	0x3e2b0923	0.16702704
14	0xbd84c04f	-0.064819925
15	0x3e538752	0.2065709
16	0x3e754169	0.23950733
17	0x3e02995b	0.12753813
18	0x3e0d3bb9	0.13792314
19	0xbb5018b3	-0.0031753003
20	0xbe576571	-0.2103479
21	0xbd8d9429	-0.06913025
22	0xbda24024	-0.0792239
23	0x3d90fd00	0.07079506
24	0xbe66a7f9	-0.22525014
25	0xbda241e6	-0.079227254
26	0xbd41de88	-0.047331363
27	0x3d6fac9c	0.058514223
28	0xbda4f7c7	-0.08055072
29	0x3dec8e63	0.115505956
30	0xbe5dc4ca	-0.216571
31	0xbe2fec2a	-0.17179933
32	0x3d72ec70	0.059307516
33	0x3e0878d5	0.13327344
34	0xbe0fffa0	-0.14062357
35	0xbe2cfd85	-0.16893585
36	0xbdf81de2	-0.12115075
37	0xbbfc1560	-0.007692978
38	0xbcaf58bf	-0.021404622
39	0x3e69797d	0.2280025
40	0xbdfac606	-0.12244801
41	0x3dcbdf1a	0.099546626
42	0x3b413e4d	0.0029486597
43	0x3dd6955c	0.10477707
44	0xbe350529	-0.1767775
45	0x3d88e305	0.066839255
46	0xbe3f01d9	-0.18653049
47	0xbe6fa6e8	-0.23403513
48	0x3e5ecb81	0.21757318
49	0xbdbda0f5	-0.09259216
50	0xbd7f4c63	-0.062328707
51	0x3df0cf29	0.11758263
52	0x3e17784d	0.14791985
53	0x3aa24051	0.0012378787
54	0x3dfb0ea7	0.12258654
55	0x3e3762bb	0.17908756
56	0xbe4d14df	-0.20027493
57	0x3e5736cf	0.21017002
58	0x3d9d4a15	0.07680146
59	0x3e575279	0.21027555
60	0x3ddfe15f	0.10931658
61	0x3e03b2ea	0.12861219
62	0x3d5fbe5a	0.054624893
63	0x3dd980f0	0.10620296

linear.3.weight f4 [2, 64]
0	0x3d73c768	0.05951634
1	0x3dfb2e1d	0.12264655
2	0x3d827d23	0.06371524
3	0xbbbbdbe8	-0.005733002
4	0x3deb5a55	0.11491839
5	0x3d50fc57	0.0510219
6	0x3d450b3a	0.04810641
7	0x3ddec1f0	0.108768344
8	0xbdac8f2b	-0.084257446
9	0x3decdf4d	0.11566029
10	0x3db926bd	0.09040592
11	0x3dbbbbc2	0.09166671
12	0x3cf4e8ed	0.029896224
13	0x3d6c176c	0.057639524
14	0x3dc6c29b	0.09705087
15	0x3d8a04d1	0.067392
16	0xbd7f9c97	-0.062405195
17	0xbda26e7d	-0.0793123
18	0x3ddba709	0.10725219
19	0xbd82ece5	-0.0639284
20	0x3dfe2ce9	0.1241091
21	0xbc567465	-0.013089274
22	0xbd898b38	-0.06716007
23	0x3d8d7175	0.06906406
24	0xbd715ab8	-0.058924407
25	0x3c81d9be	0.015850898
26	0x3df233d5	0.118262924
27	0x3db4cfb2	0.08828677
28	0xbd87ceaf	-0.06631219
29	0x3dadc72c	0.08485255
30	0x3d46b0b2	0.048508354
31	0xbde12753	-0.109938286
32	0x3d633cef	0.055478033
33	0x3de35439	0.111000486
34	0xbd7008ac	-0.05860202
35	0xbd7af8e1	-0.061272506
36	0xbdf95c9e	-0.121758685
37	0xbdb6af90	-0.08920205
38	0x3dc60d70	0.09670532
39	0x3c78b970	0.0151809305
40	0xbd14c896	-0.036324106
41	0x3d6be7b0	0.057594
42	0x3c6f4c8a	0.014605651
43	0x3dd6017f	0.10449504
44	0x3df80f5f	0.12112307
45	0x3d9d78ad	0.07689033
46	0xbdf91141	-0.12161494
47	0xbdf5a45f	-0.11994242
48	0x3d9fa3e1	0.07794929
49	0x3da2ce86	0.079495475
50	0x3c9eb3a8	0.019372776
51	0xbdc07de0	-0.09399009
52	0xbd1c4830	-0.03815478
53	0x3abd55a5	0.001444508
54	0xbd3b6d9e	-0.045758836
55	0x3dbcbfe2	0.09216286
56	0xbddaff80	-0.10693264
57	0x3cf7f8d4	0.030270018
58	0xbdaa3985	-0.08311752
59	0xbcfd4e03	-0.030920988
60	0xbd74af2b	-0.059737366
61	0x3da08702	0.07838251
62	0xbd71fd62	-0.059079535
63	0xbd92574e	-0.07145558
64	0x3dc5b4c3	0.09653618
65	0x3dabe899	0.08393974
66	0xbd05084b	-0.032478612
67	0xbdcb1799	-0.0991661
68	0x3d6735b2	0.056447692
69	0x3dfdb62c	0.12388262
70	0x3c4fa518	0.012673639
71	0x3d45b637	0.048269477
72	0xbd2f0973	-0.04273362
73	0xbdbad88b	-0.091233335
74	0xbcbeffe8	-0.023315385
75	0x3dd1e6c0	0.1024909
76	0xbd5f5b2d	-0.05453031
77	0xbd5751fc	-0.05256842
78	0x3dd1454b	0.10218295
79	0xbd46834c	-0.04846506
80	0x3de037bc	0.109481305
81	0x3d06f529	0.032948647
82	0xbdca2f3f	-0.09872293
83	0xbcaf58b7	-0.021404607
84	0xbcc5c4ad	-0.024141634
85	0x3dd93da7	0.106074624
86	0xbd2ec730	-0.04267043
87	0xbd8550e1	-0.06509567
88	0x3df08738	0.11744541
89	0x3d100e62	0.035169967
90	0xbdd23f51	-0.10265983
91	0x3d94209a	0.07232781
92	0xbdc7e49b	-0.097604
93	0x3d0c6eb6	0.03428527
94	0x3c725f04	0.014793161
95	0x3d6f6f4c	0.05845575
96	0x3ca4f47a	0.020136107
97	0x3d14c7e0	0.03632343
98	0xbd7bd3a8	-0.061481148
99	0x3bf27dcd	0.0074002505
100	0xbd144359	-0.03619704
101	0x3cae8879	0.02130531
102	0xbdea658e	-0.11445151
103	0x3da35f9a	0.07977219
104	0x3d399562	0.04530848
105	0xbd8dfd5b	-0.06933089
106	0xbdbcd105	-0.09219555
107	0x3c0e9bd8	0.008704148
108	0xbdc0ec1f	-0.094200365
109	0xbcf3350a	-0.029688377
110	0x3d93c803	0.072158836
111	0xbdb6632d	-0.08905635
112	0xbd74676b	-0.05966894
113	0xbddfa974	-0.109209925
114	0xbc71f45c	-0.0147677325
115	0x3d821c74	0.06353083
116	0x3d7153d8	0.05891785
117	0x3cb7d326	0.02243955
118	0x3d0e4a4a	0.034738816
119	0xbc8df097	-0.017326636
120	0x3dac7a68	0.08421785
121	0xbc375d59	-0.011191689
122	0x3ce64f7f	0.028114079
123	0xba24e083	-0.00062895584
124	0x3db9b6be	0.090680584
125	0x3d6eb074	0.058273748
126	0x3d936f7b	0.071989976
127	0xbd82bcc6	-0.06383662

linear.3.bias f4 [2]
0	0x3c9a40ae	0.01882967
1	0xbc3a4a37	-0.011370233
