meta/demos/multiple_experiments/results/models/run_0/emodb_mlp_os_16-64_C_val-001_learning_rate-0-0001_0_011.model (torch, 13864 bytes, 6 tensors)

linear.0.weight f4 [16, 88]
0	0x3dc25641	0.09489108
1	0x3d9a1e9e	0.07525371
2	0x3dcda064	0.10040358
3	0x3cdb48a8	0.026768044
4	0x3d44cf05	0.04804899
5	0x3d0b3251	0.033983532
6	0x3db8fd1c	0.09032652
7	0xbb2afe29	-0.0026091433
8	0x3d8183d1	0.0632397
9	0x3d83b582	0.06431104
10	0x3d580b1b	0.052744966
11	0xbd2a5e53	-0.04159386
12	0x3cc31e6c	0.023818217
13	0xbd8d1d08	-0.06890303
14	0x3d90cf15	0.07070748
15	0xbd485350	-0.048907578
16	0x3dd89a13	0.10576262
17	0xbdab611e	-0.08368133
18	0x3d926854	0.07148805
19	0xbd11cb2c	-0.03559415
20	0xbd7f5f56	-0.06234678
21	0x3dbd5726	0.09245138
22	0x3d37a15f	0.04483163
23	0x3da5d67b	0.080975495
24	0x3d8d4eed	0.068998195
25	0xbc9175aa	-0.017756302
26	0x3d6f6822	0.05844892
27	0x3d203cca	0.039120473
28	0x3d03b6ae	0.03215664
29	0xbcdb23d3	-0.02675048
30	0x3d67ecca	0.056622304
31	0x3dab6d39	0.08370442
32	0xbdc0379e	-0.09385608
33	0x3d2a30dc	0.041550502
34	0xbd8a460c	-0.06751642
35	0xbd066fc1	-0.03282142
36	0x3d9e9bd5	0.07744566
37	0x3d88b8be	0.06675862
38	0xbd7523ce	-0.0598486
39	0xbcc0eafd	-0.023549551
40	0x3cf4f39c	0.029901318
41	0x3d46f2bc	0.048571333
42	0x3c0bab93	0.008524793
43	0xbc11ba57	-0.008894525
44	0xbcef7b92	-0.029233728
45	0x3c905941	0.017620685
46	0xbd85369d	-0.06504557
47	0xbdb14173	-0.086550616
48	0x3d60dc9f	0.0548979
49	0x3d310c7d	0.0432248
50	0x39d7ce47	0.00041161684
51	0x3d8e9746	0.06962447
52	0xbdc55cde	-0.09636854
53	0x3d979e06	0.074031875
54	0x3d963975	0.07335178
55	0x3d13284d	0.035927106
56	0xbcd25a51	-0.025677832
57	0xbdc5b551	-0.09653724
58	0xbd70d396	-0.058795534
59	0xbd7761cf	-0.060396012
60	0x3d528f53	0.051406216
61	0x3d292ffe	0.041305535
62	0xbd358a4e	-0.04432135
63	0x3d116521	0.035496835
64	0x3cd8391e	0.026394423
65	0xbda07648	-0.0783506
66	0x3d028bde	0.03187167
67	0x3c6a2340	0.014290631
68	0x3d847c6b	0.06469043
69	0xbcc11dbb	-0.023573747
70	0x3bc638a6	0.0060492335
71	0x3c694a1b	0.0142388595
72	0xbd2fc533	-0.042912673
73	0xbce2fc86	-0.027708303
74	0xbc43bb20	-0.01194647
75	0xbdb4f688	-0.088360846
76	0x3d470023	0.048584115
77	0xbd2bd463	-0.041950595
78	0x3b5b7b8f	0.0033490395
79	0x3d96549f	0.07340359
80	0x3d323dbd	0.04351591
81	0x3d80afd6	0.06283538
82	0x3d45064b	0.048101705
83	0x3d8de9d4	0.06929365
84	0xbdd8093a	-0.10548635
85	0xbda0f4e5	-0.0785921
86	0xbd554090	-0.052063525
87	0xbd218874	-0.039436772
88	0xbd73a15d	-0.05948006
89	0xbc5417ef	-0.012945159
90	0xbd670f24	-0.056410924
91	0x3d465b9d	0.048427213
92	0xbd2e06cc	-0.04248695
93	0xbda3a5e8	-0.079906285
94	0x3d7e0c30	0.06202334
95	0x3ccf8569	0.02533217
96	0xbccd1dbd	-0.025038594
97	0x3d9c9dc1	0.07647277
98	0x3c512c74	0.012766946
99	0xbd708f9d	-0.05873071
100	0xbd610e90	-0.05494553
101	0x3dc9afdd	0.098479964
102	0x3db93da5	0.09044961
103	0x3b8a28ef	0.0042163054
104	0x3db0fbf0	0.08641803
105	0xbc0cf269	-0.008602717
106	0xbd85c9ec	-0.06532654
107	0x3da21601	0.07914353
108	0xbda7e982	-0.08198835
109	0x3dc127a3	0.09431388
110	0x3dbb345d	0.09140847
111	0xbd0f312f	-0.034959015
112	0xbd2a9e8a	-0.0416551
113	0xbd8344c9	-0.06409604
114	0xbda64ed6	-0.081205055
115	0xbdd513fa	-0.10404201
116	0xbd3116bf	-0.043234583
117	0x3cc21fb4	0.023696758
118	0x3cc565b0	0.02409634
119	0x3ccf16a7	0.025279356
120	0xbd982f48	-0.07430893
121	0xbda04a51	-0.07826675
122	0xbc98f76e	-0.018672671
123	0xbb999695	-0.00468714
124	0xbd623395	-0.055224974
125	0x3d93144d	0.071816064
126	0xbd868dd9	-0.06570024
127	0x3c82d664	0.01597137
128	0x3cd43961	0.025906267
129	0xbd74f853	-0.059807133
130	0x3d1bdc0c	0.03805165
131	0x3d8f0cbf	0.06984853
132	0xbcc83722	-0.024440352
133	0x3d9e27ab	0.0772241
134	0xbcacdf91	-0.021102699
135	0xbc798bad	-0.015231055
136	0xbcc7616d	-0.024338448
137	0xbc2b3102	-0.010448696
138	0x3d930fe9	0.07180769
139	0x3d8eab07	0.069662146
140	0xbd805acb	-0.062673174
141	0x3d55170b	0.05202393
142	0xbd953718	-0.07285899
143	0xbdcd00cc	-0.100099176
144	0x3d1d45eb	0.038396757
145	0xbc399ce6	-0.011328911
146	0x3ba861e1	0.005138621
147	0xbd67a19f	-0.05655062
148	0xbd4d5a9b	-0.050135236
149	0x3d5361b7	0.05160686
150	0x3d5f4580	0.05450964
151	0x3dd28cf0	0.10280788
152	0x3d02deca	0.03195075
153	0x3c6c3e10	0.014419094
154	0xbd238493	-0.039921355
155	0x3beea082	0.0072823176
156	0xbd868cec	-0.065698475
157	0x3d4da11f	0.050202485
158	0xbda50f97	-0.08059614
159	0x3cf0744c	0.02935233
160	0x3d9dd213	0.07706084
161	0x3d4edbfb	0.05050276
162	0xbcf8c3ef	-0.030366866
163	0x3dabeacb	0.083943926
164	0x3dc0df79	0.09417624
165	0xbd264f39	-0.040602896
166	0xbc9ab3c4	-0.018884547
167	0x3cbdb74f	0.023158697
168	0x3b6848aa	0.0035443702
169	0x3da14806	0.078750655
170	0xbdb99c77	-0.090630464
171	0xbdb8c35f	-0.09021639
172	0x3d29949c	0.04140149
173	0xbc4c2422	-0.012459787
174	0xbbe83892	-0.007086822
175	0xbda1b24c	-0.078953356
176	0x3dd54ccf	0.10415041
177	0xbd56bc41	-0.052425627
178	0x3d0e3352	0.03471691
179	0x3b1551ea	0.002278442
180	0xbd1da1d2	-0.038484402
181	0x3ddcaa6a	0.107746914
182	0x3d66e9d6	0.056375347
183	0x3daf2fe7	0.085540585
184	0xbc966c01	-0.018362047
185	0x3d847580	0.06467724
186	0x3d352608	0.044225723
187	0x3ce62b41	0.028096797
188	0xbbfd776c	-0.0077351835
189	0x3d00d520	0.03145325
190	0xbd7a4c54	-0.06110795
191	0xbd2f6153	-0.042817425
192	0xbd08de9c	-0.03341542
193	0xbda3299b	-0.0796692
194	0xbda5e1c6	-0.080997035
195	0xbd412622	-0.047155507
196	0xbd4bcd46	-0.04975631
197	0xbc06ccc0	-0.008227527
198	0x3c5ed977	0.013601652
199	0xbdc9a29d	-0.09845469
200	0xbcc106c0	-0.023562789
201	0x3c944c49	0.018102782
202	0xbcc789a6	-0.024357628
203	0x3d910381	0.070807464
204	0x3d9de467	0.0770958
205	0x3d4e3eea	0.05035297
206	0xbc47195a	-0.01215204
207	0xbdd5138c	-0.10404119
208	0xbd293935	-0.041314323
209	0x3cd221cd	0.025650883
210	0x3dbe6c43	0.09297993
211	0x3db9be03	0.09069445
212	0x3db32565	0.08747367
213	0xbdcc000d	-0.09960947
214	0x3d9a4602	0.07532884
215	0xbd557fe6	-0.052123927
216	0x3d67f0a3	0.056625973
217	0x3d8c3248	0.06845528
218	0x3d42d2dd	0.047564376
219	0x3d88dafb	0.06682392
220	0x3d97c727	0.07411032
221	0x3d7f3524	0.06230654
222	0x3d3f95dc	0.046773776
223	0x3cb48a58	0.022038624
224	0xbccd6af2	-0.02507541
225	0x3cafa374	0.021440245
226	0xbcdc597f	-0.026898144
227	0x3dd8f7e5	0.10594157
228	0xbcfe3dfe	-0.03103542
229	0xbdaa06ad	-0.083020546
230	0x3d8a52f1	0.06754101
231	0xbdd004ba	-0.101571515
232	0xbc63d079	-0.013904684
233	0xbdb6f6a2	-0.0893376
234	0xbcd07952	-0.025448475
235	0xbc01db98	-0.00792589
236	0xbc488cfa	-0.012240643
237	0x3c83e704	0.016101368
238	0x3d348be6	0.04407873
239	0xbb93f64d	-0.0045154453
240	0xbda18325	-0.07886342
241	0xbdb24a99	-0.087056346
242	0xbd18f145	-0.037339468
243	0x3cf42087	0.029800666
244	0x3d9c7031	0.07638586
245	0xbc0a7bff	-0.008452415
246	0x3dad0804	0.084487945
247	0x3dbf4fa4	0.09341362
248	0x3dd0fc64	0.1020439
249	0x3dc92e07	0.09823232
250	0x3d0d06b1	0.03443021
251	0xbce0dced	-0.027449096
252	0x3dbda6f8	0.092603624
253	0xbc7b51b5	-0.015339305
254	0x3b89cc28	0.0042052455
255	0x3d272dc5	0.040815134

linear.0.bias f4 [16]
0	0x3af7ea04	0.0018914347
1	0x3db27da7	0.087153725
2	0x3d270f7a	0.040786244
3	0x3c6348fb	0.01387238
4	0xbd60e3fa	-0.054904915
5	0x3bc0a6df	0.0058792676
6	0xbd62d301	-0.05537701
7	0x3ce1ce89	0.027564304
8	0x3dba6c8c	0.09102735
9	0x3d958b1c	0.07301924
10	0xbd39b877	-0.045341935
11	0x3d8dd231	0.069248565
12	0x3dab18c2	0.083543316
13	0x3ddb01ca	0.106937006
14	0x3c2ec5fa	0.0106673185
15	0xbd2a7f16	-0.041625105

linear.1.weight f4 [64, 16]
0	0xbe12de1a	-0.14342538
1	0xbd8b6fb8	-0.06808418
2	0xbe694b23	-0.22782569
3	0x3dbb401c	0.09143087
4	0x3c6412c0	0.013920486
5	0x3e794a68	0.2434479
6	0x3e02f623	0.12789206
7	0x3d7d6f66	0.061873816
8	0x3df13f88	0.11779696
9	0xbdba7a04	-0.09105304
10	0x3e6d937b	0.2320079
11	0xbe4e37e0	-0.20138502
12	0x3df78a3a	0.120869115
13	0xbe1f792c	-0.15573567
14	0x3e1b17a3	0.15145735
15	0xbd4c3c1a	-0.049862005
16	0x3da86044	0.08221486
17	0x3e75fad0	0.24021459
18	0x3dfc2c95	0.12313191
19	0x3e2f841a	0.17140236
20	0x3cac38b0	0.021023124
21	0xbca0e8e0	-0.019642293
22	0x3e7c480c	0.24636859
23	0xbe62e637	-0.22158132
24	0xbd027288	-0.031847507
25	0x3de51e9f	0.11187481
26	0xbd93db0c	-0.07219514
27	0x3d0d61b0	0.03451699
28	0x3e0b0f90	0.13580155
29	0xbe086d01	-0.13322832
30	0x3d894329	0.06702263
31	0xbd672881	-0.056435112
32	0xbe2e1698	-0.17000806
33	0x3e3000a6	0.17187747
34	0x3d550690	0.05200821
35	0x3e75a86e	0.23990032
36	0x3b66a780	0.0035195053
37	0x3d93897c	0.072039574
38	0x3e2fe432	0.17176893
39	0xbda8c912	-0.08241476
40	0x3e48f9f8	0.19626606
41	0xbd693949	-0.056939397
42	0x3e0acac5	0.13553913
43	0xbe053c66	-0.13011321
44	0xbe2f2dba	-0.17107287
45	0x3d335077	0.04377791
46	0x3b9f043b	0.0048527992
47	0x3e3a36a6	0.18184909
48	0xbe6e0eb6	-0.232478
49	0xbdd90284	-0.10596183
50	0xbe6482c1	-0.22315504
51	0xbe40747e	-0.18794438
52	0x3e06b914	0.13156539
53	0x3e001876	0.12509331
54	0xbde3741d	-0.11106131
55	0xbdd7e572	-0.1054181
56	0x3d130268	0.035890967
57	0xbcb90596	-0.022585671
58	0xbe74b626	-0.23897609
59	0xbe6a9cf9	-0.22911443
60	0x3e0e2e92	0.13884953
61	0x3cc16d85	0.023611793
62	0xbd9b84fc	-0.07593724
63	0x3e0b2ebb	0.13592045
64	0xbce3aa90	-0.027791291
65	0x3e05b190	0.13056016
66	0xbe1a6776	-0.1507853
67	0x3d457e80	0.048216343
68	0x3e105286	0.1409398
69	0xbe2c5122	-0.16827825
70	0xbe5efedc	-0.21776909
71	0xbe492cfb	-0.19646065
72	0x3d241a68	0.040064245
73	0x3db2b01b	0.08724996
74	0x3e5366f8	0.20644748
75	0xbe6b7e10	-0.22997308
76	0xbe66585e	-0.22494647
77	0xbce5474b	-0.027988097
78	0xbdb9d3e4	-0.09073618
79	0x3e4eb55d	0.20186372
80	0x3deb8e78	0.11501783
81	0x3d891fd4	0.06695524
82	0xbbe25cb4	-0.0069080237
83	0x3e223818	0.1584171
84	0x3a6bcc00	0.0008994937
85	0x3e1f9388	0.15583622
86	0xbe1a6de4	-0.15080982
87	0x3ca14f17	0.019691033
88	0xbe65c85e	-0.22439715
89	0xbe16452e	-0.14674827
90	0x3d6e1f2d	0.0581352
91	0x3e63d6a6	0.2224985
92	0xbde8409e	-0.1134045
93	0x3b796aff	0.003805816
94	0xbe66486c	-0.22488564
95	0xbd36e1ed	-0.044649053
96	0x3da6be0c	0.08141717
97	0x3e6ef1e6	0.23334464
98	0x3e4608b4	0.19339257
99	0xbdad2a58	-0.08455342
100	0xbb11c400	-0.002224207
101	0x3e1a0410	0.15040612
102	0xbdc00087	-0.093751006
103	0xbe23d448	-0.15998948
104	0x3d4eaaa0	0.05045569
105	0xbdb41f3c	-0.0879502
106	0x3e532b4b	0.20621984
107	0x3d641028	0.05567947
108	0x3e3ab14b	0.18231694
109	0x3dbc8085	0.09204201
110	0x3e5d88d8	0.21634233
111	0xbe297eb5	-0.16552241
112	0x3d35fba0	0.04442942
113	0x3dc273ac	0.09494719
114	0xbe55cdf5	-0.20879348
115	0xbe022ad2	-0.12711647
116	0x3e4fdd80	0.2029934
117	0x3dc54e40	0.09634066
118	0x3e70e035	0.23523028
119	0xbe4657a6	-0.19369373
120	0xbe1a2b86	-0.15055665
121	0x3e76e73f	0.24111651
122	0xbe5b3ea7	-0.21410619
123	0x3d9e1f0a	0.07720764
124	0xbe73b436	-0.23799214
125	0x3e520071	0.20507981
126	0xbe6a9d4a	-0.22911564
127	0xbde4e293	-0.11176028
128	0xbe498d66	-0.19682845
129	0xbbf83b40	-0.0075754225
130	0xbe4ac284	-0.19800764
131	0xbe075192	-0.1321471
132	0xbdc060a8	-0.09393436
133	0x3e3877a6	0.18014392
134	0x3e47b329	0.19501938
135	0x3de59558	0.11210126
136	0x3e66f496	0.2255424
137	0x3dafb22d	0.08578906
138	0xbe79e1ba	-0.24402514
139	0x3e2b3795	0.16720422
140	0xbdc965a6	-0.09833841
141	0x3df63a2c	0.12022814
142	0xbd050ab8	-0.032480925
143	0x3e03994b	0.12851445
144	0x3d810624	0.06299999
145	0x3e16e4d4	0.14735729
146	0xbe29a490	-0.16566682
147	0xbe35a854	-0.17739993
148	0x3e6cfd62	0.23143533
149	0xbcda4ec0	-0.026648879
150	0x3ceeab3e	0.029134389
151	0x3d01f873	0.03173108
152	0x3d3d93e8	0.046283633
153	0x3e13c87c	0.14431947
154	0x3cc68c15	0.024236718
155	0xbc58cb62	-0.013232084
156	0x3db74bed	0.089500286
157	0xb72d62ee	-1.0334637e-05
158	0xbe600d1b	-0.2188
159	0x3e164116	0.14673266
160	0x3d31ba88	0.04339078
161	0xbe788c32	-0.2427223
162	0xbe0c4803	-0.13699345
163	0xbd742d28	-0.059613377
164	0x3e418312	0.18897656
165	0x3dec2f9c	0.11532518
166	0xbe6cf6fa	-0.23141089
167	0xbe2f722a	-0.17133394
168	0xbe57683c	-0.21035856
169	0x3e3c08e4	0.18362767
170	0xbe7eeed1	-0.24895789
171	0xbe390b65	-0.18070753
172	0x3e1fa276	0.15589318
173	0x3cc40517	0.023928208
174	0xbcea325f	-0.028588472
175	0xbc3d5185	-0.01155508
176	0x3e4dede0	0.20110273
177	0xbc2d9780	-0.010595202
178	0xbe0575eb	-0.13033263
179	0xbc8daff0	-0.017295808
180	0x3cfd2410	0.030900985
181	0xbdb7c488	-0.08973032
182	0xbe2f142f	-0.17097543
183	0x3df9b8f2	0.12193479
184	0x3cd56100	0.02604723
185	0x3e467226	0.19379482
186	0xbdfb0a10	-0.12257779
187	0xbd9fc87c	-0.07801911
188	0xbdb21183	-0.08694746
189	0x3e041f91	0.12902667
190	0x3e1fda83	0.156107
191	0xbc3b8697	-0.011445663
192	0xbe68d8b4	-0.22738916
193	0xbdd84b90	-0.105612874
194	0xbdfaefd1	-0.122527726
195	0xbd30db58	-0.043177933
196	0xbe746a58	-0.23868692
197	0xbd5f2fb8	-0.054488868
198	0xbc323f2d	-0.01087932
199	0xbd01a665	-0.031652827
200	0xbe3a87e2	-0.18215898
201	0xbe5c4d0a	-0.21513763
202	0xbd5a9dc4	-0.053373113
203	0x3d0c79c7	0.034295823
204	0xbd1c648b	-0.038181823
205	0xbe59ac74	-0.21257192
206	0x3d119ac6	0.035547994
207	0x3d304fb5	0.043044765
208	0xbe50c85c	-0.20388931
209	0x3e3958be	0.18100259
210	0x3e74406f	0.23852704
211	0xbe1f577e	-0.1556072
212	0xbe1f6038	-0.15564048
213	0x3e6776a2	0.22603849
214	0xbdbfbda9	-0.09362347
215	0x3e1b54e2	0.15169099
216	0xbdb7b7c4	-0.089705974
217	0xbe706490	-0.23475862
218	0xbd342696	-0.04398211
219	0x3e6b2172	0.22961977
220	0x3cd16441	0.0255605
221	0xbd1f5602	-0.038900383
222	0xbe319118	-0.17340505
223	0xbe3a2a8c	-0.18180293
224	0x3e70df22	0.23522618
225	0x3cecf520	0.028925478
226	0x3e7cb846	0.2467967
227	0xbda39b68	-0.07988626
228	0xbda12448	-0.07868248
229	0x3e3b2b38	0.18278205
230	0x3e670dd9	0.22563876
231	0xbe6338c1	-0.22189619
232	0x3ddf6ce8	0.10909444
233	0x3ba2d99e	0.0049697896
234	0x3e390b1f	0.18070649
235	0xbe146227	-0.14490567
236	0xbd284e4c	-0.041090295
237	0xbce16cff	-0.027517794
238	0x3e019047	0.12652694
239	0x3e5d8e07	0.2163621
240	0xbdfbe1c4	-0.12298921
241	0xbe415244	-0.18879038
242	0xbe0e24bc	-0.138812
243	0xbdff6580	-0.124705315
244	0x3e09d938	0.13461769
245	0xbd837880	-0.06419468
246	0xbc283833	-0.010267305
247	0x3e6ddf6c	0.2322976
248	0xbe1b3ee2	-0.15160707
249	0xbe15a58e	-0.14613935
250	0xbe02a707	-0.12759028
251	0xbc78dfdb	-0.01519009
252	0xbe56b195	-0.2096618
253	0x3d554928	0.05207172
254	0x3e7e3a69	0.24826969
255	0xbdf43298	-0.119237125

linear.1.bias f4 [64]
0	0x3e4d3567	0.20039903
1	0x3e34261e	0.17592666
2	0x3c3742d2	0.011185365
3	0x3bc9d4cb	0.0061594
4	0xbe49a5ef	-0.19692205
5	0xbe047ea2	-0.12938932
6	0xbc0ea3dc	-0.008706059
7	0x3e66d6ad	0.2254283
8	0x3dcfc9ae	0.10145889
9	0x3e68f15b	0.2274832
10	0x3dbda03f	0.0925908
11	0x3e4ae16e	0.19812557
12	0xbd322d4d	-0.043500233
13	0x3e2ad708	0.1668359
14	0xbd84a79d	-0.06477282
15	0x3e5354a6	0.2063776
16	0x3e757293	0.23969488
17	0x3e02c9ff	0.12772368
18	0x3e0d09f6	0.13773331
19	0xbb428c58	-0.0029685702
20	0xbe579825	-0.21054132
21	0xbd8d2f10	-0.06893742
22	0xbda1f087	-0.07907205
23	0x3d909e35	0.070614256
24	0xbe6677e8	-0.22506678
25	0xbda1c498	-0.078988254
26	0xbd429ef1	-0.04751486
27	0x3d6ef003	0.05833436
28	0xbda54ce3	-0.080713056
29	0x3dec34a7	0.1153348
30	0xbe5df95a	-0.21677151
31	0xbe2fba0a	-0.17160812
32	0x3d7210df	0.05909812
33	0x3e0846b8	0.13308227
34	0xbe1071f7	-0.14105974
35	0xbe2cc9ea	-0.16873899
36	0xbdf7ba7a	-0.120961145
37	0xbbf5a874	-0.007496888
38	0xbcb0d949	-0.021587985
39	0x3e69a988	0.22818577
40	0xbdfa695b	-0.12227126
41	0x3dcb80a7	0.09936648
42	0x3b35a166	0.002771461
43	0x3dd6370a	0.104597166
44	0xbe3536c2	-0.1769667
45	0x3d888227	0.066654496
46	0xbe3ed05a	-0.18634167
47	0xbe6f76cf	-0.23385166
48	0x3e5e9925	0.21738108
49	0xbdbe01a0	-0.09277654
50	0xbd7ff702	-0.062491424
51	0x3df12e94	0.11776462
52	0x3e17a655	0.14809544
53	0x3ac08fef	0.0014691333
54	0x3dfb7599	0.12278289
55	0x3e373424	0.17890984
56	0xbe4ce52e	-0.200093
57	0x3e5701a4	0.2099672
58	0x3d9daee2	0.07699372
59	0x3e577e17	0.21044193
60	0x3de040d0	0.10949862
61	0x3e038c80	0.12846565
62	0x3d60881a	0.054817297
63	0x3dda23a9	0.10651333

linear.3.weight f4 [2, 64]
0	0x3d73417e	0.05938863
1	0x3dfa679b	0.122267924
2	0x3d828335	0.06372682
3	0xbbc6331c	-0.006048573
4	0x3deaf403	0.11472323
5	0x3d527d76	0.05138918
6	0x3d42d30b	0.047564548
7	0x3ddb653a	0.10712667
8	0xbdadc239	-0.08484311
9	0x3deb86dc	0.11500332
10	0x3db8916d	0.09012113
11	0x3db8e78a	0.090285376
12	0x3cf60eb1	0.030036302
13	0x3d79f138	0.06102106
14	0x3dc6c156	0.09704845
15	0x3d8a1d3f	0.067438595
16	0xbd77cf71	-0.060500566
17	0xbd9d8d7c	-0.07693002
18	0x3ddba17e	0.107241616
19	0xbd83ebab	-0.064414345
20	0x3e00b5bb	0.12569325
21	0xbc5d4056	-0.013504108
22	0xbd889612	-0.06669249
23	0x3d8d3df4	0.06896582
24	0xbd72f4f8	-0.05931565
25	0x3c6cb755	0.014448007
26	0x3df2971e	0.118452296
27	0x3db0d14d	0.08633671
28	0xbd885d9e	-0.06658481
29	0x3dad7de7	0.084712796
30	0x3d450e7a	0.04810951
31	0xbde1b897	-0.11021536
32	0x3d64ef9d	0.055892576
33	0x3de10ce1	0.109887846
34	0xbd6f9093	-0.058487486
35	0xbd7b446e	-0.061344557
36	0xbdf6a746	-0.120436236
37	0xbdba39f5	-0.09093086
38	0x3dc6646c	0.09687123
39	0x3c995609	0.018717783
40	0xbd13a160	-0.03604257
41	0x3d61b3e8	0.055103213
42	0x3c5d0ab8	0.013491325
43	0x3dd6c882	0.104874626
44	0x3df725ed	0.12067781
45	0x3da0ef16	0.07858102
46	0xbdf78bb8	-0.12087196
47	0xbdf0d7c1	-0.11759902
48	0x3da0338f	0.07822334
49	0x3da52d72	0.08065309
50	0x3c9c4025	0.019073555
51	0xbdc0ceed	-0.09414468
52	0xbd16c3ca	-0.036807813
53	0x3a268b73	0.0006353177
54	0xbd3c7627	-0.046011116
55	0x3dba9341	0.09110118
56	0xbdda2f97	-0.10653608
57	0x3cf773f8	0.030206665
58	0xbda99d0a	-0.08281906
59	0xbd014279	-0.031557534
60	0xbd759bd0	-0.059963048
61	0x3d9ffd7c	0.0781202
62	0xbd72c091	-0.059265677
63	0xbd964e90	-0.07339203
64	0x3dc5f7b8	0.09666389
65	0x3dacaf1b	0.08431836
66	0xbd05146d	-0.032490183
67	0xbdca722b	-0.09885057
68	0x3d680246	0.056642793
69	0x3dfcf5a6	0.12351541
70	0x3c5885cd	0.013215494
71	0x3d4c6fa9	0.049911175
72	0xbd2ca350	-0.042147934
73	0xbdb9801a	-0.090576366
74	0xbcbcaaaf	-0.023030607
75	0x3dd4baf8	0.10387224
76	0xbd5fee07	-0.05467036
77	0xbd652bc8	-0.055949956
78	0x3dd14690	0.10218537
79	0xbd46b424	-0.04851164
80	0x3ddc5127	0.10757666
81	0x3cfa6652	0.030566368
82	0xbdca29b4	-0.098712355
83	0xbcab5d9b	-0.020918658
84	0xbcd2bee0	-0.025725782
85	0x3dda172c	0.10648951
86	0xbd30b18f	-0.043138083
87	0xbd851d60	-0.064997435
88	0x3df1545a	0.11783667
89	0x3d15cd6a	0.03657285
90	0xbdd2a29a	-0.1028492
91	0x3d981eff	0.07427787
92	0xbdc755ac	-0.097331375
93	0x3d0d0144	0.034425035
94	0x3c78e7f0	0.015192017
95	0x3d7091c8	0.058732778
96	0x3ca18f21	0.01972157
97	0x3d19568c	0.037436053
98	0xbd7c4bc1	-0.061595682
99	0x3bf4da12	0.007472285
100	0xbd19ae08	-0.037519485
101	0x3cbcb1fe	0.023034092
102	0xbdeabc8a	-0.11461742
103	0x3d9c2143	0.07623532
104	0x3d386e2c	0.045026943
105	0xbd88e374	-0.06684008
106	0xbdba88cc	-0.09108123
107	0x3c0863d0	0.008324578
108	0xbdc002ad	-0.0937551
109	0xbd008756	-0.031379066
110	0x3d92427a	0.07141586
111	0xbdbb2fcb	-0.09139975
112	0xbd7586d1	-0.059943024
113	0xbde20860	-0.11036754
114	0xbc6d0d50	-0.014468506
115	0x3d826d81	0.063685425
116	0x3d6bcf72	0.057570882
117	0x3cbe7423	0.023248738
118	0x3d0f52d3	0.034991097
119	0xbc853e1b	-0.016264966
120	0x3dabaa7f	0.08382129
121	0xbc36539b	-0.011128332
122	0x3ce3dd88	0.027815595
123	0x36fe550e	7.5796916e-06
124	0x3dba2d0e	0.09090625
125	0x3d6fc378	0.058536023
126	0x3d93d116	0.07217614
127	0xbd7d8b09	-0.061900172

linear.3.bias f4 [2]
0	0x3c98b9da	0.018643308
1	0xbc373c86	-0.0111838635
