meta/demos/multiple_experiments/results/models/run_0/emodb_mlp_os_16-64_C_val-001_learning_rate-0-0001_0_013.model (torch, 13864 bytes, 6 tensors)

linear.0.weight f4 [16, 88]
0	0x3dc25641	0.09489108
1	0x3d9a1e9e	0.07525371
2	0x3dcda064	0.10040358
3	0x3cdb48a8	0.026768044
4	0x3d44cf05	0.04804899
5	0x3d0b3251	0.033983532
6	0x3db8fd1c	0.09032652
7	0xbb2afe29	-0.0026091433
8	0x3d8183d1	0.0632397
9	0x3d83b582	0.06431104
10	0x3d580b1b	0.052744966
11	0xbd2a5e53	-0.04159386
12	0x3cc31e6c	0.023818217
13	0xbd8d1d08	-0.06890303
14	0x3d90cf15	0.07070748
15	0xbd485350	-0.048907578
16	0x3dd89a13	0.10576262
17	0xbdab611e	-0.08368133
18	0x3d926854	0.07148805
19	0xbd11cb2c	-0.03559415
20	0xbd7f5f56	-0.06234678
21	0x3dbd5726	0.09245138
22	0x3d37a15f	0.04483163
23	0x3da5d67b	0.080975495
24	0x3d8d4eed	0.068998195
25	0xbc9175aa	-0.017756302
26	0x3d6f6822	0.05844892
27	0x3d203cca	0.039120473
28	0x3d03b6ae	0.03215664
29	0xbcdb23d3	-0.02675048
30	0x3d67ecca	0.056622304
31	0x3dab6d39	0.08370442
32	0xbdc0379e	-0.09385608
33	0x3d2a30dc	0.041550502
34	0xbd8a460c	-0.06751642
35	0xbd066fc1	-0.03282142
36	0x3d9e9bd5	0.07744566
37	0x3d88b8be	0.06675862
38	0xbd7523ce	-0.0598486
39	0xbcc0eafd	-0.023549551
40	0x3cf4f39c	0.029901318
41	0x3d46f2bc	0.048571333
42	0x3c0bab93	0.008524793
43	0xbc11ba57	-0.008894525
44	0xbcef7b92	-0.029233728
45	0x3c905941	0.017620685
46	0xbd85369d	-0.06504557
47	0xbdb14173	-0.086550616
48	0x3d60dc9f	0.0548979
49	0x3d310c7d	0.0432248
50	0x39d7ce47	0.00041161684
51	0x3d8e9746	0.06962447
52	0xbdc55cde	-0.09636854
53	0x3d979e06	0.074031875
54	0x3d963975	0.07335178
55	0x3d13284d	0.035927106
56	0xbcd25a51	-0.025677832
57	0xbdc5b551	-0.09653724
58	0xbd70d396	-0.058795534
59	0xbd7761cf	-0.060396012
60	0x3d528f53	0.051406216
61	0x3d292ffe	0.041305535
62	0xbd358a4e	-0.04432135
63	0x3d116521	0.035496835
64	0x3cd8391e	0.026394423
65	0xbda07648	-0.0783506
66	0x3d028bde	0.03187167
67	0x3c6a2340	0.014290631
68	0x3d847c6b	0.06469043
69	0xbcc11dbb	-0.023573747
70	0x3bc638a6	0.0060492335
71	0x3c694a1b	0.0142388595
72	0xbd2fc533	-0.042912673
73	0xbce2fc86	-0.027708303
74	0xbc43bb20	-0.01194647
75	0xbdb4f688	-0.088360846
76	0x3d470023	0.048584115
77	0xbd2bd463	-0.041950595
78	0x3b5b7b8f	0.0033490395
79	0x3d96549f	0.07340359
80	0x3d323dbd	0.04351591
81	0x3d80afd6	0.06283538
82	0x3d45064b	0.048101705
83	0x3d8de9d4	0.06929365
84	0xbdd8093a	-0.10548635
85	0xbda0f4e5	-0.0785921
86	0xbd554090	-0.052063525
87	0xbd218874	-0.039436772
88	0xbd73a15d	-0.05948006
89	0xbc5417ef	-0.012945159
90	0xbd670f24	-0.056410924
91	0x3d465b9d	0.048427213
92	0xbd2e06cc	-0.04248695
93	0xbda3a5e8	-0.079906285
94	0x3d7e0c30	0.06202334
95	0x3ccf8569	0.02533217
96	0xbccd1dbd	-0.025038594
97	0x3d9c9dc1	0.07647277
98	0x3c512c74	0.012766946
99	0xbd708f9d	-0.05873071
100	0xbd610e90	-0.05494553
101	0x3dc9afdd	0.098479964
102	0x3db93da5	0.09044961
103	0x3b8a28ef	0.0042163054
104	0x3db0fbf0	0.08641803
105	0xbc0cf269	-0.008602717
106	0xbd85c9ec	-0.06532654
107	0x3da21601	0.07914353
108	0xbda7e982	-0.08198835
109	0x3dc127a3	0.09431388
110	0x3dbb345d	0.09140847
111	0xbd0f312f	-0.034959015
112	0xbd2a9e8a	-0.0416551
113	0xbd8344c9	-0.06409604
114	0xbda64ed6	-0.081205055
115	0xbdd513fa	-0.10404201
116	0xbd3116bf	-0.043234583
117	0x3cc21fb4	0.023696758
118	0x3cc565b0	0.02409634
119	0x3ccf16a7	0.025279356
120	0xbd982f48	-0.07430893
121	0xbda04a51	-0.07826675
122	0xbc98f76e	-0.018672671
123	0xbb999695	-0.00468714
124	0xbd623395	-0.055224974
125	0x3d93144d	0.071816064
126	0xbd868dd9	-0.06570024
127	0x3c82d664	0.01597137
128	0x3cd43961	0.025906267
129	0xbd74f853	-0.059807133
130	0x3d1bdc0c	0.03805165
131	0x3d8f0cbf	0.06984853
132	0xbcc83722	-0.024440352
133	0x3d9e27ab	0.0772241
134	0xbcacdf91	-0.021102699
135	0xbc798bad	-0.015231055
136	0xbcc7616d	-0.024338448
137	0xbc2b3102	-0.010448696
138	0x3d930fe9	0.07180769
139	0x3d8eab07	0.069662146
140	0xbd805acb	-0.062673174
141	0x3d55170b	0.05202393
142	0xbd953718	-0.07285899
143	0xbdcd00cc	-0.100099176
144	0x3d1d45eb	0.038396757
145	0xbc399ce6	-0.011328911
146	0x3ba861e1	0.005138621
147	0xbd67a19f	-0.05655062
148	0xbd4d5a9b	-0.050135236
149	0x3d5361b7	0.05160686
150	0x3d5f4580	0.05450964
151	0x3dd28cf0	0.10280788
152	0x3d02deca	0.03195075
153	0x3c6c3e10	0.014419094
154	0xbd238493	-0.039921355
155	0x3beea082	0.0072823176
156	0xbd868cec	-0.065698475
157	0x3d4da11f	0.050202485
158	0xbda50f97	-0.08059614
159	0x3cf0744c	0.02935233
160	0x3d9dd213	0.07706084
161	0x3d4edbfb	0.05050276
162	0xbcf8c3ef	-0.030366866
163	0x3dabeacb	0.083943926
164	0x3dc0df79	0.09417624
165	0xbd264f39	-0.040602896
166	0xbc9ab3c4	-0.018884547
167	0x3cbdb74f	0.023158697
168	0x3b6848aa	0.0035443702
169	0x3da14806	0.078750655
170	0xbdb99c77	-0.090630464
171	0xbdb8c35f	-0.09021639
172	0x3d29949c	0.04140149
173	0xbc4c2422	-0.012459787
174	0xbbe83892	-0.007086822
175	0xbda1b24c	-0.078953356
176	0x3dd56c1c	0.10421011
177	0xbd569806	-0.052391075
178	0x3d0e4bea	0.034740366
179	0x3b1a5178	0.0023547094
180	0xbd1d5a3d	-0.038416136
181	0x3ddd3ff5	0.108032145
182	0x3d65afcb	0.056075852
183	0x3daec45b	0.085335456
184	0xbc9cc4fd	-0.0191369
185	0x3d82a6d9	0.0637948
186	0x3d358e09	0.04432491
187	0x3ce4c44d	0.027925635
188	0xbbf2d7b9	-0.00741097
189	0x3d01eb65	0.03171863
190	0xbd79f6da	-0.06102643
191	0xbd2f3e38	-0.042783946
192	0xbd09008c	-0.033447787
193	0xbda366cf	-0.079785936
194	0xbda5be06	-0.08092885
195	0xbd41087b	-0.04712723
196	0xbd4aa1d1	-0.049470726
197	0xbc0b41c3	-0.0084995655
198	0x3c69236e	0.0142296385
199	0xbdcaca1b	-0.0990183
200	0xbcb45c81	-0.022016766
201	0x3c91e690	0.017810136
202	0xbcc837f7	-0.024440749
203	0x3d925d79	0.07146735
204	0x3d9f34b3	0.077737235
205	0x3d509ee6	0.050932787
206	0xbc495653	-0.012288648
207	0xbdd486ef	-0.10377299
208	0xbd29b98f	-0.041436728
209	0x3cd4173f	0.02588999
210	0x3dbfb91b	0.09361478
211	0x3db853bd	0.09000347
212	0x3db34b52	0.087546006
213	0xbdcbcd41	-0.099512585
214	0x3d9b53d6	0.0758435
215	0xbd574339	-0.052554343
216	0x3d673d62	0.056455024
217	0x3d8c538e	0.06851874
218	0x3d434b39	0.04767916
219	0x3d88371c	0.06651136
220	0x3d980832	0.07423438
221	0x3d7ecb4e	0.062205605
222	0x3d3f5947	0.046716
223	0x3cb4cdeb	0.022070846
224	0xbcccae94	-0.02498559
225	0x3cae82e5	0.02130265
226	0xbcdbb122	-0.026817862
227	0x3dd8faa7	0.10594683
228	0xbcfe37ce	-0.03103247
229	0xbda9d00e	-0.082916364
230	0x3d8a3f6a	0.067503765
231	0xbdcfbb0a	-0.10143097
232	0xbc6309f8	-0.013857357
233	0xbdb6d02f	-0.089264266
234	0xbcd85c60	-0.026411235
235	0xbbecbb23	-0.007224457
236	0xbc3fd72d	-0.011709017
237	0x3c80d278	0.01572536
238	0x3d323098	0.043503374
239	0xbb91e951	-0.0044528623
240	0xbda3e08a	-0.08001812
241	0xbdb12f05	-0.086515464
242	0xbd18538b	-0.037189048
243	0x3cf20637	0.02954398
244	0x3d9d3ea3	0.07677963
245	0xbc0c09fb	-0.008547301
246	0x3daf924c	0.08572826
247	0x3dbe720e	0.09299098
248	0x3dd03293	0.10165896
249	0x3dc92069	0.09820635
250	0x3d0eea81	0.03489161
251	0xbce1f72e	-0.027583685
252	0x3dbb033d	0.09131477
253	0xbc70c476	-0.014695277
254	0x3b11f1c4	0.0022269348
255	0x3d241d72	0.040067144

linear.0.bias f4 [16]
0	0x3af7ea04	0.0018914347
1	0x3db27da7	0.087153725
2	0x3d272272	0.040804334
3	0x3c6348fb	0.01387238
4	0xbd60e3fa	-0.054904915
5	0x3bc0a6df	0.0058792676
6	0xbd62eefd	-0.0554037
7	0x3ce1e3a4	0.027574368
8	0x3dba6c8c	0.09102735
9	0x3d959cd8	0.07305306
10	0xbd39ea1d	-0.045389283
11	0x3d8dd231	0.069248565
12	0x3dab18c2	0.083543316
13	0x3ddb0ccb	0.106957994
14	0x3c2e525e	0.010639755
15	0xbd2aecb0	-0.04172963

linear.1.weight f4 [64, 16]
0	0xbe12de1a	-0.14342538
1	0xbd8b6fb8	-0.06808418
2	0xbe696da3	-0.2279573
3	0x3dbb401c	0.09143087
4	0x3c6412c0	0.013920486
5	0x3e794a68	0.2434479
6	0x3e02eb3a	0.12785044
7	0x3d7d2fcc	0.06181316
8	0x3df13f88	0.11779696
9	0xbdb93239	-0.09042782
10	0x3e6d8f8f	0.23199295
11	0xbe4e37e0	-0.20138502
12	0x3df78a3a	0.120869115
13	0xbe1f6e4f	-0.15569423
14	0x3e1b3236	0.15155873
15	0xbd4d1e2a	-0.050077595
16	0x3da86044	0.08221486
17	0x3e75fad0	0.24021459
18	0x3dfc6e92	0.12325777
19	0x3e2f841a	0.17140236
20	0x3cac38b0	0.021023124
21	0xbca0e8e0	-0.019642293
22	0x3e7c5204	0.24640661
23	0xbe62d763	-0.22152476
24	0xbd027288	-0.031847507
25	0x3de3e36e	0.11127363
26	0xbd93d4a9	-0.07218296
27	0x3d0d61b0	0.03451699
28	0x3e0b0f90	0.13580155
29	0xbe087845	-0.13327129
30	0x3d890dff	0.06692123
31	0xbd664fb9	-0.056228373
32	0xbe2e1698	-0.17000806
33	0x3e3000a6	0.17187747
34	0x3d558d87	0.052136924
35	0x3e75a86e	0.23990032
36	0x3b66a780	0.0035195053
37	0x3d93897c	0.072039574
38	0x3e2fee87	0.17180835
39	0xbda8aa83	-0.082356475
40	0x3e48f9f8	0.19626606
41	0xbd6bbf37	-0.057555404
42	0x3e0ace32	0.1355522
43	0xbe053c66	-0.13011321
44	0xbe2f2dba	-0.17107287
45	0x3d332372	0.043734975
46	0x3b9ba977	0.0047504264
47	0x3e3a6e34	0.18206102
48	0xbe6e0eb6	-0.232478
49	0xbdd90284	-0.10596183
50	0xbe6460e1	-0.22302581
51	0xbe40747e	-0.18794438
52	0x3e06b914	0.13156539
53	0x3e001876	0.12509331
54	0xbde35efa	-0.111021
55	0xbdd7c674	-0.10535899
56	0x3d130268	0.035890967
57	0xbcbe0e75	-0.023200253
58	0xbe74b27a	-0.23896208
59	0xbe6a9cf9	-0.22911443
60	0x3e0e2e92	0.13884953
61	0x3cc115ff	0.023570059
62	0xbd9bb9eb	-0.076038204
63	0x3e0b663c	0.13613218
64	0xbce3aa90	-0.027791291
65	0x3e05b190	0.13056016
66	0xbe1a457b	-0.15065567
67	0x3d457e80	0.048216343
68	0x3e105286	0.1409398
69	0xbe2c5122	-0.16827825
70	0xbe5ef431	-0.21772839
71	0xbe491d61	-0.19640113
72	0x3d241a68	0.040064245
73	0x3db16d73	0.08663454
74	0x3e536ab8	0.20646179
75	0xbe6b7e10	-0.22997308
76	0xbe66585e	-0.22494647
77	0xbce59e1a	-0.02802949
78	0xbdba08ac	-0.09083685
79	0x3e4eecfd	0.20207591
80	0x3deb8e78	0.11501783
81	0x3d891fd4	0.06695524
82	0xbbe689a0	-0.007035449
83	0x3e223818	0.1584171
84	0x3a6bcc00	0.0008994937
85	0x3e1f9388	0.15583622
86	0xbe1a7813	-0.15084867
87	0x3ca0d653	0.019633448
88	0xbe65c85e	-0.22439715
89	0xbe15a578	-0.14613903
90	0x3d6e11c6	0.05812242
91	0x3e63d6a6	0.2224985
92	0xbde8409e	-0.1134045
93	0x3b7c387a	0.003848581
94	0xbe662dc6	-0.22478399
95	0xbd37bd9b	-0.044858556
96	0x3da6be0c	0.08141717
97	0x3e6ef1e6	0.23334464
98	0x3e462948	0.19351685
99	0xbdad2a58	-0.08455342
100	0xbb11c400	-0.002224207
101	0x3e1a0410	0.15040612
102	0xbdbfece8	-0.09371358
103	0xbe23c5a6	-0.15993366
104	0x3d4eaaa0	0.05045569
105	0xbdb556aa	-0.088544205
106	0x3e532e69	0.20623173
107	0x3d641028	0.05567947
108	0x3e3ab14b	0.18231694
109	0x3dbc6a3c	0.0919995
110	0x3e5d6e91	0.21624209
111	0xbe29492e	-0.16531822
112	0x3d35fba0	0.04442942
113	0x3dc273ac	0.09494719
114	0xbe55ad3d	-0.20866866
115	0xbe022ad2	-0.12711647
116	0x3e4fdd80	0.2029934
117	0x3dc54e40	0.09634066
118	0x3e70ea73	0.23526935
119	0xbe4648a4	-0.19363648
120	0xbe1a2b86	-0.15055665
121	0x3e764d8b	0.24053018
122	0xbe5b3b0e	-0.21409246
123	0x3d9e1f0a	0.07720764
124	0xbe73b436	-0.23799214
125	0x3e51f5f2	0.20503977
126	0xbe6ab6bc	-0.2292127
127	0xbde4788c	-0.11155805
128	0xbe498d66	-0.19682845
129	0xbbf83b40	-0.0075754225
130	0xbe4ae57b	-0.19814102
131	0xbe075192	-0.1321471
132	0xbdc060a8	-0.09393436
133	0x3e3877a6	0.18014392
134	0x3e47a822	0.19497731
135	0x3de5752a	0.11203988
136	0x3e66f496	0.2255424
137	0x3db1007f	0.08642673
138	0xbe79e5ab	-0.24404018
139	0x3e2b3795	0.16720422
140	0xbdc965a6	-0.09833841
141	0x3df65042	0.12027027
142	0xbd049ebe	-0.03237795
143	0x3e035faf	0.12829469
144	0x3d810624	0.06299999
145	0x3e16e4d4	0.14735729
146	0xbe2982c1	-0.16553785
147	0xbe35a854	-0.17739993
148	0x3e6cfd62	0.23143533
149	0xbcda4ec0	-0.026648879
150	0x3ceeff3a	0.029174436
151	0x3d023629	0.031789932
152	0x3d3d93e8	0.046283633
153	0x3e132786	0.14370546
154	0x3cc6a8f4	0.024250485
155	0xbc58cb71	-0.013232098
156	0x3db74bed	0.089500286
157	0xb85b8efb	-5.234683e-05
158	0xbe6027a5	-0.21890123
159	0x3e167885	0.14694412
160	0x3d31ba88	0.04339078
161	0xbe788c32	-0.2427223
162	0xbe0c2621	-0.1368642
163	0xbd742d28	-0.059613377
164	0x3e418312	0.18897656
165	0x3dec2f9c	0.11532518
166	0xbe6cec6b	-0.23137061
167	0xbe2f62a9	-0.1712748
168	0xbe57683c	-0.21035856
169	0x3e3b678e	0.18301222
170	0xbe7eeb27	-0.24894391
171	0xbe390b65	-0.18070753
172	0x3e1fa276	0.15589318
173	0x3cc3ad47	0.023886336
174	0xbceb0687	-0.028689636
175	0xbc39d86c	-0.011343103
176	0x3e4dede0	0.20110273
177	0xbc2d9780	-0.010595202
178	0xbe059cf4	-0.13048154
179	0xbc8daff0	-0.017295808
180	0x3cfd2410	0.030900985
181	0xbdb7c488	-0.08973032
182	0xbe2f1f9f	-0.17101906
183	0x3df9965e	0.121868834
184	0x3cd56100	0.02604723
185	0x3e473707	0.19454585
186	0xbdfb10d5	-0.1225907
187	0xbd9fc87c	-0.07801911
188	0xbdb21183	-0.08694746
189	0x3e042d90	0.12908006
190	0x3e1ffaf7	0.15623079
191	0xbc3fbf25	-0.011703287
192	0xbe68d8b4	-0.22738916
193	0xbdd84b90	-0.105612874
194	0xbdfaab81	-0.12239743
195	0xbd30db58	-0.043177933
196	0xbe746a58	-0.23868692
197	0xbd5f2fb8	-0.054488868
198	0xbc319483	-0.010838631
199	0xbd0167e0	-0.031593204
200	0xbe3a87e2	-0.18215898
201	0xbe5cefcb	-0.21575849
202	0xbd5a8ee4	-0.053358927
203	0x3d0c79c7	0.034295823
204	0xbd1c648b	-0.038181823
205	0xbe59b777	-0.21261393
206	0x3d113025	0.035446305
207	0x3d312ff4	0.043258622
208	0xbe50c85c	-0.20388931
209	0x3e3958be	0.18100259
210	0x3e7463fc	0.23866266
211	0xbe1f577e	-0.1556072
212	0xbe1f6038	-0.15564048
213	0x3e6776a2	0.22603849
214	0xbdbfa796	-0.09358136
215	0x3e1b6518	0.15175283
216	0xbdb7b7c4	-0.089705974
217	0xbe7110ab	-0.23541515
218	0xbd341763	-0.043967616
219	0x3e6b2172	0.22961977
220	0x3cd1643b	0.025560489
221	0xbd1f8457	-0.03894457
222	0xbe31ad06	-0.1735116
223	0xbe39ef6d	-0.1815774
224	0x3e70df22	0.23522618
225	0x3cecf520	0.028925478
226	0x3e7c9376	0.24665627
227	0xbda39b68	-0.07988626
228	0xbda12448	-0.07868248
229	0x3e3b2b38	0.18278205
230	0x3e6700ab	0.22558849
231	0xbe634ae8	-0.22196543
232	0x3ddf6ce8	0.10909444
233	0x3bb806bb	0.0056160367
234	0x3e390525	0.18068369
235	0xbe146227	-0.14490567
236	0xbd284e4c	-0.041090295
237	0xbce126f8	-0.027484402
238	0x3e01a8dd	0.12662072
239	0x3e5d52f1	0.21613671
240	0xbdfbe1c4	-0.12298921
241	0xbe415244	-0.18879038
242	0xbe0e02f9	-0.13868321
243	0xbdff6580	-0.124705315
244	0x3e09d938	0.13461769
245	0xbd837880	-0.06419468
246	0xbc2792c7	-0.010227866
247	0x3e6deeb9	0.23235597
248	0xbe1b3ee2	-0.15160707
249	0xbe164741	-0.14675619
250	0xbe02a399	-0.1275772
251	0xbc78dfea	-0.015190104
252	0xbe56b195	-0.2096618
253	0x3d551c2e	0.052028827
254	0x3e7e1f94	0.24816734
255	0xbdf3c365	-0.11902503

linear.1.bias f4 [64]
0	0x3e4d3ab3	0.20041923
1	0x3e342040	0.17590427
2	0x3c36e6c1	0.011163414
3	0x3bc9265d	0.0061386065
4	0xbe49ab4c	-0.19694251
5	0xbe0478de	-0.12936732
6	0xbc0f00ec	-0.008728247
7	0x3e66d178	0.22540843
8	0x3dcfd47a	0.101479486
9	0x3e68ebd6	0.22746214
10	0x3dbd9547	0.09256988
11	0x3e4ae8ee	0.19815418
12	0xbd324332	-0.043521114
13	0x3e2ad13b	0.16681378
14	0xbd84a176	-0.06476109
15	0x3e534ee6	0.20635566
16	0x3e757830	0.23971629
17	0x3e02cf88	0.1277448
18	0x3e0d0446	0.13771161
19	0xbb4109f0	-0.0029455386
20	0xbe579df0	-0.21056342
21	0xbd8d2385	-0.068915404
22	0xbda1e6b0	-0.07905328
23	0x3d90932e	0.07059322
24	0xbe667257	-0.22504555
25	0xbda1b720	-0.078962564
26	0xbd42b530	-0.047536075
27	0x3d6edbb4	0.058314994
28	0xbda55723	-0.08073261
29	0x3dec2a01	0.11531449
30	0xbe5dff3e	-0.21679398
31	0xbe2fb455	-0.17158635
32	0x3d71f899	0.05907497
33	0x3e084112	0.13306072
34	0xbe107c26	-0.14109859
35	0xbe2cc419	-0.1687168
36	0xbdf7af36	-0.12093966
37	0xbbf4ed91	-0.007474609
38	0xbcb105cd	-0.021609211
39	0x3e69aef4	0.22820646
40	0xbdfa5e7e	-0.12225054
41	0x3dcb75bd	0.09934566
42	0x3b3446b7	0.002750797
43	0x3dd62c07	0.10457616
44	0xbe353c6c	-0.1769883
45	0x3d8876e1	0.06663299
46	0xbe3ecab3	-0.18632011
47	0xbe6f7183	-0.23383145
48	0x3e5e936c	0.21735924
49	0xbdbe0cd6	-0.09279792
50	0xbd8005d2	-0.0625111
51	0x3df139a9	0.11778576
52	0x3e17abb7	0.14811598
53	0x3ac3d26a	0.0014940028
54	0x3dfb8137	0.12280505
55	0x3e372eb3	0.17888908
56	0xbe4cdfa4	-0.20007187
57	0x3e56fbbb	0.20994465
58	0x3d9dba51	0.07701553
59	0x3e578371	0.21046235
60	0x3de04be7	0.10951977
61	0x3e0387a5	0.12844713
62	0x3d609f05	0.054839153
63	0x3dda3406	0.10654454

linear.3.weight f4 [2, 64]
0	0x3d732691	0.05936295
1	0x3dfa6d43	0.12227871
2	0x3d829ed3	0.063779496
3	0xbbc76a5a	-0.006085676
4	0x3deadd34	0.114679724
5	0x3d529f03	0.051421177
6	0x3d41eb70	0.04734367
7	0x3ddb24ed	0.107004024
8	0xbdadb8e7	-0.08482533
9	0x3deba4a5	0.11506013
10	0x3db87400	0.090065
11	0x3db83bf2	0.08995809
12	0x3cf60db6	0.030035835
13	0x3d7bb4e3	0.061451804
14	0x3dc6d715	0.097089924
15	0x3d8a013a	0.06738515
16	0xbd76c14c	-0.060242936
17	0xbd9d4273	-0.0767869
18	0x3ddba6d7	0.107251815
19	0xbd84208d	-0.06451521
20	0x3e00b722	0.1256986
21	0xbc61a448	-0.013772078
22	0xbd886aa8	-0.06660968
23	0x3d8d26dc	0.068921775
24	0xbd72e8c4	-0.059304014
25	0x3c6b1339	0.014347845
26	0x3df2817e	0.11841105
27	0x3db06af2	0.08614148
28	0xbd88b85c	-0.06675789
29	0x3dad6464	0.084664136
30	0x3d45a83b	0.04825614
31	0xbde1caa6	-0.1102498
32	0x3d653ddb	0.055967193
33	0x3de0ce9e	0.10976909
34	0xbd6f7873	-0.05846448
35	0xbd7b7a6a	-0.06139604
36	0xbdf643ac	-0.12024626
37	0xbdba90ce	-0.091096506
38	0x3dc64001	0.096801765
39	0x3ca1a937	0.019734008
40	0xbd1347db	-0.0359572
41	0x3d609dca	0.05483798
42	0x3c5a15c8	0.013310857
43	0x3dd6e833	0.10493507
44	0x3df71acc	0.12065658
45	0x3da16099	0.07879753
46	0xbdf77ae8	-0.120839894
47	0xbdf03d35	-0.11730424
48	0x3da0525f	0.07828211
49	0x3da68b27	0.0813201
50	0x3c9be784	0.019031294
51	0xbdc0cbab	-0.094138466
52	0xbd168680	-0.036749363
53	0x3a179cdc	0.0005783567
54	0xbd3c963f	-0.046041723
55	0x3dba269e	0.09089397
56	0xbdda19b5	-0.106494345
57	0x3cf7ae91	0.030234607
58	0xbda98983	-0.082781814
59	0xbd01be9b	-0.031675916
60	0xbd75d8b6	-0.060021125
61	0x3d9fe8e9	0.07808096
62	0xbd72c301	-0.059268
63	0xbd969578	-0.07352728
64	0x3dc6052c	0.09668955
65	0x3daca973	0.084307574
66	0xbd054baa	-0.032542862
67	0xbdca5eb8	-0.098813474
68	0x3d682fe4	0.056686297
69	0x3dfce4df	0.12348341
70	0x3c5c2436	0.013436368
71	0x3d4cf042	0.050033815
72	0xbd2cb5f6	-0.04216572
73	0xbdb99de3	-0.090633176
74	0xbcbc34f0	-0.022974461
75	0x3dd56690	0.10419953
76	0xbd5fed87	-0.054669883
77	0xbd66ef73	-0.0563807
78	0x3dd130d1	0.10214389
79	0xbd467c1b	-0.0484582
80	0x3ddbca18	0.10731906
81	0x3cf93a3f	0.030423282
82	0xbdca2f0d	-0.098722555
83	0xbcaa8a17	-0.0208178
84	0xbcd2ca23	-0.025731152
85	0x3ddaa3a9	0.10675747
86	0xbd310862	-0.043220885
87	0xbd850648	-0.06495339
88	0x3df14e40	0.11782503
89	0x3d163671	0.036673013
90	0xbdd28cfa	-0.102807954
91	0x3d98855a	0.0744731
92	0xbdc6faee	-0.0971583
93	0x3d0d3449	0.03447369
94	0x3c7680ec	0.015045386
95	0x3d70b5e7	0.058767226
96	0x3ca0f2a5	0.019646952
97	0x3d19d309	0.037554774
98	0xbd7c63e1	-0.06161869
99	0x3bf689f4	0.0075237695
100	0xbd1a753a	-0.037709452
101	0x3cbe0d67	0.02319975
102	0xbdea981f	-0.11454796
103	0x3d9a0c78	0.075219095
104	0x3d3814a7	0.04494157
105	0xbd885865	-0.06657485
106	0xbdba2a2b	-0.09090074
107	0x3c076627	0.008264101
108	0xbdbff78c	-0.09373388
109	0xbd016a59	-0.03159556
110	0x3d9231aa	0.07138379
111	0xbdbbca57	-0.09169453
112	0xbd75c470	-0.06000179
113	0xbde36615	-0.11103455
114	0xbc6c5c10	-0.014426246
115	0x3d826a3f	0.06367921
116	0x3d6b9228	0.057512432
117	0x3cbeeb9a	0.023305703
118	0x3d0f72eb	0.035021704
119	0xbc838b93	-0.016057765
120	0x3dab949d	0.08377955
121	0xbc36c8cd	-0.011156273
122	0x3ce38f6a	0.027778346
123	0x3904144e	0.00012596065
124	0x3dba4b80	0.09096432
125	0x3d6feca4	0.058575287
126	0x3d93d24e	0.07217847
127	0xbd7cfd3a	-0.061764933

linear.3.bias f4 [2]
0	0x3c988ce8	0.018621877
1	0xbc36e2a1	-0.011162431
