meta/demos/multiple_experiments/results/models/run_0/emodb_mlp_os_16-64-128_C_val-001_drop-3_learning_rate-01_0_003.model (torch, 48468 bytes, 8 tensors)

linear.0.weight f4 [16, 88]
00000000: d072 1f3c bc72 53bd 3082 2e3d bf33 713c
00000010: 0f05 13be e876 23be 5a8b fb3c a216 18be
00000020: 88d3 96bd ac57 05be 786b 24bc 8faa 05bc
00000030: d101 ddbd c42b 0fbe c197 1d3d dce8 c2bd
00000040: ceab afbd 258a 43bd 9489 95bd 6080 cc3c
00000050: 1f00 abbd 9f6d 49bd 92a4 4cbd b326 19be
00000060: 85d0 483d 881c 1a3e cd8d 27be 7f3b 713d
00000070: 64f4 af3d cec0 2d3e b388 49bc 2680 9cbd
00000080: 6c8d 54bd 4d19 99bd 8f47 6ebd 02c9 c7bd
00000090: 4eab 1cbe ad09 a2bd 8654 393d a422 fa3c
000000a0: d42a efbc 63ed 17be 80dc 45bd d753 67bd
000000b0: cc9c e03d 319f 003e 54ba d93c c2d1 c33c
000000c0: fe3c 89bd ef88 1cbe 658a 223e 8cbb 013e
000000d0: 4884 debd f558 cbbd 9d00 5b3a b2a8 98bd
000000e0: f872 093d b640 96bc 7a2d 923d 5841 213e
000000f0: 8962 28be c92b cabd 46fe 89bd 03fd 0ebc
00000100: a22f 993d d508 14bd 1ab3 c5bb 8cb2 163d
00000110: b72c 14be 98ea 09be c03c f83d f76f d4bd
00000120: 2f91 0ebe 3b58 1f3e e51b 1f3e f632 2b3d
00000130: b744 063e 5805 cdbb 1fb8 06be aa86 b5bc
00000140: b179 913b 5f5d cabd 8a06 0b3c d190 e03a
00000150: e83e 5d3c 0bb7 dbbd e749 dbbd 790c da3d
00000160: f627 09bd 357f 263d cb42 163d c1fa d4bd
00000170: b8d1 96bc 429d efbb cfe5 d6bc 5da1 d03c
00000180: 306f 24bd a016 8dbd 8e9e 1fbd 5d0f 3ebd
00000190: 87d6 babd 6a9f c83b 6699 d0bd 8cf0 24bd
000001a0: 708d fbbc 8aab 243b 2262 6d3d c8de 933d
000001b0: 4a86 8bbc f1d1 483c c081 d63d 6c80 b9bd
000001c0: 456e 57bd 87b1 be3d 5dfa 83bd 56b9 d13d
000001d0: 4550 d83d ac8d 9d3d 2d5a ad3d 2c36 8bbd
000001e0: ac65 b93d 164e dabd 1ab3 c03c 2e8f b1bd
000001f0: 93f0 55bd 4e4e da3c ca3c d23c d94e 58bd
00000200: 6258 5fbc 6632 c63d 1e19 d8bd 711a d9bc
00000210: 69f1 733d 067a 9ebd 7ec3 52bd fc45 ca3d
00000220: 3ec2 67bc 6ca4 81bb ec4b a93c 4839 3b3d
00000230: 8616 7bbd 16e1 b73d 4567 8c3c d9ab 2abd
00000240: 4f96 8ebd 296f cf3d 59ef 9fbd ec4a 3cbd
00000250: 7d3e 6d3c 8bf1 74bd a975 2fbc 1e1e a9bd
00000260: e704 8a3c de51 d0bd 1353 d7bd 67d7 11bd
00000270: bed6 4e3b 2847 a8bd 5b28 85bd fcc5 20bd
00000280: 4211 86bd 59cb b83d 20a5 9dbd 3190 663c
00000290: f7d1 a23d 16c4 ccbb d384 8abc 15c9 9c3d
000002a0: 5a59 6c3d 276b 8abd e800 a4bd f443 86bc
000002b0: 7d1c 2e3d 4f9b 69bd aadb c2bd ae0d 5e3d
000002c0: 53b3 fa3b b5e8 223d c949 47bd 11f8 edbc
000002d0: 9113 7b3d 4a3a 2abd d41f fd3d be73 6e3d
000002e0: 1358 8c39 2943 0ebe 1ae7 b73b 7b30 10be
000002f0: 2fe1 c03c b14d 3fbc a023 9cbc 8d0d d2bd
00000300: 32ef 6b3d 1a2c 11be 2d8a 24bd e05a cebd
00000310: 74e7 733c 1629 f3bd 475e e4bd 9563 b2bd
00000320: b27c 7bbb afbe a1bd b3c7 9c3b 1680 b23d
00000330: 5c16 833d c0f4 22bc bda2 10bd ed90 f3bd
00000340: 9795 a0bc aa1a 713d 52b0 0dbe f977 d1bd
00000350: be34 9dbd 711b a83c ff0e 04be 2889 e1bd
00000360: e728 173d 27b2 1a3d 92d1 02be 8d94 0ebc
00000370: 2040 163c 73b1 00bd 61eb f13c 7701 043c
00000380: 7232 de3c 26cd 423d 432a 1a3e 04a1 f53c
00000390: d8bf 86bb 0a09 153d 002f bfbd 20ce 9fbd
000003a0: 75d5 d63d c709 3a3d 0278 8a3d 174d 00bd
000003b0: 36e8 b3bd 96ee 03be 2f67 1c3d ba33 0bbe
000003c0: 882c ea3d 5670 44bd 3644 90bd 7a18 cdbc
000003d0: 9037 93bd b6cd 0abd 3f49 bebd 3a9a 6c3d
000003e0: 077e 19be 00a3 40bd 1c4a 443d 8afd e83c
000003f0: 5847 b8bb c8ec 9fbd b394 fc3c 4c3c 0cbe
0.009731963 -0.05162309 0.042604625 0.01472181 -0.14357398 -0.15963328 0.030706096 -0.14852384
-0.07364565 -0.13021725 -0.010035388 -0.00815834 -0.10791362 -0.13981539 0.038474802 -0.09517071
-0.08577691 -0.047739167 -0.073016316 0.024963558 -0.083496325 -0.04917681 -0.049961634 -0.14956169
0.049026985 0.15049946 -0.16362686 0.05889463 0.08591536 0.1696808 -0.012300658 -0.0764163
-0.051892683 -0.07475529 -0.058173712 -0.09755136 -0.15299723 -0.07912002 0.045246623 0.030534096
-0.029195227 -0.1483665 -0.04830599 -0.05647644 0.10967407 0.12560727 0.026578106 0.023903731
-0.067010865 -0.15286611 0.15873106 0.126692 -0.108650744 -0.099290766 0.00083542784 -0.07454051
0.03355691 -0.018341403 0.0713758 0.15747583 -0.16443838 -0.098716326 -0.06737952 -0.008727315
0.07479788 -0.036141235 -0.0060333135 0.03679137 -0.14470182 -0.13468397 0.12120962 -0.10372918
-0.1392257 0.15561001 0.15537985 0.041796647 0.1311215 -0.0062567405 -0.13156174 -0.02215894
0.0044395556 -0.098810904 0.008485446 0.0017133002 0.013503768 -0.10728272 -0.10707455 0.1064691
-0.033485375 0.040648658 0.036684792 -0.1039939 -0.018410549 -0.0073124478 -0.026232628 0.025467569
-0.0401451 -0.06889081 -0.03896957 -0.04640137 -0.09122949 0.0061225193 -0.101855084 -0.040268466
-0.030707091 0.002512666 0.057954915 0.072202265 -0.017031807 0.012257085 0.104739666 -0.09057698
-0.052595396 0.093112044 -0.064442374 0.10240428 0.10562185 0.076930374 0.08464465 -0.06797442
0.090525955 -0.10659425 0.023522902 -0.086698875 -0.052231383 0.026648667 0.025663752 -0.05280957
-0.013631912 0.096775815 -0.10551666 -0.026501866 0.0595564 -0.07738118 -0.051455967 0.0987663
-0.014145432 -0.003956368 0.020666085 0.045708925 -0.061300777 0.089784786 0.017139086 -0.041667793
-0.06962263 0.10128624 -0.07809324 -0.04596989 0.01448023 -0.059800666 -0.010709205 -0.082576975
0.01684804 -0.10171865 -0.10513892 -0.035605814 0.0031561102 -0.08216697 -0.06501838 -0.039251313
-0.065462604 0.090231605 -0.07697511 0.014072464 0.07950204 -0.006248961 -0.016909039 0.07655541
0.0577024 -0.06758719 -0.08007985 -0.016389824 0.042507637 -0.05703288 -0.09514554 0.054212265
0.0076507716 0.039772708 -0.04865435 -0.029048951 0.061297957 -0.041559495 0.12359586 0.05821585
0.000267685 -0.13892807 0.0056122662 -0.14080994 0.023544876 -0.011676238 -0.019059956 -0.10256491
0.05760116 -0.1417698 -0.040170837 -0.10075927 0.014886726 -0.11873071 -0.111507945 -0.087104
-0.0038373885 -0.07897698 0.004784548 0.08715837 0.06400749 -0.009946048 -0.03531145 -0.11892877
-0.01960258 0.05886332 -0.13836792 -0.10227961 -0.076760754 0.020520898 -0.12896346 -0.110124886
0.036904242 0.037767556 -0.12775257 -0.008702409 0.009170562 -0.03141923 0.029531183 0.00805699
0.027123664 0.047558926 0.15055184 0.029984005 -0.004112225 0.036385573 -0.093351364 -0.07802987
0.104899324 0.04541948 0.06761171 -0.03132352 -0.08784525 -0.12883982 0.03818434 -0.13593951
0.11434275 -0.047958694 -0.0704426 -0.025036085 -0.07188332 -0.033887587 -0.09291314 0.05776427
-0.14989482 -0.04703045 0.04792224 0.02844121 -0.005623739 -0.07808834 0.030832624 -0.13694876

linear.0.bias f4 [16]
00000000: c756 07be d85d 183d 5c64 613d d8d1 06be
00000010: c854 523c 4465 16bd 60dd b7bd 488f 51bd
00000020: ecd6 6dbb 8dac 7d3d 3fda a9bd 3f5e 10be
00000030: 7588 39bd 3d18 49bd dfc2 52bc 459a 8bbd
-0.13216697 0.03719887 0.05502735 -0.13165987 0.012837596 -0.03671767 -0.08977771 -0.051162034
-0.0036291433 0.061932135 -0.0829358 -0.14098452 -0.04529615 -0.04909538 -0.012863844 -0.06816534

linear.1.weight f4 [64, 16]
00000000: daf8 71bd b4c0 37be 78c7 173e 0db9 0e3e
00000010: d6b6 093e 5fc7 ecbd 6ca5 3f3e 4ec3 99be
00000020: 7ff1 fa3d 60b5 163e 7c2e 863d 4aba 8ebe
00000030: 5467 aebd c6e0 363e 5be2 70bc 9ef0 54be
00000040: f19d 5a3e 807b d53d c087 21be 2a81 4ebd
00000050: 5791 e83c 0fb8 e23d a8be 223e fd17 383e
00000060: f123 173e fa62 54be 389a 6fbd 2141 263e
00000070: 8b99 ed3d d987 593e 9c4e 39be c436 2bbe
00000080: 0444 c8bd 7022 01bd de72 403e fb82 093d
00000090: 1d8a f93d 15c6 c2bc a6b4 ba3d c5de 2dbe
000000a0: 6cff 12be 745b 7d3e 18b9 523e c2ba 0ebe
000000b0: d839 d93d d517 5c3d 3dec 87be 6a1f 91bd
000000c0: 0ce3 22bd c00d 73bc 0dec 15bd d282 273e
000000d0: ba2e fe3d ca2d 45be 881c 3a3e 824e 59be
000000e0: 0fc7 4b3d b0de 983c 4062 553d 386d ffbd
000000f0: 5bbe 473e ac46 e73d 56c4 303e 08b2 15be
00000100: 13cd 083d 0813 3d3e 7e82 47be f14f b9bc
00000110: 0412 ed3d 7a7e 91be 88e3 043d 4ac1 9d3d
00000120: 3db7 033d 8064 5e3e 905c 9e3d 1b85 d5bd
00000130: 1069 d6bd 3a88 2fbd 684e c93d 6787 73bd
00000140: e5dc 23bd f2b8 74be 562c 23be 0ab0 b63d
00000150: ae2b 973d c253 16be 4424 d3bc b0a3 bc3d
00000160: b3af 003e a0e5 99bd 1c9f b13d 9e4e 2fbd
00000170: b143 c13d 5689 57be 0227 5bbc b78d 6d3d
00000180: 3199 15be 3e56 7b3e b2ac 473e 238d a63e
00000190: e8b1 06bd adf9 d1bc 2bc2 dcbd 8ab9 e7bd
000001a0: b77b 803d b4f8 103e 6c9d 20be c2b6 173e
000001b0: d027 513e 2843 973e 9544 cbbd ca42 edbd
000001c0: 3a54 9bbd a44a 3ebe 4275 81bc c368 7b3e
000001d0: 117a 8f3e 4e44 15be a8c2 3ebe 8db4 9a3e
000001e0: 3c27 e3bd a685 383e ae62 433e 6608 8abd
000001f0: 24bf f3bc a141 a33e 15f5 c43d 7acf 0b3e
00000200: e285 923d b69f 123e a1c0 7e3e 1ecf babd
00000210: 464b f3bd 2cb9 45be 4c92 0a3e 6dcc eebd
00000220: f2e7 143e 9e9b 6bbe 6c7a 713e 568f 7f3e
00000230: 7a12 0cbc c171 09be 5a09 3dbe 6f78 e7bd
00000240: 1d44 463e befb 133e 30b0 19be 3680 323e
00000250: d58e 94bc 9d49 84be 441a cdbd 323f b9bd
00000260: 84f3 41bd 1854 453d 1ca6 99bd f38f 2e3e
00000270: f440 273e 729e 9fbd d3e5 403e 485f 85bd
00000280: ef3d b5bd 307a 95bc ecb4 8a3d a0ed 7e3e
00000290: 45c4 933e 6c00 f6bd 4f90 b63d 34b5 16be
000002a0: ce4e 803b 2ed8 00be d2ea 72be 7e51 573b
000002b0: f5a7 873d bc8d 13be 8d9e 0cbe 192f 3ebc
000002c0: b678 b63d 2c5d 51be 9eac f13d a8e8 26be
000002d0: 8519 443d 0030 3f3c a6d6 92be dfb5 163e
000002e0: 16c7 993d 04b2 ad3d 9e6a 68be 1fe1 443d
000002f0: 54a3 8b3d 7612 f3bd 9c3e 3b3e c417 65be
00000300: a85f 3abe 127c 103e 9400 853e c125 013d
00000310: 7afc 053e 241a 1f3e a85b 90be ad48 11be
00000320: 8fa1 653e 9ef8 273e c2c0 22be 4378 253c
00000330: a246 e83d 0e29 51be 0764 fdbd 4f5f adbd
00000340: 8c4a 263e 0cd9 36be 9bd2 903d 9210 4abe
00000350: 1ac6 7d3d 0607 c1bc 8606 0bbe b4e0 1f3e
00000360: 27db 033e 482b 503e fc35 fbbd 8cb4 a53d
00000370: aee8 50be a332 a3bd 02e8 373e d009 e23d
00000380: 4623 9a3e 30b3 14be a2b6 9dbd 324a a2bd
00000390: 502d 74be c887 d5bc 9704 c7bc 015b f93c
000003a0: 5836 043e 701a 793e d047 f73d 5528 433e
000003b0: e40b 483e 59e7 3e3d dfdf 0dbe 8fba b0bd
000003c0: 3110 a7bd b0f2 843c 0a50 093e f08f 3d3e
000003d0: 67bf f53c 60c9 3abd 8609 d83c 1671 263d
000003e0: 251e 073e 6484 8a3d b838 7dbd 4c77 433e
000003f0: 02a0 91be 6deb 8e3c 546e ee3b 8e21 15be
-0.059075214 -0.17944604 0.14822185 0.13937779 0.13448653 -0.115614645 0.18715447 -0.30031818
0.12253093 0.14717627 0.06551835 -0.27876502 -0.08515802 0.17859182 -0.014702405 -0.20794913
0.21349312 0.104239464 -0.15774441 -0.05041615 0.028389616 0.11070263 0.15893042 0.17977901
0.14759804 -0.20740882 -0.058496684 0.16235782 0.116015516 0.21243228 -0.18096393 -0.1672011
-0.09778598 -0.031526983 0.18793818 0.03357218 0.12184546 -0.023776093 0.09116487 -0.16979511
-0.14355248 0.24741918 0.2057842 -0.1393843 0.10606736 0.053733665 -0.26547423 -0.0708607
-0.03976731 -0.014834821 -0.03660207 0.16358498 0.12411256 -0.19255748 0.18174946 -0.21221355
0.049750384 0.018660873 0.05209565 -0.12472004 0.19506209 0.112927765 0.17262396 -0.14618695
0.0333987 0.18464291 -0.19483373 -0.022621127 0.11575702 -0.28416806 0.032443553 0.077028826
0.03215717 0.21718025 0.07732499 -0.104257785 -0.10469258 -0.042854525 0.09829408 -0.0594553
-0.040005583 -0.23898676 -0.15934882 0.089202955 0.07381378 -0.14680389 -0.025774129 0.092109084
0.12567024 -0.075145006 0.08672926 -0.042799585 0.09436739 -0.21048483 -0.013375999 0.057996478
-0.14609219 0.24544618 0.19499472 0.32529554 -0.03288451 -0.02563175 -0.10779222 -0.11314686
0.06273597 0.14157373 -0.15685052 0.1481581 0.20425344 0.29543424 -0.0992519 -0.11585005
-0.07584424 -0.1858316 -0.015802983 0.24551682 0.28022817 -0.14576837 -0.18628943 0.30215874
-0.11091468 0.18019733 0.19080612 -0.06739883 -0.029754229 0.31886008 0.09617058 0.13653365
0.07154442 0.14318737 0.2487817 -0.09121536 -0.11879592 -0.19308919 0.1353237 -0.11660085
0.14541605 -0.23008582 0.23581856 0.24957022 -0.008549327 -0.134223 -0.18460599 -0.11302268
0.1936192 0.14451501 -0.15008616 0.17431721 -0.018134514 -0.25837412 -0.100147754 -0.09045257
-0.047351375 0.0481759 -0.07502386 0.170471 0.16333371 -0.07793893 0.18837671 -0.06512314
-0.088497035 -0.01824674 0.06772789 0.24895334 0.2886068 -0.12011799 0.089142434 -0.14717561
0.0039156443 -0.12582466 -0.2372239 0.003285497 0.06623832 -0.14409536 -0.13732357 -0.011607909
0.089097425 -0.20445698 0.11800502 -0.16299689 0.0478759 0.011669159 -0.2867939 0.14717816
0.07508676 0.084812194 -0.22696921 0.048066255 0.06818262 -0.118687555 0.18285602 -0.22372347
-0.18200552 0.14109829 0.25977004 0.031530146 0.13084593 0.15537316 -0.28194928 -0.1418788
0.22424911 0.16403434 -0.15893844 0.010099473 0.11341597 -0.20425817 -0.12372594 -0.08465444
0.16239375 -0.17856234 0.0707142 -0.19732884 0.061956502 -0.02356292 -0.13576707 0.15613061
0.12876569 0.2032901 -0.12266156 0.08091077 -0.2040126 -0.079686426 0.17959598 0.11037028
0.30105036 -0.1452148 -0.0770085 -0.07924308 -0.2384541 -0.026065722 -0.02429418 0.030438902
0.12911355 0.24326491 0.12074244 0.19058354 0.19535786 0.04660735 -0.13854931 -0.08629333
-0.08157385 0.016229004 0.13409439 0.18511939 0.029998494 -0.045602202 0.026371729 0.04063519
0.13195093 0.06763533 -0.06182167 0.19088477 -0.2844239 0.017446244 0.0072763357 -0.14563581

linear.1.bias f4 [64]
00000000: 10ac fc3d 01a7 99be 1060 bf3c dbec d0bd
00000010: 07b5 13be 03ff 973e 865e 9dbd ed47 38be
00000020: 82f8 4b3e 360c 21be b941 31bd ffb8 3dbe
00000030: a79c 9b3c b2bb 183d 915b 10bc d7c3 07be
00000040: d04e 2abe 15bf cfbc 6eaf 883e ece7 9abc
00000050: a8d6 ae3e 7a0e cc3d 90d3 16be c9e9 293e
00000060: d6db 76be b376 bd3d 544e 97be 4262 923c
00000070: 183e 2ebd 9b7a 453e 0c47 d63d 2180 243e
00000080: ade5 0a3e 3b8f 283e bd7d 0cbe 2445 33be
00000090: fedb b7bd 4524 283e 7ad3 0e3d 05c4 503d
000000a0: 858a 873e 705c 193d 128f 153b 863f c0bd
000000b0: cc51 1fbe 7ff1 073e 8404 3e3e dbae 943d
000000c0: 0685 343e 4d29 8abe fb7c 12be 0c48 893d
000000d0: 3c4a 38be 73d6 913e df8a d73d 31db 4fbe
000000e0: 46c9 83bd dd4a 60be 5207 76be 8c89 833b
000000f0: ba37 2cbe 3058 25be 23ea 373e 3384 6ebd
0.12337506 -0.30010226 0.023361236 -0.102014266 -0.14424525 0.29686746 -0.076840445 -0.17996188
0.19919017 -0.15727314 -0.04327557 -0.18527602 0.018995596 0.037288375 -0.008810894 -0.132583
-0.16631627 -0.02535967 0.26696342 -0.018909417 0.34148145 0.09963699 -0.14729142 0.16593088
-0.24107298 0.09251156 -0.29551947 0.017869119 -0.042539686 0.19285052 0.1046277 0.16064502
0.13564177 0.16460888 -0.1371984 -0.17506844 -0.08977507 0.16420086 0.03486965 0.05096819
0.2647287 0.03744167 0.0022820872 -0.09387116 -0.15558547 0.13275717 0.1855641 0.072599135
0.1762887 -0.26984635 -0.14305489 0.06703195 -0.17997068 0.28483924 0.105245344 -0.20298459
-0.06434874 -0.21903558 -0.2402623 0.0040141996 -0.16818133 -0.16146922 0.1796041 -0.058231544

linear.2.weight f4 [128, 64]
00000000: 1f9f 1b3e 1da7 533d 2e8b ce3d 280a 84bd
00000010: 38a3 ffbd 5855 e63c 1864 98bd 5888 b3bd
00000020: a3c1 c1bc b816 3c3c 867f b03c ad8b f8bc
00000030: 8f11 e1bd bfec 383d eeee b4bd bdf1 ae3d
00000040: ad4a 4bbe 9d70 36bd ff4a b7bb 9b85 a9bb
00000050: 6acc abbd 2b99 e8bc 447a a83c ac39 98bd
00000060: 16b2 8fbd 4574 05be 3262 8b3d 3ce9 c8bd
00000070: 96d6 ffbd 2627 7e3c fed9 b93d c0eb 1c3d
00000080: 5447 093c c632 00be aeb3 e93d 6970 bfbd
00000090: 13ae 15be 6a39 823d 40f7 913d 2c6a 883d
000000a0: 46d1 d4bd 50b5 2f3d 7f9c eb3c f588 1f3d
000000b0: 0957 55bc 0cca b3bb 7d9b dbbb f134 be3d
000000c0: b4c3 50bd 44a7 913d bcb2 493e 63ae 053c
000000d0: 0c3b e03d 49a4 5e3d a439 8d3d c515 4b3d
000000e0: b11f 943b 600f b1b9 e040 e73d df19 833a
000000f0: a693 953d 016c 403d 987e 803d d7bd f4bd
00000100: 2003 ad3d a777 863c e9b9 573d cd1c 5bbd
00000110: f1b3 8fbd 3d42 553d 5551 dabb 652a 2ebd
00000120: 2b14 283e c348 6ebd f2a6 54bb f762 a73d
00000130: b03e 05be 4515 11bb b736 89bd ffe2 9cbd
00000140: e81c 08bd 7222 193e 14ce 253e 80f1 023e
00000150: 3cf5 cbbc da9e cdba 2003 13be e6ce f53d
00000160: 6bed e2b9 c706 bd3d a198 b03c e28d 5c38
00000170: c3e3 a13d 99f3 f73d 122c 363e fa74 a63d
00000180: e199 90bd c2d1 e7bc e655 1bbd 7295 1cbe
00000190: cb3f b0bd ab04 9c3d 7605 8dbc 6a45 bf3c
000001a0: a732 03be 992e b43d ca9a 073a eb11 59bd
000001b0: 018f 54bd e0a8 d3bc 5ae2 f9bd 24e2 c23d
000001c0: d1e4 c0bc 1415 2f3c 3663 d23d f1cb 633e
000001d0: 2b4f a83d 130d 8d3d 0b82 57bc 753f b93b
000001e0: f712 ddbc 32fe 8dbd e9b2 833d 5dc8 a83d
000001f0: fd98 f23d b6f7 fcbd e283 94bd b27f b1bd
00000200: c861 58bc 5eab a0bd eda4 3c3d 92ef fd3d
00000210: 4983 173e cfc2 873d 6452 413d 3349 34bd
00000220: 0449 82bd 663a e8bd b298 70bc 3300 c43d
00000230: b152 1cbc 298d 90bd 2f8d d3bd 3d68 243e
00000240: 7720 82bc 8569 a5bd 3808 2cbe 7bb8 52bd
00000250: c6da cfbc d03b 6cbc c612 0cbd c87b 28be
00000260: 75ff 013e 11a9 34be 74f7 c93d c801 81bd
00000270: 7b99 8e3d bb69 8d3c e3a3 eb3d b0b3 10be
00000280: 7a96 91bd 6916 3dbd 6613 3fbd fb35 64bd
00000290: c8a5 58bd 2bfb a03c 6542 753d d14d d93c
000002a0: b8f1 12be 8c6d b2bd 731d 88bc ee81 a5bd
000002b0: 57e0 ccbc b3d3 44bc 074c 3cbe dc12 eabd
000002c0: 7f2c 94bc f412 43bd c2ff 413c 1647 523e
000002d0: 07d7 063e a419 223c 3080 e8bd e347 0e3e
000002e0: 5803 d6bd 2df3 a6bd 7b97 8bbb 63cb cdbd
000002f0: 24e8 5d3d c675 72bb 6334 c7bd cf0e 04be
00000300: dc96 e03b 443b cfbd b84c 8d3d b894 803d
00000310: ab51 713d 8c69 863d 9bf2 c03c 335d 043e
00000320: 08fa 92bd 14f4 9c3d 31a8 7f3d d690 ab3d
00000330: 5409 863d 0ad1 16bc 5736 273c b45a ebbc
00000340: 4a7d a1bd bb87 2bbd 9f3e 453c 7383 523d
00000350: af04 983c 927b 433d 4e9f 8f3d 2f5e bf3d
00000360: 7927 b7bc c3b3 0fbd fbeb 88bc 0dc7 433d
00000370: c248 e33d 2e0b c0bd 3a0c f93c ca2a 9ebd
00000380: cf2d 14be 9bb4 353c 5ab2 a1bd 8997 2fbd
00000390: 467a 95bd 8235 0b3c 96ec fd3c 8f92 63bd
000003a0: b029 6dbd 5881 e13d 9c03 243d e776 1bbe
000003b0: b2bd 2fbd 41e2 253e 900d 843d b006 aabd
000003c0: 6d71 01bd c877 5a3d 2585 e03c c704 70bd
000003d0: 9660 23bd c129 9dbd a2d5 aabd 84f2 dc3d
000003e0: 69cc e73d d42e 143c aee6 973d ebf3 39bd
000003f0: 20fc f73c c4fe ef3d eb29 84bc e93f 9cbc
0.15197419 0.051673044 0.1008514 -0.0644725 -0.124823034 0.028116867 -0.07440966 -0.0876624
-0.023651903 0.011480026 0.021545183 -0.03034004 -0.10989677 0.045147654 -0.08834635 0.08542202
-0.19852705 -0.04454099 -0.005593657 -0.0051733977 -0.08388598 -0.028393349 0.020566113 -0.07432875
-0.07016389 -0.13032635 0.06805839 -0.09810111 -0.12492101 0.015512263 0.09074782 0.038310766
0.008378822 -0.12519369 0.11411224 -0.093476124 -0.14617185 0.06358607 0.07127237 0.06660876
-0.10391478 0.042897522 0.028761147 0.03894897 -0.013021239 -0.0054867323 -0.0067018853 0.092874415
-0.050967887 0.071119815 0.19697088 0.008159253 0.10948762 0.054355893 0.0689576 0.049581308
0.0045203795 -0.00033771526 0.11291671 0.0010002217 0.07303552 0.046978 0.06274146 -0.119502716
0.08447862 0.016414477 0.052667532 -0.053494263 -0.07016743 0.052065123 -0.0066625276 -0.0425209
0.16413943 -0.05817486 -0.003244814 0.08173173 -0.13012195 -0.0022137922 -0.06699889 -0.076604836
-0.033230692 0.14954546 0.16191894 0.12787437 -0.02489721 -0.00156876 -0.14356661 0.12002353
-0.0004328297 0.09229808 0.021557154 5.2584226e-05 0.0790477 0.121070094 0.17790249 0.0812778
-0.070606 -0.028298263 -0.037923716 -0.15291384 -0.086059175 0.07618078 -0.017214518 0.023348529
-0.12812291 0.0879795 0.00051729067 -0.052995604 -0.05189419 -0.025837362 -0.12201376 0.09515789
-0.023546608 0.010686178 0.10272829 0.22245766 0.08218225 0.06887259 -0.013153563 0.0056533166
-0.026986582 -0.069332495 0.06430609 0.08241341 0.118455864 -0.123519346 -0.07251717 -0.08666934
-0.013206907 -0.07845186 0.046055723 0.1239921 0.14796175 0.06628954 0.047197714 -0.04401512
-0.06361583 -0.113392636 -0.014684843 0.095703505 -0.0095412 -0.07058174 -0.10329663 0.16055389
-0.015884621 -0.08076767 -0.1680001 -0.051445466 -0.025372874 -0.014418557 -0.03419759 -0.16453469
0.12695105 -0.17642619 0.09861651 -0.06299168 0.06962868 0.01726233 0.11505868 -0.14131045
-0.07108779 -0.04616395 -0.04664936 -0.055715542 -0.052892476 0.019651016 0.059877772 0.026526364
-0.14350021 -0.08712301 -0.016615605 -0.08081423 -0.025009317 -0.012013364 -0.18388377 -0.114293784
-0.018087624 -0.047625497 0.011840763 0.2053493 0.13167964 0.0098938085 -0.11352575 0.1389461
-0.104498565 -0.08151851 -0.0042600012 -0.100485586 0.054176465 -0.0036996468 -0.09726789 -0.12896274
0.0068539213 -0.10118726 0.068993986 0.06278366 0.058915775 0.065631 0.023553183 0.12926178
-0.07176596 0.07663742 0.06241626 0.08377235 0.06544748 -0.009205112 0.010205827 -0.028729774
-0.07885225 -0.04187749 0.012038856 0.05139489 0.01855692 0.047725268 0.07012807 0.09344136
-0.02235769 -0.035083544 -0.016714087 0.04779725 0.11097862 -0.09377132 0.030401338 -0.07723005
-0.144706 0.011090423 -0.07895346 -0.042869125 -0.072987124 0.008496644 0.030996602 -0.05555969
-0.057901084 0.110109985 0.040042505 -0.15182076 -0.042905517 0.1619959 0.06447899 -0.08302057
-0.031602312 0.05333689 0.027407238 -0.058598306 -0.039887033 -0.076739796 -0.083415285 0.10788444
0.11318285 0.009044368 0.074170455 -0.045398634 0.03027159 0.117185146 -0.01613327 -0.019073443

linear.2.bias f4 [128]
00000000: 307c 39bd 1acb ae3d 95db b73d f869 aebd
00000010: 04e3 b53c 24ba 23bc 093c c63d 02d3 1bbe
00000020: f6fe 8bbd 3a6c febd d559 873c a3b1 4cbd
00000030: 027a 60bd bf81 063d 7996 b9bd 28f9 24bd
00000040: 2c1b 6dbe 8fce 48bd 6d4a 1abe af68 fd3d
00000050: 97ca cfbc 4660 2c3d 539b 223d b1d9 e93d
00000060: 7ed0 d63d 26a7 08bd 2bc2 fcbd 480f 62be
00000070: 627d 943d 2296 613d f71b 7ebd 4688 003e
00000080: a674 0a3d 081d 08be 7f46 9dbd f69c a3bc
00000090: c85f b4bd ed47 1c3e 3a6f 0abe d7f9 163e
000000a0: a15d b1bd 374c 86bd 5857 90bd f116 bbbd
000000b0: dac6 0bbc 6e4e 54be cde5 bbbd c4c2 27be
000000c0: 9915 163e 0768 d4bc fe99 833d 258d 17be
000000d0: 963e 7f3d 68e4 7c3d 881f 88bd 6e8f 13be
000000e0: 7926 84bd 394d 62bd 7607 9fbd f4a6 943c
000000f0: cadc 8b39 00ee 47bc 5e76 1fbe 3f26 8b3d
00000100: 9fa7 23bd 7774 22bd 52d6 0bbd 2b99 06be
00000110: fc1d 1abd 9087 0ebd 0598 383d 9b6c ee3d
00000120: e9da 143d 61cd db3b a8f0 9abd c1c6 8e3d
00000130: 2c79 c8bd 144c 27bd 5cb9 4dbd e61f 6f3c
00000140: c41a 17be 7dad c5bd fa78 0cbe 6155 edbd
00000150: 925e 413e e8b1 20be cc3e f83c d6df 8739
00000160: f778 ac3d 1f6f 683d 45ef 653e 6fd7 6abd
00000170: 582a d1bd 045d 7fbe 9175 0abb 8233 69bd
00000180: 9462 0c3e 9708 55be e62b 78bd 00f4 c4bc
00000190: 9a4b b3bc 7a1a 9abd b154 c53d e0b0 23be
000001a0: 97ce 98bd 3aea bfbd de0f d9bc d3ec 383c
000001b0: b724 8ebd ec8b 8e3e 9833 19bb d2c4 1dbd
000001c0: a03c 92bd b505 0ebd bc10 ecbb 6e06 fbbc
000001d0: 5a1d 41be 6ddd 74bd 6d2b f9bc b888 f9bd
000001e0: b811 7dbe 2631 79bc 10ae 823d b342 62bc
000001f0: 2842 92bc 27bd a2bd eb9c fb3b 2324 fb3d
-0.04528445 0.08534832 0.08977429 -0.08516306 0.022202976 -0.00999311 0.096794195 -0.15217212
-0.06835739 -0.12422986 0.016522327 -0.049974095 -0.054803856 0.03283858 -0.090619035 -0.040276676
-0.23154896 -0.049025115 -0.15067454 0.123734824 -0.025365157 0.042084 0.03969891 0.114184745
0.104889855 -0.03336253 -0.12341722 -0.22076142 0.072504774 0.05507482 -0.062038388 0.12551984
0.03380265 -0.13292325 -0.07679462 -0.019972306 -0.08807331 0.15261813 -0.13518992 0.14743744
-0.086604364 -0.065575056 -0.070479095 -0.09135235 -0.008531297 -0.20733044 -0.091746904 -0.16382891
0.14656676 -0.02592851 0.06425856 -0.14799936 0.062315546 0.061741263 -0.06646639 -0.14410183
-0.064526506 -0.055249427 -0.07765095 0.018146016 0.00026676647 -0.01220274 -0.15572497 0.06794404
-0.039954778 -0.03966185 -0.03413994 -0.13144366 -0.03762625 -0.03479725 0.045066852 0.116418086
0.03634158 0.0067078327 -0.07565433 0.06971503 -0.09788737 -0.040844038 -0.0502256 0.0145950075
-0.14756304 -0.09652231 -0.13718024 -0.1158855 0.18883732 -0.15692866 0.030303381 0.00025915977
0.0842151 0.0567466 0.22454555 -0.05733436 -0.102131546 -0.24937826 -0.0021127204 -0.056933887
0.1370948 -0.20804058 -0.06058874 -0.02404213 -0.021886636 -0.07524581 0.09635294 -0.15985441
-0.07461279 -0.09370847 -0.026496824 0.011286932 -0.069405966 0.27841127 -0.00233767 -0.03851778
-0.071404696 -0.03467341 -0.0072041433 -0.030642714 -0.18858853 -0.05978148 -0.030416215 -0.1218428
-0.2471379 -0.015209472 0.06380856 -0.013809848 -0.017853811 -0.07946234 0.007678618 0.12262752

linear.4.weight f4 [2, 128]
00000000: 715b 18bd 2673 123b fa76 bfbd b8d2 1cbd
00000010: 8e31 0d3c 6ce9 82bd 58de ab3d bac6 2fbd
00000020: 71f1 833c a558 bc39 a080 c93a ece8 0b3c
00000030: 50ce 84bd 394d ca3c b206 113d 2c00 83ba
00000040: 0fa1 cfbd 19e3 80bc b36a e8bd 3bdd 573d
00000050: a949 0dbd 9bc3 bd3c 1499 c6bc 6739 83bd
00000060: d064 b23b 5a79 153d 7c46 21bd cd31 ca3c
00000070: 5995 113d 4ad7 ca39 a56e f7bd 2e48 073e
00000080: 5223 353d 14db 2d3c 5edf d73c db97 82bd
00000090: 03c0 24bd 5617 ba3d 53ef d23c 3f5e bdbc
000000a0: 0f83 473d 94b4 49bd 41f3 43bd 522f 44bc
000000b0: e24f dcbc 0ed6 29bc 4c56 aabd 7aca 073d
000000c0: 4405 123e b963 5cbc 5f5b ccbc 25fc 0abd
000000d0: 6a90 68bc 331a cb3c 36bb 043d 160d 583c
000000e0: 5e78 9e3c 2049 da3c a609 6d3d a70a 663d
000000f0: 0760 393d ab1c 933d a70c 9ebd 29e9 ff3c
00000100: ac6c ba3c 6a20 ae3d 30cc 57bc c1c6 843d
00000110: bb6b 86bd 7e48 bebc 7fba 86bd e336 fc3c
00000120: f2ca 11bc 8480 00bd 3d3b 9dbd d12e 33bb
00000130: c7cb e53c 667c 0a3d 203b 59bd ee06 a4bd
00000140: d575 9fbc c82a a33c c34f f0bc 68bd 5cbd
00000150: e1d2 aabd e512 e7bc 4bf6 1abd 93fd 323d
00000160: 5bcd a33c b647 f43c 38f3 9e3d e7ee a43b
00000170: afef a13d fec1 8c3d 95d3 823c 2be6 93bd
00000180: 2fb8 b03d e8c0 12bd 9ae0 c63d 2f80 1d3d
00000190: b3d5 413d 25e8 0c3d 747b b43d 5c29 363d
000001a0: 73f3 13bd 0950 99bc 494d 273b dfc8 3abd
000001b0: 40b0 603c e583 2c3e 0902 b03d b336 f13c
000001c0: c810 2e3d 7f7f afbd fab2 143e f686 473d
000001d0: bca1 a0bc 20eb aabd 57e2 fe3c 44ea ba3d
000001e0: 10f4 4b3d 46a0 c83c 96a4 53bd c412 a1bb
000001f0: 23a4 f1bb 451c 48bd 2ec6 9ebd abaa 263d
00000200: e78e 773d b935 f5bc a686 3d3d 3dc7 363d
00000210: 27bb 663b 531b 97bd 3812 89bd 9997 0cbd
00000220: 7818 633d 3390 4bbd 90a2 583d fa30 0f3c
00000230: 49cb 54bd ad17 c2bc a8f4 343d bba0 b83c
00000240: 0c0f c8bc e54a 943c de5b 263d de06 44bd
00000250: a473 5a3b 1b8f 213c aeac 23bd 84b7 8abd
00000260: 34bb 98bd 09f0 0ebd ded8 1f3d 5c6a 6f3d
00000270: ce61 cb3c ed61 ca3c 184e 2b3d 4acc e03c
00000280: 9b07 4f3d 2972 223c 8a0c 9abc cf33 f9bc
00000290: 5334 713d 1c1c 6cbd 9c1b 413b b5f0 c0bd
000002a0: 5488 25bd 8533 493d 6ade bebd 5205 4e3a
000002b0: 361a 81bd f570 cdbd 7cc5 223d 4648 0f3d
000002c0: 0ded a6bd 85a1 d03c eccc fcbc 977a 5abd
000002d0: 1c24 86bd 0869 a1bb 7f89 e6bd 8770 50bd
000002e0: 6eb1 843d cc97 cf3c 16af 443d 1599 a13c
000002f0: ed16 4b3d 6e53 a2bb 6095 a3bd 0d1b d7bc
00000300: f9cf 3cbd cebe aebd 1345 a53d 5ce5 ac3b
00000310: 41f8 873d 4e8b 523d a52e c93d 1c1f b1bc
00000320: a7e0 343d 4168 c93d c2a8 b23c 23ad c7bd
00000330: 1f8d 55bd 1647 943c 135b febc 3879 95bd
00000340: 345f 393d df1b 3fbc a8b4 7abc 9fdb b33d
00000350: 410d 0e3d ed14 ed3d 7165 573d 4762 da3c
00000360: d3cf 18bd 18c0 46bc 1b27 25be 5911 e73b
00000370: 9133 01bd 36e8 893c 5dd1 65bd c2e6 113e
00000380: 9383 313d 18af ccbb 7c27 263c 0ec5 e6bd
00000390: 8db6 093c 2e3c f1bc 4bef 1abc e438 0b3c
000003a0: 90b0 1b3d bcd0 aabd eb87 0b3c 7943 f5bc
000003b0: 9707 dbbb d533 f0bd bad2 fa3c b783 973c
000003c0: 7f29 ae3c 3a3c 4a3c 6d3a 23be ead5 463d
000003d0: 622b 1c3d 4307 38bc 5dc0 3abd b30c aabd
000003e0: 3399 e4bd 3ce9 0f3c 416d 63bd b271 bf3d
000003f0: 34b5 27bd 2bdd 833d bc53 44bc 66b5 563c
-0.03719658 0.0022346466 -0.09348865 -0.038286895 0.008617772 -0.06392178 0.08392018 -0.04291413
0.01610634 0.000359242 0.0015373416 0.00853942 -0.064846635 0.024695026 0.035406776 -0.0009994558
-0.10138141 -0.015733289 -0.11348476 0.052701216 -0.034494076 0.023164561 -0.024242915 -0.06407433
0.0054441467 0.036492683 -0.03937386 0.02468195 0.03554282 0.00038688845 -0.12081651 0.13211128
0.044223137 0.010611314 0.026351627 -0.063766204 -0.04022218 0.09086482 0.025748884 -0.02311623
0.04870897 -0.04924448 -0.047839407 -0.011974173 -0.02689356 -0.010365976 -0.08317241 0.03315208
0.14259821 -0.01345151 -0.024945913 -0.03393187 -0.014194587 0.024792766 0.0324051 0.013186714
0.019344505 0.026646197 0.05787053 0.056162503 0.045257594 0.07183202 -0.07717257 0.03123911
0.022756897 0.08502276 -0.013171241 0.06483222 -0.06563517 -0.023227926 -0.0657854 0.03078789
-0.008898484 -0.031372562 -0.076773144 -0.0027341137 0.02805127 0.03381004 -0.0530349 -0.08009134
-0.019465366 0.01991786 -0.029334908 -0.05389157 -0.08341003 -0.028207252 -0.03783254 0.04369886
0.019995382 0.02981935 0.07761234 0.005033362 0.07907044 0.068729386 0.01597003 -0.072216354
0.0862888 -0.0358285 0.09710808 0.038452324 0.04732294 0.034401078 0.08812609 0.044473037
-0.036120843 -0.018714922 0.0025528243 -0.04560172 0.013713896 0.16847189 0.08594138 0.029445028
0.042496473 -0.0856924 0.14521399 0.048712693 -0.019608371 -0.08345628 0.031113787 0.09126714
0.049793303 0.024490487 -0.051670633 -0.004915567 -0.007374303 -0.048855085 -0.077526435 0.040690105
0.060439017 -0.029932844 0.04627099 0.044623602 0.0035206766 -0.073782586 -0.06692928 -0.034324262
0.055443257 -0.049698066 0.052889407 0.008739704 -0.05195168 -0.02369293 0.044178635 0.02253758
-0.024421237 0.018102119 0.040614955 -0.04785811 0.0033333087 0.009860779 -0.039959602 -0.06773284
-0.07457581 -0.034896884 0.03902518 0.05845104 0.02482691 0.024704898 0.041822523 0.027441163
0.050544363 0.009914913 -0.018804807 -0.030420212 0.05888779 -0.057643995 0.002946592 -0.09420911
-0.040413216 0.0491214 -0.09319766 0.0007859069 -0.063038275 -0.100313105 0.039739117 0.034981035
-0.081506826 0.025467644 -0.030859433 -0.053339567 -0.06549856 -0.004925851 -0.11256694 -0.050888564
0.064791545 0.025340937 0.048018537 0.019726316 0.04958241 -0.0049537933 -0.079874754 -0.026258016
-0.046096776 -0.08532487 0.080698155 0.005276365 0.066391475 0.051402383 0.0982335 -0.02162128
0.044159558 0.09834338 0.021808986 -0.0974982 -0.052136537 0.018100303 -0.031049287 -0.07298511
0.04525681 -0.01166436 -0.015301861 0.08782124 0.03468061 0.11576257 0.052586976 0.02665819
-0.03730757 -0.01213076 -0.16128199 0.0070516285 -0.03154332 0.01683436 -0.056107868 0.14248183
0.04333837 -0.0062464587 0.01014125 -0.11268054 0.00840534 -0.029447641 -0.009456466 0.0084974505
0.03801018 -0.08340594 0.008516292 -0.0299394 -0.0066842544 -0.11728636 0.03061806 0.018495424
0.021260021 0.012343461 -0.15940256 0.048543848 0.03812731 -0.0112322 -0.04559361 -0.083032034
-0.11162033 0.008783635 -0.055524115 0.093478575 -0.040944293 0.06438669 -0.011982854 0.013104772

linear.4.bias f4 [2]
00000000: dbef c73d c946 19bb
0.09762546 -0.0023388139
