meta/demos/multiple_experiments/results/models/run_0/emodb_mlp_praat_16-64_C_val-001_learning_rate-0-0001_0_006.model (torch, 10758 bytes, 6 tensors)

linear.0.weight f4 [16, 39]
0	0x3e2131f3	0.1574171
1	0x3ddd63f7	0.108100824
2	0xbe13e673	-0.14443378
3	0x3c0b04b9	0.008485013
4	0x3dc292fc	0.09500691
5	0x3d6c73be	0.057727568
6	0x3e1d5e17	0.15367924
7	0x3defef4c	0.11715564
8	0xbe1d922e	-0.15387794
9	0x3d96e0b3	0.07367077
10	0xbc85a1bd	-0.016312474
11	0xbaba7070	-0.0014224183
12	0xbd40f16e	-0.047105245
13	0xbda5532e	-0.08072506
14	0xbe1ea627	-0.1549307
15	0x3d9bfa18	0.07616061
16	0xbe02d3f8	-0.12776172
17	0xbe125498	-0.14290082
18	0x3dd1b96b	0.10240444
19	0xbe1636eb	-0.14669387
20	0x3c32d184	0.01091421
21	0xbdb3e98a	-0.087847784
22	0xbe1c1463	-0.15242152
23	0x3cf20376	0.029542666
24	0xbd053059	-0.03251681
25	0x3d7769bf	0.06040358
26	0x3dd3513e	0.1031823
27	0xbdeb55f4	-0.11491004
28	0xbd3a75d7	-0.045522537
29	0x3c7cf32f	0.015438839
30	0xbe109bf9	-0.14121999
31	0xbd59d3f7	-0.05318066
32	0x3d5fbe7a	0.054625012
33	0xbe19396e	-0.14963314
34	0xbe069f71	-0.1314676
35	0xbe0f743b	-0.14009182
36	0xbd3ff6d4	-0.046866253
37	0x3dc1416c	0.09436306
38	0xbe000530	-0.12501979
39	0x3dd31714	0.10307136
40	0xbdba88c8	-0.0910812
41	0x3afc26b4	0.0019237609
42	0xbd0cecdf	-0.034405585
43	0xbe0b8fec	-0.1362912
44	0xbe18b437	-0.14912497
45	0xbe18b065	-0.14911039
46	0x3e1310b8	0.14361846
47	0x3d3dd072	0.046341367
48	0x3d01ce9a	0.03169117
49	0xbe0d94a9	-0.1382624
50	0xbdf18c6c	-0.117943615
51	0xbdd51867	-0.10405045
52	0x3db40f96	0.08792035
53	0xbd783985	-0.06060173
54	0xbd390a6a	-0.045175947
55	0x3de2227d	0.11041734
56	0xbbf9e6c7	-0.0076263878
57	0x3d080541	0.033208136
58	0xbdd11e03	-0.102108024
59	0x3dd904b8	0.10596603
60	0x3d286d96	0.041120134
61	0x3d18c502	0.037297256
62	0xbe16bfde	-0.14721629
63	0x3de3410b	0.1109639
64	0x3c84d382	0.016214136
65	0x3d956b26	0.072958276
66	0x3e15852a	0.1460158
67	0xbde17b29	-0.11009819
68	0x3deb97f2	0.11503591
69	0x3e1fc76a	0.15603414
70	0x3dcf6177	0.10126012
71	0x3e1f4571	0.15553834
72	0xbe099eb4	-0.13439447
73	0x3df25aa4	0.118336946
74	0x3da971d1	0.08273662
75	0xbde925a0	-0.113841295
76	0xbc1e2d1f	-0.009654312
77	0x3d28dfce	0.04122906
78	0xbc679bda	-0.014136279
79	0x3de6107c	0.11233613
80	0xbdeb5db8	-0.11492485
81	0x3dd66029	0.1046756
82	0x3de09f1c	0.10967848
83	0xbe1f830d	-0.15577336
84	0x3dd4c075	0.10388271
85	0xbcf0e8b7	-0.029407842
86	0xbe2148da	-0.15750447
87	0x3d4abe9e	0.049498193
88	0xbd111cf3	-0.035428
89	0x3dd8a2b1	0.10577906
90	0x3d7f36e3	0.062308203
91	0x3d75881f	0.05994427
92	0xbe15e282	-0.14637187
93	0xbd57d8ae	-0.052696876
94	0x3d079d39	0.033108924
95	0x3c2c1437	0.0105028665
96	0xbe1d1f06	-0.15343866
97	0xba4418d0	-0.0007480504
98	0x3d0b97c2	0.034080274
99	0xbd89573f	-0.06706094
100	0x3c852d67	0.016257001
101	0xbded42b8	-0.11584991
102	0x3d52c786	0.05145981
103	0xbdf5fd01	-0.12011147
104	0xbe09ec82	-0.13469127
105	0x3dee8794	0.11646953
106	0x3e09c9dc	0.1345591
107	0x3d9776da	0.07395716
108	0xbe13ddd5	-0.14440091
109	0xbcb4e476	-0.022081595
110	0xbda1f3f3	-0.07907858
111	0x3d35d6d5	0.044394333
112	0x3d13ba01	0.03606606
113	0xbc21b817	-0.009870551
114	0xbdfd067a	-0.12354751
115	0x3d924caa	0.07143529
116	0x3b3b46b0	0.0028576069
117	0xbe0c6502	-0.13710406
118	0xbe0bf320	-0.13666964
119	0x3d7747a0	0.06037104
120	0x3c8c2606	0.017107975
121	0x3e1de1db	0.15418188
122	0x3dace9fd	0.08443067
123	0xbc560015	-0.013061543
124	0xbdbeff6a	-0.0932606
125	0x3e06fb62	0.13181832
126	0xbd9cdd09	-0.076593466
127	0xbd07ab64	-0.033122435
128	0xbdb40c3e	-0.087913975
129	0x3c07b71d	0.008283404
130	0x3dfbef40	0.12301493
131	0xbe095bc2	-0.13413909
132	0xbd9f5c2d	-0.07781253
133	0x3dcbd45a	0.09952612
134	0x3c5084e2	0.012726994
135	0xbc82e150	-0.015976578
136	0x3e1b452e	0.15163109
137	0xbd861643	-0.06547215
138	0x3d6a025c	0.057131156
139	0x3c5fb048	0.013652869
140	0x3d8472be	0.06467198
141	0xbdcd26b7	-0.1001715
142	0x3b106d86	0.0022037937
143	0x3da570c1	0.08078147
144	0xbdfad3b0	-0.122474074
145	0x3d144352	0.036197014
146	0xbd8b7da4	-0.068110734
147	0x3cff38ff	0.031155108
148	0x3df6770f	0.120344274
149	0x3e101666	0.14071044
150	0xbd196a40	-0.037454844
151	0xbdecbf78	-0.11559957
152	0xbe121c15	-0.14268525
153	0xbd8e1723	-0.06938007
154	0x3ddf4f13	0.10903754
155	0x3e213a37	0.15744863
156	0x3db5592a	0.08854897
157	0xbdafabf8	-0.08577722
158	0xbdc8050c	-0.097665876
159	0x3d22ff27	0.039794113
160	0xbd05c5aa	-0.03265921
161	0x3d92431b	0.071417056
162	0xbc43e340	-0.011956036
163	0xbda1af86	-0.078948066
164	0xbe209805	-0.15682991
165	0x3dd142c8	0.10217816
166	0xbdce1412	-0.10062422
167	0x3e201dbd	0.15636344
168	0xbb7c9cb6	-0.0038545555
169	0x3e0d1924	0.13779122
170	0xbcc094db	-0.02350848
171	0x3e1c02b5	0.15235408
172	0xbdbf9bc4	-0.09355882
173	0xbe0aa880	-0.1354084
174	0x3d74b9ff	0.059747692
175	0x3da982e8	0.082769215
176	0xbd19b42b	-0.037525337
177	0x3dabcefa	0.08389087
178	0xbc8cebb6	-0.01720224
179	0x3dbf76ce	0.09348832
180	0x3d71dbee	0.059047632
181	0x3de6c2ed	0.11267648
182	0xbe1f320b	-0.15546434
183	0xbe1357e7	-0.14389001
184	0xbd08f99f	-0.033441182
185	0x3e1b5889	0.15170492
186	0x3d6c5bdd	0.057704795
187	0xbc039799	-0.008031749
188	0xbe20bf64	-0.1569801
189	0xbe192306	-0.14954767
190	0x3de8b4bf	0.113625996
191	0x3d40e4d1	0.047093216
192	0x3de74cfa	0.11293979
193	0xbddaf5c5	-0.10691408
194	0x3c26a1a8	0.010170378
195	0x3df6f1e2	0.12057854
196	0x3dc0248b	0.0938197
197	0x3d70ff0e	0.05883699
198	0x3cf81df4	0.03028772
199	0x3deb7e53	0.11498704
200	0xbd679d1c	-0.056546316
201	0xbd4dc9bd	-0.05024122
202	0xbdd2869a	-0.102795795
203	0xbda7b8bb	-0.081895314
204	0x3dd4759e	0.10373996
205	0x3dbc64b0	0.09198892
206	0xbd19b645	-0.03752734
207	0x3d233885	0.039848823
208	0xbd18fe10	-0.037351668
209	0x3de4b930	0.11168134
210	0xbdeb4f26	-0.11489706
211	0xbe13dce1	-0.14439727
212	0xbd8e198d	-0.06938467
213	0xbdc65f0d	-0.09686098
214	0x3e0ab03d	0.13543792
215	0xbd1dc658	-0.038519233
216	0xbd58401a	-0.052795507
217	0xbd0013bd	-0.031268824
218	0xbdab8ede	-0.08376859
219	0x3ca3a917	0.01997809
220	0xbd46781f	-0.0484544
221	0xbe1d921f	-0.15387772
222	0x3e08483f	0.1330881
223	0xbd8dfd21	-0.06933046
224	0xbd6915c1	-0.05690551
225	0xbdd861cf	-0.105655305
226	0x3df2cb6e	0.118552074
227	0x3b992e6c	0.0046747234
228	0x3e026ef9	0.12737645
229	0xbe01c8ef	-0.12674306
230	0xbd40e68a	-0.04709486
231	0x3dab5f9f	0.08367848
232	0x3e01fdb7	0.12694441
233	0x3d831293	0.06400027
234	0x3ddb5c00	0.10710907
235	0x3dcf8eb4	0.1013464
236	0xbdcb3ab0	-0.09923303
237	0x3b6b6cb6	0.003592295
238	0x3e14745c	0.14497513
239	0xbd4fb6f4	-0.050711587
240	0x3d0adf50	0.033904374
241	0xbcbbaa3f	-0.022908328
242	0xbd2fb2e0	-0.042895198
243	0xbdd545c3	-0.104136966
244	0x3e130144	0.14355952
245	0x3d91dd7e	0.071223244
246	0xbb9a641c	-0.004711641
247	0x3dc890e1	0.097932585
248	0xbccdae42	-0.025107507
249	0xbd67ee6a	-0.056623854
250	0xbd20d888	-0.039269
251	0xbde0fb29	-0.10985405
252	0x3d7204ec	0.059086725
253	0x3e0fc3cf	0.14039539
254	0xbe073a12	-0.13205746
255	0x3dd5ec77	0.10445493

linear.0.bias f4 [16]
0	0x3d6c62cf	0.05771142
1	0x3e1f61b6	0.15564618
2	0x3dbb8b93	0.09157481
3	0xbdaab0c9	-0.083345
4	0xbe226ee7	-0.15862618
5	0xbdffd1da	-0.12491198
6	0x3d39a999	0.045327757
7	0x3d80ab7c	0.06282708
8	0xbda2131f	-0.07913803
9	0x3dcb2b70	0.099203944
10	0x3c865ef7	0.016402705
11	0x3ca9ec82	0.020742659
12	0xbd44c956	-0.04804357
13	0xbdaf20dc	-0.08551189
14	0xbd6d2572	-0.05789704
15	0x3ccca07b	0.024978867

linear.1.weight f4 [64, 16]
0	0x3d84a270	0.06476295
1	0xbd8209a0	-0.06349492
2	0xbe7c7b0e	-0.24656317
3	0x3e6ce998	0.23135984
4	0xbd74a8f8	-0.059731454
5	0x3e6923b8	0.22767532
6	0xbcbb2230	-0.02284345
7	0x3cef0383	0.02917648
8	0xbe46ff37	-0.19433294
9	0x3d319606	0.043355964
10	0xbde62ee5	-0.11239413
11	0xbdfc1e76	-0.123104975
12	0x3e18f7f7	0.14938341
13	0x3ca5aad0	0.020223051
14	0xbdcb3870	-0.09922874
15	0xbdece2f0	-0.115667224
16	0x3d09f2b0	0.03367871
17	0xbd93a2d0	-0.072087884
18	0xbe106528	-0.14101088
19	0x3e715040	0.23565769
20	0x3db0c2f0	0.086309314
21	0xbe78128a	-0.24225822
22	0x3e327cdc	0.17430443
23	0x3e2a5208	0.16632855
24	0xbe42b5d0	-0.19014668
25	0xbcb29643	-0.021800166
26	0x3e6755b5	0.22591288
27	0xbdd979e2	-0.106189504
28	0xbe77ada1	-0.24187328
29	0x3dcc7b48	0.099844515
30	0x3e189bba	0.14903155
31	0x3db62c38	0.08895153
32	0x3cee6df0	0.029105157
33	0x3e671774	0.2256754
34	0x3ddbb27c	0.107274026
35	0xbd039e1f	-0.032133218
36	0xbc2dede0	-0.010615796
37	0x3dd5b844	0.104355365
38	0x3dc130ec	0.09433159
39	0xbd8e971d	-0.06962416
40	0x3e7dd680	0.24788857
41	0xbd535e8c	-0.05160384
42	0xbe2a1a9a	-0.1661171
43	0xbe484846	-0.1955882
44	0xbd944756	-0.07240169
45	0xbe2f221a	-0.17102852
46	0xbe304c7e	-0.1721668
47	0x3dd5bc18	0.10436267
48	0x3e6c19a4	0.23056656
49	0x3dec0768	0.1152485
50	0xbe440898	-0.19143903
51	0xbdaa9274	-0.08328715
52	0x3e75f40c	0.24018878
53	0xbcc33b40	-0.023831964
54	0x3db8010c	0.08984575
55	0x3e57af78	0.2106303
56	0xbd98c79b	-0.07459947
57	0x3dc0483e	0.09388779
58	0x3e4a9794	0.19784385
59	0xbe3d3629	-0.18477692
60	0xbe51a87f	-0.20474432
61	0xbe58920c	-0.21149462
62	0x3d15bd18	0.036557287
63	0x3e363e7a	0.1779727
64	0x3e6b6fd2	0.22991875
65	0x3e79d6f9	0.24398412
66	0xbe54f230	-0.20795512
67	0xbe2e38eb	-0.170139
68	0x3e12e59c	0.14345402
69	0xbe49cd4c	-0.19707221
70	0x3e5806b8	0.21096313
71	0x3bff5817	0.0077924835
72	0xbe642ace	-0.22281954
73	0xbdca6064	-0.09881666
74	0xbe8005c1	-0.2500439
75	0xbd4fd7a2	-0.050742753
76	0xbe6283d4	-0.22120601
77	0xbdd6ef94	-0.10494915
78	0x3e41d84c	0.18930167
79	0x3dbae490	0.09125626
80	0xbd4f8bb8	-0.050670356
81	0x3d249c10	0.040187895
82	0xbe1e00ca	-0.15429989
83	0x3dd93318	0.106054485
84	0xbd952eec	-0.0728434
85	0xbe5506e0	-0.20803404
86	0x3d9598a0	0.073045015
87	0xbe651c6a	-0.2237412
88	0x3dc483ef	0.09595477
89	0x3e650e27	0.2236868
90	0x3deaa1a7	0.11456614
91	0xbdd4f4b1	-0.10398234
92	0x3e46d3b3	0.19416694
93	0x3cf19380	0.029489279
94	0xbd10d780	-0.035361767
95	0x3e71718a	0.23578468
96	0xbb6e7580	-0.0036385953
97	0x3d3a5dd5	0.04549964
98	0xbe50ed5c	-0.20403045
99	0xbdf0cfa7	-0.117583565
100	0xbe0fdcfa	-0.1404914
101	0x3d57b228	0.052660137
102	0xbd266b40	-0.040629625
103	0xbdc0bfe5	-0.09411601
104	0x3d94671a	0.072462276
105	0xbe259a17	-0.16172062
106	0xbe7875d0	-0.24263692
107	0x3d522bf0	0.051311433
108	0x3e0103b2	0.12599066
109	0xbd07cb30	-0.03315276
110	0xbe658d34	-0.22417146
111	0xbc81c400	-0.01584053
112	0xbe1218ba	-0.14267245
113	0xbde09f7c	-0.10967919
114	0x3e412868	0.1886307
115	0x3d906f4d	0.07052479
116	0xbe6e33fc	-0.23262018
117	0xbd9c9a8c	-0.07646665
118	0xbe43d6b4	-0.19124871
119	0x3e49d122	0.19708684
120	0x3e38373c	0.1798982
121	0xbe175fba	-0.1478261
122	0x3dd6289e	0.10456966
123	0xbe6fcaa9	-0.23417152
124	0xbd534003	-0.05157472
125	0xbe1def66	-0.15423355
126	0xbd57fb00	-0.052729607
127	0x3d1300e0	0.035889506
128	0x3e00fe0e	0.12596914
129	0x3ceeac43	0.029134875
130	0x3e167d8c	0.1469633
131	0xbd3e8431	-0.046512786
132	0x3e5f3622	0.21797994
133	0x3df55d4c	0.119806856
134	0xbe065552	-0.13118485
135	0x3bdf9cc4	0.006824108
136	0xbe283baf	-0.16429017
137	0x3e2e93eb	0.17048614
138	0xbe5d4b56	-0.2161077
139	0x3e739b7a	0.23789778
140	0xbe4e45d7	-0.2014383
141	0x3e47269c	0.19448322
142	0xbcfb5590	-0.030680448
143	0x3dd6f61c	0.104961604
144	0x3d26ccb8	0.04072258
145	0x3e0e604c	0.13903922
146	0xbe06df4c	-0.13171118
147	0xbd21927b	-0.039446335
148	0x3e089400	0.13337708
149	0x3e3d5462	0.1848922
150	0xbc270080	-0.01019299
151	0xbe7c0de7	-0.24614678
152	0xbe657f08	-0.2241174
153	0x3d793ab3	0.060846996
154	0x3e6d5071	0.23175217
155	0xbd7dfc5e	-0.062008254
156	0xbb7fe371	-0.0039045478
157	0x3e101ebc	0.14074224
158	0xbe75a12e	-0.23987266
159	0x3e22b162	0.15887979
160	0x3e5a5d92	0.21324757
161	0x3d8f475b	0.06996032
162	0xbca62b30	-0.020284265
163	0x3e03cc72	0.12870958
164	0xbdb64728	-0.08900291
165	0x3e79c37a	0.24390975
166	0xbe70ebb2	-0.2352741
167	0xbe6035a1	-0.21895458
168	0xbdf5a03c	-0.11993453
169	0xbd560cd1	-0.052258316
170	0x3dfa6e6a	0.12228091
171	0x3e5138a9	0.2043177
172	0xbd94c26f	-0.07263648
173	0xbe590bb8	-0.21195877
174	0x3e43ba1a	0.19113961
175	0x3e621a26	0.22080287
176	0xbd8e6918	-0.06953639
177	0x3dda4605	0.106578864
178	0x3e599576	0.21248421
179	0xbe591d1a	-0.21202508
180	0x3cc0c650	0.023532063
181	0x3df1f584	0.118144065
182	0x3d44ff50	0.048095047
183	0x3b886119	0.0041619656
184	0xbe09c009	-0.13452162
185	0x3df12e95	0.11776463
186	0x3e05bd45	0.13060482
187	0xbc85e1b3	-0.016342973
188	0x3d026ce8	0.031842142
189	0x3e07bfc8	0.13256752
190	0x3c6ecec0	0.01457566
191	0x3d4dcff8	0.050247163
192	0xbae2a500	-0.0017291605
193	0xbe6d903a	-0.2319955
194	0xbe51989a	-0.20468369
195	0x3d9283c7	0.07154041
196	0x3db6c814	0.089248806
197	0xbd0717a0	-0.032981515
198	0xbd3295d8	-0.043599933
199	0x3e64b19d	0.22333379
200	0x3dc7c110	0.097536206
201	0x3d68f89e	0.056877725
202	0xbd2dcbb9	-0.042430613
203	0x3e0fce2e	0.14043495
204	0x3e4e0f45	0.20123012
205	0xbe2e10d8	-0.16998613
206	0x3a19d800	0.00058686733
207	0x3e559600	0.20858002
208	0xbe37d12a	-0.17950884
209	0x3e65d9b6	0.22446331
210	0xbb68fa80	-0.00355497
211	0xbe5813b4	-0.21101266
212	0x3e48d1aa	0.1961123
213	0x3bb2d2c0	0.0054572523
214	0xbe691686	-0.22762498
215	0xbd4eb58f	-0.050466117
216	0x3e45b347	0.1930667
217	0x3df169b9	0.11787743
218	0xbe526d74	-0.20549566
219	0x3dc990c1	0.09842063
220	0x3df8f294	0.12155643
221	0xbd236368	-0.039889723
222	0xbe794f04	-0.24346548
223	0xbe011a5a	-0.12607709
224	0xbd6550d8	-0.0559853
225	0xbe06a3a2	-0.13148358
226	0x3e73b9c6	0.23801336
227	0xbe5ea722	-0.21743444
228	0xbcf9f930	-0.03051433
229	0xbd88c7d4	-0.06678739
230	0x3c126c60	0.008936971
231	0xbe58da4d	-0.21177025
232	0xbe6b178d	-0.22958203
233	0xbd18e680	-0.037329197
234	0xbd8bc28c	-0.06824216
235	0xba650bed	-0.0008737434
236	0x3d52f7c7	0.05150583
237	0x3dca2244	0.09869817
238	0xbe4d9a54	-0.20078403
239	0xbe29a442	-0.16566566
240	0xbd259ea0	-0.04043448
241	0x3e14379a	0.14474335
242	0xbc191fe0	-0.0093459785
243	0xbd96eefa	-0.073698
244	0x3e2ed16e	0.17072079
245	0x3dcfeef4	0.101529986
246	0xbd4a0d58	-0.04932913
247	0x3ddf702b	0.10910066
248	0x3e2e0c6e	0.16996929
249	0x3dfbd2c4	0.1229606
250	0xbd85c5e7	-0.065318875
251	0x3d8b8a63	0.068135045
252	0x3d8afb72	0.06786241
253	0xbe62eec8	-0.221614
254	0x3dc91958	0.09819287
255	0x3db55664	0.08854368

linear.1.bias f4 [64]
0	0x3c4407ec	0.011964779
1	0x3b81ef14	0.003965268
2	0x3e123582	0.14278224
3	0x3c9367f0	0.017993897
4	0xbe6ec502	-0.2331734
5	0x3da614e0	0.0810945
6	0x3e2ed2bc	0.17072576
7	0xbd942399	-0.07233352
8	0xbe1ed797	-0.15511928
9	0x3c09e317	0.008415959
10	0xbdc0c256	-0.09412067
11	0xbe21e27f	-0.15809058
12	0x3e44fdbb	0.19237415
13	0x3da7c762	0.08192326
14	0x3e2c9353	0.16853075
15	0x3dfbdbfe	0.122978196
16	0x3d43a720	0.047766805
17	0x3d888233	0.066654585
18	0xbe5a06a8	-0.21291602
19	0xbe65f2d4	-0.22455913
20	0xbe162586	-0.14662752
21	0xbe0fa7b7	-0.14028822
22	0xbdb504c0	-0.088387966
23	0xbe025ed6	-0.1273149
24	0x3d8d3e5a	0.06896658
25	0xbcd966e8	-0.026538327
26	0xbe3bbf99	-0.18334807
27	0xbe660501	-0.22462846
28	0x3e6430b6	0.22284207
29	0x3e7f115a	0.24908963
30	0x3dc2b2b2	0.0950674
31	0x3d88a25c	0.066715926
32	0x3e6a9ef3	0.22912197
33	0x3e66d4ae	0.22542068
34	0x3ccabe8b	0.024749061
35	0x3cc249a8	0.023716763
36	0x3e77b2a7	0.24189244
37	0x3e632be5	0.22184713
38	0xbdb7f42c	-0.08982119
39	0x3e5baf91	0.21453692
40	0xbe653a74	-0.2238558
41	0xbe3dedbc	-0.1854772
42	0x3dfcb06d	0.12338338
43	0xbe632413	-0.2218173
44	0xbe6f8b9e	-0.23393103
45	0x3e2c9751	0.16854598
46	0xbe800c02	-0.2500916
47	0xbe25192a	-0.1612288
48	0x3e77ddcd	0.24205704
49	0xbe719c1a	-0.23594704
50	0xbd3971a4	-0.04527439
51	0xbcfce5da	-0.03087132
52	0x3e077130	0.13226771
53	0xbe135f47	-0.14391814
54	0x3c70f026	0.014705693
55	0xbd36eb1c	-0.04465781
56	0x3db6dd9a	0.08928986
57	0xbde790e1	-0.1130693
58	0x3e2f9f46	0.17150602
59	0xbe081d9a	-0.13292542
60	0x3e7b1271	0.24518754
61	0xbe3e6f97	-0.18597256
62	0x3de27626	0.11057691
63	0x3d89c004	0.06726077

linear.3.weight f4 [2, 64]
0	0x3d56a94d	0.05240755
1	0x3ce7a4d5	0.02827684
2	0xbdd0c3ad	-0.10193572
3	0x3b0afdd7	0.002120843
4	0xbba0f851	-0.004912414
5	0x3d0fc4ba	0.035099722
6	0xbdf8a6ac	-0.12141165
7	0xbd8de57d	-0.06928537
8	0x3d90e695	0.0707523
9	0xbde98d3d	-0.11403892
10	0x3dbaf490	0.09128678
11	0xbd3abff8	-0.045593232
12	0x3d7b1e90	0.061308444
13	0xbd892fd9	-0.06698579
14	0x3da431a9	0.080172844
15	0x3d692f2e	0.05692976
16	0x3c798264	0.015228841
17	0xbd38c144	-0.045106187
18	0xbd560739	-0.05225298
19	0xbdd09878	-0.10185331
20	0x3deb1c8a	0.11480053
21	0xbd8088cf	-0.06276094
22	0x3df61b02	0.1201687
23	0xbc3f5c6e	-0.011679752
24	0xbdbe0682	-0.09278585
25	0xbcd5ad75	-0.026083687
26	0xbd02a399	-0.0318943
27	0x3dcc67b1	0.09980715
28	0xbd8bb0c6	-0.06820826
29	0x3dd2be17	0.10290163
30	0xbdd9f877	-0.10643094
31	0x3db21698	0.08695716
32	0xbdf4a05a	-0.11944647
33	0x3dddb400	0.10825348
34	0x3d6924e6	0.056919955
35	0x3de4c859	0.11171026
36	0x3df5e2a5	0.1200612
37	0xbc2b08e4	-0.010439131
38	0xbd27b9b2	-0.040948577
39	0xbd9c7fd0	-0.07641566
40	0x3dbd7382	0.09250547
41	0xbd8c0413	-0.068367146
42	0xbdde445e	-0.10852884
43	0x3a16c43b	0.00057512865
44	0xbd7efee3	-0.062254798
45	0x3d44e663	0.048071276
46	0xbcfe371f	-0.031032143
47	0x3daa824c	0.083256334
48	0x3cbc68e9	0.022999244
49	0x3cc1fcff	0.023680208
50	0x3aacb649	0.0013176884
51	0xbd954f21	-0.07290483
52	0xbdd1f6f0	-0.10252178
53	0xbdbee0e6	-0.0932024
54	0x3ba0a759	0.004902762
55	0xbdad592b	-0.08464273
56	0xbd9b8fa9	-0.075957604
57	0x3d48a637	0.04898664
58	0xbd9897ba	-0.074508145
59	0x3d0905b2	0.033452697
60	0x3d9775bf	0.07395505
61	0xbd9f1bbf	-0.07768964
62	0xbdaf7b2e	-0.085684165
63	0xbdd42fd5	-0.10360686
64	0xbd4ee7d9	-0.050514076
65	0xbcd7677d	-0.026294464
66	0x3d59a597	0.053136434
67	0x3d878511	0.06617177
68	0x3cbb771f	0.02288395
69	0x3d6b0696	0.057379328
70	0x3abcd3f5	0.001440643
71	0x3d60cea8	0.054884583
72	0xbda99569	-0.08280451
73	0xbdcd7355	-0.100317635
74	0x3dc501d2	0.09619488
75	0x3ca4e6f3	0.020129656
76	0x3c26db51	0.010184125
77	0xbd965e1f	-0.07342171
78	0x3da9817f	0.082766525
79	0xbd78394a	-0.06060151
80	0x3d951d83	0.072810195
81	0x3d8b448d	0.068001844
82	0x3d800631	0.06251181
83	0x3dcccab0	0.09999597
84	0xbd21d2ca	-0.039507665
85	0x3d97b259	0.07407064
86	0xbc00ddfe	-0.007865427
87	0xbd80ecdb	-0.062951766
88	0x3c516213	0.01277973
89	0xbda66260	-0.08124232
90	0x3de2efc8	0.11080891
91	0x3da402b3	0.08008327
92	0xbdf54800	-0.119766235
93	0xbcb16b7f	-0.021657703
94	0x3a9079d9	0.0011022642
95	0x3d42fd47	0.047604825
96	0x3d1bdc4c	0.03805189
97	0x3e015bfb	0.12632744
98	0x3d8ff438	0.07029003
99	0x3dca647f	0.09882449
100	0x3dad0607	0.08448415
101	0x3d9ad821	0.075607546
102	0xbc88c7b4	-0.016696788
103	0xbd513b65	-0.051082034
104	0x3d86f430	0.06589544
105	0x3de82e11	0.113369115
106	0xbd3182f3	-0.043337774
107	0x3c5e855c	0.0135816
108	0x3ddb7406	0.10715489
109	0xbdf0dd31	-0.11760939
110	0x3d4a0341	0.04931951
111	0x3a777387	0.0009439517
112	0x3c00050a	0.007813701
113	0xbd0efd9b	-0.034909826
114	0xbd278a23	-0.04090322
115	0xbb0bf62d	-0.002135645
116	0xbca0fb54	-0.019651093
117	0xbd7adce5	-0.061245818
118	0xbdc90833	-0.09816017
119	0xbd7aa3d9	-0.061191414
120	0x3dac0583	0.08399489
121	0x3dc181ee	0.0944861
122	0xbdacf2d4	-0.08444753
123	0xbcd8f4b0	-0.026483864
124	0x3cd731ef	0.026268927
125	0xbcac70bf	-0.021049855
126	0x3c8dd824	0.017314978
127	0x3dff4cfd	0.12465856

linear.3.bias f4 [2]
0	0xbb619af9	-0.0034424646
1	0xbd113953	-0.03545506
