meta/demos/multiple_experiments/results/models/run_0/emodb_mlp_praat_16-64_C_val-001_learning_rate-0-0001_0_001.model (torch, 10758 bytes, 6 tensors)

linear.0.weight f4 [16, 39]
0.1574171 0.108100824 -0.14443378 0.008485013 0.09500691 0.057727568 0.15367924 0.11715564
-0.15387794 0.07367077 -0.016312474 -0.0014224183 -0.047105245 -0.08072506 -0.1549307 0.07616061
-0.12776172 -0.14290082 0.10240444 -0.14669387 0.01091421 -0.087847784 -0.15242152 0.029542666
-0.03251681 0.06040358 0.1031823 -0.11491004 -0.045522537 0.015438839 -0.14121999 -0.05318066
0.054625012 -0.14963314 -0.1314676 -0.14009182 -0.046866253 0.09436306 -0.12501979 0.10337005
-0.09090568 0.001964296 -0.034799524 -0.13624522 -0.1492192 -0.14881419 0.1437263 0.046637665
0.031835087 -0.13822874 -0.1174583 -0.103846185 0.0877265 -0.060116373 -0.044843838 0.110547855
-0.00752354 0.03329745 -0.10183691 0.106128536 0.041233916 0.037412822 -0.14749366 0.114275284
0.0205152 0.07304732 0.14614965 -0.10992668 0.11497671 0.15615638 0.10125951 0.15555428
-0.13351446 0.11863563 0.083035305 -0.11399681 -0.009704413 0.04142879 -0.014136279 0.11233613
-0.11492485 0.1046756 0.10967848 -0.15577336 0.10388271 -0.029407842 -0.15750447 0.049498193
-0.035428 0.10577906 0.062308203 0.05994427 -0.14637187 -0.052696876 0.033108924 0.0105028665
-0.15343866 -0.0007480504 0.034080274 -0.06706094 0.016257001 -0.11584991 0.05145981 -0.12011147
-0.13469127 0.11646953 0.1345591 0.07395716 -0.14440091 -0.022081595 -0.07907858 0.044394333
0.03606606 -0.009870551 -0.12354751 0.07143529 0.0028576069 -0.13714464 -0.13655894 0.060654186
0.017936565 0.15446423 0.08489412 -0.013108083 -0.093056716 0.13177173 -0.07644372 -0.032825697
-0.0882434 0.008347431 0.123598926 -0.13446851 -0.077916905 0.09969798 0.012936544 -0.015746735
0.15160248 -0.06534139 0.057326525 0.013849992 0.06493235 -0.10459799 -0.0026931674 0.0810151
-0.122304 0.03631467 -0.06769191 0.031341653 0.120685466 0.14103307 -0.03829986 -0.11564024
-0.14272583 -0.068839595 0.109446324 0.15752195 0.08854897 -0.08577722 -0.097665876 0.039794113
-0.03265921 0.071417056 -0.011956036 -0.078948066 -0.15682991 0.10217816 -0.10062422 0.15636344
-0.0038545555 0.13779122 -0.02350848 0.15235408 -0.09355882 -0.1354084 0.059747692 0.082769215
-0.037525337 0.08389087 -0.01720224 0.09348832 0.059047632 0.11267648 -0.15546434 -0.14389001
-0.033441182 0.15170492 0.057704795 -0.008031749 -0.1569801 -0.14954767 0.113625996 0.047093216
0.11293979 -0.10691408 0.010170378 0.12057854 0.0938197 0.05883699 0.03028772 0.11498704
-0.056546316 -0.05024122 -0.102795795 -0.081895314 0.10373996 0.09198892 -0.03752734 0.039848823
-0.037351668 0.11168134 -0.11489706 -0.14439727 -0.06938467 -0.09686098 0.13543792 -0.038519233
-0.052795507 -0.031268824 -0.08376859 0.01997809 -0.0484544 -0.15387772 0.1330881 -0.06933046
-0.05690551 -0.105655305 0.118552074 0.0046747234 0.12737645 -0.12674306 -0.04709486 0.08367848
0.12694441 0.06400027 0.10710907 0.1013464 -0.09923303 0.003592295 0.14497513 -0.050711587
0.033904374 -0.022908328 -0.042895198 -0.104136966 0.14355952 0.071223244 -0.004711641 0.097932585
-0.025107507 -0.056623854 -0.039269 -0.10985405 0.059086725 0.14039539 -0.13205746 0.10445493
00000000: f331 213e f763 dd3d 73e6 13be b904 0b3c
00000010: fc92 c23d be73 6c3d 175e 1d3e 4cef ef3d
00000020: 2e92 1dbe b3e0 963d bda1 85bc 7070 baba
00000030: 6ef1 40bd 2e53 a5bd 27a6 1ebe 18fa 9b3d
00000040: f8d3 02be 9854 12be 6bb9 d13d eb36 16be
00000050: 84d1 323c 8ae9 b3bd 6314 1cbe 7603 f23c
00000060: 5930 05bd bf69 773d 3e51 d33d f455 ebbd
00000070: d775 3abd 2ff3 7c3c f99b 10be f7d3 59bd
00000080: 7abe 5f3d 6e39 19be 719f 06be 3b74 0fbe
00000090: d4f6 3fbd 6c41 c13d 3005 00be adb3 d33d
000000a0: c22c babd 6bbb 003b f289 0ebd de83 0bbe
000000b0: ebcc 18be bf62 18be fd2c 133e 2307 3f3d
000000c0: 8265 023d d68b 0dbe fa8d f0bd 4fad d4bd
000000d0: f4a9 b33d 963c 76bd 2cae 37bd ea66 e23d
000000e0: 0788 f6bb e862 083d df8f d0bd eb59 d93d
000000f0: e5e4 283d 303e 193d 9408 17be 2909 ea3d
00000100: 7e0f a83c d599 953d 41a8 153e 3d21 e1bd
00000110: e978 eb3d 75e7 1f3e 2561 cf3d 9f49 1f3e
00000120: 04b8 08be 3df7 f23d 6a0e aa3d 2977 e9bd
00000130: 42ff 1ebc 3cb1 293d da9b 67bc 7c10 e63d
00000140: b85d ebbd 2960 d63d 1c9f e03d 0d83 1fbe
00000150: 75c0 d43d b7e8 f0bc da48 21be 9ebe 4a3d
00000160: f31c 11bd b1a2 d83d e336 7f3d 1f88 753d
00000170: 82e2 15be aed8 57bd 399d 073d 3714 2c3c
00000180: 061f 1dbe d018 44ba c297 0b3d 3f57 89bd
00000190: 672d 853c b842 edbd 86c7 523d 01fd f5bd
000001a0: 82ec 09be 9487 ee3d dcc9 093e da76 973d
000001b0: d5dd 13be 76e4 b4bc f3f3 a1bd d5d6 353d
000001c0: 01ba 133d 17b8 21bc 7a06 fdbd aa4c 923d
000001d0: b046 3b3b a56f 0cbe 1bd6 0bbe 8670 783d
000001e0: b4ef 923c df2b 1e3e f8dc ad3d 49c3 56bc
000001f0: 8594 bebd 2bef 063e 868e 9cbd 3d74 06bd
00000200: f5b8 b4bd aac3 083c 6f21 fd3d 1db2 09be
00000210: e692 9fbd 742e cc3d ccf3 533c 4cff 80bc
00000220: ae3d 1b3e b5d1 85bd 38cf 6a3d 14eb 623c
00000230: 40fb 843d 7937 d6bd da7f 30bb 3feb a53d
00000240: 857a fabd b1be 143d 0ea2 8abd 1b60 003d
00000250: f129 f73d f96a 103e 50e0 1cbd cad4 ecbd
00000260: b826 12be c6fb 8cbd 6525 e03d 6f4d 213e
00000270: 2a59 b53d f8ab afbd 0c05 c8bd 27ff 223d
00000280: aac5 05bd 1b43 923d 40e3 43bc 86af a1bd
00000290: 0598 20be c842 d13d 1214 cebd bd1d 203e
000002a0: b69c 7cbb 2419 0d3e db94 c0bc b502 1c3e
000002b0: c49b bfbd 80a8 0abe ffb9 743d e882 a93d
000002c0: 2bb4 19bd face ab3d b6eb 8cbc ce76 bf3d
000002d0: eedb 713d edc2 e63d 0b32 1fbe e757 13be
000002e0: 9ff9 08bd 8958 1b3e dd5b 6c3d 9997 03bc
000002f0: 64bf 20be 0623 19be bfb4 e83d d1e4 403d
00000300: fa4c e73d c5f5 dabd a8a1 263c e2f1 f63d
00000310: 8b24 c03d 0eff 703d f41d f83c 537e eb3d
00000320: 1c9d 67bd bdc9 4dbd 9a86 d2bd bbb8 a7bd
00000330: 9e75 d43d b064 bc3d 45b6 19bd 8538 233d
00000340: 10fe 18bd 30b9 e43d 264f ebbd e1dc 13be
00000350: 8d19 8ebd 0d5f c6bd 3db0 0a3e 58c6 1dbd
00000360: 1a40 58bd bd13 00bd de8e abbd 17a9 a33c
00000370: 1f78 46bd 1f92 1dbe 3f48 083e 21fd 8dbd
00000380: c115 69bd cf61 d8bd 6ecb f23d 6c2e 993b
00000390: f96e 023e efc8 01be 8ae6 40bd 9f5f ab3d
000003a0: b7fd 013e 9312 833d 005c db3d b48e cf3d
000003b0: b03a cbbd b66c 6b3b 5c74 143e f4b6 4fbd
000003c0: 50df 0a3d 3faa bbbc e0b2 2fbd c345 d5bd
000003d0: 4401 133e 7edd 913d 1c64 9abb e190 c83d
000003e0: 42ae cdbc 6aee 67bd 88d8 20bd 29fb e0bd
000003f0: ec04 723d cfc3 0f3e 123a 07be 77ec d53d

linear.0.bias f4 [16]
0.05771142 0.1557067 0.09157481 -0.08308064 -0.15862618 -0.12491198 0.045327757 0.06320273
-0.07925735 0.09948276 0.016710851 0.021036824 -0.048195183 -0.08551189 -0.05789704 0.024978867
00000000: cf62 6c3d 9471 1f3e 938b bb3d 2f26 aabd
00000010: e76e 22be dad1 ffbd 99a9 393d 6f70 813d
00000020: ad51 a2bd 9ebd cb3d 32e5 883c 6b55 ac3c
00000030: 5068 45bd dc20 afbd 7225 6dbd 7ba0 cc3c

linear.1.weight f4 [64, 16]
0.06476295 -0.063337244 -0.24656317 0.23162976 -0.059731454 0.22767532 -0.02284345 0.029369783
-0.19420592 0.043684606 -0.11174294 -0.12297556 0.14955354 0.020223051 -0.09922874 -0.115667224
0.03367871 -0.071938984 -0.14101088 0.23591815 0.086309314 -0.24225822 0.17430443 0.16651271
-0.19002831 -0.021481197 0.22655553 -0.10606882 -0.24171218 0.099844515 0.14903155 0.08895153
0.029105157 0.22551428 0.107274026 -0.03240675 -0.010615796 0.104355365 0.09433159 -0.06982104
0.24775812 -0.051936302 -0.16677162 -0.19572107 -0.07257535 -0.17102852 -0.1721668 0.10436267
0.23056656 0.115092926 -0.19143903 -0.08355616 0.24018878 -0.023831964 0.08984575 0.21043868
-0.07472383 0.093559265 0.19719364 -0.18490328 -0.20491251 -0.21149462 0.036557287 0.1779727
0.22991875 0.24377547 -0.20795512 -0.17046177 0.14345402 -0.19707221 0.21096313 0.007547262
-0.22299671 -0.09919957 -0.25074124 -0.050922815 -0.22142795 -0.10494915 0.18930167 0.09125626
-0.050670356 0.04006625 -0.15429989 0.10582274 -0.0728434 -0.20803404 0.073045015 -0.2238975
0.09586316 0.22339731 0.11395001 -0.104075745 0.19403355 0.029489279 -0.035361767 0.23578468
-0.0036385953 0.04533974 -0.20403045 -0.117855616 -0.1404914 0.052660137 -0.040629625 -0.094311535
0.072333045 -0.16205148 -0.24328998 0.051179778 0.12581833 -0.03315276 -0.22417146 -0.01584053
-0.14267245 -0.10983921 0.1886307 0.07025244 -0.23262018 -0.07646665 -0.19124871 0.19689114
0.17976882 -0.14815734 0.1039164 -0.23430325 -0.051747177 -0.15423355 -0.052729607 0.035889506
0.12596914 0.029296048 0.1469633 -0.046239197 0.21797994 0.119806856 -0.13118485 0.0070210136
-0.16415979 0.17081873 -0.21545309 0.23803057 -0.20126475 0.19448322 -0.030680448 0.104961604
0.04072258 0.13878718 -0.13171118 -0.03981386 0.13337708 0.1848922 -0.01019299 -0.24643612
-0.22433706 0.060418148 0.23101674 -0.062230814 -0.004170703 0.14074224 -0.23987266 0.15887979
0.21324757 0.06954699 -0.020284265 0.1281839 -0.08900291 0.24390975 -0.2352741 -0.21940517
-0.12031459 -0.052847438 0.12142241 0.20393649 -0.073067166 -0.21195877 0.19113961 0.22080287
-0.06953639 0.106426604 0.21248421 -0.21228966 0.023532063 0.118144065 0.048095047 0.0039740787
-0.13464311 0.117441244 0.12995826 -0.01646672 0.031677596 0.13256752 0.01457566 0.050247163
-0.0017291605 -0.23180576 -0.20468369 0.07184387 0.089248806 -0.032981515 -0.043599933 0.22355987
0.09769474 0.057240937 -0.041749578 0.1405962 0.2014329 -0.16998613 0.00058686733 0.20858002
-0.17950884 0.22481883 -0.00355497 -0.21054234 0.1961123 0.0054572523 -0.22762498 -0.05007283
0.19338892 0.11841095 -0.20467849 0.09874479 0.12192821 -0.039889723 -0.24346548 -0.12607709
-0.0559853 -0.13213359 0.23801336 -0.21818338 -0.03051433 -0.06678739 0.008936971 -0.21245387
-0.2301994 -0.038140483 -0.06926085 -0.0014866035 0.050835703 0.09869817 -0.20078403 -0.16566566
-0.04043448 0.1449206 -0.0093459785 -0.0734076 0.17072079 0.101529986 -0.04932913 0.109313995
0.17011549 0.12331045 -0.06464915 0.068283774 0.06805239 -0.221614 0.09819287 0.08854368
00000000: 70a2 843d f5b6 81bd 0e7b 7cbe 5a30 6d3e
00000010: f8a8 74bd b823 693e 3022 bbbc e698 f03c
00000020: ebdd 46be a1ee 323d 7cd9 e4bd 9cda fbbd
00000030: 9024 193e d0aa a53c 7038 cbbd f0e2 ecbd
00000040: b0f2 093d bf54 93bd 2865 10be 8794 713e
00000050: f0c2 b03d 8a12 78be dc7c 323e 4f82 2a3e
00000060: c896 42be 56f9 afbc 2cfe 673e 9c3a d9bd
00000070: 6683 77be 487b cc3d ba9b 183e 382c b63d
00000080: f06d ee3c 37ed 663e 7cb2 db3d f1bc 04bd
00000090: e0ed 2dbc 44b8 d53d ec30 c13d 55fe 8ebd
000000a0: 4eb4 7d3e 29bb 54bd 2ec6 2abe 1b6b 48be
000000b0: 63a2 94bd 1a22 2fbe 7e4c 30be 18bc d53d
000000c0: a419 6c3e d7b5 eb3d 9808 44be 7e1f abbd
000000d0: 0cf4 753e 403b c3bc 0c01 b83d 3d7d 573e
000000e0: cf08 99bd 009c bf3d 21ed 493e 4957 3dbe
000000f0: 96d4 51be 0c92 58be 18bd 153d 7a3e 363e
00000100: d26f 6b3e 47a0 793e 30f2 54be 888d 2ebe
00000110: 9ce5 123e 4ccd 49be b806 583e 064f f73b
00000120: 4059 64be 2529 cbbd 2861 80be 7194 50bd
00000130: 02be 62be 94ef d6bd 4cd8 413e 90e4 ba3d
00000140: b88b 4fbd 821c 243d ca00 1ebe 98b9 d83d
00000150: ec2e 95bd e006 55be a098 953d 6345 65be
00000160: e853 c43d 44c2 643e 9f5e e93d aa25 d5bd
00000170: bbb0 463e 8093 f13c 80d7 10bd 8a71 713e
00000180: 8075 6ebb 2ab6 393d 5ced 50be 495e f1bd
00000190: fadc 0fbe 28b2 573d 406b 26bd 6826 c1bd
000001a0: 5923 943d d3f0 25be 0221 79be e3a1 513d
000001b0: 85d6 003e 30cb 07bd 348d 65be 00c4 81bc
000001c0: ba18 12be 61f3 e0bd 6828 413e 83e0 8f3d
000001d0: fc33 6ebe 8c9a 9cbd b4d6 43be d59d 493e
000001e0: 5115 383e 8fb6 17be 1fd2 d43d 31ed 6fbe
000001f0: d9f4 53bd 66ef 1dbe 00fb 57bd e000 133d
00000200: 0efe 003e 44fe ef3c 8c7d 163e 5065 3dbd
00000210: 2236 5f3e 4c5d f53d 5255 06be 8810 e63b
00000220: 8119 28be 1beb 2e3e bc9f 5cbe 49be 733e
00000230: 5918 4ebe 9c26 473e 9055 fbbc 1cf6 d63d
00000240: b8cc 263d 3a1e 0e3e 4cdf 06be dc13 23bd
00000250: 0094 083e 6254 3d3e 8000 27bc c059 7cbe
00000260: 9db8 65be 0579 773d a78f 6c3e bde5 7ebd
00000270: 64aa 88bb bc1e 103e 2ea1 75be 62b1 223e
00000280: 925d 5a3e a76e 8e3d 302b a6bc a442 033e
00000290: 2847 b6bd 7ac3 793e b2eb 70be c0ab 60be
000002a0: 7f67 f6bd 8e76 58bd 50ac f83d bad4 503e
000002b0: 3da4 95bd b80b 59be 1aba 433e 261a 623e
000002c0: 1869 8ebd 31f6 d93d 7695 593e 7662 59be
000002d0: 50c6 c03c 84f5 f13d 50ff 443d fd38 823b
000002e0: e2df 09be 0985 f03d c713 053e 37e5 86bc
000002f0: 5ec0 013d c8bf 073e c0ce 6e3c f8cf 4d3d
00000300: 00a5 e2ba 7d5e 6dbe 9a98 51be e122 933d
00000310: 14c8 b63d a017 07bd d895 32bd e1ec 643e
00000320: 2e14 c83d 7975 6a3d 9b01 2bbd 73f8 0f3e
00000330: 6d44 4e3e d810 2ebe 00d8 193a 0096 553e
00000340: 2ad1 37be e836 663e 80fa 68bb 6998 57be
00000350: aad1 483e c0d2 b23b 8616 69be 2b19 4dbd
00000360: bf07 463e 7181 f23d 3d97 51be b53a ca3d
00000370: 7fb5 f93d 6863 23bd 044f 79be 5a1a 01be
00000380: d850 65bd 074e 07be c6b9 733e 776b 5fbe
00000390: 30f9 f9bc d4c7 88bd 606c 123c 828d 59be
000003a0: 64b9 6bbe 3239 1cbd a2d8 8dbd 23da c2ba
000003b0: 1939 503d 4422 ca3d 549a 4dbe 42a4 29be
000003c0: a09e 25bd 1166 143e e01f 19bc b956 96bd
000003d0: 6ed1 2e3e f4ee cf3d 580d 4abd 04e0 df3d
000003e0: c132 2e3e 308a fc3d c666 84bd 5dd8 8b3d
000003f0: 0d5f 8b3d c8ee 62be 5819 c93d 6456 b53d

linear.1.bias f4 [64]
0.012183595 0.0041749016 0.14255975 0.017775621 -0.23344457 0.080912806 0.17050475 -0.07255478
-0.15489687 0.008099732 -0.094600715 -0.15830423 0.19262615 0.08234532 0.16781324 0.1232173
0.047518518 0.0664352 -0.21313581 -0.22479455 -0.14639072 -0.14052635 -0.088149644 -0.1271061
0.06872644 -0.026328804 -0.1835697 -0.22433907 0.22305028 0.24931006 0.094827496 0.06691707
0.22888528 0.22512656 0.02459801 0.024038814 0.24215487 0.2216307 -0.090098575 0.21434976
-0.22366694 -0.18571289 0.123170644 -0.22196524 -0.23415391 0.16876873 -0.25030735 -0.16101274
0.24221766 -0.23573652 -0.045017987 -0.031085229 0.13205184 -0.14418356 0.014924285 -0.044936635
0.08906725 -0.113275595 0.17185481 -0.13271439 0.245394 -0.18618235 0.110336356 0.067026325
00000000: b49d 473c 9dcd 883b 2ffb 113e 2e9e 913c
00000010: 180c 6fbe 9db5 a53d cc98 2e3e 9a97 94bd
00000020: 499d 1ebe bdb4 043c 05be c1bd 811a 22be
00000030: ca3f 453e aaa4 a83d 3cd7 2b3e 5a59 fc3d
00000040: c7a2 423d 2e0f 883d 4640 5abe 8b30 66be
00000050: 73e7 15be 24e6 0fbe cd87 b4bd 1a28 02be
00000060: 73c0 8c3d 81af d7bc b2f9 3bbe 24b9 65be
00000070: 4b67 643e 234b 7f3e eb34 c23d d10b 893d
00000080: e760 6a3e 9487 663e c481 c93c 0ced c43c
00000090: 72f7 773e 29f3 623e 9a85 b8bd 817e 5b3e
000000a0: f208 65be 852b 3ebe e440 fc3d db4a 63be
000000b0: 0bc6 6fbe b6d1 2c3e 4928 80be 86e0 24be
000000c0: e807 783e ea64 71be c864 38bd 73a6 febc
000000d0: 9938 073e dba4 13be fd84 743c 7a0f 38bd
000000e0: e468 b63d 09fd e7bd b5fa 2f3e 48e6 07be
000000f0: 9148 7b3e 96a6 3ebe 07f8 e13d 1945 893d

linear.3.weight f4 [2, 64]
0.052341443 0.02819171 -0.10184358 0.0035032916 -0.0051595955 0.03532842 -0.12150743 -0.06900136
0.07057345 -0.11418379 0.09107518 -0.045059703 0.061508175 -0.06684146 0.07998606 0.057100374
0.01523399 -0.04481836 -0.052054152 -0.10216725 0.114977345 -0.06377785 0.12035077 -0.0116399685
-0.09293816 -0.026219025 -0.031787373 0.09997004 -0.068327114 0.10276832 -0.10673866 0.08670721
-0.119663246 0.10809116 0.05707047 0.111792535 0.12044754 -0.0102389455 -0.041121323 -0.07630882
0.09233101 -0.06855751 -0.108461015 0.0007705707 -0.06210236 0.047912043 -0.030925883 0.08308166
0.02286602 0.023467716 0.0013951748 -0.07277559 -0.10232296 -0.093330674 0.0047033946 -0.0848293
-0.075896524 0.049196515 -0.07435542 0.03318924 0.073764585 -0.07750966 -0.0859022 -0.10377773
-0.050447967 -0.026209334 0.053044286 0.06478933 0.02313113 0.05715063 0.0015363928 0.054600585
-0.08262566 -0.100172766 0.096406475 0.019596139 0.0099843815 -0.07356604 0.08295331 -0.060772125
0.07280501 0.067714006 0.06231299 0.10030991 -0.03968448 0.07508755 -0.008047479 -0.062991545
0.012932065 -0.08110695 0.11070204 0.07992038 -0.11964738 -0.021524398 0.0014100045 0.047854792
0.038268667 0.12648982 0.070139505 0.09874222 0.08409781 0.07540736 -0.016524041 -0.05118887
0.0660699 0.11355948 -0.043405566 0.013386156 0.10700251 -0.117450155 0.049213257 0.0011186085
0.007946929 -0.03469734 -0.040980708 -0.0022648673 -0.019849928 -0.061117545 -0.097960815 -0.061004896
0.08393381 0.09427621 -0.084600255 -0.02622041 0.026459426 -0.02122983 0.017533017 0.124829434
00000000: fb63 563d 4df2 e63c 5e93 d0bd 7b97 653b
00000010: d311 a9bb 89b4 103d e3d8 f8bd 9650 8dbd
00000020: d088 903d 31d9 e9bd a085 ba3d 8690 38bd
00000030: ffef 7b3d 2de4 88bd bbcf a33d 15e2 693d
00000040: fc97 793c 7593 37bd bc36 55bd 103d d1bd
00000050: 3e79 eb3d f69d 82bd 777a f63d 91b5 3ebc
00000060: 5d56 bebd 48c9 d6bc 7a33 02bd 18bd cc3d
00000070: 16ef 8bbd 3278 d23d cc99 dabd 8d93 b13d
00000080: 0112 f5bd e65e dd3d bac2 693d 7cf3 e43d
00000090: 33ad f63d 40c1 27bc d56e 28bd cc47 9cbd
000000a0: 0a18 bd3d e167 8cbd cf20 debd 2000 4a3a
000000b0: 0b5f 7ebd 6b3f 443d 4758 fdbc b826 aa3d
000000c0: 8551 bb3c 5e3f c03c 4cde b63a 5e0b 95bd
000000d0: b38e d1bd 2724 bfbd ef1e 9a3b fcba adbd
000000e0: a36f 9bbd 4982 493d a847 98bd 71f1 073d
000000f0: e311 973d 62bd 9ebd 7eed afbd 6b89 d4bd
00000100: 87a2 4ebd f5b4 d6bc f744 593d 45b0 843d
00000110: 7f7d bd3c c716 6a3d ca60 c93a dda4 5f3d
00000120: a437 a9bd 6127 cdbd c270 c53d 1588 a03c
00000130: 8895 233c cba9 96bd 6de3 a93d 31ec 78bd
00000140: cb1a 953d a4ad 8a3d e83b 7f3d 486f cd3d
00000150: 318c 22bd 80c7 993d 93d9 03bc b601 81bd
00000160: 03e1 533c 671b a6bd c0b7 e23d 4cad a33d
00000170: b009 f5bd ef53 b0bc e6cf b83a 6303 443d
00000180: 9bbf 1c3d 8c86 013e 4da5 8f3d 5c39 ca3d
00000190: 793b ac3d 2d6f 9a3d 6d5d 87bc 6cab 51bd
000001a0: a84f 873d df91 e83d 09ca 31bd 9c51 5b3c
000001b0: 2224 db3d b589 f0bd d793 493d 469e 923a
000001c0: d633 023c cc1e 0ebd 63db 27bd 2b6e 14bb
000001d0: 519c a2bc 6456 7abd ae9f c8bd 45e0 79bd
000001e0: 7de5 ab3d e313 c13d e642 adbd 2fcc d6bc
000001f0: 70c1 d83c 2eea adbc 67a1 8f3c 93a6 ff3d

linear.3.bias f4 [2]
-0.0032129947 -0.035684533
00000000: 1b91 52bb f229 12bd
