meta/demos/multiple_experiments/results/models/run_0/emodb_mlp_praat_16-64-128_C_val-001_drop-3_learning_rate-01_0_005.model (torch, 45432 bytes, 8 tensors)

linear.0.weight f4 [16, 39]
000000 b8 3f 02 be e5 d4 89 be 0b 9b bb bd 44 0d f2 bd
       -0.1271962 -0.26920238 -0.091604315 -0.118189365
000010 21 0b 16 be 82 d2 5f be f4 c5 16 be cc 9a 65 be
       -0.14652683 -0.21857646 -0.1472395 -0.22422332
000020 db fe 88 be 4e 9c ed bc aa 6d c7 bb a6 4f 82 bc
       -0.2675694 -0.029005196 -0.006086071 -0.01590712
000030 a5 79 5e be 76 a2 f6 bd f9 32 91 bd 87 ce 7a be
       -0.21726091 -0.12042706 -0.070898004 -0.24492846
000040 c7 e3 0a 3b 22 10 fb bc cf 77 8d bd c1 7e 4b be
       0.0021192895 -0.030647341 -0.06907617 -0.19872572
000050 25 4b 65 be f6 28 2f 3d 9b ba a4 bd 06 6a 28 ba
       -0.22391947 0.042763673 -0.08043405 -0.000642449
000060 65 c7 ee 3d 8f f6 f1 3c f9 f8 f4 bd 35 d5 59 be
       0.11659125 0.029536514 -0.1196155 -0.21272738
000070 3d 4f 2d 3d bf 86 62 be 96 b3 70 be 3a db 06 bd
       0.042311896 -0.22121714 -0.23506007 -0.032923914
000080 84 6d c0 bd 40 0f f9 3b e1 85 aa bd 26 7b 6b be
       -0.093958884 0.007600695 -0.083263166 -0.22996196
000090 c1 09 32 3d 8c 41 56 be 47 98 56 be bf 0a 5e bd
       0.043466333 -0.20923442 -0.20956527 -0.054209467
0000a0 84 e9 a3 bb 13 3a 36 be 08 aa 1a be 23 29 c5 b9
       -0.0050022025 -0.17795591 -0.15103924 -0.00037605417
0000b0 5b 66 77 be 9f e2 77 be d3 16 f8 3c ad 31 bc bc
       -0.2416014 -0.24207543 0.030284321 -0.022972906
0000c0 6d 8c 83 bc 8c 7b c8 bd 25 0e c8 3c 6d a5 f6 3c
       -0.016058171 -0.0978919 0.024420807 0.030108178
0000d0 6b 34 b8 3c a8 ec 1d be b6 1b b0 bd 03 aa 91 bd
       0.022485932 -0.15422308 -0.085990354 -0.07112505
0000e0 d0 86 73 bd 9c 78 e4 3b a6 fa 0d bd 7a 4b 91 bd
       -0.05945474 0.0069723856 -0.034662865 -0.07094474
0000f0 d3 7a a7 bd da 07 a4 bd df 3f 80 bd 59 1f 01 3b
       -0.08177724 -0.0800931 -0.062621824 0.0019702523
000100 ee 0f 7f 3d ac a7 28 be bf f0 44 bd c3 f8 b0 bd
       0.06227105 -0.16470212 -0.048081156 -0.086411975
000110 ae 72 63 be a5 eb 4e be 8e cf 45 be ec d8 87 bd
       -0.22211716 -0.20207079 -0.19317457 -0.066331714
000120 75 a7 71 3d 08 9a 19 be fd 72 30 bd 17 70 5d bd
       0.05899759 -0.15000165 -0.04307841 -0.054061975
000130 3f ee 73 be 63 06 d0 bd 4c e7 e2 3d 28 ad d9 bd
       -0.23821352 -0.10157468 0.11079273 -0.1062873
000140 45 40 0b be af 39 2c bd 7c 29 d0 bc b2 6c d7 bd
       -0.13598736 -0.0420472 -0.025410406 -0.10518779
000150 a9 4e f4 3d 35 28 23 be d4 4f 5f 3d a7 c8 75 bd
       0.11929066 -0.15933307 0.05451949 -0.06000581
000160 55 32 dc bd be fb c9 3d ef 87 0d bd 55 63 af bd
       -0.107517876 0.09862469 -0.034553465 -0.08563868
000170 c7 5e 39 3d 2e b3 ba 3d 5f e0 2b 3d b9 a8 b2 bd
       0.045256402 0.09116207 0.041962024 -0.087235875
000180 bf 70 d3 bd 15 fb 04 3e 19 f3 88 3c 25 7a a6 3c
       -0.10324239 0.12986405 0.01671748 0.020321915
000190 e2 42 ec bd 3d 97 cd bb 75 32 8f 3c f9 aa dd bc
       -0.115361944 -0.0062741325 0.017480114 -0.027059065
0001a0 2b 63 e4 3d 85 b1 e1 bd 46 33 ef 3d e2 7b be 3d
       0.11151727 -0.11020187 0.116797015 0.093009725
0001b0 7b ab 7b 3c aa cf 07 bd 72 21 d3 3d 2c ae 12 be
       0.015360708 -0.03315703 0.103091136 -0.14324254
0001c0 bf 6d ae bd f4 c8 86 3d e6 a3 0a be 34 25 8a 3d
       -0.08517026 0.065812975 -0.13539085 0.06745377
0001d0 20 65 05 3e 59 99 29 3d 6e 5c db 3d 17 ef ee 3d
       0.13026857 0.04140601 0.10710989 0.116666965
0001e0 58 b1 0c 3e 93 de be bd 77 a9 c1 bd 6a e0 84 bd
       0.13739526 -0.093197964 -0.09456151 -0.06488116
0001f0 35 7e c4 3d 34 80 ec bd 77 9b c9 3c a9 bf 17 be
       0.095943846 -0.1154789 0.024610264 -0.14819206
000200 c3 c5 04 3e dd d5 a9 3d 51 b8 ae bc c2 76 5e 3d
       0.12966065 0.08292744 -0.021328123 0.054312475
000210 67 9d 81 3d d0 f4 59 bc 5a 2a 49 bd 75 2e a8 bb
       0.0632885 -0.013302997 -0.049112655 -0.0051324912
000220 5c 22 b1 bd a6 da a1 bd 9a 06 e7 bd 84 6e d7 3d
       -0.08649132 -0.07903032 -0.11280556 0.10519126
000230 86 56 13 3d 19 f8 18 3d 5b 05 1a bd 32 d2 03 be
       0.035971187 0.03734598 -0.037602764 -0.12873152
000240 44 49 b6 3d c6 07 8d 3d 12 d0 ef 3d bd 34 11 be
       0.08900693 0.06886248 0.11709608 -0.14180274
000250 fb 76 57 bd e5 55 05 bd 80 c1 db bc 6a 52 ae bd
       -0.052603703 -0.03255262 -0.026825666 -0.08511813
000260 0f db 0f be 3a 98 42 3d d8 b0 d2 bd 42 70 04 3e
       -0.14048408 0.047508456 -0.102876365 0.12933448
000270 d1 02 18 be ac e4 4f bc c6 71 7f bd c3 15 05 be
       -0.14844824 -0.012688797 -0.062364362 -0.12996583
000280 c8 65 ec 3d a0 0a 38 3d 9e 0a 1e bc 5d 1a b3 bd
       0.11542851 0.044932008 -0.009646086 -0.08745263
000290 6f a0 1e be 7a 60 e6 bd a0 4a 13 3e 00 80 1f be
       -0.15490888 -0.1124887 0.14383936 -0.15576172
0002a0 78 4a f6 bd 37 57 63 bc 2a af 82 3d a4 5b 26 3d
       -0.120259225 -0.013875774 0.06381066 0.04061474
0002b0 41 80 c3 bc 97 2a 09 be 13 c2 1c 3d c5 34 a0 3d
       -0.023864867 -0.13395153 0.03827102 0.07822565
0002c0 b9 77 11 3d 61 dc 0c bd c0 d9 c0 bc 4d dd 1e be
       0.035514567 -0.034389857 -0.023541331 -0.15514107
0002d0 c4 f0 88 bd 29 8b cf bb ca 99 16 be 31 28 bd 3b
       -0.066865474 -0.006333728 -0.14707103 0.0057726135
0002e0 3b aa e1 3c da 52 1b 3e 67 70 f9 bd cd 8d 11 3d
       0.027546993 0.15168324 -0.12179642 0.035535622
0002f0 d3 ff e4 3d 50 f1 20 be 2e d7 5b bd 5e d4 93 bd
       0.11181607 -0.15717053 -0.05367201 -0.0721824
000300 1a 51 1b be 81 85 fe 3d 7a 3e 83 3d 79 9c 3e be
       -0.15167657 0.124278076 0.06408401 -0.18614377
000310 0c 45 58 be 19 d8 19 be 16 f4 fe bd 67 2d 19 bc
       -0.2112009 -0.15023841 -0.124488994 -0.009349204
000320 1b e0 94 3d 7f b9 6b be 54 58 d7 bd ae 2d 61 3d
       0.07269307 -0.2301998 -0.10514894 0.054975204
000330 b2 04 69 be da 42 f7 3c 4e 65 28 bd d2 e7 45 bc
       -0.22755697 0.030183244 -0.041112237 -0.012079196
000340 9b c7 73 bd 81 40 a4 bc 49 05 10 be a1 70 60 bd
       -0.05951653 -0.02005029 -0.14064516 -0.05479491
000350 29 3b 7c 3d 52 40 20 be 57 39 98 3c b0 dc 46 bd
       0.061579857 -0.15649536 0.01858203 -0.048550308
000360 3d 05 f8 bd 5d e1 b5 bd 25 26 58 bd 11 7d 55 bc
       -0.12110374 -0.08880875 -0.052770752 -0.013030306
000370 84 22 c1 3d 1a 6a 37 be 87 31 aa bc 17 c1 32 3d
       0.094304115 -0.17911568 -0.02077557 0.043641176
000380 ad 27 b2 bd 0f 43 d8 bb c3 1d 75 3d a0 b1 48 be
       -0.08698974 -0.006599791 0.059842836 -0.19599009
000390 10 37 0c be 0f d4 64 be 3e fa cc bc ff 2f 33 be
       -0.1369288 -0.22346519 -0.025021669 -0.17498778
0003a0 2e e9 d0 39 30 e6 44 3d 53 ab 27 be 33 09 1c be
       0.00039846584 0.048071086 -0.16373949 -0.15237884
0003b0 5a 72 4f be 93 42 05 bc c4 e0 88 bd 1a 76 9b 3d
       -0.20258465 -0.008133548 -0.06683496 0.075908855
0003c0 11 49 02 be da 20 dd bd 61 6d 27 3d 3a 94 27 3c
       -0.12723185 -0.107972816 0.040875796 0.010228211
0003d0 3f fe 93 3c a7 91 42 be 77 bd 78 bd 80 85 d6 bc
       0.01806557 -0.19000874 -0.060727563 -0.026186705
0003e0 5b 70 ce bd 1f 3b 63 be c3 70 9c 3d b9 6b 67 bd
       -0.10080024 -0.22190522 0.07638695 -0.056499217
0003f0 8c ee 29 3d 5d d3 40 bd 90 cf 35 be fa 64 16 bd
       0.04148726 -0.04707657 -0.1775496 -0.036717393

linear.0.bias f4 [16]
000000 1d b7 d9 bd 28 4b 30 bb 87 0f 80 3d cb 50 bf 3b
       -0.10630629 -0.0026900265 0.062529616 0.0058384887
000010 82 eb 04 3e 05 42 0b be b0 6f 55 be 99 de f2 3d
       0.12980464 -0.13599403 -0.20843387 0.118588634
000020 dc 4e 18 3e f3 0e 83 bd 80 7d 1d be 4d 2c 19 3e
       0.14873832 -0.06399336 -0.15379906 0.14958306
000030 6c 88 1d be 23 5a d0 bd 7a e4 9d bd 67 50 aa 3d
       -0.15384072 -0.10173442 -0.07709594 0.08316117

linear.1.weight f4 [64, 16]
000000 17 19 71 3e 67 d9 4f bd bc 89 a6 3d bc a9 87 bd
       0.23544727 -0.05074444 0.081317395 -0.06624171
000010 b8 81 20 3e ba ec a4 3d 25 9f 23 be 08 5c 8c 3d
       0.15674484 0.080529645 -0.15978678 0.06853491
000020 18 66 a3 3d f2 7c 13 3e 55 e5 2a 3e 86 e7 06 be
       0.07978457 0.14403132 0.16689046 -0.13174257
000030 e4 2e 09 be 86 bf 5f 3e ec 5e 10 be 24 5f 3b be
       -0.13396794 0.21850404 -0.1409871 -0.18298012
000040 73 62 f8 bd 68 ff 2d be 44 d3 bc bd 6c 7e 64 3e
       -0.12128153 -0.16991961 -0.09219983 0.22313851
000050 ae 7b 77 be f6 72 a2 bd c1 45 21 bb 00 00 c7 bb
       -0.24168274 -0.07932083 -0.0024608227 -0.006072998
000060 d4 a1 05 be 76 ac 22 3e cf d7 c6 3d 54 da 54 be
       -0.13050014 0.15886101 0.09709131 -0.2078641
000070 62 79 74 be 00 3a 8e bd 80 00 45 be 1e e9 30 3e
       -0.23874429 -0.06944656 -0.19238472 0.17276427
000080 66 82 f4 bd dc 3a f3 bc 24 73 ad 3d 4e a7 60 3e
       -0.11938934 -0.029691152 0.08469227 0.21938822
000090 b0 e9 80 3d a0 12 78 be f9 8c ce 3b 80 78 54 bc
       0.06294572 -0.24225855 0.0063034263 -0.012968183
0000a0 e0 87 8b 3c f8 5b 23 3e ba d1 f9 bd 40 2b a8 3b
       0.017032564 0.15953052 -0.12198205 0.005132109
0000b0 88 62 66 be c0 4e 7f bc 14 a8 4d 3e 56 42 51 3e
       -0.22498524 -0.01558274 0.20083648 0.20435461
0000c0 b1 b5 db bd 3e 44 04 bd 66 14 12 3e 76 90 4a 3e
       -0.10728014 -0.032291643 0.14265594 0.1978167
0000d0 c0 33 db bd 08 e3 d2 bb cb 8c 80 3e e8 d5 81 bd
       -0.1070323 -0.0064357556 0.25107417 -0.063396275
0000e0 50 81 68 3e 10 4c f1 bd 09 84 fe bc f0 69 0f 3e
       0.22705579 -0.11782086 -0.031068819 0.14005256
0000f0 40 6e 55 bd a0 cf 10 3c fa 2b 03 be 16 95 15 3e
       -0.052107096 0.008838564 -0.12809744 0.14607653
000100 f4 e5 58 3d 15 ff a3 3d c0 91 10 bd 6c 22 a4 bd
       0.052953675 0.080076374 -0.035295248 -0.08014378
000110 d4 ae ba bd b2 da f8 bd 5e 6a 2b 3c b4 22 71 3e
       -0.09115377 -0.12151088 0.010462372 0.23548394
000120 28 10 d0 3d 72 12 14 be 90 d6 2a bd e8 5d 33 be
       0.101593316 -0.14460161 -0.04170853 -0.17516291
000130 08 a1 2f be 8a 9f 17 3e d8 4e 8e bd 40 bf 0a 3e
       -0.17151272 0.14806953 -0.06948632 0.13549519
000140 cb 17 19 be 68 d2 d1 bd 50 33 36 3d 5e 6b 5e 3e
       -0.14950483 -0.1024521 0.04448253 0.21720645
000150 d0 d4 54 be 6b 38 f1 3d c0 04 2a 3e 78 db 7f bd
       -0.20784307 0.11778339 0.16603374 -0.06246516
000160 98 2f 48 3e e0 ff fd bc db 2f 66 be 9c 23 0b be
       0.19549406 -0.0310058 -0.22479193 -0.13587803
000170 54 16 2f 3e d8 82 78 3e c0 18 a0 3d 36 e4 14 be
       0.17098361 0.24268663 0.07817221 -0.1454018
000180 a2 27 37 3d 94 5a 07 3e 68 b4 cb 3d cc 43 51 be
       0.04471553 0.13218147 0.09946519 -0.20436019
000190 68 ab 7d be fd 6c 23 3e cb 77 47 3c 9a c7 06 be
       -0.24772418 0.15959544 0.012174557 -0.1316208
0001a0 c0 38 72 be 9a b9 78 be a3 0e 5b 3c 10 9e 78 3e
       -0.23654461 -0.24289551 0.013370189 0.24279046
0001b0 18 9c 40 3e 02 eb 5e 3e 94 a2 68 be 70 8b 68 3e
       0.18809545 0.21769336 -0.22718269 0.22709441
0001c0 d1 a6 56 3c 46 a5 16 bd 00 74 66 3e 00 40 64 39
       0.013101296 -0.03677871 0.22505188 0.00021767616
0001d0 3c cb 1d 3e eb 25 30 3e bc 7a 29 be 5c 82 9f 3d
       0.15409559 0.17201965 -0.16550726 0.07788536
0001e0 a0 8c cc 3d 4c 1b 74 3e 58 d4 48 3e 48 9c 13 be
       0.099877596 0.23838538 0.19612253 -0.14415085
0001f0 52 2e 41 3e f2 b2 5d 3e ca cb 3d be 28 56 a3 bd
       0.18865326 0.21650293 -0.1853477 -0.079754174
000200 7b 61 86 bc ef e3 1a be 30 6c 27 be ae 44 11 be
       -0.016403904 -0.15126012 -0.16349864 -0.14186355
000210 7c 10 cc bd 98 b9 11 3e 68 56 78 bd 20 b0 58 3e
       -0.09964082 0.14230955 -0.06062928 0.21160936
000220 80 25 33 be 40 ad 7d 3c c3 8e cd bd cc 51 8a bd
       -0.17494774 0.015483201 -0.10036995 -0.06753883
000230 e0 9a 52 3e 30 b3 77 3e 04 cc 0b 3e a8 1d 3f be
       0.20566893 0.24189448 0.13652045 -0.18663657
000240 67 d5 ac bd f8 d5 1d be 6c 03 d7 3d ce 6d 3d be
       -0.08439141 -0.15413654 0.104986995 -0.18498918
000250 f8 02 7e bd 12 4e 19 be 16 68 eb bd 60 a3 c5 3d
       -0.06201455 -0.14971188 -0.11494462 0.09650302
000260 a0 d7 ed 3c 8a 5a 0d be ab 9a 90 3e 00 0e 20 3a
       0.029033482 -0.13804069 0.28243002 0.0006105602
000270 30 c4 7f 3d e0 5c 6f 3d f2 a2 13 3e f8 49 10 3e
       0.06244296 0.058438182 0.14417627 0.14090717
000280 80 78 94 3b db 40 7b 3e 7c 81 35 be 58 98 4f bd
       0.0045309663 0.24536459 -0.17725176 -0.050682396
000290 f0 19 df 3c 23 cf eb bd 67 fc 25 bc 06 42 73 3e
       0.027234048 -0.115141176 -0.010130978 0.23755655
0002a0 48 f0 7f bd f0 c7 14 be 04 e9 62 3e dc 00 94 3d
       -0.06248501 -0.14529395 0.22159201 0.072267264
0002b0 e4 b0 b4 3d 00 2c 99 ba 9c bd 30 be 58 66 78 3e
       0.08822802 -0.0011686087 -0.1725983 0.24257791
0002c0 25 87 82 3e 1d bb 02 be e2 ae 30 3e 90 23 ed bc
       0.25493732 -0.1276669 0.17254212 -0.028947622
0002d0 80 03 fe 3c 90 57 27 3e b8 ae 23 3e a8 ce 78 bd
       0.031007528 0.16341996 0.15984619 -0.060743958
0002e0 be cf 17 3e 78 79 26 be 24 30 01 3e 70 a4 2e be
       0.14825341 -0.16257274 0.1261602 -0.17054915
0002f0 bc dc 1f be 2a 29 42 be 36 aa 6e 3e e4 01 6a be
       -0.15611547 -0.18961015 0.23307118 -0.22852284
000300 be 45 83 3e 5b ff bc bd 20 9e 85 3d b0 66 40 3e
       0.25639147 -0.09228393 0.065243006 0.18789172
000310 1c e1 8a bd 9d ce a0 bc 75 b1 6b bc 6a 8d 26 3e
       -0.067812175 -0.01962977 -0.014385571 0.16264883
000320 8c 3e 0b be d0 12 06 be bd 65 60 bd 70 97 56 3d
       -0.13598078 -0.13093114 -0.054784525 0.052390516
000330 fe af 74 3e f4 f5 ff bd 44 dc cf 3d 1e 6e 18 3e
       0.2389526 -0.12498084 0.10149434 0.14885756
000340 51 f1 85 3d d1 6e cc 3d cc 82 47 be da 44 1b be
       0.06540168 0.09982074 -0.19483489 -0.15162984
000350 80 70 98 bb a1 7b 9a 3d cc 2d 05 3d 00 17 23 bb
       -0.004652083 0.075431116 0.03251438 -0.0024885535
000360 12 74 1f 3e a0 60 04 3d 27 58 78 be 82 d2 50 be
       0.15571621 0.03231871 -0.24252377 -0.20392802
000370 64 b8 55 3e b0 32 59 bd 50 55 fc 3c cc 8d bd bd
       0.2087112 -0.053026855 0.030802399 -0.09255561
000380 dc 14 16 bd eb 3c ae 3d 4c 6c a0 bd c4 fe 98 3d
       -0.036640987 0.08507713 -0.07833156 0.07470468
000390 40 64 f1 3b 46 51 92 3e e3 50 3a be be fd 5f be
       0.007366687 0.28577632 -0.18194918 -0.21874139
0003a0 c0 bd f7 3d 20 f1 fa bd 4e a7 18 3e b2 60 69 be
       0.12096739 -0.12253022 0.14907572 -0.22790793
0003b0 00 15 ed 3d 18 4c ed 3d 8e b2 1c be ee a1 2d 3e
       0.11576271 0.11586779 -0.15302488 0.16956303
0003c0 16 bb ff bd 98 16 97 bd e0 aa 4f 3d 80 66 3c 3c
       -0.12486856 -0.07377356 0.05070007 0.011499047
0003d0 7c 86 e7 bd 56 4b 9e 3d 6d 96 f9 bd 90 2b 00 bd
       -0.11304948 0.07729213 -0.121868946 -0.031291544
0003e0 28 5d 66 bd 04 7b 69 be 64 e9 a6 bd a8 c5 03 be
       -0.056241184 -0.22800833 -0.081499845 -0.12868369
0003f0 a4 5c 00 be 64 f2 4f 3e 6c 46 0a be f6 7c 3a be
       -0.1253534 0.20307308 -0.13503426 -0.18211731

linear.1.bias f4 [64]
000000 92 01 a8 3e 61 3b 22 be 77 ad d0 bd 74 49 a5 bc
       0.32813698 -0.15842964 -0.10189336 -0.020176627
000010 1c 05 80 bd d4 25 8f be d8 12 8d 3e b3 4d b7 3d
       -0.062509745 -0.27958548 0.2755344 0.08950367
000020 96 ae 6b 3e f5 7a 47 3d 41 bc f8 bd 53 3e a8 bd
       0.23015818 0.048701245 -0.121452816 -0.082150124
000030 e4 58 de bd 9e 31 a5 bd 7f 33 6c 3e bd 78 77 3e
       -0.10856798 -0.08066104 0.23066519 0.24167152
000040 d4 7e 5e bd 51 39 68 be 6b 2e 41 be 1f b5 ec 3d
       -0.05432017 -0.22678114 -0.18865363 0.115579836
000050 b2 9c d8 3d 25 9e 82 bd 1b b6 02 3d ad 17 8b be
       0.10576762 -0.0637782 0.03191195 -0.271665
000060 b4 b2 36 be 10 75 b6 be d0 23 f7 bd f3 4d 18 bd
       -0.17841607 -0.35636187 -0.120673776 -0.037183713
000070 4c c4 6d bc c7 c6 fe 3c 30 f4 f7 bc d5 10 1f be
       -0.014512133 0.031100644 -0.030267805 -0.15533765
000080 fc 60 0d 3d 57 04 8a 3d f9 6b e4 bc 09 4f 97 3e
       0.03451632 0.06739109 -0.027883517 0.29552487
000090 78 91 76 be ca bb 8b be 63 ad c8 3d 11 cb 54 be
       -0.2407893 -0.2729171 0.09798696 -0.20780589
0000a0 74 8f 53 3c fe ae 97 bc 7d 8e 83 3e 0b f3 98 3c
       0.01291262 -0.01851606 0.25694647 0.01867058
0000b0 e8 54 85 3e 47 2a 26 be dc a8 4d bd c8 69 5e bc
       0.2604134 -0.16227065 -0.050209865 -0.013575025
0000c0 26 d9 b9 3d a6 ea b4 3d fa 87 8e bd 80 9a 2f be
       0.09074621 0.08833818 -0.06959529 -0.17148781
0000d0 c4 c8 16 be d0 bc 9d 3b 29 7c a5 3d 7c b6 83 3e
       -0.14725024 0.004813768 0.08080322 0.25725162
0000e0 55 f8 f3 3d 86 4d 0c bd bd 6f 06 3e 22 21 0d 3e
       0.119126 -0.03425362 0.13128562 0.1378217
0000f0 72 7a 0f 3d d1 b0 9f bd 2c 46 04 3b 35 4c 31 be
       0.035028882 -0.07797397 0.0020183427 -0.17314227

linear.2.weight f4 [128, 64]
000000 84 67 20 bd 26 dc f6 3d 38 ae 27 3e 5e c0 59 3c
       -0.03916122 0.12053709 0.16375053 0.013290493
000010 21 97 57 bd e6 8f 85 bd fe ef 41 bd 30 57 e3 3d
       -0.052634362 -0.06521587 -0.047348015 0.11100614
000020 04 81 b1 3d a2 bd 8b bc a7 b4 12 3e e7 a4 e6 39
       0.08667186 -0.017058197 0.14326726 0.0004399188
000030 5c b1 99 3d c4 77 93 bd ab 6a f9 3d 17 82 1a 3d
       0.07504532 -0.07200578 0.121785484 0.03772172
000040 16 ec 2d 3e 63 3f 0d be 76 45 09 3e 2f c2 9d 3c
       0.16984591 -0.13793711 0.13405403 0.019257633
000050 96 4b 75 3d 2c 25 29 3e 65 9f 08 be 0f 57 89 3c
       0.059886537 0.16518086 -0.13342054 0.016765146
000060 f9 41 44 bd 75 c5 ba 3c f7 b6 35 bd 2b 77 d9 3d
       -0.04791448 0.022799233 -0.044363942 0.106184326
000070 39 37 22 bd 3b 4d 6b bd 8b da a5 3d 4a 22 b3 3d
       -0.039603446 -0.0574467 0.080983244 0.087467745
000080 20 5d 38 3d a5 9e 10 3e 2b 40 e3 bd cb fe ed bd
       0.045010686 0.14123018 -0.110962234 -0.116208635
000090 58 33 0c be 66 38 4e bd 3e 23 09 bd 6d 98 8c bd
       -0.13691461 -0.050346754 -0.033480875 -0.068650104
0000a0 18 6c b1 bd cd 46 4c bb a8 f5 0f be 06 79 e5 3b
       -0.08663195 -0.003117013 -0.14058554 0.0070029525
0000b0 d3 c1 05 3c be bf 15 3d f3 d2 70 bd d8 72 ea 3b
       0.008163887 0.036559813 -0.058794927 0.0071548037
0000c0 13 7e 0c 3d ab 4e ca 3d 01 5d 01 be 17 5d 33 3e
       0.03429992 0.09878286 -0.12633134 0.1751598
0000d0 5c 60 3f 3d a6 0d 92 3d cc 68 d6 bd 88 14 29 3e
       0.046722755 0.071315095 -0.10469207 0.16511738
0000e0 be 18 75 bd 0b b0 f1 3d b3 f9 3c 3d f0 fc 44 bb
       -0.05983805 0.11801156 0.04613657 -0.003005799
0000f0 fb 9a 86 bc 21 03 a8 bc c0 0f d2 bd d4 da a2 bd
       -0.016431322 -0.020509304 -0.1025691 -0.079518944
000100 9b ab d4 3c 26 5c 60 bd 7b 0b 26 bc cd fb b3 3c
       0.025960734 -0.05477538 -0.010134573 0.021970654
000110 03 20 93 bb 9b 38 2a 3d dc 69 54 bd a7 76 d8 3c
       -0.0044899 0.04155789 -0.051858768 0.026423765
000120 bc d4 b2 3d cd 1b fb 3d f5 1e 98 bc 58 38 fe bd
       0.08731982 0.12261162 -0.018569449 -0.124130905
000130 84 ed f4 3d 0c d1 d7 bd 70 01 fb 3c 6b 0c c4 bd
       0.11959365 -0.105379194 0.030640334 -0.09572681
000140 fa 68 8e bd a6 ea f3 3d 6d 53 23 3d 1a 0a 08 3d
       -0.069536164 0.1190999 0.039874483 0.03321276
000150 06 1d 62 3d d2 4d f9 3d a3 8c 13 bc b8 ea 22 38
       0.05520346 0.12173046 -0.009005698 3.884241e-05
000160 3a b3 16 3d fe 6e 18 3e 48 7f ec 3c 54 3f de bd
       0.036792018 0.1488609 0.028869286 -0.10851923
000170 c0 a0 54 bd bc 3d 1f be f3 b2 89 bd 00 b9 0b 3e
       -0.051911116 -0.15550894 -0.06723585 0.1364479
000180 17 8b 63 bd 68 80 b8 3d d2 b5 be bc 42 e3 b6 3d
       -0.05555257 0.090088665 -0.023280058 0.08930065
000190 32 f8 1d be bd 83 fa 3d c9 e9 a5 bb c4 9d 79 3d
       -0.1542671 0.12232158 -0.0050632698 0.060941473
0001a0 78 00 02 3d bf 1c 35 bc a9 f4 33 3c 5f 1e 02 3d
       0.03173873 -0.011054217 0.0109836245 0.031767245
0001b0 78 d3 9d bd 5d 52 19 be 1d b1 12 3d 00 94 1b bc
       -0.0770635 -0.14972825 0.03581344 -0.009495735
0001c0 1b 19 ee 3c 9c e9 7e 3c 99 19 04 3e 09 7b 78 3d
       0.029064706 0.0155586265 0.1290039 0.06066421
0001d0 34 91 ed bc 8d 78 2f bc 77 fd b1 3c 9b b1 d1 3c
       -0.028999902 -0.010709894 0.021727307 0.025597384
0001e0 29 5b 89 3d 3d f6 13 3d b4 36 8d 39 ac 68 d8 3b
       0.067068405 0.036123503 0.00026934373 0.0066042747
0001f0 af 78 ae 3d 25 33 c6 bd 59 28 ca bd 23 a8 c3 bc
       0.08519112 -0.09677724 -0.09870977 -0.023883885
000200 c0 52 c1 bd 08 dc 0f bd 82 53 c1 3c cf 51 d8 3b
       -0.094396114 -0.035121948 0.02359939 0.006601549
000210 d9 7f 75 bc e9 84 8b 3d 84 72 bf 3d 67 c3 f7 3d
       -0.014984095 0.0681246 0.09348014 0.12097817
000220 42 db 24 bd 4b be 1e 3e 6e ba a0 3c 78 82 96 bd
       -0.040248163 0.15502279 0.019620147 -0.07349104
000230 a5 69 ca 3d 28 95 dd bc 73 f9 94 ba af 66 38 3d
       0.09883431 -0.027048662 -0.0011365846 0.0450198
000240 e3 62 c5 3d 1d 0a f2 3c f0 33 68 3d a7 62 38 bd
       0.09638002 0.029545838 0.056690156 -0.045015957
000250 95 4f 98 bd 84 51 43 3e e3 aa 43 3c 55 b9 3e be
       -0.07437054 0.19074064 0.011942598 -0.18625386
000260 d9 b3 51 3d 60 29 06 3d fa f7 34 bb 07 ab 81 3c
       0.051196907 0.032754302 -0.0027613626 0.015828623
000270 bc 55 35 3e e9 e4 7b bd c1 47 32 bc 01 6a db 3c
       0.17708486 -0.061497603 -0.010881365 0.026783945
000280 19 7d 6a bd 37 25 00 3e 97 5f f4 bc 42 83 df 3d
       -0.05724821 0.12514196 -0.029830737 0.10913707
000290 00 d8 56 bd b9 3e 4f 3d 9b 27 8c bd ed 74 dd 3c
       -0.052452087 0.050596926 -0.06843492 0.027033294
0002a0 09 99 bc 3d b7 e3 00 3d 50 37 35 be 5f ee 1a 3c
       0.09208877 0.031467166 -0.17696881 0.009456246
0002b0 86 db b0 3d cd c8 b1 3d 72 d4 7c 3c fa fb 09 be
       0.08635621 0.08680878 0.01543151 -0.13475028
0002c0 c6 b8 4a 3d ee 93 b5 3d e2 21 b5 bd 8c 5c 06 3e
       0.04949262 0.08866106 -0.08844353 0.13121241
0002d0 90 b3 6f 3d 46 15 96 3d 98 c5 ca bd e4 8e 23 3d
       0.058520854 0.07328276 -0.09900969 0.039931193
0002e0 f0 38 74 bd f8 11 05 3e 21 d0 f1 bc 41 ad 8b b9
       -0.059624612 0.12995136 -0.029518189 -0.0002664123
0002f0 df d9 17 be df 32 84 3c 65 63 93 bd fc bd 5b 3d
       -0.14829205 0.016137538 -0.071966924 0.05364798
000300 15 a8 f4 3d 99 05 e7 bd 6a ac 1c be 7f 49 86 3d
       0.119461216 -0.112803645 -0.15300146 0.06556987
000310 9c 90 3a 3d 21 50 da 3d 5d 28 5e 3d 1d a1 09 be
       0.045548066 0.106598146 0.054237712 -0.13440366
000320 a0 c4 ef bc 74 35 ba 3c 9a 68 3d 3c 6d ed b4 bd
       -0.029268563 0.022730567 0.0115605835 -0.08834348
000330 0a 13 d1 3d e6 34 b5 bc 08 de f6 3d d4 fc 47 3c
       0.102087095 -0.02211995 0.12054068 0.012206275
000340 85 c8 6a bd 90 d8 f8 3d ae 13 c3 3b 9f e4 02 bc
       -0.057320137 0.12150681 0.0059532737 -0.007989078
000350 15 ae f3 3d f5 92 82 bd 05 76 cf 3d d4 9a 40 bd
       0.11898438 -0.06375686 0.10129932 -0.047022656
000360 43 9d 2d 3d 59 c9 eb 3d 16 4a 22 3d 3b 6f 07 be
       0.042386305 0.115130134 0.039621435 -0.13226025
000370 15 6d 87 3d 5d 82 df bc 32 e5 17 3e ab d7 28 bd
       0.066126026 -0.027283842 0.14833525 -0.041221302
000380 7c 6e a3 bd bb 4d 22 3e 59 32 77 bb 08 11 ce bc
       -0.079800576 0.15849964 -0.0037719219 -0.025154606
000390 70 86 8d bd 34 64 13 3e 6b 4b aa 3d bf 73 6f bd
       -0.069104075 0.14393693 0.08315166 -0.058459993
0003a0 87 3b 09 bd e0 47 77 bd 72 6b 04 be 68 f3 24 3c
       -0.033504035 -0.06037128 -0.12931612 0.010067798
0003b0 80 79 72 3d 12 a0 7b bd 28 37 2d bd 96 38 bd 3d
       0.059197903 -0.06143195 -0.04228893 0.092393085
0003c0 81 32 86 3d 33 d1 e6 3d 9f 55 b4 bc 41 81 ad 3c
       0.065526016 0.1127037 -0.022013484 0.021179797
0003d0 ef da b0 bd cd b0 d5 3d 28 a4 b2 bc a7 c7 97 bd
       -0.08635508 0.10434113 -0.021806791 -0.074111275
0003e0 f2 56 b8 3d c5 f5 69 bd f0 78 65 bc e9 1c 63 bd
       0.090009585 -0.05711915 -0.0140058845 -0.055447493
0003f0 28 c4 e9 bd bb 95 b6 bd 7b 14 1d be f3 8f 69 bc
       -0.11414367 -0.089152776 -0.15339844 -0.014255512

linear.2.bias f4 [128]
000000 2e ae 36 bd 8e 21 8d 3d 7e ad a2 bd 0b 25 39 bd
       -0.044599704 0.06891166 -0.07943247 -0.045201343
000010 17 e2 58 3d 02 ff b0 bd b8 8a 13 be 34 07 c9 bc
       0.05294999 -0.08642389 -0.14408386 -0.024539568
000020 a1 d5 91 3c de ee 7a 3d 76 34 7f bc 19 e3 1f 3d
       0.017802062 0.061262958 -0.0155764725 0.039034937
000030 e1 d5 52 bd 48 39 08 3e c2 a1 9d 3d 3a ae 3a bc
       -0.051473502 0.13303101 0.076968685 -0.011394078
000040 22 06 1f bc 45 17 bc 3d 4b 42 51 be b2 6a 39 3d
       -0.009706052 0.09184126 -0.20435445 0.04526777
000050 73 63 01 bd d4 55 d0 bd 8e f3 fd bc 1b 6f 89 bc
       -0.031588983 -0.101726204 -0.030999925 -0.016776612
000060 cf b2 24 bd de 45 a9 3c b2 3d a2 bd da f7 32 bd
       -0.040209588 0.020663198 -0.07921924 -0.0436934
000070 ae 91 14 be 7a ba f6 bc 9d 7c d3 bd 41 c4 e6 bd
       -0.14508697 -0.030118216 -0.103265025 -0.11267901
000080 30 34 ad 3c 71 9f 18 be 0c 20 b7 3b a2 dc 51 be
       0.021143049 -0.14904572 0.005588537 -0.20494321
000090 71 ca c4 3d e0 cb 9a bd ae 27 d4 3d 51 41 cb bc
       0.09608925 -0.07558417 0.10359131 -0.024811419
0000a0 92 59 7b bd 86 50 9e bc 51 1d d1 bd 75 39 3c 3e
       -0.061364718 -0.019325506 -0.1021067 0.18381293
0000b0 16 50 5a 3d 4f 05 b1 3b 69 7d f3 bd 8e 1e 7c 3b
       0.053299032 0.005402244 -0.118891545 0.003847036
0000c0 1a b0 5f bd e2 07 9a 3d 95 cd 20 be b6 14 12 be
       -0.054611303 0.07521035 -0.15703423 -0.14265713
0000d0 88 13 91 3d 97 19 4f bc 45 7d 9d bd e1 20 27 be
       0.070838034 -0.012640378 -0.07689909 -0.16321136
0000e0 8d 16 ab 3d 3f 56 cd 3d 73 88 87 bd 40 d4 78 3a
       0.083539106 0.10026216 -0.066178225 0.0009492077
0000f0 c1 34 35 3d 84 7f 10 be 94 b2 6c 3d d1 df 2c bd
       0.044239763 -0.14111143 0.057787493 -0.042205635
000100 61 54 3a 3d ed 34 3d 3c 6d f5 de 3c 4f 1c 8b 3d
       0.045490626 0.011548263 0.027216638 0.06792509
000110 12 c9 ea bc 23 6d 98 bd 51 26 db 3d f1 0a 10 be
       -0.02866033 -0.07442691 0.10700668 -0.14066674
000120 1f 57 c1 bd 90 69 a2 3c 09 67 e2 bc 75 dd 0f 3e
       -0.09440445 0.019825727 -0.027637022 0.14049323
000130 81 95 f5 bc 94 08 24 be e5 46 f2 bd 18 40 73 3d
       -0.029978516 -0.16018897 -0.11829928 0.059387296
000140 f6 18 23 be f3 2b d5 bc 19 7c 02 be 63 23 34 be
       -0.1592749 -0.026021933 -0.12742652 -0.17591624
000150 24 22 82 b9 f2 a8 34 bd 02 70 c7 bd 89 e3 13 3e
       -0.0002482097 -0.04410643 -0.09738161 0.14442267
000160 81 1d 84 bd b4 54 db bc ec 00 50 bd e0 11 d7 bd
       -0.0645094 -0.026773788 -0.05078213 -0.10501456
000170 95 57 b3 bd c6 c5 9c 3d 90 4b fd bd da 5f 31 bc
       -0.08756939 0.0765491 -0.12367928 -0.010826075
000180 de e1 d7 bd 7c f9 b9 bc b9 45 5a bd 72 69 e8 bd
       -0.105411276 -0.022701971 -0.05328915 -0.11348237
000190 20 b2 6d 3d 80 06 68 bd d1 02 22 3d 0f 50 14 be
       0.0580312 -0.056646824 0.039553467 -0.14483665
0001a0 0f 0e 90 bc 05 e7 26 3d 15 81 cd 3d 03 5f f8 3d
       -0.017584829 0.04074766 0.10034386 0.12127497
0001b0 15 c5 9a bd 05 ed 6a bc 7b c2 34 3d e7 ba 17 be
       -0.07557122 -0.014338736 0.044130784 -0.14817391
0001c0 f9 d1 99 bb 20 a5 81 3d 74 94 aa bd b8 65 3b be
       -0.00469422 0.06330323 -0.083290964 -0.18300521
0001d0 50 68 11 be 8d 46 00 be 94 88 b1 bd b5 2b 18 3d
       -0.14199948 -0.12526913 -0.08668628 0.037151057
0001e0 97 f1 e4 bd e8 e8 3c 3d f5 e9 ec bd 0b ca bd bc
       -0.11178892 0.046120554 -0.11568061 -0.02316763
0001f0 55 a5 e8 bd a6 63 19 bd 91 6c 82 bd 71 06 01 bd
       -0.113596596 -0.037448548 -0.06368364 -0.031500284

linear.4.weight f4 [2, 128]
000000 b2 72 7b 3c e5 bb 04 3d 81 42 ab 3c 31 12 5b bd
       0.01534717 0.032405753 0.020905735 -0.053484146
000010 b3 1e 45 bb 6f 03 9c bc e5 7e b6 bc 9d 90 93 bd
       -0.0030078113 -0.019044606 -0.022277305 -0.07205317
000020 19 a3 5d 3d 71 27 82 3c 68 25 cc bc a9 c9 1a bc
       0.05411062 0.015887948 -0.02492018 -0.009447494
000030 87 db 46 3d 4e 81 b7 3d f1 a7 25 3d fa 33 06 3c
       0.0485492 0.0896021 0.040443365 0.008191103
000040 87 b4 cb ba 56 ce c7 3d f6 dd f0 3c 2a e5 74 3c
       -0.0015541472 0.09756152 0.029402714 0.014947215
000050 38 98 fc bc eb bd 1e 3d ae e6 da bd 04 b5 a6 3c
       -0.030834302 0.03875534 -0.1068853 0.020349987
000060 5f f0 65 bc 38 53 d1 3c 60 bf 10 bd 80 af 06 bc
       -0.01403436 0.025552377 -0.03533876 -0.008220553
000070 f3 14 19 bd 0f 2d f7 bb 10 c3 70 3d f3 cd 39 3c
       -0.037373494 -0.007543213 0.058779776 0.011340606
000080 7c 2e ee 3d f2 a1 95 3d 0c 9a 1c bc 9c bf f1 3c
       0.1162996 0.07306279 -0.009558212 0.029510312
000090 9a ab ed 3c cb 27 82 bb 36 e9 f6 3d ff 59 82 3c
       0.02901249 -0.003972029 0.120562 0.015912054
0000a0 37 d1 07 bd 7c e5 3c bd ff e6 80 3c 62 d2 88 3d
       -0.033158507 -0.04611729 0.015735148 0.06680752
0000b0 25 aa cc 3b 5d 10 ae 3d 6b d9 45 3d 8e bd 8e bc
       0.0062458687 0.08499215 0.04830305 -0.017424371
0000c0 3e cb 8d 3d 72 50 90 bd a9 a5 57 3d 8f 97 4e bd
       0.06923531 -0.07046594 0.05264822 -0.050437506
0000d0 f0 39 ca bc 46 cd 3b bc ac 54 db bc 99 8c 83 3c
       -0.02468583 -0.011462515 -0.026773773 0.016058253
0000e0 bc d0 99 3d 47 95 b1 3d d5 9e 39 3a 6c 90 f2 bc
       0.07510516 0.086710505 0.0007080858 -0.029609881
0000f0 1b 06 c3 3d 52 8f c0 3c b3 ee 04 bc e8 e9 97 bc
       0.09522649 0.02350584 -0.008113551 -0.018544152
000100 bd e5 c2 3c 7f ee 77 bd 1d 45 64 3d e3 83 03 bd
       0.023791188 -0.060530182 0.055729974 -0.0321082
000110 5f 07 93 3c be 55 c6 3c 16 84 9c 3d 93 85 82 bd
       0.01794785 0.024210807 0.07642381 -0.063731335
000120 9b 8d b0 3d c3 0d 28 3d e6 01 ca bd 29 75 12 3d
       0.08620759 0.04102875 -0.09863643 0.035756264
000130 f3 2a 24 3d ee e1 a1 bc 69 23 28 3d 53 f2 01 3e
       0.040080022 -0.019761052 0.041049395 0.12690096
000140 12 59 00 3e c3 44 2b 3c 2e a2 cd bc 7c f3 72 3d
       0.12533978 0.010453406 -0.025101747 0.059314236
000150 30 60 33 3b 00 f2 65 3a 57 40 67 bc 7e 69 05 3e
       0.0027370565 0.00087717175 -0.014114461 0.13028523
000160 de 85 79 bd 34 b1 be 3d 4f 3b 01 bd db 8f 86 3d
       -0.06091868 0.093111426 -0.0315507 0.06570407
000170 d5 45 d1 3c 7b 01 59 bd 45 8d 27 3d fe f0 a6 3a
       0.025545994 -0.052979928 0.04090621 0.0012736616
000180 20 72 63 3c 49 7d 72 3c 43 48 88 3d 30 d3 18 bd
       0.01388219 0.014800378 0.06654408 -0.03731078
000190 b0 a4 13 3d 16 d8 c1 3c 63 17 ff bc d0 78 be 3d
       0.03604573 0.023662608 -0.031139081 0.09300387
0001a0 75 96 28 bd a6 f2 52 3b 22 68 b3 bd 60 c4 98 3d
       -0.041159112 0.0032188087 -0.08760096 0.074593306
0001b0 4e b2 8a 3c 8f 03 f3 3a 6e d8 08 bd 04 de c1 bd
       0.016930725 0.0018540489 -0.03340953 -0.09466174
0001c0 ae 43 ac 3d 80 f4 0c 3e 02 72 72 3d 29 de 4a 3d
       0.084113464 0.13765144 0.059190758 0.049528275
0001d0 9f 91 c1 3d b2 f0 c8 3c e7 2f b9 3d 58 3a 3c 3d
       0.09451603 0.024528835 0.0904234 0.04595408
0001e0 5d e9 fd 3c 23 27 32 3c bc d7 3a bb 21 86 07 3b
       0.030995065 0.010873589 -0.0028509935 0.0020679312
0001f0 59 42 48 bd 98 21 86 3c 23 6b bf 3d 49 b8 16 3d
       -0.0488914 0.01637344 0.093466066 0.03679684
000200 ac 1a 93 bd e1 92 b9 bb 22 f0 35 bd 8b 0d 42 bc
       -0.07182822 -0.0056632613 -0.04441846 -0.011844049
000210 d1 1c 7a bd 8d b3 8e 3d fd d1 17 3c f5 e3 99 3b
       -0.061062638 0.0696784 0.009266374 0.004696364
000220 24 84 f4 3c 5d a1 62 3d 03 b0 a6 bb 3a 3a d1 bc
       0.029848166 0.05532967 -0.0050869 -0.02554046
000230 97 74 54 3c 45 62 ec bc 45 5c 59 3d 4c dd 14 bc
       0.01296725 -0.028855452 0.05306651 -0.009085964
000240 bb 7c 91 bc f0 1f 79 bc f0 81 27 3d 3d 02 ee bd
       -0.017759671 -0.015205368 0.040895402 -0.11621521
000250 f9 32 81 3d 09 3c 3d 3c 22 ff 01 3c 35 8e 5e bd
       0.063085504 0.011549958 0.007934364 -0.054334838
000260 8d e3 91 3c c0 34 d8 3d 01 2d ca bc 00 cd a8 bc
       0.0178087 0.10556936 -0.024679663 -0.020605564
000270 d9 f2 3d 3d 19 77 83 3a d4 3b ea 3b cd e3 00 3e
       0.046374176 0.0010030001 0.0071482453 0.12586899
000280 84 f6 80 3c c8 ac c4 bc 00 35 c7 bd be 35 ea 3c
       0.015742548 -0.02400817 -0.09726906 0.02859008
000290 25 e6 93 3d a6 e6 21 bc 18 38 65 bc 88 6e d7 3d
       0.07221631 -0.009881651 -0.013990425 0.10519129
0002a0 2b 4e 5b 3c 4f 7f f7 bc 52 a1 b1 3d 3d 14 0c 3c
       0.013385336 -0.030212073 0.086733475 0.008549747
0002b0 1a a2 74 3d ff c5 f2 bc 21 25 63 3c 82 c0 12 be
       0.059724905 -0.029635428 0.013863833 -0.14331248
0002c0 c6 c9 fe bb 04 00 07 bb 2b d9 88 3d 2d 20 bb 3c
       -0.007775518 -0.0020599375 0.066820465 0.022842491
0002d0 24 3a 78 3c d1 e7 64 bc b0 a6 b1 bd 17 1f 17 3d
       0.015150581 -0.013971285 -0.08674371 0.036894884
0002e0 2b fb 0e 3b df c3 ec bb 00 ff 89 bc 2b a5 8e bd
       0.0021817188 -0.007225498 -0.016845226 -0.06965097
0002f0 49 c1 6c 3d 5a 30 30 3d a1 b2 a1 bd 29 60 9c 3d
       0.05780152 0.04301486 -0.07895399 0.076355286
000300 12 0a ff 3b ca c9 b4 bb ec 72 78 3d 5d cd aa bd
       0.007783183 -0.005517219 0.060656473 -0.08339951
000310 30 45 a6 bd 7b 04 48 3d 88 9e 24 be b1 8f 0a 3d
       -0.08118665 0.048832398 -0.160761 0.03382844
000320 4d 82 49 3d c9 ff 81 3b 1d 7f 14 bd c5 4b 10 3d
       0.04919653 0.0039672595 -0.036254037 0.03522851
000330 df 9d 34 3d 0c eb 0b be 79 2b bd bc bf 63 c8 bd
       0.04409587 -0.13663882 -0.023092018 -0.0978465
000340 a4 40 b4 bd 02 5e be bd c3 c2 c7 3c 0e 04 3f bb
       -0.08801392 -0.09295274 0.024384862 -0.0029146704
000350 03 a7 88 39 44 8e 38 bd 27 b8 1b 3d cc 62 93 bd
       0.00026064375 -0.04505755 0.03801742 -0.071965784
000360 10 bd 6c bc a2 16 2d bc 4b 5e 7d bd dc 61 1c bc
       -0.014449373 -0.010564478 -0.061857503 -0.009544816
000370 2b db 1f 3c 67 5c 84 bd de dd f7 3c 9a 46 2d bc
       0.009756844 -0.06462937 0.030257162 -0.010575915
000380 ac 32 6c bc 1b 64 b2 bb 49 17 ce 3c 56 13 7c bd
       -0.014416378 -0.0054440624 0.025157588 -0.061541878
000390 db 5b b3 bc d7 66 45 bd 98 e7 00 be 9a 4f 83 bd
       -0.021894386 -0.04819378 -0.12588346 -0.06411667
0003a0 55 1f 74 3c e5 a6 06 3d 5b d3 9f 3c ca 95 aa bd
       0.014900048 0.032874007 0.019509962 -0.08329351
0003b0 2b 07 a4 3d e2 c8 1e 3c 52 13 ff 3c ac 1a 5d bc
       0.0800918 0.009691449 0.031137142 -0.013495129
0003c0 3b 63 04 ba 40 bb 76 bd 64 aa 5d 3c 81 5d 26 3c
       -0.0005050187 -0.06023717 0.013529394 0.010154129
0003d0 35 86 e4 bc ec 31 ff 3c 5a ff ab 3b 7a f2 85 3d
       -0.027896026 0.031151734 0.005248946 0.06540389
0003e0 5a f2 86 3d 6b e5 04 bd d7 53 59 bc 7a 15 cf bd
       0.06589194 -0.032445353 -0.013264618 -0.10111518
0003f0 15 d9 27 bd 98 68 14 3c 16 21 39 bd 8b 36 06 ba
       -0.04097851 0.00905814 -0.04519757 -0.0005119822

linear.4.bias f4 [2]
000000 b7 b2 0d 3e 1b ce 92 bc
       0.13837706 -0.017920544
