meta/demos/multiple_experiments/results/models/run_0/emodb_mlp_praat_16-64-128_C_val-001_drop-3_learning_rate-01_0_004.model (torch, 45432 bytes, 8 tensors)

linear.0.weight f4 [16, 39]
000000 6a 2f 02 be 22 cd 89 be eb 7b bb bd 8b ed f1 bd
       -0.127134 -0.26914316 -0.09154495 -0.11812886
000010 83 fb 15 be d0 c2 5f be f6 b5 16 be b0 8a 65 be
       -0.14646725 -0.21851659 -0.1471785 -0.22416186
000020 dc f6 88 be fc 23 ed bc 43 86 c5 bb e2 d6 81 bc
       -0.2675084 -0.028947823 -0.006027968 -0.015849534
000030 cc 6a 5e be 42 85 f6 bd c9 14 91 bd 00 bf 7a be
       -0.21720427 -0.12037136 -0.070840426 -0.24486923
000040 de cb 0e 3b f1 91 fa bc 1c 58 8d bd 64 6f 4b be
       0.0021788995 -0.030587168 -0.06901571 -0.19866711
000050 8f 3b 65 be 0c 68 2f 3d b5 9a a4 bd f1 a2 33 ba
       -0.22386001 0.042823836 -0.080373205 -0.0006852588
000060 50 b5 ee 3d 9a 2a f2 3c f0 d8 f4 bd 69 c5 59 be
       0.11655676 0.02956133 -0.1195544 -0.21266712
000070 fc 8d 2d 3d 13 77 62 be bc a3 70 be 56 9d 06 bd
       0.042371735 -0.22115736 -0.2349996 -0.03286489
000080 ec 4c c0 bd 56 8c fa 3b 44 65 aa bd d8 6a 6b be
       -0.09389672 0.007646124 -0.08320096 -0.22989976
000090 ef 48 32 3d 84 31 56 be 1c 89 56 be df d9 5d bd
       0.043526586 -0.20917326 -0.2095074 -0.054162856
0000a0 1b 71 a2 bb 5a 2e 36 be 5d 9e 1a be 81 21 ad b9
       -0.004957331 -0.17791119 -0.15099473 -0.00033022094
0000b0 5c 5a 77 be 71 d6 77 be 2a 79 f8 3c 4a d0 bb bc
       -0.24155563 -0.24202897 0.030331213 -0.022926468
0000c0 fe 2d 83 bc 03 64 c8 bd bd 6d c8 3c 4c 04 f7 3c
       -0.016013142 -0.09784701 0.02446639 0.030153416
0000d0 72 90 b8 3c b3 e0 1d be 13 04 b0 bd 5a 92 91 bd
       0.022529814 -0.15417747 -0.08594527 -0.071079925
0000e0 64 57 73 bd ae f3 e5 3b 90 cb 0d bd df 33 91 bd
       -0.059409514 0.0070175743 -0.03461796 -0.07089972
0000f0 1f 63 a7 bd 22 f0 a3 bd 6e 55 80 bd f5 b0 fe 3a
       -0.08173203 -0.08004786 -0.062662944 0.0019431399
000100 73 eb 7e 3d cd 9b 28 be 63 c1 44 bd 1e e1 b0 bd
       0.06223626 -0.16465683 -0.04803599 -0.08636688
000110 d0 66 63 be cb df 4e be ba c3 45 be 4d c0 87 bd
       -0.22207189 -0.20202558 -0.19312945 -0.06628475
000120 c5 c3 71 3d d0 8d 19 be 1d 42 30 bd 61 40 5d bd
       0.05902459 -0.14995503 -0.0430318 -0.054016475
000130 38 e2 73 be 24 ef cf bd 4c e7 e2 3d 28 ad d9 bd
       -0.23816764 -0.10153034 0.11079273 -0.1062873
000140 45 40 0b be af 39 2c bd 7c 29 d0 bc b2 6c d7 bd
       -0.13598736 -0.0420472 -0.025410406 -0.10518779
000150 a9 4e f4 3d 35 28 23 be d4 4f 5f 3d a7 c8 75 bd
       0.11929066 -0.15933307 0.05451949 -0.06000581
000160 55 32 dc bd be fb c9 3d ef 87 0d bd 55 63 af bd
       -0.107517876 0.09862469 -0.034553465 -0.08563868
000170 c7 5e 39 3d 2e b3 ba 3d 5f e0 2b 3d b9 a8 b2 bd
       0.045256402 0.09116207 0.041962024 -0.087235875
000180 bf 70 d3 bd 15 fb 04 3e 19 f3 88 3c 25 7a a6 3c
       -0.10324239 0.12986405 0.01671748 0.020321915
000190 e2 42 ec bd 3d 97 cd bb 75 32 8f 3c f9 aa dd bc
       -0.115361944 -0.0062741325 0.017480114 -0.027059065
0001a0 2b 63 e4 3d 85 b1 e1 bd 46 33 ef 3d e2 7b be 3d
       0.11151727 -0.11020187 0.116797015 0.093009725
0001b0 7b ab 7b 3c aa cf 07 bd 72 21 d3 3d 2c ae 12 be
       0.015360708 -0.03315703 0.103091136 -0.14324254
0001c0 bf 6d ae bd f4 c8 86 3d e6 a3 0a be 34 25 8a 3d
       -0.08517026 0.065812975 -0.13539085 0.06745377
0001d0 20 65 05 3e 59 99 29 3d 6e 5c db 3d 17 ef ee 3d
       0.13026857 0.04140601 0.10710989 0.116666965
0001e0 58 b1 0c 3e 93 de be bd 77 a9 c1 bd 6a e0 84 bd
       0.13739526 -0.093197964 -0.09456151 -0.06488116
0001f0 35 7e c4 3d 34 80 ec bd 77 9b c9 3c a9 bf 17 be
       0.095943846 -0.1154789 0.024610264 -0.14819206
000200 c3 c5 04 3e dd d5 a9 3d 51 b8 ae bc c2 76 5e 3d
       0.12966065 0.08292744 -0.021328123 0.054312475
000210 67 9d 81 3d d0 f4 59 bc 5a 2a 49 bd 75 2e a8 bb
       0.0632885 -0.013302997 -0.049112655 -0.0051324912
000220 5c 22 b1 bd a6 da a1 bd 9a 06 e7 bd 84 6e d7 3d
       -0.08649132 -0.07903032 -0.11280556 0.10519126
000230 86 56 13 3d 19 f8 18 3d 5b 05 1a bd 32 d2 03 be
       0.035971187 0.03734598 -0.037602764 -0.12873152
000240 44 49 b6 3d c6 07 8d 3d 12 d0 ef 3d bd 34 11 be
       0.08900693 0.06886248 0.11709608 -0.14180274
000250 fb 76 57 bd e5 55 05 bd 80 c1 db bc 6a 52 ae bd
       -0.052603703 -0.03255262 -0.026825666 -0.08511813
000260 0f db 0f be 3a 98 42 3d d8 b0 d2 bd 42 70 04 3e
       -0.14048408 0.047508456 -0.102876365 0.12933448
000270 d1 02 18 be ac e4 4f bc c6 71 7f bd c3 15 05 be
       -0.14844824 -0.012688797 -0.062364362 -0.12996583
000280 c8 65 ec 3d a0 0a 38 3d 9e 0a 1e bc 5d 1a b3 bd
       0.11542851 0.044932008 -0.009646086 -0.08745263
000290 6f a0 1e be 7a 60 e6 bd a0 4a 13 3e 00 80 1f be
       -0.15490888 -0.1124887 0.14383936 -0.15576172
0002a0 78 4a f6 bd 37 57 63 bc 2a af 82 3d a4 5b 26 3d
       -0.120259225 -0.013875774 0.06381066 0.04061474
0002b0 41 80 c3 bc 97 2a 09 be 13 c2 1c 3d c5 34 a0 3d
       -0.023864867 -0.13395153 0.03827102 0.07822565
0002c0 b9 77 11 3d 61 dc 0c bd c0 d9 c0 bc 4d dd 1e be
       0.035514567 -0.034389857 -0.023541331 -0.15514107
0002d0 c4 f0 88 bd 29 8b cf bb ca 99 16 be 31 28 bd 3b
       -0.066865474 -0.006333728 -0.14707103 0.0057726135
0002e0 3b aa e1 3c da 52 1b 3e 67 70 f9 bd cd 8d 11 3d
       0.027546993 0.15168324 -0.12179642 0.035535622
0002f0 d3 ff e4 3d 50 f1 20 be 2e d7 5b bd 5e d4 93 bd
       0.11181607 -0.15717053 -0.05367201 -0.0721824
000300 1a 51 1b be 81 85 fe 3d 7a 3e 83 3d bd 92 3e be
       -0.15167657 0.124278076 0.06408401 -0.18610664
000310 21 3b 58 be f5 cd 19 be 63 df fe bd 89 93 18 bc
       -0.21116306 -0.15019973 -0.124449514 -0.009312519
000320 63 f2 94 3d 29 b0 6b be 1a 45 d7 bd 08 53 61 3d
       0.07272794 -0.23016419 -0.10511227 0.055010825
000330 13 fb 68 be 63 90 f7 3c c0 3f 28 bd aa 4f 45 bc
       -0.22752027 0.030220216 -0.04107642 -0.012042919
000340 6b a0 73 bd 63 f5 a3 bc b4 fb 0f be 7a 49 60 bd
       -0.05947916 -0.02001447 -0.14060861 -0.054757573
000350 d7 62 7c 3d 53 36 20 be 67 85 98 3c 94 b5 46 bd
       0.0616177 -0.15645723 0.018618299 -0.04851301
000360 62 f1 f7 bd 41 cd b5 bd 3b 4b 58 bd 60 0e 55 bc
       -0.12106587 -0.0887704 -0.05280612 -0.013003916
000370 31 1e c1 3d fa 5f 37 be 13 e2 a9 bc 60 e8 32 3d
       0.09429587 -0.17907706 -0.020737683 0.04367864
000380 98 13 b2 bd b3 03 d7 bb 4e 45 75 3d e1 a7 48 be
       -0.086951435 -0.0065617203 0.059880547 -0.1959529
000390 fc 2f 0c be 53 ca 64 be 60 ac cc bc f7 25 33 be
       -0.1369018 -0.22342806 -0.024984539 -0.17494951
0003a0 13 ab e4 39 cc 0d 45 3d 01 a1 27 be d3 fe 1b be
       0.0004361501 0.04810886 -0.16370012 -0.15233926
0003b0 19 67 4f be a2 a7 04 bc 85 cb 88 bd 0d 8b 9b 3d
       -0.20254172 -0.008096607 -0.06679443 0.07594881
0003c0 c2 3e 02 be 15 0d dd bd 9d 96 27 3d 86 3d 28 3c
       -0.12719253 -0.10793511 0.04091512 0.010268575
0003d0 ec 52 94 3c b1 85 42 be f0 90 78 bd 5f 2c d6 bc
       0.018105946 -0.18996312 -0.0606851 -0.026144205
0003e0 71 58 ce bd 9a 30 63 be 43 85 9c 3d ec 41 67 bd
       -0.100754626 -0.22186509 0.07642605 -0.056459352
0003f0 b3 18 2a 3d b5 a9 40 bd 66 c5 35 be c5 3a 16 bd
       0.04152746 -0.047036845 -0.17751083 -0.03667714

linear.0.bias f4 [16]
000000 c2 97 d9 bd 40 55 2d bb 87 0f 80 3d cb 50 bf 3b
       -0.10624649 -0.0026448518 0.062529616 0.0058384887
000010 82 eb 04 3e 18 38 0b be 62 65 55 be 99 de f2 3d
       0.12980464 -0.13595617 -0.20839456 0.118588634
000020 dc 4e 18 3e f3 0e 83 bd 97 67 1d be 4d 2c 19 3e
       0.14873832 -0.06399336 -0.15371548 0.14958306
000030 6c 88 1d be 23 5a d0 bd 7a e4 9d bd 67 50 aa 3d
       -0.15384072 -0.10173442 -0.07709594 0.08316117

linear.1.weight f4 [64, 16]
000000 95 15 71 3e 95 ec 4f bd bc 89 a6 3d bc a9 87 bd
       0.23543389 -0.05076273 0.081317395 -0.06624171
000010 b8 81 20 3e a7 df a4 3d d8 9f 23 be 08 5c 8c 3d
       0.15674484 0.08050471 -0.15978944 0.06853491
000020 18 66 a3 3d f2 7c 13 3e 24 f0 2a 3e 86 e7 06 be
       0.07978457 0.14403132 0.16693169 -0.13174257
000030 e4 2e 09 be 86 bf 5f 3e ec 5e 10 be 24 5f 3b be
       -0.13396794 0.21850404 -0.1409871 -0.18298012
000040 ca 73 f8 bd 30 07 2e be 44 d3 bc bd 6c 7e 64 3e
       -0.1213146 -0.1699493 -0.09219983 0.22313851
000050 ae 7b 77 be 1c 81 a2 bd 40 f1 24 bb 00 00 c7 bb
       -0.24168274 -0.07934782 -0.002516821 -0.006072998
000060 d4 a1 05 be 76 ac 22 3e 9b a6 c6 3d 54 da 54 be
       -0.13050014 0.15886101 0.09699746 -0.2078641
000070 62 79 74 be 00 3a 8e bd 80 00 45 be 1e e9 30 3e
       -0.23874429 -0.06944656 -0.19238472 0.17276427
000080 00 84 f4 bd fe 26 f3 bc 24 73 ad 3d 4e a7 60 3e
       -0.119392395 -0.029681679 0.08469227 0.21938822
000090 b0 e9 80 3d a3 0c 78 be d7 b6 cd 3b 80 78 54 bc
       0.06294572 -0.2422357 0.0062778997 -0.012968183
0000a0 e0 87 8b 3c f8 5b 23 3e 2f ef f9 bd 40 2b a8 3b
       0.017032564 0.15953052 -0.12203824 0.005132109
0000b0 88 62 66 be c0 4e 7f bc 14 a8 4d 3e 56 42 51 3e
       -0.22498524 -0.01558274 0.20083648 0.20435461
0000c0 1d cb db bd 69 73 04 bd 66 14 12 3e 76 90 4a 3e
       -0.107321 -0.032336626 0.14265594 0.1978167
0000d0 c0 33 db bd 0c f8 d3 bb 43 89 80 3e e8 d5 81 bd
       -0.1070323 -0.0064687785 0.25104722 -0.063396275
0000e0 50 81 68 3e 10 4c f1 bd 7e aa fe bc f0 69 0f 3e
       0.22705579 -0.11782086 -0.031087156 0.14005256
0000f0 40 6e 55 bd a0 cf 10 3c fa 2b 03 be 16 95 15 3e
       -0.052107096 0.008838564 -0.12809744 0.14607653
000100 bf f9 58 3d fe 09 a4 3d c0 91 10 bd 6c 22 a4 bd
       0.05297255 0.08009718 -0.035295248 -0.08014378
000110 d4 ae ba bd 9f cd f8 bd ee 63 2b 3c b4 22 71 3e
       -0.09115377 -0.12148594 0.010460837 0.23548394
000120 28 10 d0 3d 72 12 14 be ec 22 2b bd e8 5d 33 be
       0.101593316 -0.14460161 -0.04178135 -0.17516291
000130 08 a1 2f be 8a 9f 17 3e d8 4e 8e bd 40 bf 0a 3e
       -0.17151272 0.14806953 -0.06948632 0.13549519
000140 12 20 19 be 10 e2 d1 bd 50 33 36 3d 5e 6b 5e 3e
       -0.1495364 -0.10248196 0.04448253 0.21720645
000150 d0 d4 54 be 24 2f f1 3d 94 04 2a 3e 78 db 7f bd
       -0.20784307 0.117765695 0.16603309 -0.06246516
000160 98 2f 48 3e e0 ff fd bc d7 2c 66 be 9c 23 0b be
       0.19549406 -0.0310058 -0.22478043 -0.13587803
000170 54 16 2f 3e d8 82 78 3e c0 18 a0 3d 36 e4 14 be
       0.17098361 0.24268663 0.07817221 -0.1454018
000180 af f3 36 3d 55 4e 07 3e 68 b4 cb 3d cc 43 51 be
       0.04466599 0.13213475 0.09946519 -0.20436019
000190 68 ab 7d be 1e 65 23 3e d4 d9 46 3c 9a c7 06 be
       -0.24772418 0.15956542 0.012136895 -0.1316208
0001a0 c0 38 72 be 9a b9 78 be 33 ab 5b 3c 10 9e 78 3e
       -0.23654461 -0.24289551 0.013407516 0.24279046
0001b0 18 9c 40 3e 02 eb 5e 3e 94 a2 68 be 70 8b 68 3e
       0.18809545 0.21769336 -0.22718269 0.22709441
0001c0 4b f2 56 3c 76 8d 16 bd 00 74 66 3e 00 40 64 39
       0.013119291 -0.036756 0.22505188 0.00021767616
0001d0 3c cb 1d 3e de 2c 30 3e 2b 7d 29 be 5c 82 9f 3d
       0.15409559 0.17204615 -0.16551654 0.07788536
0001e0 a0 8c cc 3d 4c 1b 74 3e d5 d3 48 3e 48 9c 13 be
       0.099877596 0.23838538 0.19612058 -0.14415085
0001f0 52 2e 41 3e f2 b2 5d 3e ca cb 3d be 28 56 a3 bd
       0.18865326 0.21650293 -0.1853477 -0.079754174
000200 b2 9d 86 bc 17 eb 1a be 30 6c 27 be ae 44 11 be
       -0.016432617 -0.15128742 -0.16349864 -0.14186355
000210 7c 10 cc bd 84 b2 11 3e 65 7c 78 bd 20 b0 58 3e
       -0.09964082 0.14228255 -0.060665507 0.21160936
000220 80 25 33 be 40 ad 7d 3c 6b b1 cd bd cc 51 8a bd
       -0.17494774 0.015483201 -0.100436054 -0.06753883
000230 e0 9a 52 3e 30 b3 77 3e 04 cc 0b 3e a8 1d 3f be
       0.20566893 0.24189448 0.13652045 -0.18663657
000240 85 eb ac bd 6e df 1d be 6c 03 d7 3d ce 6d 3d be
       -0.08443359 -0.15417263 0.104986995 -0.18498918
000250 f8 02 7e bd ed 55 19 be a4 7e eb bd 60 a3 c5 3d
       -0.06201455 -0.14974184 -0.11498764 0.09650302
000260 a0 d7 ed 3c 8a 5a 0d be 49 9b 90 3e 00 0e 20 3a
       0.029033482 -0.13804069 0.28243473 0.0006105602
000270 30 c4 7f 3d e0 5c 6f 3d f2 a2 13 3e f8 49 10 3e
       0.06244296 0.058438182 0.14417627 0.14090717
000280 fa 4b 93 3b 90 38 7b 3e 7c 81 35 be 58 98 4f bd
       0.004495141 0.24533296 -0.17725176 -0.050682396
000290 f0 19 df 3c 91 dd eb bd 0e e6 26 bc 06 42 73 3e
       0.027234048 -0.1151687 -0.010186685 0.23755655
0002a0 48 f0 7f bd f0 c7 14 be b5 e5 62 3e dc 00 94 3d
       -0.06248501 -0.14529395 0.22157939 0.072267264
0002b0 e4 b0 b4 3d 00 2c 99 ba 9c bd 30 be 58 66 78 3e
       0.08822802 -0.0011686087 -0.1725983 0.24257791
0002c0 5b 86 82 3e 00 bf 02 be e2 ae 30 3e 90 23 ed bc
       0.2549313 -0.12768173 0.17254212 -0.028947622
0002d0 80 03 fe 3c 7c 51 27 3e 21 b2 23 3e a8 ce 78 bd
       0.031007528 0.16339678 0.1598592 -0.060743958
0002e0 be cf 17 3e 78 79 26 be 19 37 01 3e 70 a4 2e be
       0.14825341 -0.16257274 0.12618674 -0.17054915
0002f0 bc dc 1f be 2a 29 42 be 36 aa 6e 3e e4 01 6a be
       -0.15611547 -0.18961015 0.23307118 -0.22852284
000300 da 3e 83 3e c6 17 bd bd 20 9e 85 3d b0 66 40 3e
       0.2563389 -0.0923305 0.065243006 0.18789172
000310 1c e1 8a bd 3a 16 a1 bc f7 58 6c bc 6a 8d 26 3e
       -0.067812175 -0.019663919 -0.014425508 0.16264883
000320 8c 3e 0b be d0 12 06 be 28 8d 60 bd 70 97 56 3d
       -0.13598078 -0.13093114 -0.054822117 0.052390516
000330 fe af 74 3e f4 f5 ff bd 44 dc cf 3d 1e 6e 18 3e
       0.2389526 -0.12498084 0.10149434 0.14885756
000340 ee 09 86 3d 38 81 cc 3d cc 82 47 be da 44 1b be
       0.06544863 0.09985584 -0.19483489 -0.15162984
000350 80 70 98 bb d3 89 9a 3d 7e 2a 05 3d 00 17 23 bb
       -0.004652083 0.07545819 0.032511227 -0.0024885535
000360 12 74 1f 3e a0 60 04 3d a3 60 78 be 82 d2 50 be
       0.15571621 0.03231871 -0.24255614 -0.20392802
000370 64 b8 55 3e b0 32 59 bd 50 55 fc 3c cc 8d bd bd
       0.2087112 -0.053026855 0.030802399 -0.09255561
000380 49 43 16 bd 91 29 ae 3d 4c 6c a0 bd c4 fe 98 3d
       -0.036685262 0.08504022 -0.07833156 0.07470468
000390 40 64 f1 3b bd 4d 92 3e 27 54 3a be be fd 5f be
       0.007366687 0.28574935 -0.18196164 -0.21874139
0003a0 c0 bd f7 3d 20 f1 fa bd 9e b3 18 3e b2 60 69 be
       0.12096739 -0.12253022 0.14912269 -0.22790793
0003b0 00 15 ed 3d 18 4c ed 3d 8e b2 1c be ee a1 2d 3e
       0.11576271 0.11586779 -0.15302488 0.16956303
0003c0 b2 cb ff bd 81 25 97 bd e0 aa 4f 3d 80 66 3c 3c
       -0.12490024 -0.073802 0.05070007 0.011499047
0003d0 7c 86 e7 bd 30 3d 9e 3d fe b4 f9 bd 90 2b 00 bd
       -0.11304948 0.07726514 -0.12192725 -0.031291544
0003e0 28 5d 66 bd 04 7b 69 be 4a f4 a6 bd a8 c5 03 be
       -0.056241184 -0.22800833 -0.08152063 -0.12868369
0003f0 a4 5c 00 be 64 f2 4f 3e 6c 46 0a be f6 7c 3a be
       -0.1253534 0.20307308 -0.13503426 -0.18211731

linear.1.bias f4 [64]
000000 52 27 a2 3e 24 1e 1e be 09 b9 04 be ba 5c 83 3b
       0.31670624 -0.15441185 -0.1296121 0.0040088566
000010 69 e4 3c bd 48 fc 8b be f2 fe 8d 3e 06 00 a4 3d
       -0.046116266 -0.27340913 0.2773357 0.08007817
000020 9b 00 79 3e 6a f1 7d 3d 9c 56 d0 bd 33 40 7d bd
       0.24316637 0.06199781 -0.101727694 -0.061828803
000030 01 d1 c7 bd d2 a5 ab bd 58 40 72 3e 1a 58 81 3e
       -0.09756661 -0.08381237 0.23657358 0.2526253
000040 a6 07 e6 bc 10 c5 6d be 97 25 37 be a5 9a bd 3d
       -0.028079819 -0.23219705 -0.17885433 0.09258012
000050 da df ce 3d 39 0b 7a bd 10 fa 55 3b df 77 94 be
       0.1010129 -0.06104586 0.003265027 -0.28997704
000060 c0 0f 36 be 25 52 bc be 7a cc c6 bd 35 6a fd bc
       -0.17779446 -0.3678142 -0.097069696 -0.030934433
000070 40 fe 10 bd b6 21 e2 39 bd b4 10 bd 9c e7 20 be
       -0.03539872 0.00043131196 -0.035328615 -0.15713352
000080 06 95 37 3d d8 44 c0 3d 9b 58 e0 bc df 48 93 3e
       0.044819854 0.09388131 -0.027386 0.28766534
000090 11 b4 70 be 49 da 8b be 60 73 f3 3d 50 3e 3a be
       -0.2350619 -0.27314976 0.118872404 -0.18187833
0000a0 ab 37 2c 3c 4a 0a a0 bb c0 f7 81 3e ad 9a 80 3d
       0.010511319 -0.004884039 0.2538433 0.06279502
0000b0 11 ed 8b 3e 68 8b 42 be 9c 2e b3 bb 21 0f 79 3a
       0.27329305 -0.18998492 -0.0054682028 0.00095008506
0000c0 5a 9b cb 3d 63 5b dc 3d df 4a 4d bd ba 78 34 be
       0.0994174 0.10759618 -0.05012023 -0.17624179
0000d0 d7 fb fa bd 80 75 f7 3b 44 5c 65 3d 45 c5 83 3e
       -0.12255066 0.007551849 0.055996194 0.25736442
0000e0 10 52 03 3e ba 38 e4 bc a7 4a b9 3d cd b4 dc 3d
       0.12824273 -0.02785908 0.09047442 0.107766725
0000f0 90 2e 36 3d a1 6e 9f bd 34 80 b8 ba 54 80 2a be
       0.044478 -0.07784773 -0.0014076293 -0.16650516

linear.2.weight f4 [128, 64]
000000 56 ab 1e bd 9d 9e f6 3d e6 af 27 3e 3c 34 59 3c
       -0.038737617 0.12041972 0.16375694 0.013257083
000010 81 9e 57 bd 43 9a 85 bd 20 9e 3c bd a1 80 e3 3d
       -0.052641395 -0.06523564 -0.046049237 0.111085184
000020 9f 2a b1 3d bf 81 8b bc 2b a0 12 3e 1c d1 f7 39
       0.086507075 -0.017029641 0.14318912 0.0004726731
000030 0d 7d 99 3d c3 71 93 bd d0 75 fa 3d 91 83 1a 3d
       0.07494555 -0.07199433 0.12229502 0.037723128
000040 e8 d5 2d 3e c3 96 0d be 57 f8 08 3e e8 ad 9c 3c
       0.1697613 -0.13827042 0.13375984 0.019125894
000050 a6 ba 75 3d 4c 27 29 3e 6c 9b 08 be f2 5c 87 3c
       0.059992455 0.16518897 -0.13340539 0.016523812
000060 35 42 44 bd 2f a7 b9 3c 40 71 35 bd f8 6a d9 3d
       -0.047914702 0.022662727 -0.044297457 0.10616106
000070 56 67 22 bd 77 27 6b bd 7e b1 a5 3d a8 f8 b2 3d
       -0.03964933 -0.057410683 0.080904946 0.08738834
000080 98 5e 38 3d 63 9e 10 3e 5c 54 e3 bd 32 7c ed bd
       0.045012087 0.1412292 -0.11100075 -0.11595954
000090 95 65 0e be e1 9b 4e bd 0f 65 08 bd 95 2b 8d bd
       -0.13905938 -0.050441626 -0.033299502 -0.06893078
0000a0 fc 5c b1 bd b4 de 4c bb 8e da 0f be bc 14 e3 3b
       -0.086603135 -0.003126067 -0.14048216 0.006929962
0000b0 f8 c2 09 3c 80 e0 14 3d 71 ec 70 bd 13 6e eb 3b
       0.008408301 0.036346912 -0.058819238 0.0071847527
0000c0 49 99 0c 3d bb 31 cb 3d be 5d 01 be 1b 41 33 3e
       0.03432587 0.09921595 -0.12633416 0.17505305
0000d0 f7 78 3e 3d 3c 40 92 3d 63 64 d6 bd 65 0a 29 3e
       0.04650208 0.07141158 -0.10468366 0.16507871
0000e0 2f 70 74 bd 90 4c f1 3d 8c fe 3b 3d 37 90 4c bb
       -0.0596773 0.11782181 0.04589705 -0.0031213888
0000f0 31 94 86 bc 02 87 a7 bc 4a 17 d2 bd 48 42 a3 bd
       -0.016428085 -0.020450119 -0.10258348 -0.079716265
000100 45 00 d0 3c 47 64 60 bd 9c 14 25 bc 8e a2 b3 3c
       0.025390754 -0.054783132 -0.010075714 0.021928098
000110 5e 9d 92 bb c8 55 2b 3d d4 d6 54 bd 54 69 d7 3c
       -0.004474326 0.041829854 -0.05196269 0.026295342
000120 8b bf b2 3d 79 10 fb 3d 08 42 98 bc 8a 14 fe bd
       0.0872794 0.12259001 -0.018586174 -0.12406261
000130 e0 c7 f4 3d 67 c3 d7 bd a6 79 fa 3c 18 4c c4 bd
       0.11952186 -0.10535317 0.030575585 -0.09584826
000140 08 62 8e bd f4 bc f3 3d 48 2c 23 3d a6 5e 08 3d
       -0.06952292 0.11901274 0.03983715 0.03329339
000150 d0 cd 61 3d 98 45 f9 3d 29 14 13 bc 0b f5 12 b7
       0.05512792 0.12171477 -0.0089769745 -8.759332e-06
000160 cb ed 16 3d 89 95 18 3e f4 9a ec 3c fa 33 de bd
       0.03684787 0.14900793 0.028882481 -0.108497575
000170 8c bd 54 bd ad 37 1f be 7a a8 89 bd d4 b2 0b 3e
       -0.05193858 -0.15548582 -0.067215875 0.13642436
000180 c8 7e 63 bd 2f 5b b8 3d 45 b7 be bc 22 76 b6 3d
       -0.05554083 0.09001767 -0.02328075 0.08909251
000190 a2 f6 1d be f6 51 fa 3d 3e 68 a5 bb da 96 79 3d
       -0.15426114 0.12222664 -0.005047827 0.06093488
0001a0 37 0b 02 3d a5 f5 34 bc 93 23 34 3c ea f5 01 3d
       0.031748977 -0.011044894 0.01099481 0.031728663
0001b0 e1 bf 9d bd 2a 51 19 be 17 9a 12 3d e2 39 1b bc
       -0.077026136 -0.14972368 0.035791483 -0.00947425
0001c0 29 c9 ed 3c 62 21 80 3c 44 22 04 3e f6 bb 78 3d
       0.029026585 0.015640918 0.12903696 0.06072613
0001d0 bc a6 ed bc 65 e8 2e bc 8a 1f b2 3c dc 7c d1 3c
       -0.02901017 -0.010675524 0.021743555 0.025572233
0001e0 e5 62 89 3d c4 de 13 3d 4e c2 16 b8 52 d1 d7 3b
       0.06708316 0.036101118 -3.5943747e-05 0.006586232
0001f0 fe 69 ae 3d 47 17 c6 bd f7 1d ca bd 5c c0 c3 bc
       0.0851631 -0.096724086 -0.098689966 -0.023895435
000200 3d 9d c0 bd 3e 1c 0d bd 6d d3 c0 3c a0 d7 d7 3b
       -0.09404991 -0.034450762 0.023538316 0.006586984
000210 de 41 75 bc 55 36 8b 3d 6b 63 c0 3d 85 b8 f7 3d
       -0.014969317 0.067974724 0.093939625 0.12095741
000220 e8 42 25 bd 0f c3 1e 3e 85 7c a0 3c 88 61 96 bd
       -0.04034701 0.15504096 0.019590626 -0.07342821
000230 d0 45 ca 3d 90 98 dd bc d0 66 96 ba 7d 8b 38 3d
       0.09876597 -0.027050287 -0.0011474732 0.0450549
000240 ed 39 c5 3d b0 40 ee 3c 40 ed 67 3d a5 17 38 bd
       0.09630189 0.02908358 0.056622744 -0.044944424
000250 0b 39 98 bd 9b 3c 43 3e 98 94 43 3c ca c2 3e be
       -0.07432755 0.19066088 0.011937283 -0.18628994
000260 fa a6 51 3d 70 f2 04 3d 0a 36 35 bb 40 26 82 3c
       0.051184632 0.03245777 -0.0027650618 0.01588738
000270 52 4f 35 3e 50 ce 7b bd d5 b7 33 bc 75 85 d9 3c
       0.1770604 -0.06147605 -0.010969122 0.026552895
000280 ce 87 6a bd 85 22 00 3e 7b ec f4 bc 96 e6 df 3d
       -0.05725842 0.12513168 -0.029897919 0.10932653
000290 24 c2 58 bd 55 93 4e 3d 9d 00 8c bd 17 f0 dc 3c
       -0.052919522 0.050433476 -0.068360545 0.026969953
0002a0 e0 7d bc 3d 21 b3 00 3d 90 2e 35 be 2b fd 1b 3c
       0.09203696 0.03142083 -0.17693543 0.009520809
0002b0 f7 eb b0 3d 00 8c b1 3d 19 b9 7c 3c 9d fa 09 be
       0.08638757 0.08669281 0.01542499 -0.13474508
0002c0 2f cd 4a 3d 85 c9 b6 3d 61 24 b5 bd 9a 2b 06 3e
       0.049512085 0.089251556 -0.08844829 0.1310257
0002d0 37 65 6f 3d 10 32 97 3d 31 d3 ca bd 3b ef 23 3d
       0.058446135 0.073825955 -0.09903563 0.04002307
0002e0 f1 e2 73 bd ce 10 05 3e b4 62 f1 bc d9 27 9d b9
       -0.0595426 0.12994692 -0.02946601 -0.00029975062
0002f0 e4 be 17 be a6 cd 84 3c 41 b7 93 bd a5 cb 5a 3d
       -0.14818913 0.016211342 -0.07212687 0.053416867
000300 cb a3 f4 3d 4b 04 e7 bd 6e ad 1c be ab 41 86 3d
       0.119453035 -0.11280116 -0.15300533 0.06555494
000310 6d 7b 3a 3d 9d 52 da 3d 33 e1 5d 3d 18 94 09 be
       0.045527864 0.106602885 0.054169845 -0.134354
000320 8a 04 f0 bc 47 88 ba 3c 50 54 3d 3c a6 ec b4 bd
       -0.02929904 0.02277006 0.011555746 -0.088341996
000330 2e 04 d1 3d 6e 57 b5 bc 2e ed f6 3d 24 ff 47 3c
       0.10205875 -0.022136416 0.12056957 0.012206826
000340 dc c9 6a bd b2 ef f8 3d 20 f7 c0 3b 43 4c 02 bc
       -0.057321414 0.12155093 0.0058888346 -0.0079527525
000350 d8 bc f3 3d 2e 97 82 bd 05 5f cf 3d 69 8d 40 bd
       0.119012535 -0.063764915 0.101255454 -0.04700986
000360 9d a6 2d 3d 29 b9 eb 3d 91 6b 22 3d 74 66 07 be
       0.042395223 0.11509926 0.039653365 -0.13222677
000370 d0 5c 87 3d 2e 68 df bc aa d2 17 3e a6 ea 28 bd
       0.066094995 -0.027271356 0.14826456 -0.041239403
000380 41 65 a3 bd 67 47 22 3e 91 a3 76 bb bc 81 cd bc
       -0.07978297 0.1584755 -0.0037634114 -0.025086276
000390 b1 88 8d bd 14 5b 13 3e 13 30 aa 3d c3 47 6f bd
       -0.069108374 0.14390212 0.08309951 -0.058418047
0003a0 6e 4f 09 bd 7c 53 77 bd d0 62 04 be fc e5 25 3c
       -0.033523016 -0.06038235 -0.12928319 0.010125633
0003b0 a9 6a 72 3d c2 a2 7b bd df 5b 2d bd ad 24 bd 3d
       0.05918375 -0.061434515 -0.042323943 0.09235511
0003c0 0a 48 86 3d 7b c2 e6 3d 59 36 b4 bc 19 86 ad 3c
       0.06556709 0.11267563 -0.021998571 0.021182107
0003d0 ed c9 b0 bd db b4 d5 3d 74 3c b2 bc 01 a2 97 bd
       -0.08632264 0.10434886 -0.021757342 -0.07403947
0003e0 d3 3e b8 3d 42 08 6a bd e1 65 65 bc de 03 63 bd
       0.08996358 -0.05713678 -0.014001341 -0.05542361
0003f0 ce bf e9 bd f6 8f b6 bd 85 0f 1d be 1b 31 69 bc
       -0.11413537 -0.08914177 -0.15337951 -0.014232899

linear.2.bias f4 [128]
000000 bc fb 01 bd 8c 6b 7b 3d b7 50 96 bd 23 29 35 bd
       -0.031734213 0.06138186 -0.07339614 -0.044228684
000010 ee 17 8f 3d 72 46 a9 bd 7a 00 1c be e9 ce 64 bd
       0.06986986 -0.082653895 -0.15234557 -0.055861387
000020 fc 78 23 3b 74 85 c1 3d 8e 44 a4 bc 32 c2 a3 3c
       0.0024943938 0.09449282 -0.02005222 0.01999006
000030 3c 9b 52 bd 61 00 eb 3d 94 70 92 3d 5c a4 6b bc
       -0.051417574 0.11474682 0.07150379 -0.014382448
000040 5c fa 5a bc 0b 07 aa 3d 2b 0d 40 be f2 de 5c 3d
       -0.013365354 0.083021246 -0.18755023 0.053923555
000050 68 b2 9d bc c5 b2 b3 bd 1d 87 e4 bd 48 ca 8a bc
       -0.01925011 -0.08774332 -0.11158583 -0.016942158
000060 4a c5 7f bd 73 05 94 3c e7 37 a2 bd ed 5a 44 bd
       -0.06244401 0.018069005 -0.07920819 -0.047938276
000070 ae f8 13 be e5 cb d0 bc 32 2e 9b bd e3 91 e6 bd
       -0.14450333 -0.02548785 -0.075771704 -0.112582944
000080 a3 ff af 3c c6 4d fd bd 2f fd 74 3c ad ed 51 be
       0.021484202 -0.1236835 0.014952942 -0.20500822
000090 cd 39 af 3d 36 7c 98 bd a4 ce 91 3d 5b d3 e4 3c
       0.085559465 -0.07445566 0.07119492 0.027932813
0000a0 18 01 ad bd 23 b9 f8 bc ff 3a c7 bd 1b 59 34 3e
       -0.08447474 -0.030361718 -0.097280495 0.17612116
0000b0 3a ac 61 3d b8 ad 30 bc 42 a6 15 be 2b e2 20 3c
       0.05509589 -0.010783605 -0.14614204 0.009819548
0000c0 5f 84 a0 bc 19 18 a7 3d 97 57 21 be d2 03 12 be
       -0.01959437 0.08158893 -0.15756069 -0.1425927
0000d0 69 4b 89 3d 5c 54 43 bc ab 63 59 bd 9d f5 27 be
       0.067038365 -0.011921968 -0.053073566 -0.16402288
0000e0 1a d2 63 3d 34 9c b9 3d 70 0c 9b bd 1b e8 87 3c
       0.05562029 0.090629965 -0.07570732 0.016590169
0000f0 1a 48 aa 3c 0e 76 10 be 96 47 34 3d d6 64 59 bd
       0.020786334 -0.14107534 0.044013582 -0.05307468
000100 76 d7 20 3d 18 4e af 3c a7 cf d5 3c 9b ee 3d 3d
       0.03926798 0.021399543 0.026099993 0.04637013
000110 a8 7d 52 bd 55 ea 8d bd 61 19 08 3e 5e 50 10 be
       -0.051389366 -0.06929461 0.13290931 -0.14093158
000120 e8 9f bf bd 5c 8b 8c 3c b7 c2 e1 bc c8 e2 0f 3e
       -0.093566716 0.017156295 -0.027558668 0.14051354
000130 6c 78 b6 bc c7 f9 1f be 3a 91 f2 bd 00 c0 6b 3d
       -0.022274218 -0.15622626 -0.11844106 0.057556152
000140 03 67 15 be ab ed bf bc 0e 1b de bd 3d 1a 34 be
       -0.14590077 -0.023428759 -0.10845004 -0.17588134
000150 e4 59 03 3a 8f ff 0c bd 71 f1 8d bd 68 b3 10 3e
       0.0005010648 -0.034423407 -0.06930817 0.14130938
000160 d9 6d 91 bd 49 2c 57 3c 98 60 39 bd 16 0e 07 be
       -0.0710103 0.013133117 -0.045258135 -0.13188967
000170 d7 c1 86 bd 4a 89 b3 3d 46 43 fd bd 5d e1 03 bc
       -0.06579941 0.0876642 -0.12366347 -0.008049336
000180 15 fd d2 bd 60 6d a7 bc dd 95 8b bd db c7 e5 bd
       -0.10302178 -0.020437896 -0.068156935 -0.1121976
000190 60 66 36 3d e0 7f 64 bd 06 cc 35 3d 49 78 12 be
       0.044531226 -0.055786014 0.044384025 -0.14303698
0001a0 05 fd 76 bb 24 2f 2c 3d 13 4b af 3d 5f 63 e1 3d
       -0.0037687432 0.042037144 0.08559241 0.11005282
0001b0 63 7c 98 bd 54 9c 1e bc d8 75 39 3d f6 34 f3 bd
       -0.074456 -0.009680826 0.0452784 -0.11875336
0001c0 af 07 d0 bc 11 c8 a7 3d f4 df a4 bd 40 c1 3a be
       -0.025394289 0.081924565 -0.08050528 -0.18237782
0001d0 6d 60 11 be 9d 3a 00 be 05 83 b1 bd c4 2c 53 3d
       -0.1419694 -0.12522359 -0.08667568 0.051556364
0001e0 f3 a8 e4 bd ed 81 3e 3d 7b f7 e8 bd 8c f2 e3 bc
       -0.11165037 0.046510626 -0.11375328 -0.027825616
0001f0 60 57 02 be 52 3d 0c bd 8e 55 89 bd db 99 ed bc
       -0.12728643 -0.034238167 -0.067057714 -0.029004028

linear.4.weight f4 [2, 128]
000000 e4 15 7b 3c 9c 96 04 3d 50 bc ab 3c bf 20 5b bd
       0.015325043 0.032370195 0.020963818 -0.053498026
000010 69 0f 47 bb c9 9c 9b bc 2d 2a b6 bc b2 52 93 bd
       -0.0030374175 -0.01899566 -0.022236908 -0.07193507
000020 e8 a3 5d 3d 18 30 53 bc f2 a0 cc bc 6b 75 20 bc
       0.05411139 -0.012889884 -0.024979088 -0.00979362
000030 26 be 46 3d 00 57 b6 3d 56 a9 25 3d de 85 06 3c
       0.048521183 0.08903313 0.040444694 0.008210627
000040 0b ce 3e bb db 52 c8 3d 4b 99 f0 3c 54 ae 76 3c
       -0.002911451 0.097814284 0.02936997 0.0150562115
000050 5d d6 fd bc 8e ce 1e 3d 07 cb da bd 7b cf a6 3c
       -0.030986005 0.038771205 -0.10683256 0.020362606
000060 35 05 65 bc 29 f8 d1 3c e2 da 10 bd 6e 3b 07 bc
       -0.013978292 0.025631027 -0.035364993 -0.008253915
000070 25 ff 18 bd 43 1b f6 bb 1a c3 70 3d 39 7a 3a 3c
       -0.0373527 -0.007510574 0.058779813 0.011381679
000080 8a 25 ee 3d 15 ab 95 3d 4c d4 1b bc 5e d4 f1 3c
       0.11628254 0.07308022 -0.009511065 0.02952021
000090 48 a7 ee 3c 30 fc 82 bb 13 22 f6 3d 43 ea 6e 3c
       0.0291325 -0.0039973482 0.12018218 0.0145822195
0000a0 a5 8d 07 bd 7b c4 3c bd 15 1a 81 3c fc 62 88 3d
       -0.033094067 -0.046085816 0.015759507 0.06659505
0000b0 62 4b cd 3b 17 ab ad 3d 86 68 45 3d c3 4f 87 bc
       0.00626509 0.084798984 0.048195384 -0.016517526
0000c0 41 cd 8d 3d 62 4b 90 bd ae 9c 57 3d ef 88 4e bd
       0.06923915 -0.07045628 0.052639656 -0.05042356
0000d0 97 56 ca bc 42 ba 3b bc 0e 7f d9 bc 45 5d 83 3c
       -0.024699492 -0.011457982 -0.026549842 0.016035685
0000e0 51 48 99 3d 2a 8b b1 3d 0a 30 bf 39 b0 cb ef bc
       0.074844964 0.086691216 0.0003646615 -0.02927193
0000f0 50 7e c2 3d 85 d6 c0 3c 05 2a 05 bc a4 02 98 bc
       0.094967484 0.02353979 -0.008127694 -0.018555947
000100 a6 1e c4 3c 3c e0 77 bd e2 26 64 3d bb cd 03 bd
       0.023940396 -0.06051658 0.055701144 -0.03217862
000110 43 62 92 3c 83 80 c6 3c ba 46 a3 3d 97 88 82 bd
       0.01786912 0.024231201 0.079724744 -0.06373709
000120 0d 72 b0 3d f9 28 28 3d ec e3 c9 bd a1 bb 12 3d
       0.086155035 0.0410547 -0.09857926 0.035823468
000130 83 28 25 3d 1a 1b a2 bc df 26 28 3d 9e 45 02 3e
       0.040321838 -0.019788314 0.041052695 0.1272187
000140 d6 51 00 3e 51 be 2a 3c b5 87 cd bc 50 df 72 3d
       0.12531218 0.0104213515 -0.025089124 0.059295
000150 6f 28 33 3b c7 94 67 3a ba f2 66 bc be 46 05 3e
       0.0027337333 0.000883412 -0.014095956 0.13015267
000160 8d 00 79 bd c0 cc be 3d 34 45 01 bd 47 27 86 3d
       -0.06079154 0.09316397 -0.031560138 0.0655046
000170 a3 8d d1 3c 6c 67 59 bd c6 a7 27 3d c2 70 a6 3a
       0.025580233 -0.053077146 0.040931486 0.0012698399
000180 55 d5 63 3c 68 e6 72 3c 25 5e 88 3d 43 d6 18 bd
       0.013905843 0.014825441 0.06658582 -0.03731371
000190 68 9e 13 3d 53 f9 c8 3c 08 e8 fe bc 73 5d be 3d
       0.03603974 0.02453295 -0.0311165 0.09295168
0001a0 18 8c 28 bd 10 3d 53 3b 57 52 b3 bd 4a c4 98 3d
       -0.04114923 0.003223244 -0.087559395 0.07459314
0001b0 3f e4 8a 3c 7f b6 f4 3a 0d fe 08 bd 3e e1 c1 bd
       0.01695454 0.0018670111 -0.033445407 -0.0946679
0001c0 63 33 ac 3d 1a 16 0d 3e 8f 79 72 3d 04 4d 48 3d
       0.08408239 0.13777962 0.05919796 0.048901573
0001d0 00 87 c1 3d a3 5e c9 3c c9 32 b9 3d 02 e8 3b 3d
       0.09449577 0.02458126 0.090428896 0.045875557
0001e0 97 0a fe 3c 0c 61 32 3c f3 5c 3c bb 6b e5 06 3b
       0.031010909 0.010887396 -0.0028741925 0.002058352
0001f0 58 b7 47 bd 95 11 86 3c af 58 bf 3d 7c 99 16 3d
       -0.048758835 0.016365806 0.09343087 0.036767468
000200 12 0f 93 bd 88 68 b8 bb 08 2d 36 bd 4d d3 41 bc
       -0.07180609 -0.0056276955 -0.04447654 -0.011830163
000210 c5 fd 79 bd e3 99 8e 3d 8f 28 17 3c 26 05 96 3b
       -0.06103303 0.06962945 0.0092259785 0.0045782505
000220 87 82 f4 3c 8e 40 ac 3d df c1 a4 bb 58 64 ce bc
       0.029847397 0.0841075 -0.005027994 -0.025194332
000230 1b ea 54 3c 0f b9 e7 bc e0 5a 59 3d 30 2f 15 bc
       0.012995268 -0.028286485 0.05306518 -0.009105489
000240 42 5e 86 bc 11 44 7d bc 46 a4 27 3d 62 3b ee bd
       -0.016402368 -0.015458123 0.040928148 -0.1163242
000250 81 82 81 3d 82 f9 3c 3c de 21 01 3c 70 9b 5e bd
       0.0632372 0.011534097 0.00788161 -0.054347456
000260 f9 6d 91 3c 82 0b d8 3d fd f5 c9 bc 0a 87 a8 bc
       0.017752634 0.1054907 -0.02465343 -0.020572204
000270 0b dd 3d 3d e0 5f 7e 3a 94 3b ea 3b 07 d9 00 3e
       0.04635338 0.00097036175 0.0071482155 0.1258279
000280 4c 1a 81 3c 55 d1 c4 bc b7 4d c7 bd fc 20 ea 3c
       0.01575961 -0.024025599 -0.0973162 0.028580181
000290 39 a7 93 3d 73 7c 21 bc 04 ff 5e bc c0 27 da 3d
       0.072096296 -0.009856331 -0.013610605 0.10652113
0002a0 de 3f 5a 3c 4a c1 f7 bc 8e 94 b1 3d 6d 8f 0f 3c
       0.013320891 -0.030243535 0.08670913 0.008762223
0002b0 f2 8d 74 3d ea 30 f1 bc b1 e8 64 3c 3b ae 13 be
       0.059705682 -0.02944227 0.013971494 -0.14421932
0002c0 00 ea fe bb 0c a2 07 bb a7 dd 88 3d ec 02 bb 3c
       -0.00777936 -0.0020695953 0.06682902 0.022828542
0002d0 73 73 78 3c d5 fa 64 bc 17 1c b2 bd c4 36 17 3d
       0.015164244 -0.013975819 -0.08696764 0.036917463
0002e0 b8 08 20 3b 24 22 ec bb c9 2e 87 bc 59 56 8f bd
       0.002441926 -0.0072062183 -0.016501801 -0.069988914
0002f0 e0 d0 6d 3d bf 0c 30 3d 39 ab a1 bd 59 66 9c 3d
       0.058060527 0.042980906 -0.07893986 0.07636709
000300 76 26 fa 3b e8 3b b5 bb 27 91 78 3d 6e a8 aa bd
       0.0076339794 -0.005530823 0.060685303 -0.08332907
000310 e9 1b a6 bd 19 ef 47 3d db ff 27 be b9 95 0a 3d
       -0.08110792 0.048812006 -0.16406195 0.033834193
000320 6a b9 49 3d 1b 26 81 3b 0f bb 14 bd 4d 05 10 3d
       0.04924909 0.00394131 -0.036311205 0.035161305
000330 4f a0 33 3d e6 e3 0b be 66 32 bd bc 51 0a c9 bd
       0.043854054 -0.13661155 -0.02309532 -0.09816421
000340 2c 32 b4 bd 35 4d be bd 4a a8 c7 3c 72 c1 3d bb
       -0.08798632 -0.0929207 0.024372239 -0.0028954414
000350 20 65 8a 39 ce 94 38 bd c1 a4 1b 3d 4e 1d 93 bd
       0.00026396755 -0.045063786 0.03799892 -0.07183324
000360 54 d2 6e bc f6 f2 2d bc 66 54 7d bd 38 1d 19 bc
       -0.014576513 -0.010617008 -0.061848067 -0.009345345
000370 92 4b 1f 3c 6e 29 84 bd e0 a8 f7 3c 94 36 2d bc
       0.009722607 -0.064532146 0.030231893 -0.0105720945
000380 e1 95 6c bc 55 36 b3 bb c9 bf cd 3c 43 10 7c bd
       -0.014440031 -0.0054691234 0.025115864 -0.061538946
000390 4c 4f b3 bc 77 f7 48 bd 85 ed 00 be 3d 34 83 bd
       -0.021888398 -0.049064126 -0.12590607 -0.06406448
0003a0 e6 f5 73 3c 3f a2 06 3d 2d 7c 9f 3c b4 95 aa bd
       0.01489017 0.032869574 0.019468391 -0.08329335
0003b0 ad fa a3 3d 84 92 1e 3c 8f 5e ff 3c e4 00 5d bc
       0.08006797 0.009678487 0.031173019 -0.013488982
0003c0 c9 7b f8 b9 ad 41 77 bd 3d 8c 5d 3c 0f a2 30 3c
       -0.00047394473 -0.060365368 0.013522205 0.010780825
0003d0 b0 5b e4 bc fb c3 fe 3c 3d d1 ab 3b a4 1b 86 3d
       -0.027875751 0.03109931 0.005243449 0.06548241
0003e0 0c ea 86 3d e5 f3 04 bd 89 f2 58 bc 75 10 cf bd
       0.0658761 -0.03245916 -0.013241419 -0.10110561
0003f0 15 64 28 bd 9d 88 14 3c 2d fc 38 bd 24 07 fd b9
       -0.04111107 0.009065774 -0.04516237 -0.0004826124

linear.4.bias f4 [2]
000000 84 c1 06 3e f7 88 36 bc
       0.13159758 -0.011141053
