meta/demos/multiple_experiments/results/models/run_0/emodb_mlp_os_16-64_C_val-001_learning_rate-0-0001_0_007.model (torch, 13864 bytes, 6 tensors)

linear.0.weight f4 [16, 88]
0.09489108 0.07525371 0.10040358 0.026768044 0.04804899 0.033983532 0.09032652 -0.0026091433
0.0632397 0.06431104 0.052744966 -0.04159386 0.023818217 -0.06890303 0.07070748 -0.048907578
0.10576262 -0.08368133 0.07148805 -0.03559415 -0.06234678 0.09245138 0.04483163 0.080975495
0.068998195 -0.017756302 0.05844892 0.039120473 0.03215664 -0.02675048 0.056622304 0.08370442
-0.09385608 0.041550502 -0.06751642 -0.03282142 0.07744566 0.06675862 -0.0598486 -0.023549551
0.029901318 0.048571333 0.008524793 -0.008894525 -0.029233728 0.017620685 -0.06504557 -0.086550616
0.0548979 0.0432248 0.00041161684 0.06962447 -0.09636854 0.074031875 0.07335178 0.035927106
-0.025677832 -0.09653724 -0.058795534 -0.060396012 0.051406216 0.041305535 -0.04432135 0.035496835
0.026394423 -0.0783506 0.03187167 0.014290631 0.06469043 -0.023573747 0.0060492335 0.0142388595
-0.042912673 -0.027708303 -0.01194647 -0.088360846 0.048584115 -0.041950595 0.0033490395 0.07340359
0.04351591 0.06283538 0.048101705 0.06929365 -0.10548635 -0.0785921 -0.052063525 -0.039436772
-0.05948006 -0.012945159 -0.056410924 0.048427213 -0.04248695 -0.079906285 0.06202334 0.02533217
-0.025038594 0.07647277 0.012766946 -0.05873071 -0.05494553 0.098479964 0.09044961 0.0042163054
0.08641803 -0.008602717 -0.06532654 0.07914353 -0.08198835 0.09431388 0.09140847 -0.034959015
-0.0416551 -0.06409604 -0.081205055 -0.10404201 -0.043234583 0.023696758 0.02409634 0.025279356
-0.07430893 -0.07826675 -0.018672671 -0.00468714 -0.055224974 0.071816064 -0.06570024 0.01597137
0.025906267 -0.059807133 0.03805165 0.06984853 -0.024440352 0.0772241 -0.021102699 -0.015231055
-0.024338448 -0.010448696 0.07180769 0.069662146 -0.062673174 0.05202393 -0.07285899 -0.100099176
0.038396757 -0.011328911 0.005138621 -0.05655062 -0.050135236 0.05160686 0.05450964 0.10280788
0.03195075 0.014419094 -0.039921355 0.0072823176 -0.065698475 0.050202485 -0.08059614 0.02935233
0.07706084 0.05050276 -0.030366866 0.083943926 0.09417624 -0.040602896 -0.018884547 0.023158697
0.0035443702 0.078750655 -0.090630464 -0.09021639 0.04140149 -0.012459787 -0.007086822 -0.078953356
0.104116574 -0.052534953 0.034766816 0.002224789 -0.03854442 0.107148536 0.057346217 0.08642846
-0.01630769 0.06696618 0.0441071 0.028454546 -0.0084261345 0.030978015 -0.061175037 -0.042763174
-0.033338394 -0.079487994 -0.0810833 -0.047217377 -0.05025419 -0.0076757357 0.012257827 -0.09711833
-0.027014267 0.018712385 -0.02459748 0.07005818 0.07544627 0.049154535 -0.011827324 -0.10450944
-0.04114002 0.025252044 0.09186664 0.09200794 0.08718313 -0.099673584 0.07420936 -0.051073555
0.05706395 0.06820421 0.047322582 0.067367755 0.07396327 0.062426504 0.046919804 0.021876268
-0.025196947 0.021678636 -0.026945367 0.10584925 -0.031023728 -0.083193585 0.06762154 -0.10181044
-0.013894687 -0.08955607 -0.023500448 -0.009604932 -0.013308649 0.016899863 0.045281332 -0.004891638
-0.07628519 -0.088642 -0.03757669 0.030321648 0.07545323 -0.008165594 0.08164793 0.09367915
0.10228993 0.097502865 0.033223722 -0.027432164 0.09505762 -0.016543204 0.008091749 0.042194046
00000000: 4156 c23d 9e1e 9a3d 64a0 cd3d a848 db3c
00000010: 05cf 443d 5132 0b3d 1cfd b83d 29fe 2abb
00000020: d183 813d 82b5 833d 1b0b 583d 535e 2abd
00000030: 6c1e c33c 081d 8dbd 15cf 903d 5053 48bd
00000040: 139a d83d 1e61 abbd 5468 923d 2ccb 11bd
00000050: 565f 7fbd 2657 bd3d 5fa1 373d 7bd6 a53d
00000060: ed4e 8d3d aa75 91bc 2268 6f3d ca3c 203d
00000070: aeb6 033d d323 dbbc caec 673d 396d ab3d
00000080: 9e37 c0bd dc30 2a3d 0c46 8abd c16f 06bd
00000090: d59b 9e3d beb8 883d ce23 75bd fdea c0bc
000000a0: 9cf3 f43c bcf2 463d 93ab 0b3c 57ba 11bc
000000b0: 927b efbc 4159 903c 9d36 85bd 7341 b1bd
000000c0: 9fdc 603d 7d0c 313d 47ce d739 4697 8e3d
000000d0: de5c c5bd 069e 973d 7539 963d 4d28 133d
000000e0: 515a d2bc 51b5 c5bd 96d3 70bd cf61 77bd
000000f0: 538f 523d fe2f 293d 4e8a 35bd 2165 113d
00000100: 1e39 d83c 4876 a0bd de8b 023d 4023 6a3c
00000110: 6b7c 843d bb1d c1bc a638 c63b 1b4a 693c
00000120: 33c5 2fbd 86fc e2bc 20bb 43bc 88f6 b4bd
00000130: 2300 473d 63d4 2bbd 8f7b 5b3b 9f54 963d
00000140: bd3d 323d d6af 803d 4b06 453d d4e9 8d3d
00000150: 3a09 d8bd e5f4 a0bd 9040 55bd 7488 21bd
00000160: 5da1 73bd ef17 54bc 240f 67bd 9d5b 463d
00000170: cc06 2ebd e8a5 a3bd 300c 7e3d 6985 cf3c
00000180: bd1d cdbc c19d 9c3d 742c 513c 9d8f 70bd
00000190: 900e 61bd ddaf c93d a53d b93d ef28 8a3b
000001a0: f0fb b03d 69f2 0cbc ecc9 85bd 0116 a23d
000001b0: 82e9 a7bd a327 c13d 5d34 bb3d 2f31 0fbd
000001c0: 8a9e 2abd c944 83bd d64e a6bd fa13 d5bd
000001d0: bf16 31bd b41f c23c b065 c53c a716 cf3c
000001e0: 482f 98bd 514a a0bd 6ef7 98bc 9596 99bb
000001f0: 9533 62bd 4d14 933d d98d 86bd 64d6 823c
00000200: 6139 d43c 53f8 74bd 0cdc 1b3d bf0c 8f3d
00000210: 2237 c8bc ab27 9e3d 91df acbc ad8b 79bc
00000220: 6d61 c7bc 0231 2bbc e90f 933d 07ab 8e3d
00000230: cb5a 80bd 0b17 553d 1837 95bd cc00 cdbd
00000240: eb45 1d3d e69c 39bc e161 a83b 9fa1 67bd
00000250: 9b5a 4dbd b761 533d 8045 5f3d f08c d23d
00000260: cade 023d 103e 6c3c 9384 23bd 82a0 ee3b
00000270: ec8c 86bd 1fa1 4d3d 970f a5bd 4c74 f03c
00000280: 13d2 9d3d fbdb 4e3d efc3 f8bc cbea ab3d
00000290: 79df c03d 394f 26bd c4b3 9abc 4fb7 bd3c
000002a0: aa48 683b 0648 a13d 779c b9bd 5fc3 b8bd
000002b0: 9c94 293d 2224 4cbc 9238 e8bb 4cb2 a1bd
000002c0: 123b d53d e42e 57bd a667 0e3d c4cd 113b
000002d0: c1e0 1dbd b170 db3d dee3 6a3d 6801 b13d
000002e0: b497 85bc 9125 893d a6a9 343d 8219 e93c
000002f0: c50d 0abc 9bc5 fd3c ad92 7abd 7028 2fbd
00000300: d78d 08bd 9aca a2bd 000f a6bd 0267 41bd
00000310: 56d7 4dbd bd84 fbbb 0ed5 483c fae5 c6bd
00000320: 064d ddbc b74a 993c a880 c9bc aa7a 8f3d
00000330: 9383 9a3d 4456 493d 64c7 41bc 0c09 d6bd
00000340: 7082 28bd 60dd ce3c 9424 bc3d a96e bc3d
00000350: 128d b23d aa21 ccbd 14fb 973d 8132 51bd
00000360: e3bb 693d a6ae 8b3d 53d5 413d 1bf8 893d
00000370: 0e7a 973d efb2 7f3d fb2e 403d dc35 b33c
00000380: d469 cebc 6597 b13c 88bc dcbc 7ec7 d83d
00000390: 7925 febc 6661 aabd 297d 8a3d fe81 d0bd
000003a0: 8ba6 63bc 2c69 b7bd 0384 c0bc 015e 1dbc
000003b0: 850c 5abc 9571 8a3c eb78 393d 094a a0bb
000003c0: 693b 9cbd f089 b5bd 04ea 19bd 1b65 f83c
000003d0: 3987 9a3d fcc8 05bc 0837 a73d dbda bf3d
000003e0: 627d d13d 95af c73d 9915 083d 6bb9 e0bc
000003f0: 92ad c23d 9d85 87bc 4193 043c aad3 2c3d

linear.0.bias f4 [16]
0.0018914347 0.087153725 0.04075294 0.01387238 -0.054904915 0.0058792676 -0.055287186 0.027573684
0.09102735 0.07340395 -0.045100257 0.06924114 0.08353565 0.106898166 0.010745174 -0.041290626
00000000: 04ea f73a a77d b23d 8eec 263d fb48 633c
00000010: fae3 60bd dfa6 c03b d174 62bd 35e2 e13c
00000020: 8c6c ba3d cf54 963d 0cbb 38bd 4cce 8d3d
00000030: bd14 ab3d 6ded da3d 870c 303c 5c20 29bd

linear.1.weight f4 [64, 16]
-0.14342538 -0.06808418 -0.22745869 0.09143087 0.013920486 0.2434479 0.12800303 0.06205502
0.11779696 -0.09265423 0.23212709 -0.20139278 0.12086153 -0.15583242 0.15130801 -0.049660884
0.08221486 0.24021459 0.12279096 0.17140236 0.021023124 -0.019642293 0.24627832 -0.22174004
-0.031847507 0.11342399 -0.072293386 0.034524735 0.13580905 -0.13311641 0.06718576 -0.05662231
-0.17000806 0.17187747 0.05165661 0.23990032 0.0035195053 0.072039574 0.1716722 -0.082581125
0.19626606 -0.055354286 0.13543428 -0.13010548 -0.1710653 0.04388705 0.005014177 0.18165565
-0.232478 -0.10596183 -0.22351283 -0.18794438 0.13156539 0.12509331 -0.11116533 -0.10559163
0.035890967 -0.021004459 -0.23908827 -0.22910671 0.1388571 0.023713332 -0.075783595 0.13572444
-0.027791291 0.13056016 -0.15114565 0.048216343 0.1409398 -0.16827825 -0.2178756 -0.1966367
0.040064245 0.08883363 0.20633288 -0.22996536 -0.2249389 -0.027888704 -0.09058464 0.20166652
0.11501783 0.06695524 -0.006559662 0.1584171 0.0008994937 0.15583622 -0.15071473 0.019855313
-0.22439715 -0.1483206 0.058238383 0.22249079 -0.11341204 0.003696365 -0.22504702 -0.044457775
0.08141717 0.23334464 0.19305184 -0.08455342 -0.002224207 0.15040612 -0.093841076 -0.16014802
0.05045569 -0.086400114 0.20612165 0.055687234 0.18232447 0.09215414 0.2165057 -0.16570893
0.04442942 0.09494719 -0.20914163 -0.12711647 0.2029934 0.09634066 0.23512767 -0.19386378
-0.15055665 0.24263434 -0.21421683 0.07721532 -0.2379847 0.20517617 -0.22896919 -0.11194897
-0.19682845 -0.0075754225 -0.19763602 -0.1321471 -0.09393436 0.18014392 0.19513059 0.11228384
0.2255424 0.08415272 -0.24390562 0.16719638 -0.09834607 0.12012813 -0.032634504 0.12871915
0.06299999 0.14735729 -0.16602221 -0.17739993 0.23143533 -0.026648879 0.029032676 0.03155994
0.046283633 0.14589812 0.024126913 -0.01322431 0.089507826 9.3217415e-05 -0.2186444 0.14653775
0.04339078 -0.2427223 -0.1373512 -0.059613377 0.18897656 0.11532518 -0.2315144 -0.17150705
-0.21035856 0.18521185 -0.24906954 -0.1806998 0.15590075 0.024030536 -0.028433956 -0.011751148
0.20110273 -0.010595202 -0.1299659 -0.017295808 0.030900985 -0.08973032 -0.17089581 0.12209137
0.02604723 0.19197026 -0.12249052 -0.07802717 -0.08695529 0.12887606 0.15589692 -0.01122997
-0.22738916 -0.105612874 -0.122888334 -0.043177933 -0.23868692 -0.054488868 -0.010984334 -0.03182785
-0.18215898 -0.21354243 -0.053486288 0.034303635 -0.038174253 -0.21246992 0.035702463 0.042846847
-0.20388931 0.18100259 0.23815583 -0.1556072 -0.15564048 0.22603849 -0.09372924 0.15151274
-0.089705974 -0.2330856 -0.04409623 0.22962765 0.025568208 -0.038791373 -0.17324138 -0.18200928
0.23522618 0.028925478 0.24722841 -0.07988626 -0.07868248 0.18278205 0.22581117 -0.22165124
0.10909444 0.003304421 0.18088761 -0.14491355 -0.04109802 -0.027559726 0.12643124 0.21659502
-0.12298921 -0.18879038 -0.13916518 -0.124705315 0.13461769 -0.06419468 -0.010364944 0.23213013
-0.15160707 -0.14454794 -0.1276961 -0.015182283 -0.20965423 0.052180562 0.24843094 -0.11943135
00000000: 1ade 12be b86f 8bbd eeea 68be 1c40 bb3d
00000010: c012 643c 684a 793e 3a13 033e 682d 7e3d
00000020: 883f f13d 80c1 bdbd b9b2 6d3e e939 4ebe
00000030: 4086 f73d 8992 1fbe 7df0 1a3e 3669 4bbd
00000040: 4460 a83d d0fa 753e d479 fb3d 1a84 2f3e
00000050: b038 ac3c e0e8 a0bc 6230 7c3e d20f 63be
00000060: 8872 02bd d64a e83d 8e0e 94bd cf69 0d3d
00000070: 8711 0b3e ab4f 08be b098 893d ccec 67bd
00000080: 9816 2ebe a600 303e e295 533d 6ea8 753e
00000090: 80a7 663b 7c89 933d d6ca 2f3e 4b20 a9bd
000000a0: f8f9 483e 2dbb 62bd 49af 0a3e 5f3a 05be
000000b0: be2b 2fbe e8c2 333d f74d a43b f003 3a3e
000000c0: b60e 6ebe 8402 d9bd 8ce0 64be 7e74 40be
000000d0: 14b9 063e 7618 003e a6aa e3bd 6d40 d8bd
000000e0: 6802 133d 8b11 acbc 8ed3 74be f39a 6abe
000000f0: 8e30 0e3e 7642 c23c 6e34 9bbd 59fb 0a3e
00000100: 90aa e3bc 90b1 053e edc5 1abe 807e 453d
00000110: 8652 103e 2251 2cbe c81a 5fbe 225b 49be
00000120: 681a 243d 68ee b53d ed48 533e 0a7c 6bbe
00000130: 6256 66be da76 e4bc 7184 b9bd ab81 4e3e
00000140: 788e eb3d d41f 893d 6ff2 d6bb 1838 223e
00000150: 00cc 6b3a 8893 1f3e f654 1abe 9ca7 a23c
00000160: 5ec8 65be 5be1 17be 5f8b 6e3d a0d4 633e
00000170: 9244 e8bd b73e 723b ba72 66be 5b19 36bd
00000180: 0cbe a63d e6f1 6e3e 62af 453e 582a adbd
00000190: 00c4 11bb 1004 1a3e c02f c0bd d8fd 23be
000001a0: a0aa 4e3d 8bf2 b0bd 8e11 533e 4c18 643d
000001b0: 44b3 3a3e 4fbb bc3d acb3 5d3e 9aaf 29be
000001c0: a0fb 353d ac73 c23d 3929 56be d22a 02be
000001d0: 80dd 4f3e 404e c53d 4fc5 703e 3a84 46be
000001e0: 862b 1abe 2375 783e a85b 5bbe 1123 9e3d
000001f0: 43b2 73be b419 523e e676 6abe 8045 e5bd
00000200: 668d 49be 403b f8bb 1961 4abe 9251 07be
00000210: a860 c0bd a677 383e 50d0 473e 12f5 e53d
00000220: 96f4 663e 4358 ac3d 65c2 79be 8735 2b3e
00000230: aa69 c9bd bd05 f63d c2ab 05bd f4ce 033e
00000240: 2406 813d d4e4 163e ba01 2abe 54a8 35be
00000250: 62fd 6c3e c04e dabc efd5 ed3c ff44 013d
00000260: e893 3d3d 5166 153e cea5 c53c c7aa 58bc
00000270: e14f b73d b87d c338 51e4 5fbe fe0d 163e
00000280: 88ba 313d 328c 78be cba5 0cbe 282d 74bd
00000290: 1283 413e 9c2f ec3d 1c12 6dbe 8b9f 2fbe
000002a0: 3c68 57be 2da8 3d3e 160c 7fbe 5e09 39be
000002b0: 72a4 1f3e b0db c43c 54ee e8bc e387 40bc
000002c0: e0ed 4d3e 8097 2dbc c815 05be f0af 8dbc
000002d0: 1024 fd3c 88c4 b7bd 50ff 2ebe 0a0b fa3d
000002e0: 0061 d53c da93 443e 4fdc fabd b5cc 9fbd
000002f0: 9d15 b2bd 16f8 033e 71a3 1f3e e8fd 37bc
00000300: b4d8 68be 904b d8bd e1ac fbbd 58db 30bd
00000310: 586a 74be b82f 5fbd a3f7 33bc eb5d 02bd
00000320: e287 3abe deaa 5abe 7014 5bbd f881 0c3d
00000330: 9b5c 1cbd b791 59be bf3c 123d 2d80 2f3d
00000340: 5cc8 50be be58 393e 1fdf 733e 7e57 1fbe
00000350: 3860 1fbe a276 673e 1ef5 bfbd 2826 1b3e
00000360: c4b7 b7bd fead 6ebe 409e 34bd 8323 6b3e
00000370: 6b74 d13c b4e3 1ebd 3066 31be a460 3abe
00000380: 22df 703e 20f5 ec3c 7229 7d3e 689b a3bd
00000390: 4824 a1bd 382b 3b3e 0b3b 673e 8bf8 62be
000003a0: e86c df3d fc8e 583b 9a3a 393e 3864 14be
000003b0: 6656 28bd efc4 e1bc 3177 013e 16cb 5d3e
000003c0: c4e1 fbbd 4452 41be 5181 0ebe 8065 ffbd
000003d0: 38d9 093e 8078 83bd bad1 29bc 85b3 6d3e
000003e0: e23e 1bbe 6004 14be c4c2 02be 1cbf 78bc
000003f0: 99af 56be 49bb 553d ae64 7e3e 6c98 f4bd

linear.1.bias f4 [64]
0.2003586 0.17598434 0.011239155 0.006205427 -0.19687834 -0.12944378 -0.008648135 0.22547083
0.10141612 0.22753137 0.092637576 0.19803585 -0.043454174 0.16688699 -0.064754605 0.2064309
0.23964381 0.12767245 0.13778515 -0.0030281586 -0.21048857 -0.068990566 -0.07910621 0.07066167
-0.22511522 -0.07905945 -0.047466163 0.05838764 -0.08067462 0.115377635 -0.21671271 -0.17166053
0.059159033 0.13313484 -0.14088991 -0.16879424 -0.121013634 -0.007550988 -0.021539506 0.22813445
-0.122316696 0.09941463 0.0028175071 0.10464394 -0.17691506 0.066703126 -0.18639317 -0.23390417
0.21743388 -0.0927269 -0.06245249 0.11771669 0.14804965 0.0013993469 0.12272804 0.17895596
-0.2001411 0.21002553 0.07694061 0.21040264 0.109450616 0.12849683 0.054764315 0.106422156
00000000: ce2a 4d3e 3d35 343e 6f24 383c e556 cb3b
00000010: 7a9a 49be e98c 04be e8b0 0dbc d3e1 663e
00000020: 41b3 cf3d fcfd 683e c5b8 bd3d e9c9 4a3e
00000030: 01fd 31bd 6ce4 2a3e 109e 84bd 9f62 533e
00000040: 3065 753e 91bc 023e 8d17 0d3e 1274 46bb
00000050: 518a 57be ed4a 8dbd 7002 a2bd 11b7 903d
00000060: 9b84 66be ece9 a1bd e16b 42bd e127 6f3d
00000070: bc38 a5bd 1c4b ec3d f0e9 5dbe c7c7 2fbe
00000080: be50 723d 8054 083e 7245 10be 66d8 2cbe
00000090: ffd5 f7bd 476e f7bb 9e73 b0bc 149c 693e
000000a0: 2d81 fabd e699 cb3d eda5 383b 904f d63d
000000b0: 3929 35be a69b 883d dadd 3ebe 9384 6fbe
000000c0: fda6 5e3e 9ae7 bdbd 2fce 7fbd 7315 f13d
000000d0: 549a 173e 4a6a b73a d758 fb3d 3b40 373e
000000e0: caf1 4cbe ef10 573e 0a93 9d3d ca73 573e
000000f0: a527 e03d ac94 033e 8c50 603d dcf3 d93d

linear.3.weight f4 [2, 64]
0.059376653 0.12224664 0.06360937 -0.005902811 0.11486191 0.051330313 0.047771577 0.107648365
-0.084800154 0.11507226 0.09029016 0.09105547 0.03005578 0.059951074 0.096935526 0.067491375
-0.06113889 -0.0774207 0.1071818 -0.06420191 0.12547052 -0.013108862 -0.06689993 0.06907739
-0.05937138 0.014788998 0.11851956 0.08680314 -0.066305436 0.084823124 0.047911614 -0.11008604
0.055683322 0.110325456 -0.05858063 -0.06120641 -0.1207867 -0.09044624 0.09703021 0.016922452
-0.0362568 0.05577435 0.013933996 0.104813166 0.120734274 0.07811871 -0.121009134 -0.11829782
0.07807271 0.079473756 0.019235056 -0.094179355 -0.037090443 0.0008751904 -0.045892887 0.09159353
-0.10666078 0.030120458 -0.0828643 -0.031387758 -0.05994387 0.0782661 -0.059186906 -0.07295724
0.09667588 0.08433965 -0.03237272 -0.09899631 0.056504138 0.123574235 0.013008476 0.04938946
-0.04219091 -0.090645306 -0.023199636 0.10310215 -0.05468985 -0.05487997 0.10229829 -0.048564453
0.10821499 0.031057063 -0.09865254 -0.02113109 -0.025503028 0.10609425 -0.042930618 -0.065109
0.11789238 0.03623186 -0.102916464 0.07381144 -0.09761075 0.03431471 0.015389897 0.058603473
0.019930812 0.036998443 -0.06150254 0.007334158 -0.03716901 0.022549506 -0.1147764 0.07803065
0.045241173 -0.06751123 -0.09152391 0.008386047 -0.09381157 -0.030916767 0.07155303 -0.09070095
-0.059792373 -0.10918821 -0.0146300085 0.0637201 0.057853512 0.023008866 0.034872867 -0.01675732
0.08394599 -0.011042124 0.027860843 -0.00016219079 0.09088705 0.058390133 0.07209736 -0.062334955
00000000: ef34 733d 725c fa3d a145 823d 5e6c c1bb
00000010: b93c eb3d bc3f 523d 21ac 433d bf76 dc3d
00000020: b4ab adbd 01ab eb3d 0cea b83d 4a7b ba3d
00000030: 8a37 f63c 428f 753d 2286 c63d eb38 8a3d
00000040: c66c 7abd be8e 9ebd 2282 db3d 4a7c 83bd
00000050: 587b 003e 8dc6 56bc d502 89bd 7278 8d3d
00000060: 672f 73bd 8e4d 723c 62ba f23d d8c5 b13d
00000070: 25cb 87bd bfb7 ad3d f83e 443d ca74 e1bd
00000080: 3214 643d 50f2 e13d 3ef2 6fbd 93b3 7abd
00000090: 045f f7bd e13b b9bd c6b7 c63d f4a0 8a3c
000000a0: 0382 14bd a573 643d 6a4b 643c 49a8 d63d
000000b0: 8843 f73d b4fc 9f3d a3d3 f7bd 2146 f2bd
000000c0: 96e4 9f3d 23c3 a23d d692 9d3c 1be1 c0bd
000000d0: 26ec 17bd 096d 653a 2efa 3bbd 6395 bb3d
000000e0: f870 dabd 2ebf f63c c2b4 a9bd 7390 00bd
000000f0: b487 75bd fa49 a03d f86d 72bd 9b6a 95bd
00000100: 01fe c53d 44ba ac3d 4299 04bd 94be cabd
00000110: e270 673d 7d14 fd3d 8121 553c 9a4c 4a3d
00000120: 60d0 2cbd 3fa4 b9bd 2a0d bebc 3827 d33d
00000130: 7702 60bd d2c9 60bd c481 d13d 85eb 46bd
00000140: d29f dd3d 626b fe3c 580a cabd 1c1b adbc
00000150: baeb d0bc f147 d93d 04d8 2fbd de57 85bd
00000160: 8f71 f13d dc67 143d dec5 d2bd 742a 973d
00000170: 25e8 c7bd 958d 0c3d e825 7c3c 320a 703d
00000180: f145 a33c ae8b 173d 16ea 7bbd 6053 f03b
00000190: 883e 18bd beb9 b83c e40f ebbd 89ce 9f3d
000001a0: cf4e 393d 5443 8abd e370 bbbd a165 093c
000001b0: 4820 c0bd 2945 fdbc 658a 923d 6bc1 b9bd
000001c0: d9e8 74bd 119e dfbd b4b2 6fbc af7f 823d
000001d0: cef7 6c3d 177d bc3c dad6 0e3d a646 89bc
000001e0: e0eb ab3d 06ea 34bc 6c3c e43c c211 2ab9
000001f0: fd22 ba3d 7e2a 6f3d c8a7 933d f052 7fbd

linear.3.bias f4 [2]
0.018693432 -0.011233989
00000000: f822 993c c40e 38bc
