meta/demos/multiple_experiments/results/models/run_0/emodb_mlp_praat_16-64-128_C_val-001_drop-3_learning_rate-01_0_003.model (torch, 45432 bytes, 8 tensors)

linear.0.weight f4 [16, 39]
00000000: 24e8 01be 2fab 89be dcf3 babd de62 f1bd
00000010: 43b7 15be 2d7e 5fbe 1370 16be 4444 65be
00000020: e9d3 88be 0c16 ebbc c133 bdbb fa8d 7fbc
00000030: f029 5ebe 9905 f6bd cf90 90bd 267b 7abe
00000040: 5adf 1f3b 5d6a f8bc 87cd 8cbd 3d2c 4bbe
00000050: 6ff7 64be d37b 303d 470f a4bd dfb0 64ba
00000060: 5066 ee3d 170e f33c eb4c f4bd 5880 59be
00000070: 41a0 2e3d 9532 62be 6b5e 70be ce8e 05bd
00000080: 7cbe bfbd 1087 003c b8d6 a9bd 9223 6bbe
00000090: 225d 333d 6deb 55be cd46 56be 3f04 5dbd
000000a0: bd03 9cbb 10fb 35be 5d6b 1abe 762f 08b9
000000b0: de25 77be 3ca1 77be fe26 fa3c 9a26 babc
000000c0: 3791 81bc 26fd c7bd 9b0f ca3c 00a3 f83c
000000d0: b222 ba3c 78ac 1dbe c49c afbd ec2a 91bd
000000e0: 1c88 72bd a66c ec3b c3fd 0cbd b2cc 90bd
000000f0: 88fb a6bd 6d88 a3bd a9b3 80bd 6228 ef3a
00000100: 014c 7e3d e567 28be 54f2 43bd be79 b0bd
00000110: f532 63be fdab 4ebe 0290 45be aa54 87bd
00000120: 833f 723d 6858 19be 7d6c 2fbd cf6f 5cbd
00000130: a2ad 73be 8d89 cfbd 4ce7 e23d 28ad d9bd
00000140: 4540 0bbe af39 2cbd 7c29 d0bc b26c d7bd
00000150: a94e f43d 3528 23be d44f 5f3d a7c8 75bd
00000160: 5532 dcbd befb c93d ef87 0dbd 5563 afbd
00000170: c75e 393d 2eb3 ba3d 5fe0 2b3d b9a8 b2bd
00000180: bf70 d3bd 15fb 043e 19f3 883c 257a a63c
00000190: e242 ecbd 3d97 cdbb 7532 8f3c f9aa ddbc
000001a0: 2b63 e43d 85b1 e1bd 4633 ef3d e27b be3d
000001b0: 7bab 7b3c aacf 07bd 7221 d33d 2cae 12be
000001c0: bf6d aebd f4c8 863d e6a3 0abe 3425 8a3d
000001d0: 2065 053e 5999 293d 6e5c db3d 17ef ee3d
000001e0: 58b1 0c3e 93de bebd 77a9 c1bd 6ae0 84bd
000001f0: 357e c43d 3480 ecbd 779b c93c a9bf 17be
00000200: c3c5 043e ddd5 a93d 51b8 aebc c276 5e3d
00000210: 679d 813d d0f4 59bc 5a2a 49bd 752e a8bb
00000220: 5c22 b1bd a6da a1bd 9a06 e7bd 846e d73d
00000230: 8656 133d 19f8 183d 5b05 1abd 32d2 03be
00000240: 4449 b63d c607 8d3d 12d0 ef3d bd34 11be
00000250: fb76 57bd e555 05bd 80c1 dbbc 6a52 aebd
00000260: 0fdb 0fbe 3a98 423d d8b0 d2bd 4270 043e
00000270: d102 18be ace4 4fbc c671 7fbd c315 05be
00000280: c865 ec3d a00a 383d 9e0a 1ebc 5d1a b3bd
00000290: 6fa0 1ebe 7a60 e6bd a04a 133e 0080 1fbe
000002a0: 784a f6bd 3757 63bc 2aaf 823d a45b 263d
000002b0: 4180 c3bc 972a 09be 13c2 1c3d c534 a03d
000002c0: b977 113d 61dc 0cbd c0d9 c0bc 4ddd 1ebe
000002d0: c4f0 88bd 298b cfbb ca99 16be 3128 bd3b
000002e0: 3baa e13c da52 1b3e 6770 f9bd cd8d 113d
000002f0: d3ff e43d 50f1 20be 2ed7 5bbd 5ed4 93bd
00000300: 1a51 1bbe 8185 fe3d 7a3e 833d 3268 3ebe
00000310: bc0f 58be 9ba1 19be f084 febd fdf2 15bc
00000320: a142 953d 5e87 6bbe 1bf1 d6bd 48f6 613d
00000330: 03d1 68be 4de3 f83c 9a9b 27bd 98b6 42bc
00000340: 18f5 72bd 0ead a2bc ced1 0fbe 569e 5fbd
00000350: 4910 7d3d a50a 20be d7d1 993c 9e0a 46bd
00000360: 9c9a f7bd 5e75 b5bd 5aed 58bd 8d2a 53bc
00000370: 440b c13d bb33 37be c286 a8bc 2494 333d
00000380: d2bb b1bd c18f d1bb 29f2 753d 507d 48be
00000390: 0b11 0cbe c89f 64be 0858 cbbc 1efa 32be
000003a0: ec83 1d3a ebba 453d e573 27be 7dd1 1bbe
000003b0: e835 4fbe 5e02 02bc a36e 88bd ade6 9b3d
000003c0: b511 02be a8b6 dcbd d44a 283d 8d21 2b3c
000003d0: 0ec5 953c 6d51 42be 48ce 77bd caa6 d4bc
000003e0: e8ef cdbd 9502 63be dcde 9c3d 348b 66bd
000003f0: f6d0 2a3d a2f3 3fbd 0199 35be 4b82 15bd
-0.12686211 -0.26888415 -0.09128544 -0.117864355 -0.1462069 -0.21825476 -0.1469119 -0.22389323
-0.26724175 -0.028697036 -0.005773992 -0.015597815 -0.21695685 -0.120127864 -0.0705887 -0.2446104
0.0024394603 -0.030324155 -0.06875139 -0.19841094 -0.22360013 0.043086838 -0.080107264 -0.00087238656
0.11640608 0.029669804 -0.119287334 -0.21240366 0.0426333 -0.22089608 -0.23473518 -0.032606892
-0.09362504 0.007844701 -0.082929075 -0.22962788 0.04378999 -0.20890589 -0.20925446 -0.053959128
-0.004761188 -0.17771554 -0.15080018 -0.00012987651 -0.24135539 -0.241826 0.030536171 -0.022723485
-0.015816314 -0.09765081 0.024665644 0.030351162 0.022721622 -0.15397823 -0.085748225 -0.07088265
-0.059211835 0.0072151003 -0.034421694 -0.070702925 -0.081534445 -0.079850055 -0.062842675 0.0018246288
0.0620842 -0.16445883 -0.047838524 -0.086169705 -0.22187407 -0.20182796 -0.19293216 -0.06607945
0.0591426 -0.1497513 -0.04282807 -0.053817566 -0.23796704 -0.101336576 0.11079273 -0.1062873
-0.13598736 -0.0420472 -0.025410406 -0.10518779 0.11929066 -0.15933307 0.05451949 -0.06000581
-0.107517876 0.09862469 -0.034553465 -0.08563868 0.045256402 0.09116207 0.041962024 -0.087235875
-0.10324239 0.12986405 0.01671748 0.020321915 -0.115361944 -0.0062741325 0.017480114 -0.027059065
0.11151727 -0.11020187 0.116797015 0.093009725 0.015360708 -0.03315703 0.103091136 -0.14324254
-0.08517026 0.065812975 -0.13539085 0.06745377 0.13026857 0.04140601 0.10710989 0.116666965
0.13739526 -0.093197964 -0.09456151 -0.06488116 0.095943846 -0.1154789 0.024610264 -0.14819206
0.12966065 0.08292744 -0.021328123 0.054312475 0.0632885 -0.013302997 -0.049112655 -0.0051324912
-0.08649132 -0.07903032 -0.11280556 0.10519126 0.035971187 0.03734598 -0.037602764 -0.12873152
0.08900693 0.06886248 0.11709608 -0.14180274 -0.052603703 -0.03255262 -0.026825666 -0.08511813
-0.14048408 0.047508456 -0.102876365 0.12933448 -0.14844824 -0.012688797 -0.062364362 -0.12996583
0.11542851 0.044932008 -0.009646086 -0.08745263 -0.15490888 -0.1124887 0.14383936 -0.15576172
-0.120259225 -0.013875774 0.06381066 0.04061474 -0.023864867 -0.13395153 0.03827102 0.07822565
0.035514567 -0.034389857 -0.023541331 -0.15514107 -0.066865474 -0.006333728 -0.14707103 0.0057726135
0.027546993 0.15168324 -0.12179642 0.035535622 0.11181607 -0.15717053 -0.05367201 -0.0721824
-0.15167657 0.124278076 0.06408401 -0.18594435 -0.21099752 -0.15003054 -0.124276996 -0.009152171
0.07288099 -0.23000857 -0.10495206 0.055166513 -0.22735982 0.030381823 -0.040919878 -0.011884354
-0.05931577 -0.01985791 -0.14044878 -0.05459436 0.06178311 -0.1562906 0.018776817 -0.04834997
-0.12090036 -0.08860277 -0.05296073 -0.012888563 0.09425977 -0.17890827 -0.02057207 0.04384245
-0.08678402 -0.0063953106 0.060045395 -0.19579053 -0.13678376 -0.22326577 -0.02482225 -0.17478225
0.00060087326 0.048273962 -0.16352804 -0.15216632 -0.20235407 -0.007935135 -0.06661727 0.07612357
-0.12702067 -0.107770264 0.041086987 0.010445011 0.01828244 -0.18976374 -0.06049946 -0.025958437
-0.10055524 -0.22168954 0.076596946 -0.0562851 0.041703187 -0.046863206 -0.17734148 -0.03650121

linear.0.bias f4 [16]
00000000: b50e d9bd 5864 20bb 870f 803d cb50 bf3b
00000010: 82eb 043e ad0c 0bbe 5b38 55be 99de f23d
00000020: dc4e 183e f30e 83bd d507 1dbe 4d2c 193e
00000030: 6c88 1dbe 235a d0bd 7ae4 9dbd 6750 aa3d
-0.10598508 -0.0024473872 0.062529616 0.0058384887 0.12980464 -0.13579054 -0.20822279 0.118588634
0.14873832 -0.06399336 -0.15335019 0.14958306 -0.15384072 -0.10173442 -0.07709594 0.08316117

linear.1.weight f4 [64, 16]
00000000: 3d06 713e 7040 50bd bc89 a63d bca9 87bd
00000010: b881 203e 83a6 a43d e7a2 23be 085c 8c3d
00000020: 1866 a33d f27c 133e 601f 2b3e 86e7 06be
00000030: e42e 09be 86bf 5f3e ec5e 10be 245f 3bbe
00000040: 8bbf f8bd 3029 2ebe 44d3 bcbd 6c7e 643e
00000050: ae7b 77be fbbe a2bd f0fb 34bb 0000 c7bb
00000060: d4a1 05be 76ac 223e 88cf c53d 54da 54be
00000070: 6279 74be 003a 8ebd 8000 45be 1ee9 303e
00000080: fa8a f4bd 25d0 f2bc 2473 ad3d 4ea7 603e
00000090: b0e9 803d 7bf2 77be d00e ca3b 8078 54bc
000000a0: e087 8b3c f85b 233e f86f fabd 402b a83b
000000b0: 8862 66be c04e 7fbc 14a8 4d3e 5642 513e
000000c0: c028 dcbd 9741 05bd 6614 123e 7690 4a3e
000000d0: c033 dbbd eeb2 d8bb d179 803e e8d5 81bd
000000e0: 5081 683e 104c f1bd 9352 ffbc f069 0f3e
000000f0: 406e 55bd a0cf 103c fa2b 03be 1695 153e
00000100: 4850 593d ae39 a43d c091 10bd 6c22 a4bd
00000110: d4ae babd 7594 f8bd ca47 2b3c b422 713e
00000120: 2810 d03d 7212 14be af70 2cbd e85d 33be
00000130: 08a1 2fbe 8a9f 173e d84e 8ebd 40bf 0a3e
00000140: 3d44 19be 8426 d2bd 5033 363d 5e6b 5e3e
00000150: d0d4 54be 9406 f13d d003 2a3e 78db 7fbd
00000160: 982f 483e e0ff fdbc b11f 66be 9c23 0bbe
00000170: 5416 2f3e d882 783e c018 a03d 36e4 14be
00000180: 9f10 363d c318 073e 68b4 cb3d cc43 51be
00000190: 68ab 7dbe b442 233e 5e27 443c 9ac7 06be
000001a0: c038 72be 9ab9 78be 8257 5e3c 109e 783e
000001b0: 189c 403e 02eb 5e3e 94a2 68be 708b 683e
000001c0: 3f3c 583c 5d25 16bd 0074 663e 0040 6439
000001d0: 3ccb 1d3e 3c4b 303e d487 29be 5c82 9f3d
000001e0: a08c cc3d 4c1b 743e 99d1 483e 489c 13be
000001f0: 522e 413e f2b2 5d3e cacb 3dbe 2856 a3bd
00000200: e9a4 87bc 650a 1bbe 306c 27be ae44 11be
00000210: 7c10 ccbd 9393 113e 6c22 79bd 20b0 583e
00000220: 8025 33be 40ad 7d3c e448 cebd cc51 8abd
00000230: e09a 523e 30b3 773e 04cc 0b3e a81d 3fbe
00000240: 3c4c adbd c508 1ebe 6c03 d73d ce6d 3dbe
00000250: f802 7ebd 4078 19be 3be1 ebbd 60a3 c53d
00000260: a0d7 ed3c 8a5a 0dbe f59d 903e 000e 203a
00000270: 30c4 7f3d e05c 6f3d f2a2 133e f849 103e
00000280: 592a 8e3b 4714 7b3e 7c81 35be 5898 4fbd
00000290: f019 df3c a11c ecbd 5ce3 2abc 0642 733e
000002a0: 48f0 7fbd f0c7 14be 3ed7 623e dc00 943d
000002b0: e4b0 b43d 002c 99ba 9cbd 30be 5866 783e
000002c0: e182 823e f7cf 02be e2ae 303e 9023 edbc
000002d0: 8003 fe3c f336 273e 08c1 233e a8ce 78bd
000002e0: becf 173e 7879 26be 8955 013e 70a4 2ebe
000002f0: bcdc 1fbe 2a29 42be 36aa 6e3e e401 6abe
00000300: be20 833e 8082 bdbd 209e 853d b066 403e
00000310: 1ce1 8abd 3d4f a2bc 2535 6fbc 6a8d 263e
00000320: 8c3e 0bbe d012 06be 7039 61bd 7097 563d
00000330: feaf 743e f4f5 ffbd 44dc cf3d 1e6e 183e
00000340: 8c75 863d a7d1 cc3d cc82 47be da44 1bbe
00000350: 8070 98bb d9c7 9a3d 0d1c 053d 0017 23bb
00000360: 1274 1f3e a060 043d b985 78be 82d2 50be
00000370: 64b8 553e b032 59bd 5055 fc3c cc8d bdbd
00000380: 3c0e 17bd fad4 ad3d 4c6c a0bd c4fe 983d
00000390: 4064 f13b 463e 923e 7662 3abe befd 5fbe
000003a0: c0bd f73d 20f1 fabd 70e9 183e b260 69be
000003b0: 0015 ed3d 184c ed3d 8eb2 1cbe eea1 2d3e
000003c0: 280a 00be a466 97bd e0aa 4f3d 8066 3c3c
000003d0: 7c86 e7bd 55ff 9d3d 9e3a fabd 902b 00bd
000003e0: 285d 66bd 047b 69be ed23 a7bd a8c5 03be
000003f0: a45c 00be 64f2 4f3e 6c46 0abe f67c 3abe
0.23537536 -0.050842702 0.081317395 -0.06624171 0.15674484 0.08039572 -0.15980111 0.06853491
0.07978457 0.14403132 0.16711187 -0.13174257 -0.13396794 0.21850404 -0.1409871 -0.18298012
-0.12145909 -0.170079 -0.09219983 0.22313851 -0.24168274 -0.07946583 -0.0027615987 -0.006072998
-0.13050014 0.15886101 0.09658724 -0.2078641 -0.23874429 -0.06944656 -0.19238472 0.17276427
-0.1194057 -0.029640267 0.08469227 0.21938822 0.06294572 -0.24213593 0.0061663166 -0.012968183
0.017032564 0.15953052 -0.122283876 0.005132109 -0.22498524 -0.01558274 0.20083648 0.20435461
-0.1074996 -0.032533254 0.14265594 0.1978167 -0.1070323 -0.006613127 0.2509294 -0.063396275
0.22705579 -0.11782086 -0.031167304 0.14005256 -0.052107096 0.008838564 -0.12809744 0.14607653
0.053055078 0.08018814 -0.035295248 -0.08014378 -0.09115377 -0.12137691 0.010454128 0.23548394
0.101593316 -0.14460161 -0.04209965 -0.17516291 -0.17151272 0.14806953 -0.06948632 0.13549519
-0.14967437 -0.102612525 0.04448253 0.21720645 -0.20784307 0.11768833 0.16603017 -0.06246516
0.19549406 -0.0310058 -0.22473027 -0.13587803 0.17098361 0.24268663 0.07817221 -0.1454018
0.044449445 0.1319304 0.09946519 -0.20436019 -0.24772418 0.15943414 0.0119722765 -0.1316208
-0.23654461 -0.24289551 0.013570668 0.24279046 0.18809545 0.21769336 -0.22718269 0.22709441
0.013197958 -0.036656726 0.22505188 0.00021767616 0.15409559 0.172162 -0.1655572 0.07788536
0.099877596 0.23838538 0.19611205 -0.14415085 0.18865326 0.21650293 -0.1853477 -0.079754174
-0.016558127 -0.15140684 -0.16349864 -0.14186355 -0.09964082 0.14216451 -0.060823843 0.21160936
-0.17494774 0.015483201 -0.100724965 -0.06753883 0.20566893 0.24189448 0.13652045 -0.18663657
-0.08461806 -0.15433033 0.104986995 -0.18498918 -0.06201455 -0.14987278 -0.11517569 0.09650302
0.029033482 -0.13804069 0.28245512 0.0006105602 0.06244296 0.058438182 0.14417627 0.14090717
0.0043385443 0.24519454 -0.17725176 -0.050682396 0.027234048 -0.11528898 -0.010430183 0.23755655
-0.06248501 -0.14529395 0.22152421 0.072267264 0.08822802 -0.0011686087 -0.1725983 0.24257791
0.25490478 -0.12774645 0.17254212 -0.028947622 0.031007528 0.16329555 0.15991604 -0.060743958
0.14825341 -0.16257274 0.12630285 -0.17054915 -0.15611547 -0.18961015 0.23307118 -0.22852284
0.25610918 -0.092534065 0.065243006 0.18789172 -0.067812175 -0.019813174 -0.014600073 0.16264883
-0.13598078 -0.13093114 -0.054986417 0.052390516 0.2389526 -0.12498084 0.10149434 0.14885756
0.06565389 0.100009255 -0.19483489 -0.15162984 -0.004652083 0.07557649 0.032497454 -0.0024885535
0.15571621 0.03231871 -0.24269761 -0.20392802 0.2087112 -0.053026855 0.030802399 -0.09255561
-0.03687881 0.08487888 -0.07833156 0.07470468 0.007366687 0.28563136 -0.18201622 -0.21874139
0.12096739 -0.12253022 0.149328 -0.22790793 0.11576271 0.11586779 -0.15302488 0.16956303
-0.12503874 -0.07392624 0.05070007 0.011499047 -0.11304948 0.07714716 -0.122182116 -0.031291544
-0.056241184 -0.22800833 -0.08161149 -0.12868369 -0.1253534 0.20307308 -0.13503426 -0.18211731

linear.1.bias f4 [64]
00000000: bd4f a53e d12a 97bd 9912 08be b961 093d
00000010: 9e34 3fbd fea3 7dbe d5f4 973e 9a47 a13d
00000020: 423e 6b3e a24d be3d be13 dfbd 56d0 a0bd
00000030: 2304 87bd 4591 c3bd 48a7 803e 7083 8e3e
00000040: 9dd4 b2bc 5199 86be c355 02be 8632 e13d
00000050: 0a45 db3d f05e 6bbd b829 363c f6b3 a8be
00000060: 44b1 1bbe 129b b5be b097 d4bd dfb3 8dbc
00000070: 14e0 d13c 8e19 0fbd b199 5abd 8a7c 1fbe
00000080: ea24 873d 211f 053e 7bb0 30bd e917 8e3e
00000090: 5891 85be 65cc 80be 9e67 f93d 0af0 3dbe
000000a0: 425f 11bc 2449 adbb 56c2 493e fc4f a13d
000000b0: 8ed7 9d3e c874 5fbe 7772 e43c 4bb6 9abc
000000c0: 1ecc d43d e1c6 db3d e269 7ebd efd2 26be
000000d0: 2090 84bd 9cf8 403d 031c a73c cfe3 8e3e
000000e0: dd3c f03d f0ae 75bc 8bd5 a23d 8513 963d
000000f0: 2c3c 4a3d 38cb b5bd 2690 c9bc 3cf4 37be
0.32287398 -0.073812135 -0.13288344 0.03354046 -0.04668104 -0.2476959 0.2967898 0.07874985
0.22972968 0.09292151 -0.108924374 -0.07852237 -0.06592586 -0.09549192 0.25127625 0.27834654
-0.021829898 -0.26288846 -0.12728028 0.10995965 0.107065275 -0.057463586 0.011118345 -0.329498
-0.1520434 -0.35469872 -0.103804946 -0.017297683 0.025619544 -0.03493648 -0.053369228 -0.15574852
0.06598838 0.13000156 -0.043137055 0.27752617 -0.2608745 -0.2515594 0.121779665 -0.18548599
-0.008872809 -0.00528826 0.1970304 0.07876584 0.30828518 -0.21821892 0.027886612 -0.018885752
0.10390495 0.107312925 -0.062112696 -0.16291402 -0.06472802 0.047112092 0.0203991 0.2790818
0.11730359 -0.014995322 0.07950886 0.07327942 0.04937379 -0.088766515 -0.024604868 -0.17964262

linear.2.weight f4 [128, 64]
00000000: 0690 1fbd 2a61 f63d 019b 273e c27b 573c
00000010: 6aaa 56bd 7845 85bd 0959 3fbd 69fe e23d
00000020: 444c b03d dffa 8bbc 787f 123e 3968 373a
00000030: b62a 993d c240 93bd d7aa fa3d a871 1a3d
00000040: 39b5 2d3e 3e0f 0bbe 82a7 083e a00c 9a3c
00000050: fad1 753d 130d 293e bc98 08be 514c 883c
00000060: 6eb0 43bd a1bd b93c 7341 35bd 81b6 d93d
00000070: 09f9 22bd 168b 6abd e176 a53d 1d48 b33d
00000080: cc8d 383d 85ac 103e cc5a e3bd 5865 edbd
00000090: 25e9 0ebe 0ebe 4dbd b1c5 08bd c8f7 8cbd
000000a0: 7b5a b1bd c119 4dbb e4da 0fbe 0178 db3b
000000b0: 9e9e 063c abe6 133d da4b 71bd 4b54 ef3b
000000c0: 8896 0b3d 09c9 c73d f63c 01be db32 333e
000000d0: 7899 3d3d fd36 933d 0381 d6bd d6c2 283e
000000e0: 43d8 72bd b8e3 f03d ea30 3a3d 86b4 5abb
000000f0: 33fe 84bc 62c9 a4bc 2417 d2bd 2d19 a3bd
00000100: a5be cc3c fbc5 60bd d138 25bc 4925 b23c
00000110: b740 8fbb 786d 2b3d b399 55bd 8277 d83c
00000120: 7d5b b23d c1db fa3d f720 99bc 15d7 fdbd
00000130: ea8c f43d 3b9a d7bd edd3 f93c 5b61 c4bd
00000140: d94d 8ebd 39a9 f33d edb0 223d 0b66 083d
00000150: 2c32 613d 2b19 f93d 3040 11bc ca31 a538
00000160: 2e78 173d 7743 183e efe1 ec3c cbd5 ddbd
00000170: a628 55bd 7a20 1fbe 6c6a 89bd 409e 0b3e
00000180: eef8 62bd 2631 b83d 354f bebc c6bd b63d
00000190: 12f0 1dbe 4262 fa3d 6f25 a8bb 249c 793d
000001a0: 5e2b 023d 211f 34bc 0680 343c 6890 013d
000001b0: 12c8 9dbd 7540 19be 7e38 123d 48a7 19bc
000001c0: 68df ec3c 4669 7f3c 7527 043e a33f 783d
000001d0: bd79 eebc 03ac 29bc a537 b33c ca26 d13c
000001e0: 1192 893d 868d 133d a293 45b9 9aa4 d53b
000001f0: cf7f ae3d c5e1 c5bd b7db c9bd 4738 c4bc
00000200: e4c4 bcbd 9709 11bd a9fc bc3c 6733 d73b
00000210: 0d03 76bc c663 893d efe0 cc3d 0d10 f83d
00000220: 65bd 25bd 75e7 1e3e c98c 9e3c a502 96bd
00000230: 3a48 c93d f2f6 ddbc 503f 42ba a2c3 393d
00000240: 556b c43d d03a c13c d604 653d 4c39 36bd
00000250: eaef 96bd ccd3 423e 7f5d 433c 3ecb 3fbe
00000260: c10b 513d edd6 fa3c 50d2 40bb d7e6 833c
00000270: 0f2c 353e dc69 7bbd ba93 3cbc 8f08 d13c
00000280: 1865 6abd 9b4d 003e 7dc8 f7bc b0ad e43d
00000290: 8666 72bd 7656 4a3d 3542 8bbd 68e0 d73c
000002a0: 2418 bc3d ac99 ff3c 87f1 34be f204 273c
000002b0: 5da2 b23d f7d5 af3d 7f39 7c3c 16f5 09be
000002c0: 4e77 4b3d dc90 bf3d 7289 b5bd 7f3e 043e
000002d0: faf0 6c3d baab 9c3d 79d5 cabd edbb 283d
000002e0: 1568 71bd 9fa3 043e e4e7 edbc 1c46 80b9
000002f0: ba36 17be 6914 863c e925 95bd b302 553d
00000300: 34b6 f43d d019 e7bd 019c 1cbe 0823 863d
00000310: 86f5 393d 455f da3d 2c12 5e3d c46d 09be
00000320: 6873 f0bc 9bba bb3c 080d 3f3c 64da b4bd
00000330: 99bb d03d 2bc3 b5bc 01ce f63d 79c0 463c
00000340: c6ce 6abd d423 f93d 0134 ba3b 9118 00bc
00000350: 1bf9 f33d 5da5 82bd 34fa ce3d c34a 40bd
00000360: b7f1 2d3d fadd eb3d 60e7 223d 703d 07be
00000370: 4b10 873d c0f5 debc 5b8c 173e 605a 29bd
00000380: b542 a3bd f923 223e 06fb 72bb 84a5 cdbc
00000390: c691 8dbd 093b 133e a4f5 a93d f834 6ebd
000003a0: 19a6 09bd a975 77bd a356 04be ed10 293c
000003b0: 71ce 713d 2816 7cbd 1800 2ebd 28cd bc3d
000003c0: 2b9c 863d 5e8c e63d bc8a b3bc a00a ad3c
000003d0: 5f8b b0bd a0bd d53d cb7c b0bc 737f 97bd
000003e0: d4c6 b73d c22d 6abd 0ccd 65bc ce9d 62bd
000003f0: 51ad e9bd fb6a b6bd d9fa 1cbe 48bb 67bc
-0.03895571 0.12030251 0.16367723 0.013152065 -0.052408613 -0.06507391 -0.04671577 0.11083681
0.086082965 -0.017087398 0.14306438 0.00069964264 0.074788496 -0.07190086 0.12239616 0.037706047
0.16963662 -0.13580033 0.13345149 0.018804848 0.060014702 0.16508894 -0.13339514 0.016637953
-0.04777568 0.02267343 -0.04425187 0.10630513 -0.03978828 -0.05726155 0.08079315 0.08753989
0.045057103 0.14128311 -0.111013025 -0.115915954 -0.13956125 -0.05023008 -0.03339166 -0.06883198
-0.08659836 -0.0031295868 -0.14048344 0.006697655 0.008216528 0.036108654 -0.05891023 0.0073037497
0.034079105 0.09755141 -0.12620911 0.17499869 0.046288937 0.071882226 -0.10473826 0.16480574
-0.059288274 0.11762184 0.045456804 -0.003337176 -0.016234493 -0.020115558 -0.1025832 -0.07963786
0.02499325 -0.05487631 -0.010084347 0.021746295 -0.0043717283 0.041852444 -0.052148532 0.026424173
0.08708856 0.12248946 -0.018692477 -0.12394539 0.1194094 -0.10527464 0.030496562 -0.095888816
-0.06948442 0.11897511 0.03971951 0.03330044 0.05497949 0.121630035 -0.008865401 7.877087e-05
0.036979847 0.14869486 0.028916327 -0.108317934 -0.05204072 -0.15539733 -0.067097515 0.13634586
-0.05541318 0.08993749 -0.023231128 0.08922915 -0.15423611 0.122257724 -0.0051314156 0.060939923
0.03177964 -0.01099375 0.011016851 0.031631857 -0.07704176 -0.14965995 0.035698406 -0.009378262
0.028915122 0.015589064 0.12905677 0.060607564 -0.029110784 -0.010355952 0.02187712 0.025531191
0.06717313 0.03602364 -0.00018842382 0.006519866 0.08520471 -0.09662203 -0.098563604 -0.023952616
-0.092172414 -0.035409536 0.023069697 0.006567407 -0.015015376 0.067084834 0.1000384 0.121124364
-0.040463824 0.15517981 0.019354241 -0.07324723 0.09828229 -0.027095292 -0.0007409947 0.045352586
0.095907845 0.023587614 0.055912815 -0.044488236 -0.07369979 0.19026107 0.011924147 -0.18729874
0.0510366 0.030620063 -0.002942223 0.016101284 0.17692588 -0.061380252 -0.01150983 0.025516776
-0.057225317 0.12529604 -0.030246967 0.11165941 -0.059179805 0.04939886 -0.06799737 0.026352122
0.09184292 0.031201206 -0.1767026 0.01019405 0.087223746 0.085857324 0.0153945675 -0.13472399
0.049674325 0.093538016 -0.08864106 0.12914465 0.057847 0.07649942 -0.09903998 0.041194845
-0.05893715 0.12953041 -0.029041238 -0.00024466298 -0.1476697 0.016367154 -0.072826214 0.052004527
0.11948815 -0.1128422 -0.15293886 0.065496504 0.045400165 0.106627025 0.05421655 -0.13420779
-0.029351905 0.022916129 0.011660822 -0.08830717 0.101920314 -0.02218779 0.12051011 0.01213085
-0.0573261 0.12165037 0.005682469 -0.007818357 0.119127475 -0.06379197 0.10106316 -0.0469463
0.042466845 0.11516948 0.039771438 -0.1320703 0.065949045 -0.027216792 0.14799635 -0.041345954
-0.07971708 0.15834035 -0.003707589 -0.025103338 -0.0691257 0.14377989 0.08298805 -0.058155984
-0.03360567 -0.060414944 -0.12923674 0.010318977 0.05903477 -0.061544567 -0.04248056 0.09218818
0.065727554 0.11257242 -0.02191674 0.02112323 -0.08620333 0.10436559 -0.02154388 -0.07397356
0.0897347 -0.057172544 -0.014025938 -0.055326276 -0.114100106 -0.08907124 -0.15330066 -0.014143772

linear.2.bias f4 [128]
00000000: 71b1 15bd 1e7c 683d ae6c 57bc 6f43 51bd
00000010: d64f 813d f1ba d2bd 9c03 23be fdc7 74bd
00000020: e992 993b 3893 d93d 7aa7 ebbc c33b e83c
00000030: ec9a 51bd 8048 d83d 1676 853d a76c a3bc
00000040: c232 37bc c8f3 f83d 3960 3abe 3303 9e3d
00000050: e652 f2bc c4b0 61bd 041b 16be 721c 2ebc
00000060: f8b1 8dbd 7538 de3c 951e a2bd 2079 4abd
00000070: df5b 11be f569 4abc 398f 3dbd bfb5 e5bd
00000080: fc36 bc3c 13ff bcbd a3ea 8d3c 0bbd 51be
00000090: 53aa 5e3d 35ed 8cbd 4257 f23c e049 ee3c
000000a0: 6cb7 c5bd bc7f 10bd 9d88 d4bd 2bb8 233e
000000b0: b978 503d c060 9c3c 04e4 28be 930c c53c
000000c0: 050a 88bc 6353 9b3d 7c0f 0cbe fdb9 11be
000000d0: c7f4 833d eb9a 3ebc 12bc c03a 4731 24be
000000e0: a4bd 493d 2790 783d 3ec4 a9bd c048 393d
000000f0: 9e20 b93c b74c 10be f259 423d 61ff 44bd
00000100: 9b12 223d fc98 3cbb 5d59 ce3c 03be 5e3d
00000110: 1d8b 5ebd d979 81bd 4811 063e 5e41 19be
00000120: 0920 b8bd fef6 013b 79f4 debc 6006 103e
00000130: 52be 84bc d759 0dbe 42cd cbbd 09d9 393d
00000140: 0cd3 0ebe 23fa 8d3c cf27 1dbe 3bf2 33be
00000150: def3 c93a 6e0e 20bc 5702 dcbd 99a0 073e
00000160: 9bb7 acbd 635c 003d 8cbd 04bd 4df5 bebd
00000170: b002 57bd d6f6 c93d 091f fdbd 4b38 7c3b
00000180: d764 c9bd 9c17 acbc e279 4ebd 285f dcbd
00000190: 6b8e 503d 1cd3 06bd 507d 7c3d 206a 0abe
000001a0: 768e a6bc e3f1 0e3d a81f 853d 6b3c d43d
000001b0: 968f 9bbd 10fe e8bb 6f34 2d3d becc 05be
000001c0: 790d a8bc d2af 863d 6b11 99bd 57f2 37be
000001d0: f33d 11be 6806 00be ba6a b1bd 2d12 373d
000001e0: 6c6b e3bd 28fa 533d 01f3 dbbd 0ca4 03bd
000001f0: 192a 07be 8db3 f3bc 8205 7ebd 7a6b d9bc
-0.036546174 0.056758992 -0.01314847 -0.0510897 0.063140556 -0.102895625 -0.15919346 -0.059761036
0.0046867025 0.10623783 -0.028766382 0.02834881 -0.051173136 0.10560703 0.06516664 -0.01994927
-0.011181535 0.121558726 -0.18200769 0.07715454 -0.029580545 -0.055100217 -0.14658743 -0.010626899
-0.069187105 0.02712653 -0.07915989 -0.04943192 -0.14195202 -0.012354364 -0.046279166 -0.11216306
0.022975437 -0.09228339 0.017323798 -0.2048227 0.054361653 -0.06881181 0.029582623 0.02908796
-0.096541256 -0.035278067 -0.103776194 0.15988223 0.05089638 0.019089103 -0.16493231 0.024053847
-0.01660634 0.07584264 -0.13677782 -0.14231105 0.06443172 -0.011633615 0.0014704487 -0.16034423
0.04925312 0.06068435 -0.08289383 0.045235395 0.02259856 -0.14091764 0.04744906 -0.04809511
0.039568525 -0.002877771 0.025189096 0.054380428 -0.054331888 -0.06322069 0.1309253 -0.14966342
-0.08990485 0.0019831057 -0.027216183 0.14064932 -0.016204033 -0.13803802 -0.09951259 0.045372996
-0.13947695 0.017331189 -0.15347217 -0.17572872 0.0015407761 -0.009769065 -0.10742634 0.13244857
-0.084334575 0.031338107 -0.03240733 -0.09324131 -0.052492797 0.09861533 -0.12359435 0.0038485702
-0.09833687 -0.021007352 -0.050409205 -0.10760337 0.05091707 -0.032916173 0.061642945 -0.13517046
-0.020331603 0.03489865 0.065001786 0.10363086 -0.07595746 -0.0071103647 0.042286333 -0.13066384
-0.020514237 0.06576504 -0.07474025 -0.17963539 -0.14183788 -0.12502444 -0.086629346 0.04469507
-0.111044735 0.05175224 -0.10739709 -0.03213887 -0.13199653 -0.029748702 -0.06201697 -0.026540507

linear.4.weight f4 [2, 128]
00000000: 1153 793c e321 043d de97 ae3c 1697 5bbd
00000010: 8f67 4fbb c58e 99bc d5ba b6bc edef 92bd
00000020: e88c 5d3d 116a 68bc 3108 cdbc d14a 1abc
00000030: b73d 463d 2566 b53d 3d89 253d c268 073c
00000040: ac45 47bb ea44 ca3d 90f8 ef3c 1762 7f3c
00000050: 4c91 fcbc 33fd 1e3d 1f6b dabd f167 a73c
00000060: caed 61bc 5834 d43c 1d53 11bd ea14 05bc
00000070: dc9f 18bd b79e fabb ed81 703d 3c6b 3d3c
00000080: 71fe ed3d 257e 953d 0bd4 1dbc e2d3 f23c
00000090: da85 f03c eed0 79bb bf55 f53d 1a70 6d3c
000000a0: 30a3 07bd 42f7 3cbd 49ea 813c 51db 873d
000000b0: 649a cf3b 0538 af3d 2893 443d 23a4 7dbc
000000c0: fdb8 8d3d d0fb 8fbd 89b7 573d 0149 4ebd
000000d0: 5d32 cbbc 6b0e 3dbc 3aff d4bc 8287 823c
000000e0: 4946 993d 127a b13d 1af0 4d3a 26fc e7bc
000000f0: 25c8 c13d c30d c23c b315 05bc b3c1 98bc
00000100: 11bb c93c 4be7 76bd 119f 633d a3cc 03bd
00000110: 6549 923c 54bc c73c 5f40 a33d ee95 82bd
00000120: 9af9 af3d af5e 283d eb60 c9bd 52de 133d
00000130: 5e9c 253d 3311 a3bc 87c3 283d a9ed 013e
00000140: fa35 003e 3de6 2a3c 0655 ccbc 2b87 723d
00000150: 589f 393b 73b3 533a de3e 63bc 04bb 043e
00000160: 3a31 79bd 5eaf be3d 4874 01bd 8474 873d
00000170: 6716 d23c c747 59bd 9e1b 283d 9dc4 a63a
00000180: 8f41 653c 173e 743c 3182 883d e6f0 18bd
00000190: 7ca1 133d ae3b db3c dbb0 febc d5e5 bd3d
000001a0: 08b9 27bd 6416 5c3b c048 b3bd c7d2 983d
000001b0: bdaa 8b3c 6f8c ff3a 5989 09bd d2c4 c1bd
000001c0: 5942 ac3d fdad 0c3e 8bb7 723d 9114 3d3d
000001d0: 8858 c13d 393f cb3c 613f b93d 9bc0 3c3d
000001e0: cc9b fe3c f1e3 333c ad22 43bb 6ef8 003b
000001f0: 75ac 47bd c872 853c 761d bf3d 860f 163d
00000200: b8d6 92bd c6c2 b4bb cf9a 37bd f0f9 3fbc
00000210: 4078 79bd 6216 8e3d dc49 183c bad8 8f3b
00000220: 87b0 f43c cde7 ae3d da24 a3bb a579 d1bc
00000230: d3eb 563c 9ef5 e3bc f97a 593d 1412 16bc
00000240: 4f4f 85bc 456a 86bc a3f4 273d db51 efbd
00000250: 3c31 813d ea3e 3c3c 5045 fc3b abe7 5ebd
00000260: 44e2 8f3c 777c d73d 8a05 c9bc 4e9a a9bc
00000270: c27d 3d3d bf3d 913a ff44 ec3b f8a9 003e
00000280: acb6 813c 961d c4bc c10d c7bd 7821 e93c
00000290: 942f 933d 4e86 24bc 709c 58bc 0557 da3d
000002a0: 0396 5a3c bf5b f7bc 8260 b13d c5cc 133c
000002b0: 1244 743d a364 f7bc 263e 683c f1bd 14be
000002c0: 8fa5 fdbb 1794 11bb 3ad0 883d 0f83 ba3c
000002d0: fe2a 7a3c aca6 63bc 0c3c b3bd a6a1 173d
000002e0: b849 203b a410 ebbb 89a1 8abc 3b4a 91bd
000002f0: 3a3d 6f3d 2071 2f3d c6ad a1bd 1e96 9c3d
00000300: cab4 e33b 7203 bdbb f818 793d faa8 aabd
00000310: b215 a6bd 2e51 473d b0fc 27be 62b0 0a3d
00000320: 50aa 4a3d e5f0 7e3b 14c1 15bd 9ce2 0e3d
00000330: 742c 333d 25c5 0bbe af6b bebc 675a c8bd
00000340: 74fa b3bd 3352 bebd 9b75 c63c 433f 38bb
00000350: a45b 2d39 4b45 38bd c9b7 1a3d da05 92bd
00000360: a30f 6ebc e007 2dbc 5225 7dbd 2587 23bc
00000370: 0c3a 1e3c 4139 84bd 35c1 f63c 1041 2dbc
00000380: 1b02 6ebc b0e5 b5bb 932f cd3c a0f5 7bbd
00000390: 7755 b3bc a318 52bd 6bf4 00be 9fbc 82bd
000003a0: a7a9 703c aa14 063d ce55 9f3c 31a4 aabd
000003b0: 0dc9 a33d c637 1d3c 933a 003d 46e4 5dbc
000003c0: d1b8 03ba 3aa1 75bd 5294 5c3c dc83 5d3c
000003d0: d4a1 e3bc 65e3 fc3c ac07 ab3b 55af 853d
000003e0: c0c5 863d 9d54 05bd 1a41 57bc 0fe1 cebd
000003f0: f86e 28bd 38c6 153c b985 38bd 7c0c b8b9
0.0152175585 0.03225888 0.02131265 -0.053610884 -0.003164742 -0.018744836 -0.022305885 -0.071746685
0.054089457 -0.014185444 -0.02502832 -0.009417252 0.0483987 0.08857373 0.040414084 0.008264722
-0.0030406518 0.098764256 0.029293329 0.015587351 -0.030831002 0.03881569 -0.10664963 0.020435305
-0.0137896035 0.025903866 -0.035479654 -0.008122662 -0.03726183 -0.007648315 0.058717657 0.011561211
0.116207965 0.07299451 -0.0096330745 0.02964205 0.0293607 -0.0038118917 0.119792454 0.014492059
-0.033114612 -0.04613424 0.015858786 0.06633628 0.0063355435 0.08555607 0.0479919 -0.015481028
0.06920049 -0.07030451 0.052665267 -0.05036259 -0.024804289 -0.011539082 -0.026000608 0.015933756
0.07484109 0.08665861 0.00078559073 -0.028318476 0.09462003 0.023688203 -0.008122849 -0.01864705
0.024625333 -0.060279172 0.05557162 -0.03217758 0.017857263 0.024381794 0.07971262 -0.06376253
0.085925296 0.041105922 -0.09832939 0.036100693 0.040432326 -0.019905662 0.041202094 0.12688316
0.1252059 0.01043087 -0.024942886 0.059210937 0.0028323736 0.0008075751 -0.013869969 0.12961966
-0.06083796 0.093107924 -0.031605035 0.066140205 0.025645448 -0.053046968 0.041041963 0.001272339
0.013992681 0.0149073815 0.06665457 -0.037339114 0.036042675 0.026761856 -0.03109019 0.092723526
-0.040947944 0.0033582682 -0.0875411 0.074620776 0.017049188 0.0019496809 -0.03357825 -0.094613686
0.08411092 0.13738246 0.05925707 0.04616219 0.09440714 0.02481042 0.09045292 0.04608212
0.03108015 0.010979638 -0.0029775307 0.0019679326 -0.048748452 0.016290084 0.09331791 0.036635898
-0.071698606 -0.005516383 -0.04482537 -0.011717305 -0.060905695 0.06937863 0.009294953 0.0043898495
0.029869331 0.08540306 -0.0049787583 -0.0255707 0.013117748 -0.02782708 0.05309579 -0.009159584
-0.016273169 -0.016408095 0.041004788 -0.116855346 0.06308219 0.011489609 0.0076986924 -0.054420155
0.017563947 0.10521787 -0.024538774 -0.020703461 0.04626251 0.0011081024 0.0072103734 0.12564838
0.015834175 -0.023939889 -0.0971942 0.028458342 0.07186809 -0.010041786 -0.013220891 0.10661129
0.01334143 -0.030195115 0.086609855 0.009020989 0.05963523 -0.030199355 0.014174974 -0.14525582
-0.0077406834 -0.0022213513 0.06680341 0.022767572 0.015269039 -0.013894718 -0.087516874 0.037019394
0.0024458002 -0.0071736146 -0.01692273 -0.070942365 0.058408 0.042832494 -0.07894473 0.0764582
0.006949042 -0.005768233 0.060814828 -0.08333011 -0.08109607 0.048661403 -0.16404986 0.033859618
0.04947883 0.0038900909 -0.036561087 0.03488408 0.043743566 -0.13649423 -0.023244707 -0.09782868
-0.087880045 -0.09293022 0.024226 -0.0028113879 0.00016532704 -0.044987958 0.037772927 -0.07130022
-0.014530095 -0.01056096 -0.06180317 -0.009980951 0.009657394 -0.06456233 0.030121425 -0.010574594
-0.014526869 -0.0055510625 0.0250471 -0.061513543 -0.021891339 -0.051293027 -0.12593238 -0.06383633
0.014688886 0.03273455 0.019450095 -0.08332098 0.07997332 0.009595817 0.03130586 -0.013543194
-0.0005024793 -0.05996821 0.013463097 0.013520207 -0.027787127 0.030870149 0.0052194204 0.065275826
0.065806866 -0.032551397 -0.01313808 -0.1010152 -0.041121453 0.009141497 -0.045049403 -0.00035104516

linear.4.bias f4 [2]
00000000: 31cf 093e d663 67bc
0.13457943 -0.014122924
