meta/demos/multiple_experiments/results/models/run_0/emodb_mlp_praat_16-64-128_C_val-001_drop-3_learning_rate-01_0_001.model (torch, 45432 bytes, 8 tensors)

linear.0.weight f4 [16, 39]
0	0xbdf79649	-0.120892115
1	0xbe86c1da	-0.26319772
2	0xbdaf4848	-0.085587084
3	0xbde57ded	-0.11205659
4	0xbe0fdcba	-0.14049044
5	0xbe59989f	-0.21249627
6	0xbe107193	-0.14105825
7	0xbe5f39df	-0.2179942
8	0xbe85d49b	-0.26138768
9	0xbcbdf9b7	-0.023190362
10	0xb94ed8f8	-0.00019726518
11	0xbc24ff2b	-0.010070602
12	0xbe5899c8	-0.21152413
13	0xbdeb1281	-0.11478139
14	0xbd853eeb	-0.06506141
15	0xbe74a92f	-0.23892663
16	0x3c05b4bc	0.008160766
17	0xbcc91b01	-0.02454901
18	0xbd80ea96	-0.06294744
19	0xbe4569dd	-0.19278665
20	0xbe5f1f90	-0.21789384
21	0x3d482345	0.04886176
22	0xbd9819b2	-0.07426776
23	0xbba33a06	-0.004981282
24	0x3de79f76	0.11309712
25	0x3d034899	0.032051656
26	0xbde84a1d	-0.11342261
27	0xbe5393d8	-0.20661867
28	0x3d4626a1	0.048376683
29	0xbe5c52a4	-0.215159
30	0xbe6a6c8e	-0.22892973
31	0xbcdcb4c7	-0.02694167
32	0xbdb386ee	-0.0876597
33	0x3c47f782	0.012205007
34	0xbd9d9cb9	-0.07695908
35	0xbe650694	-0.2236579
36	0x3d4b0df5	0.049573857
37	0xbe4fe872	-0.20303515
38	0xbe5096e4	-0.2037006
39	0xbd4ab17e	-0.049485676
40	0xb9ee344c	-0.00045433862
41	0xbe3194e0	-0.17341948
42	0xbe160b70	-0.146528
43	0x3b8be526	0.00426926
44	0xbe72a33b	-0.2369508
45	0xbe7310ec	-0.23736924
46	0x3d0f82a5	0.0350367
47	0xbc95a36e	-0.018266406
48	0xbc3c52eb	-0.011494379
49	0xbdbf2a9e	-0.093343005
50	0x3cede703	0.029040819
51	0x3d0e1a8c	0.034693286
52	0x3cdca325	0.026933262
53	0xbe193186	-0.14960298
54	0xbda6c045	-0.08142141
55	0xbd884be3	-0.06655099
56	0xbd60c0a9	-0.054871235
57	0x3c3d45ee	0.011552317
58	0xbcf6ad88	-0.030112043
59	0xbd87f326	-0.06638174
60	0xbd9e18f1	-0.07719601
61	0xbd9aa333	-0.07550659
62	0xbd88c8d7	-0.06678932
63	0xba4bd98c	-0.00077762525
64	0x3d709ef3	0.058745336
65	0xbe23f42d	-0.16011114
66	0xbd322fd2	-0.043502636
67	0xbda79c18	-0.081840694
68	0xbe5ec054	-0.21753055
69	0xbe4a3a7c	-0.19748873
70	0xbe41204d	-0.18859978
71	0xbd7c3236	-0.061571322
72	0x3d7cdcac	0.061733887
73	0xbe14c3b8	-0.14527786
74	0xbd1d19bc	-0.03835462
75	0xbd4a8c10	-0.04944998
76	0xbe6f2adf	-0.23356198
77	0xbdc6d2ea	-0.097081974
78	0x3de2e74c	0.11079273
79	0xbdd9ad28	-0.1062873
80	0xbe0b4045	-0.13598736
81	0xbd2c39af	-0.0420472
82	0xbcd0297c	-0.025410406
83	0xbdd76cb2	-0.10518779
84	0x3df44ea9	0.11929066
85	0xbe232835	-0.15933307
86	0x3d5f4fd4	0.05451949
87	0xbd75c8a7	-0.06000581
88	0xbddc3255	-0.107517876
89	0x3dc9fbbe	0.09862469
90	0xbd0d87ef	-0.034553465
91	0xbdaf6355	-0.08563868
92	0x3d395ec7	0.045256402
93	0x3dbab32e	0.09116207
94	0x3d2be05f	0.041962024
95	0xbdb2a8b9	-0.087235875
96	0xbdd370bf	-0.10324239
97	0x3e04fb15	0.12986405
98	0x3c88f319	0.01671748
99	0x3ca67a25	0.020321915
100	0xbdec42e2	-0.115361944
101	0xbbcd973d	-0.0062741325
102	0x3c8f3275	0.017480114
103	0xbcddaaf9	-0.027059065
104	0x3de4632b	0.11151727
105	0xbde1b185	-0.11020187
106	0x3def3346	0.116797015
107	0x3dbe7be2	0.093009725
108	0x3c7bab7b	0.015360708
109	0xbd07cfaa	-0.03315703
110	0x3dd32172	0.103091136
111	0xbe12ae2c	-0.14324254
112	0xbdae6dbf	-0.08517026
113	0x3d86c8f4	0.065812975
114	0xbe0aa3e6	-0.13539085
115	0x3d8a2534	0.06745377
116	0x3e056520	0.13026857
117	0x3d299959	0.04140601
118	0x3ddb5c6e	0.10710989
119	0x3deeef17	0.116666965
120	0x3e0cb158	0.13739526
121	0xbdbede93	-0.093197964
122	0xbdc1a977	-0.09456151
123	0xbd84e06a	-0.06488116
124	0x3dc47e35	0.095943846
125	0xbdec8034	-0.1154789
126	0x3cc99b77	0.024610264
127	0xbe17bfa9	-0.14819206
128	0x3e04c5c3	0.12966065
129	0x3da9d5dd	0.08292744
130	0xbcaeb851	-0.021328123
131	0x3d5e76c2	0.054312475
132	0x3d819d67	0.0632885
133	0xbc59f4d0	-0.013302997
134	0xbd492a5a	-0.049112655
135	0xbba82e75	-0.0051324912
136	0xbdb1225c	-0.08649132
137	0xbda1daa6	-0.07903032
138	0xbde7069a	-0.11280556
139	0x3dd76e84	0.10519126
140	0x3d135686	0.035971187
141	0x3d18f819	0.03734598
142	0xbd1a055b	-0.037602764
143	0xbe03d232	-0.12873152
144	0x3db64944	0.08900693
145	0x3d8d07c6	0.06886248
146	0x3defd012	0.11709608
147	0xbe1134bd	-0.14180274
148	0xbd5776fb	-0.052603703
149	0xbd0555e5	-0.03255262
150	0xbcdbc180	-0.026825666
151	0xbdae526a	-0.08511813
152	0xbe0fdb0f	-0.14048408
153	0x3d42983a	0.047508456
154	0xbdd2b0d8	-0.102876365
155	0x3e047042	0.12933448
156	0xbe1802d1	-0.14844824
157	0xbc4fe4ac	-0.012688797
158	0xbd7f71c6	-0.062364362
159	0xbe0515c3	-0.12996583
160	0x3dec65c8	0.11542851
161	0x3d380aa0	0.044932008
162	0xbc1e0a9e	-0.009646086
163	0xbdb31a5d	-0.08745263
164	0xbe1ea06f	-0.15490888
165	0xbde6607a	-0.1124887
166	0x3e134aa0	0.14383936
167	0xbe1f8000	-0.15576172
168	0xbdf64a78	-0.120259225
169	0xbc635737	-0.013875774
170	0x3d82af2a	0.06381066
171	0x3d265ba4	0.04061474
172	0xbcc38041	-0.023864867
173	0xbe092a97	-0.13395153
174	0x3d1cc213	0.03827102
175	0x3da034c5	0.07822565
176	0x3d1177b9	0.035514567
177	0xbd0cdc61	-0.034389857
178	0xbcc0d9c0	-0.023541331
179	0xbe1edd4d	-0.15514107
180	0xbd88f0c4	-0.066865474
181	0xbbcf8b29	-0.006333728
182	0xbe1699ca	-0.14707103
183	0x3bbd2831	0.0057726135
184	0x3ce1aa3b	0.027546993
185	0x3e1b52da	0.15168324
186	0xbdf97067	-0.12179642
187	0x3d118dcd	0.035535622
188	0x3de4ffd3	0.11181607
189	0xbe20f150	-0.15717053
190	0xbd5bd72e	-0.05367201
191	0xbd93d45e	-0.0721824
192	0xbe1b511a	-0.15167657
193	0x3dfe8581	0.124278076
194	0x3d833e7a	0.06408401
195	0xbe3ac20c	-0.18238086
196	0xbe545708	-0.20736325
197	0xbe15d3ac	-0.14631528
198	0xbdf6c2f4	-0.12048903
199	0xbbb88530	-0.0056311116
200	0x3d9c3483	0.07627203
201	0xbe680764	-0.2265907
202	0xbdcfbc84	-0.101433784
203	0x3d6ff73b	0.058585387
204	0xbe65354e	-0.22383615
205	0x3d0afa8a	0.03393034
206	0xbd19871c	-0.037482366
207	0xbc09aae8	-0.008402564
208	0xbd644331	-0.05572814
209	0xbc868393	-0.016420161
210	0xbe0c39f5	-0.13693984
211	0xbd50f046	-0.051010393
212	0x3d85f85e	0.06541513
213	0xbe1c4b8c	-0.15263194
214	0x3cb6556b	0.022257527
215	0xbd3760a5	-0.0447699
216	0xbdf0294e	-0.11726628
217	0xbdadeba3	-0.0849221
218	0xbd66d51e	-0.05635559
219	0xbc29a9d6	-0.010355433
220	0x3dbf6bb7	0.09346717
221	0xbe336808	-0.17520154
222	0xbc8abc89	-0.016935604
223	0x3d424fbb	0.04743932
224	0xbdaa346b	-0.08310779
225	0xbb33a7e2	-0.0027413298
226	0x3d8262cc	0.063665
227	0xbe44d6b8	-0.19222534
228	0xbe0969c2	-0.1341925
229	0xbe60f9a2	-0.21970227
230	0xbcae26d0	-0.021258742
231	0xbe2f3762	-0.1711097
232	0x3b8a358d	0.0042178095
233	0x3d54944e	0.051899247
234	0xbe239540	-0.15974903
235	0xbe17edf1	-0.14836861
236	0xbe4afe08	-0.19823468
237	0xbb8fd6e8	-0.0043896325
238	0xbd807719	-0.06272716
239	0x3da3c503	0.079965614
240	0xbdfc68df	-0.1232469
241	0xbdd54ce4	-0.10415056
242	0x3d37c013	0.04486091
243	0x3c6a9ace	0.014319135
244	0x3cb58464	0.022157855
245	0xbe3dd5cc	-0.18538588
246	0xbd671bfa	-0.056423165
247	0xbcb33c81	-0.021879436
248	0xbdc4f89c	-0.09617731
249	0xbe5f102e	-0.21783516
250	0x3da48e04	0.080349
251	0xbd56df32	-0.05245895
252	0x3d3a9ef2	0.04556174
253	0xbd3055a5	-0.043050427
254	0xbe31ca25	-0.17362268
255	0xbd05afa9	-0.032638226

linear.0.bias f4 [16]
0	0xbdcd4d3a	-0.100244954
1	0x3af78718	0.0018884866
2	0x3d800f87	0.062529616
3	0x3bbf50cb	0.0058384887
4	0x3e04eb82	0.12980464
5	0xbe075345	-0.13215359
6	0xbe515bae	-0.2044513
7	0x3df2de99	0.118588634
8	0x3e184edc	0.14873832
9	0xbd830ef3	-0.06399336
10	0xbe14d145	-0.14532955
11	0x3e192c4d	0.14958306
12	0xbe1d886c	-0.15384072
13	0xbdd05a23	-0.10173442
14	0xbd9de47a	-0.07709594
15	0x3daa5067	0.08316117

linear.1.weight f4 [64, 16]
0	0x3e6fb55f	0.23409031
1	0xbd57719e	-0.05259859
2	0x3da689bc	0.081317395
3	0xbd87a9bc	-0.06624171
4	0x3e2081b8	0.15674484
5	0x3d9fbfb9	0.0780024
6	0xbe23e630	-0.16005778
7	0x3d8c5c08	0.06853491
8	0x3da36618	0.07978457
9	0x3e137cf2	0.14403132
10	0x3e2f2c55	0.17106755
11	0xbe06e786	-0.13174257
12	0xbe092ee4	-0.13396794
13	0x3e5fbf86	0.21850404
14	0xbe105eec	-0.1409871
15	0xbe3b5f24	-0.18298012
16	0xbdff3ef3	-0.124631785
17	0xbe3113c3	-0.17292695
18	0xbdbcd344	-0.09219983
19	0x3e647e6c	0.22313851
20	0xbe777bae	-0.24168274
21	0xbda80d93	-0.08205714
22	0xbc054e4a	-0.008136341
23	0xbbc70000	-0.006072998
24	0xbe05a1d4	-0.13050014
25	0x3e22ac76	0.15886101
26	0x3db35cfb	0.08757969
27	0xbe54da54	-0.2078641
28	0xbe747962	-0.23874429
29	0xbd8e3a00	-0.06944656
30	0xbe450080	-0.19238472
31	0x3e30e91e	0.17276427
32	0xbdf5242b	-0.11969789
33	0xbceb5d2d	-0.028730953
34	0x3dad7324	0.08469227
35	0x3e60a74e	0.21938822
36	0x3d80e9b0	0.06294572
37	0xbe75b444	-0.23994547
38	0x3b738bab	0.0037162106
39	0xbc547880	-0.012968183
40	0x3c8b87e0	0.017032564
41	0x3e235bf8	0.15953052
42	0xbe02bddf	-0.12767743
43	0x3ba82b40	0.005132109
44	0xbe666288	-0.22498524
45	0xbc7f4ec0	-0.01558274
46	0x3e4da814	0.20083648
47	0x3e514256	0.20435461
48	0xbde430ba	-0.11142106
49	0xbd16f0b5	-0.03685065
50	0x3e121466	0.14265594
51	0x3e4a9076	0.1978167
52	0xbddb33c0	-0.1070323
53	0xbc204773	-0.00978266
54	0x3e7e4da1	0.248343
55	0xbd81d5e8	-0.063396275
56	0x3e688150	0.22705579
57	0xbdf14c10	-0.11782086
58	0xbd06deab	-0.032927196
59	0x3e0f69f0	0.14005256
60	0xbd556e40	-0.052107096
61	0x3c10cfa0	0.008838564
62	0xbe032bfa	-0.12809744
63	0x3e159516	0.14607653
64	0x3d60bc78	0.054867238
65	0x3da850e4	0.08218554
66	0xbd1091c0	-0.035295248
67	0xbda4226c	-0.08014378
68	0xbdbaaed4	-0.09115377
69	0xbdf3ad44	-0.11898282
70	0x3c28ddd1	0.010306791
71	0x3e7122b4	0.23548394
72	0x3dd01028	0.101593316
73	0xbe141272	-0.14460161
74	0xbd491155	-0.049088795
75	0xbe335de8	-0.17516291
76	0xbe2fa108	-0.17151272
77	0x3e179f8a	0.14806953
78	0xbd8e4ed8	-0.06948632
79	0x3e0abf40	0.13549519
80	0xbe1c5e56	-0.15270361
81	0xbdd8058f	-0.10547935
82	0x3d363350	0.04448253
83	0x3e5e6b5e	0.21720645
84	0xbe54d4d0	-0.20784307
85	0x3ded8c0e	0.11598979
86	0x3e29f309	0.16596617
87	0xbd7fdb78	-0.06246516
88	0x3e482f98	0.19549406
89	0xbcfdffe0	-0.0310058
90	0xbe64fee8	-0.22362864
91	0xbe0b239c	-0.13587803
92	0x3e2f1654	0.17098361
93	0x3e7882d8	0.24268663
94	0x3da018c0	0.07817221
95	0xbe14e436	-0.1454018
96	0x3d2296ec	0.03969471
97	0x3e028069	0.12744297
98	0x3dcbb468	0.09946519
99	0xbe5143cc	-0.20436019
100	0xbe7dab68	-0.24772418
101	0x3e204f2a	0.15655199
102	0x3c08ee80	0.008357644
103	0xbe06c79a	-0.1316208
104	0xbe7238c0	-0.23654461
105	0xbe78b99a	-0.24289551
106	0x3c8c84b4	0.017153122
107	0x3e789e10	0.24279046
108	0x3e409c18	0.18809545
109	0x3e5eeb02	0.21769336
110	0xbe68a294	-0.22718269
111	0x3e688b70	0.22709441
112	0x3c74893d	0.014925298
113	0xbd0d37a8	-0.034476906
114	0x3e667400	0.22505188
115	0x39644000	0.00021767616
116	0x3e1dcb3c	0.15409559
117	0x3e32e61c	0.17470592
118	0xbe2a71c7	-0.16644965
119	0x3d9f825c	0.07788536
120	0x3dcc8ca0	0.099877596
121	0x3e741b4c	0.23838538
122	0x3e48a0af	0.19592546
123	0xbe139c48	-0.14415085
124	0x3e412e52	0.18865326
125	0x3e5db2f2	0.21650293
126	0xbe3dcbca	-0.1853477
127	0xbda35628	-0.079754174
128	0xbc9e3871	-0.019314023
129	0xbe1db9d3	-0.15402918
130	0xbe276c30	-0.16349864
131	0xbe1144ae	-0.14186355
132	0xbdcc107c	-0.09964082
133	0x3e0eec48	0.13957322
134	0xbd83b009	-0.064300604
135	0x3e58b020	0.21160936
136	0xbe332580	-0.17494774
137	0x3c7dad40	0.015483201
138	0xbddb46f5	-0.10706893
139	0xbd8a51cc	-0.06753883
140	0x3e529ae0	0.20566893
141	0x3e77b330	0.24189448
142	0x3e0bcc04	0.13652045
143	0xbe3f1da8	-0.18663657
144	0xbdb597f5	-0.08866874
145	0xbe219473	-0.15779285
146	0x3dd7036c	0.104986995
147	0xbe3d6dce	-0.18498918
148	0xbd7e02f8	-0.06201455
149	0xbe1c6a1f	-0.15274857
150	0xbdf45603	-0.11930468
151	0x3dc5a360	0.09650302
152	0x3cedd7a0	0.029033482
153	0xbe0d5a8a	-0.13804069
154	0x3e90d8c9	0.28290394
155	0x3a200e00	0.0006105602
156	0x3d7fc430	0.06244296
157	0x3d6f5ce0	0.058438182
158	0x3e13a2f2	0.14417627
159	0x3e1049f8	0.14090717
160	0x3a6bf1c2	0.00090005633
161	0x3e77f7b5	0.24215586
162	0xbe35817c	-0.17725176
163	0xbd4f9858	-0.050682396
164	0x3cdf19f0	0.027234048
165	0xbdf18566	-0.11793022
166	0xbc813e71	-0.015776845
167	0x3e734206	0.23755655
168	0xbd7ff048	-0.06248501
169	0xbe14c7f0	-0.14529395
170	0x3e6199a0	0.2203126
171	0x3d9400dc	0.072267264
172	0x3db4b0e4	0.08822802
173	0xba992c00	-0.0011686087
174	0xbe30bd9c	-0.1725983
175	0x3e786658	0.24257791
176	0x3e82367f	0.25432202
177	0xbe04446e	-0.12916729
178	0x3e30aee2	0.17254212
179	0xbced2390	-0.028947622
180	0x3cfe0380	0.031007528
181	0x3e24f045	0.1610728
182	0x3e250832	0.16116408
183	0xbd78cea8	-0.060743958
184	0x3e17cfbe	0.14825341
185	0xbe267978	-0.16257274
186	0x3e03f1da	0.12885228
187	0xbe2ea470	-0.17054915
188	0xbe1fdcbc	-0.15611547
189	0xbe42292a	-0.18961015
190	0x3e6eaa36	0.23307118
191	0xbe6a01e4	-0.22852284
192	0x3e808b97	0.251065
193	0xbdc6a9f7	-0.09700387
194	0x3d859e20	0.065243006
195	0x3e4066b0	0.18789172
196	0xbd8ae11c	-0.067812175
197	0xbcbd2841	-0.023090484
198	0xbc970124	-0.018433161
199	0x3e268d6a	0.16264883
200	0xbe0b3e8c	-0.13598078
201	0xbe0612d0	-0.13093114
202	0xbd70007b	-0.05859421
203	0x3d569770	0.052390516
204	0x3e74affe	0.2389526
205	0xbdfff5f4	-0.12498084
206	0x3dcfdc44	0.10149434
207	0x3e186e1e	0.14885756
208	0x3d8fb081	0.07016087
209	0x3dd3b7eb	0.10337814
210	0xbe4782cc	-0.19483489
211	0xbe1b44da	-0.15162984
212	0xbb987080	-0.004652083
213	0x3da019ef	0.078174464
214	0x3d03dee2	0.03219498
215	0xbb231700	-0.0024885535
216	0x3e1f7412	0.15571621
217	0x3d0460a0	0.03231871
218	0xbe7bb401	-0.24580385
219	0xbe50d282	-0.20392802
220	0x3e55b864	0.2087112
221	0xbd5932b0	-0.053026855
222	0x3cfc5550	0.030802399
223	0xbdbd8dcc	-0.09255561
224	0xbd287688	-0.041128665
225	0x3da6939b	0.08133622
226	0xbda06c4c	-0.07833156
227	0x3d98fec4	0.07470468
228	0x3bf16440	0.007366687
229	0x3e90eaa0	0.28304005
230	0xbe3b9c91	-0.18321444
231	0xbe5ffdbe	-0.21874139
232	0x3df7bdc0	0.12096739
233	0xbdfaf120	-0.12253022
234	0x3e1d8711	0.15383555
235	0xbe6960b2	-0.22790793
236	0x3ded1500	0.11576271
237	0x3ded4c18	0.11586779
238	0xbe1cb28e	-0.15302488
239	0x3e2da1ee	0.16956303
240	0xbe03277d	-0.12808032
241	0xbd9cfd02	-0.07665445
242	0x3d4faae0	0.05070007
243	0x3c3c6680	0.011499047
244	0xbde7867c	-0.11304948
245	0x3d98b128	0.07455665
246	0xbe02d845	-0.12777813
247	0xbd002b90	-0.031291544
248	0xbd665d28	-0.056241184
249	0xbe697b04	-0.22800833
250	0xbdab39dd	-0.08360646
251	0xbe03c5a8	-0.12868369
252	0xbe005ca4	-0.1253534
253	0x3e4ff264	0.20307308
254	0xbe0a466c	-0.13503426
255	0xbe3a7cf6	-0.18211731

linear.1.bias f4 [64]
0	0x3e87a16e	0.2649035
1	0xbd0325a0	-0.032018304
2	0xbe016e87	-0.12639819
3	0x3c257251	0.010098056
4	0xbdb587a5	-0.08863763
5	0xbe61a48f	-0.2203543
6	0x3e932786	0.2874109
7	0x3da92960	0.08259845
8	0x3e562429	0.20912232
9	0x3dd31c75	0.10308162
10	0xbddde08a	-0.10833843
11	0xbda7370c	-0.08164796
12	0xbd503be9	-0.050838385
13	0xbdda9a0d	-0.10673914
14	0x3e7a719d	0.24457403
15	0x3e99316a	0.29920512
16	0xbd50e364	-0.050998107
17	0xbe7cd00f	-0.24688743
18	0xbe2803cc	-0.16407698
19	0x3e0bc185	0.1364804
20	0x3e0788ee	0.13235828
21	0xbd7908aa	-0.06079928
22	0x3bfd1092	0.0077229226
23	0xbe912195	-0.28345934
24	0xbe1b5d86	-0.15172395
25	0xbe97a788	-0.29620004
26	0xbdd67e70	-0.10473335
27	0xbcf1a8ca	-0.02949943
28	0xbc1b6b70	-0.009486064
29	0xbdd73995	-0.1050903
30	0xbdcf8ddb	-0.10134479
31	0xbe318508	-0.17335904
32	0x3d6313aa	0.055438675
33	0x3e0d2d8d	0.13786907
34	0xbd542388	-0.051791698
35	0x3e7dfd99	0.24803771
36	0xbe8fd9ed	-0.28095952
37	0xbe76ad89	-0.24089636
38	0x3da68a2b	0.08131822
39	0xbe5197e2	-0.20468095
40	0xbd4278aa	-0.047478355
41	0x3cc377fe	0.023860928
42	0x3e133187	0.14374362
43	0x3dc56d09	0.096399374
44	0x3e96c853	0.2944971
45	0xbe524bb1	-0.20536686
46	0x3be8e9d3	0.007107952
47	0xbcae3e9e	-0.021270093
48	0x3e051574	0.12996465
49	0x3dda8ca5	0.10671357
50	0xbdbc8cce	-0.09206544
51	0xbe0969f9	-0.13419332
52	0xbc48ba88	-0.012251504
53	0x3d4a57ee	0.049400263
54	0x3d023f18	0.031798452
55	0x3e89df87	0.2692835
56	0x3dcc9733	0.099897765
57	0x3d2aae13	0.041669916
58	0x3d54a6a5	0.051916737
59	0x3d49c7a1	0.049262647
60	0x3d495b8e	0.04915958
61	0xbd9bde2d	-0.07610736
62	0xbd207f9f	-0.03918421
63	0xbe0ec16d	-0.13940974

linear.2.weight f4 [128, 64]
0	0xbd36ac65	-0.044598002
1	0x3df069d7	0.11738937
2	0x3e253a56	0.16135535
3	0x3c335a9b	0.010946895
4	0xbd4af3b2	-0.049548812
5	0xbd841fe7	-0.064513974
6	0xbd542644	-0.051794305
7	0x3ddcbb9e	0.10777973
8	0x3da7fb61	0.082022436
9	0xbc9cd3e4	-0.019144006
10	0x3e10e719	0.14150657
11	0x3bb3c682	0.0054863105
12	0x3d92544d	0.07144985
13	0xbd8ca15f	-0.068667166
14	0x3df3a903	0.11897471
15	0x3d0d9e83	0.034574997
16	0x3e28aab7	0.16471373
17	0xbe03c105	-0.128666
18	0x3e089ba1	0.13340618
19	0x3c6fcac4	0.014635745
20	0x3d7330fd	0.05937289
21	0x3e2593d7	0.16169678
22	0xbe08494a	-0.13309208
23	0x3ca8030d	0.020509267
24	0xbd37f7d0	-0.044914067
25	0x3caa9711	0.020823987
26	0xbd30f8ba	-0.043205954
27	0x3ddf4ac9	0.10902936
28	0xbd2f13ba	-0.042743422
29	0xbd5d3080	-0.05400133
30	0x3d9f935c	0.077917784
31	0x3dae99ba	0.08525415
32	0x3d40b7a6	0.04705014
33	0x3e103f25	0.14086588
34	0xbde4eec7	-0.11178356
35	0xbdf2f6fd	-0.118635155
36	0xbe0d0678	-0.13771999
37	0xbd532d5b	-0.051556926
38	0xbd1063db	-0.03525148
39	0xbd8d4a6b	-0.0689896
40	0xbdb2e8dc	-0.08735821
41	0xbb41d783	-0.0029577918
42	0xbe0d3250	-0.13788724
43	0x3b512799	0.0031914471
44	0x3b7c4d81	0.0038498344
45	0x3d14055b	0.03613792
46	0xbd7aaacb	-0.061198037
47	0x3c1e7ff2	0.009674059
48	0x3cf9db38	0.03050004
49	0x3db25b0d	0.08708773
50	0xbdffe610	-0.12495053
51	0x3e30e0ca	0.1727325
52	0x3d30bb60	0.043147445
53	0x3d9e16dc	0.07719204
54	0xbdd774d9	-0.10520334
55	0x3e251e91	0.16124941
56	0xbd5f4727	-0.054511216
57	0x3de8a516	0.11359613
58	0x3d276412	0.04086692
59	0xbbe98608	-0.0071265735
60	0xbc2a9905	-0.010412459
61	0xbc6916fc	-0.014226671
62	0xbdcd166d	-0.10014043
63	0xbd9e2033	-0.07720985
64	0x3caf7e80	0.021422625
65	0xbd6ad188	-0.05732873
66	0xbc379cde	-0.011206834
67	0x3c947825	0.018123696
68	0xbb12bb12	-0.0022389335
69	0x3d22361e	0.03960239
70	0xbd5c901f	-0.053848382
71	0x3cf4f76c	0.029903136
72	0x3dac8331	0.0842346
73	0x3df6268e	0.120190725
74	0xbcaccaff	-0.02109289
75	0xbdf9c3f4	-0.12195578
76	0x3defd19a	0.117099
77	0xbdd38613	-0.10328307
78	0x3ce85818	0.028362319
79	0xbdc636b3	-0.09678402
80	0xbd8dfa6b	-0.06932529
81	0x3df406a8	0.11915332
82	0x3d1715e8	0.036886126
83	0x3d0c472a	0.034247555
84	0x3d5922ce	0.053011708
85	0x3df528f9	0.119707055
86	0xbbd13652	-0.0063846493
87	0x3b2d1900	0.0026412606
88	0x3d226dff	0.03965568
89	0x3e16b809	0.14718641
90	0x3cf8e85d	0.030384237
91	0xbdd795d4	-0.10526624
92	0xbd5e771b	-0.054312807
93	0xbe1d3e1a	-0.15355721
94	0xbd850205	-0.06494526
95	0x3e09703d	0.13421722
96	0xbd56e1be	-0.05246138
97	0x3db4ccf1	0.08828152
98	0xbcb7a2fa	-0.02241658
99	0x3db55d97	0.088557415
100	0xbe1b7e71	-0.15184952
101	0x3df658b4	0.120286375
102	0xbbef0244	-0.0072939713
103	0x3d745ccf	0.05965882
104	0x3d04ef28	0.03245464
105	0xbc1fd28d	-0.009754789
106	0x3c5176b8	0.012784652
107	0x3cf0b5dd	0.029383594
108	0xbda13db1	-0.07873095
109	0xbe1757f3	-0.14779644
110	0x3d09761d	0.033559907
111	0xbbef858c	-0.007309621
112	0x3cdef15a	0.027214695
113	0x3c8b5e42	0.017012719
114	0x3e03bc6d	0.12864847
115	0x3d71fc08	0.059078246
116	0xbcfe1487	-0.031015648
117	0xbc02bddf	-0.007979839
118	0x3ccb8a59	0.024846243
119	0x3cbe1448	0.02320303
120	0x3d8d5c54	0.06902376
121	0x3d0c10aa	0.03419558
122	0xbb4d34c0	-0.003131196
123	0x3bb44697	0.005501579
124	0x3db0c646	0.08631568
125	0xbdc35cd7	-0.09539192
126	0xbdc4c67c	-0.096081704
127	0xbcd67ed5	-0.026183525
128	0xbdb0a5d5	-0.0862538
129	0xbd1c334b	-0.038134854
130	0x3c8d2cfe	0.017233368
131	0x3b36a582	0.0027869646
132	0xbc5cda78	-0.013479821
133	0x3d7c19b8	0.061547965
134	0x3ddb7ebd	0.10717533
135	0x3df1e783	0.118117355
136	0xbd34bfd5	-0.044128258
137	0x3e1f3cc2	0.15550521
138	0x3ca3767e	0.019953962
139	0xbd8a3552	-0.06748451
140	0x3dbe269c	0.09284708
141	0xbcceec84	-0.025259264
142	0x3a0e2a9c	0.00054232194
143	0x3d2e5e2b	0.042570274
144	0x3db6fbec	0.08934769
145	0x3c9f0fbf	0.019416688
146	0x3d597298	0.0530878
147	0xbd3bfa79	-0.045893166
148	0xbd8f21ad	-0.06988845
149	0x3e3e3f55	0.18578847
150	0x3c34393a	0.010999972
151	0xbe3c3879	-0.18380918
152	0x3d5c2125	0.053742547
153	0x3ceac52c	0.028658472
154	0xba28f302	-0.00064449024
155	0x3caa81fb	0.020813933
156	0x3e30bce6	0.17259559
157	0xbd6d37d6	-0.057914577
158	0xbc76c109	-0.015060672
159	0x3cb1237d	0.021623367
160	0xbd76b450	-0.060230553
161	0x3df88321	0.12134386
162	0xbcf2c1db	-0.029633453
163	0x3de119aa	0.10991223
164	0xbd847590	-0.06467736
165	0x3d3b6668	0.04575196
166	0xbd8cda1d	-0.06877539
167	0x3cd9d39f	0.026590167
168	0x3dba0c63	0.09084394
169	0x3cdaa847	0.026691569
170	0xbe31e7f1	-0.17373635
171	0x3c4cbc26	0.01249603
172	0x3dac2698	0.08405799
173	0x3da5514d	0.080721475
174	0x3c5f1d2e	0.013617797
175	0xbe089944	-0.13339716
176	0x3d486101	0.048920635
177	0x3dc03973	0.093859576
178	0xbdb13aec	-0.086538166
179	0x3dfe7c74	0.12426081
180	0x3d567a07	0.052362468
181	0x3da973bc	0.08274028
182	0xbdcc20bc	-0.09967181
183	0x3d27e496	0.04098948
184	0xbd65e927	-0.056130555
185	0x3e01b0e5	0.12665136
186	0xbcdef81d	-0.027217919
187	0xbaa7459d	-0.0012761835
188	0xbe129397	-0.14314114
189	0x3cbab5fe	0.022791859
190	0xbd9447ea	-0.07240279
191	0x3d57180c	0.052513167
192	0x3df8adbc	0.12142512
193	0xbde8e54b	-0.11371859
194	0xbe1b018f	-0.15137313
195	0x3d836a85	0.06416801
196	0x3d2e4b1e	0.042552106
197	0x3dd62fdd	0.10458348
198	0x3d734d48	0.059399873
199	0xbe05ffaa	-0.1308581
200	0xbcfcbd92	-0.030852113
201	0x3cd94d3f	0.026526092
202	0x3c635251	0.013874606
203	0xbdb3b40e	-0.08774577
204	0x3dca6052	0.09881653
205	0xbcc07495	-0.02349309
206	0x3df64a99	0.12025947
207	0x3c2b98e9	0.010473468
208	0xbd6b030c	-0.057375953
209	0x3dfb0a3c	0.122578114
210	0x3a5eaade	0.0008494089
211	0xbb9aa1bd	-0.0047189877
212	0x3df96f08	0.12179381
213	0xbd840583	-0.06446364
214	0x3dc6614c	0.09686527
215	0xbd3d0c45	-0.04615428
216	0x3d33c54e	0.043889336
217	0x3ded42d6	0.115850136
218	0x3d2c8430	0.04211825
219	0xbe03bc21	-0.12864734
220	0x3d809237	0.06277888
221	0xbcd58d89	-0.026068466
222	0x3e10d31e	0.14143035
223	0xbd336676	-0.043798886
224	0xbda0556b	-0.07828792
225	0x3e1f365a	0.15548077
226	0xbb238ccc	-0.0024955748
227	0xbcc81943	-0.024426108
228	0xbd8f1d6c	-0.06988034
229	0x3e0f32b3	0.13984184
230	0x3da61e00	0.08111191
231	0xbd57f711	-0.052725855
232	0xbd1114c2	-0.035420187
233	0xbd7a8e5c	-0.06117092
234	0xbe036efe	-0.12835309
235	0x3c722c1f	0.014781027
236	0x3d68183a	0.05666373
237	0xbd872c9f	-0.06600308
238	0xbd3b7511	-0.04576594
239	0x3db52458	0.08844823
240	0x3d8de3e7	0.069282345
241	0x3de1fe19	0.110347934
242	0xbca69b9e	-0.020337876
243	0x3c9db3f2	0.019250844
244	0xbdac083c	-0.08400008
245	0x3dd6b796	0.10484235
246	0xbc8a7f6f	-0.016906468
247	0xbd92daa7	-0.07170611
248	0x3daf8f87	0.085722975
249	0xbd6d4826	-0.057930134
250	0xbc6db587	-0.0145086115
251	0xbd5a3483	-0.053272735
252	0xbde82e56	-0.11336963
253	0xbdb386df	-0.08765959
254	0xbe1c0372	-0.1523569
255	0xbc4b88e2	-0.012422772

linear.2.bias f4 [128]
0	0xbda56fdd	-0.08077977
1	0x3cb68fca	0.02228536
2	0x3d927191	0.07150567
3	0xbd24c53a	-0.040227152
4	0x3d89e266	0.06732635
5	0xbd9160bb	-0.07098528
6	0xbe1f706f	-0.15570234
7	0xbd119c54	-0.035549477
8	0xbcb706c7	-0.022342099
9	0x3d692e65	0.05692901
10	0xbc8f6db0	-0.017508358
11	0x3d1a3f5e	0.037658088
12	0xbd3f7030	-0.04673785
13	0x3dd5d1c7	0.104404025
14	0x3d8bf464	0.06833723
15	0xbcbc8c3b	-0.023016086
16	0x3c096e06	0.008388048
17	0x3df0c62c	0.11756548
18	0xbe067556	-0.13130698
19	0x3dbee679	0.09321303
20	0xbd492087	-0.049103286
21	0xbbbf289d	-0.005833699
22	0xbe3b1d2f	-0.18272851
23	0x3cdf60ce	0.02726784
24	0xbdcf7400	-0.10129547
25	0x3cc2dc44	0.023786671
26	0xbd9ff288	-0.07809931
27	0xbd478e26	-0.048719548
28	0xbde440b3	-0.11145153
29	0x3b51d04e	0.0032015028
30	0xbd826bd6	-0.06368224
31	0xbdd2d402	-0.102943435
32	0x3d118081	0.03552294
33	0xbd8bba1e	-0.068226084
34	0x3c7b0f6a	0.015323499
35	0xbe4cd110	-0.20001626
36	0xbbb73058	-0.00559048
37	0xbd62be32	-0.055357166
38	0x3daedba9	0.085379906
39	0x3bed6ca6	0.007245618
40	0xbda79a9c	-0.08183786
41	0xbd55a940	-0.052163363
42	0xbe0da064	-0.13830715
43	0x3df25364	0.11832312
44	0x3cd91901	0.02650118
45	0xbb8a0ff9	-0.00421333
46	0xbe3d7bd5	-0.1850427
47	0x3d2188a1	0.03943694
48	0xbcb9aeb6	-0.022666316
49	0x3d8b10ec	0.06790337
50	0xbe0db3d2	-0.13838127
51	0xbe0b64f5	-0.13612731
52	0x3d8a9da5	0.067683496
53	0xbc03c8b2	-0.008043455
54	0xbc752236	-0.01496177
55	0xbe11f3fb	-0.14253227
56	0x3dae42e5	0.08508853
57	0x3d90bd04	0.07067302
58	0xbde3b4e8	-0.111184895
59	0x3c8c5dc8	0.017134562
60	0x3cb1ff8d	0.021728301
61	0xbe0cc0f5	-0.13745482
62	0x3ce38188	0.027771726
63	0xbd3bd718	-0.045859426
64	0x3d0b40d4	0.03399737
65	0xbd17ee7f	-0.037092682
66	0x3ce9a133	0.028519249
67	0x3d68b318	0.056811422
68	0xbda601e7	-0.081058316
69	0xbd76ea96	-0.060282312
70	0x3df8c11b	0.12146207
71	0xbe1c7aa2	-0.15281156
72	0xbd9c9efa	-0.0764751
73	0xbc862d01	-0.016378881
74	0xbca1594b	-0.019695899
75	0x3e0c4cb8	0.13701141
76	0x3baef4b6	0.0053392304
77	0xbde2929b	-0.11063119
78	0xbdd1ccb4	-0.10244122
79	0x3cafb804	0.02145005
80	0xbdd5ab27	-0.10433035
81	0x3d7cdb2c	0.061732456
82	0xbe318f62	-0.17339852
83	0xbe3083cc	-0.17237777
84	0x3bbeaebe	0.0058191707
85	0xbcb2e8fa	-0.021839608
86	0xbdadcc28	-0.08486205
87	0x3ddc4788	0.10755831
88	0xbd3776c0	-0.044790983
89	0x3d31ea85	0.043436546
90	0xbc4e6ba5	-0.012598907
91	0xbe035f97	-0.12829433
92	0xbd516f70	-0.051131666
93	0x3dc269f0	0.09492862
94	0xbdfa032d	-0.12207637
95	0x3bd1000f	0.006378181
96	0xbdbf705a	-0.09347601
97	0xbcf93431	-0.030420395
98	0xbd49e949	-0.049294744
99	0xbda18de9	-0.07888395
100	0x3d662396	0.05618628
101	0xbdb350de	-0.087556586
102	0x3d8101be	0.062991604
103	0xbdb734c7	-0.08945613
104	0xbcaafd9b	-0.020872882
105	0x3d05a5c8	0.032628804
106	0x3d31b7cd	0.043388177
107	0x3daf0595	0.085459866
108	0xbd628401	-0.05530167
109	0xbb9e41cf	-0.0048296223
110	0x3cef4265	0.029206464
111	0xbe238d51	-0.15971877
112	0xbc8c2d00	-0.017111301
113	0x3dd0a9f8	0.10188669
114	0xbd7cc1c2	-0.06170822
115	0xbdf4917f	-0.11941814
116	0xbe0e48dc	-0.13894981
117	0xbdf717d8	-0.12065095
118	0xbdaf5547	-0.08561187
119	0x3d6fad3e	0.058514826
120	0xbdc82f2b	-0.097746216
121	0x3d5e88a2	0.054329522
122	0xbdbff398	-0.09372634
123	0xbd046dcc	-0.032331273
124	0xbe206456	-0.15663275
125	0xbcbd05b4	-0.023074009
126	0xbd8f69f8	-0.07002634
127	0xbcd207b8	-0.025638446

linear.4.weight f4 [2, 128]
0	0x3c59bfe3	0.013290378
1	0x3cf57c2e	0.02996644
2	0x3ca958b7	0.020672185
3	0xbd669f18	-0.056304067
4	0xbbc4f0d2	-0.0060101533
5	0xbc6a3c9e	-0.014296679
6	0xbcc82627	-0.024432255
7	0xbd8a8ee0	-0.067655325
8	0x3d5a8b8b	0.053355735
9	0x3cdf717c	0.027275793
10	0xbcd59a0e	-0.026074436
11	0xbc1ed50f	-0.009694352
12	0x3d3b39ab	0.045709293
13	0x3dab331d	0.083593585
14	0x3d1f0fb7	0.038833346
15	0x3c1a8033	0.009429979
16	0xbc35a80d	-0.01108743
17	0x3dbf5464	0.09342268
18	0x3ce28fa0	0.027656376
19	0x3c5e0ddf	0.013553112
20	0xbce24c47	-0.027624262
21	0x3d1f718f	0.038926657
22	0xbdd24284	-0.10266593
23	0x3c9e8e52	0.019354973
24	0xbc312092	-0.010810988
25	0x3d019adf	0.031641837
26	0xbd1ba314	-0.03799732
27	0xbbb97be6	-0.005660522
28	0xbd1067db	-0.035255294
29	0xbc20d68a	-0.009816775
30	0x3d674118	0.056458563
31	0x3c7e01a9	0.0155033255
32	0x3deaa27a	0.11456771
33	0x3d8e4a48	0.06947762
34	0xbc4f7f08	-0.012664564
35	0x3d05f8de	0.03270804
36	0x3ced5db9	0.028975355
37	0xbbd62e63	-0.0065362914
38	0x3def7445	0.116920985
39	0x3ca16652	0.01970211
40	0xbd0bf6fa	-0.034171082
41	0xbd42a3a3	-0.047519337
42	0x3c92478d	0.017856384
43	0x3d82ad50	0.06380713
44	0x3bd9350f	0.0066286395
45	0x3d9f1f2b	0.07769617
46	0x3d337385	0.04381134
47	0xbc91be36	-0.017790895
48	0x3d8a24ba	0.06745286
49	0xbd86dec8	-0.06585461
50	0x3d5bbc37	0.053646293
51	0xbd48cd25	-0.049023766
52	0xbcdee9ca	-0.027211089
53	0xbc6ed644	-0.014577452
54	0xbce26710	-0.027637035
55	0x3c621b21	0.013800413
56	0x3d9ada2d	0.07561145
57	0x3db12d4a	0.08651216
58	0x3b2c4283	0.0026284761
59	0xbce79a57	-0.028271837
60	0x3db763a6	0.08954553
61	0x3cdcbfdf	0.02694696
62	0xbc7e17c7	-0.015508599
63	0xbca9119d	-0.020638281
64	0x3cf793c9	0.030221837
65	0xbd6a7da9	-0.057248745
66	0x3d57a080	0.0526433
67	0xbd0b6342	-0.034030207
68	0x3c99bf83	0.018768078
69	0x3ce47430	0.027887434
70	0x3d91d03d	0.071197964
71	0xbd83feb9	-0.06445069
72	0x3da59d19	0.080866046
73	0x3d2f1b70	0.042750776
74	0xbdbe244d	-0.092842676
75	0x3d293318	0.041308492
76	0x3d22ec15	0.039775927
77	0xbcba6e8c	-0.022757791
78	0x3d318635	0.04334088
79	0x3df7404d	0.12072811
80	0x3dfbbb73	0.122916125
81	0x3bfbc1ec	0.0076830294
82	0xbcb66a92	-0.022267614
83	0x3d6af7ea	0.057365336
84	0x3bc9bae9	0.0061563146
85	0xbae9f202	-0.0017848613
86	0xbc2d825f	-0.010590165
87	0x3e020586	0.1269742
88	0xbd821e31	-0.06353415
89	0x3db9cd2e	0.09072338
90	0xbd05ac51	-0.032635037
91	0x3d72b384	0.05925323
92	0x3cd861e9	0.026413875
93	0xbd531d95	-0.051541883
94	0x3d320b2e	0.043467693
95	0x3ac1a176	0.001477285
96	0x3c822cef	0.015890567
97	0x3c8d106d	0.017219746
98	0x3d825904	0.06364635
99	0xbd1a2aa0	-0.037638307
100	0x3d13f50d	0.03612237
101	0x3cc88d9b	0.024481585
102	0xbd08f57a	-0.03343723
103	0x3db34749	0.08753831
104	0xbd1eceda	-0.038771488
105	0x3bcf6cb1	0.0063300957
106	0xbdb620a4	-0.088929445
107	0x3d9a6a5e	0.07539819
108	0x3c9c5092	0.019081388
109	0x3b85ceb7	0.00408348
110	0xbd167070	-0.036728323
111	0xbdbf18e8	-0.09330922
112	0x3da95551	0.08268226
113	0x3e052665	0.13002928
114	0x3d77e45e	0.060520522
115	0xbc652fd9	-0.013988459
116	0x3dbd5c3f	0.0924611
117	0x3cf477ac	0.02984222
118	0x3dba5400	0.09098053
119	0x3d447eba	0.04797242
120	0x3d05881c	0.032600507
121	0x3c57351b	0.01313522
122	0xbbc84e66	-0.0061128614
123	0xb9ff4947	-0.00048691986
124	0xbd45c24a	-0.04828099
125	0x3c5b9260	0.013401598
126	0x3dbd0a0c	0.09230432
127	0x3d0a2f46	0.03373649
128	0xbd8ee452	-0.069771424
129	0xbb5348c6	-0.0032239421
130	0xbd34fb3a	-0.0441849
131	0xbc13d9ec	-0.009024125
132	0xbd6dd09d	-0.058060277
133	0x3d84fa44	0.06493047
134	0x3c3b2080	0.011421323
135	0x399c7e6d	0.00029848833
136	0x3cfab338	0.030603036
137	0x3d33fc55	0.043941814
138	0xbb80dd71	-0.003932648
139	0xbccf3486	-0.0252936
140	0x3c817dfe	0.015807148
141	0xbcbb2976	-0.022846919
142	0x3d5ff47f	0.05467653
143	0xbc292985	-0.01032484
144	0xbc06c7fc	-0.008226391
145	0xbc355053	-0.011066514
146	0x3d2ea91a	0.042641737
147	0xbdeb2752	-0.11482109
148	0x3d753ff1	0.059875432
149	0x3c3a6d68	0.011378624
150	0x3b737706	0.00371498
151	0xbd5a7ad8	-0.05333981
152	0x3c6ef750	0.014585331
153	0x3dcbbc1e	0.0994799
154	0xbcb465a0	-0.022021115
155	0xbcbdc5cc	-0.023165606
156	0x3d3545c1	0.044255976
157	0x3b56bb8e	0.00327656
158	0x3c1b25cb	0.00946946
159	0x3df94122	0.12170626
160	0x3c8f268c	0.017474435
161	0xbca74e14	-0.020422973
162	0xbdc0d864	-0.09416273
163	0x3cd003a1	0.025392355
164	0x3d93f99c	0.072253436
165	0xbbefc6af	-0.007317386
166	0xbc2990a2	-0.010349425
167	0x3dcfab73	0.10140123
168	0x3c6be51f	0.014397888
169	0xbcec0303	-0.02881003
170	0x3dad4931	0.08461226
171	0x3c3d3ccb	0.011550139
172	0x3d7310bb	0.059342127
173	0xbcb70138	-0.022339448
174	0x3c965e59	0.018355535
175	0xbe12606c	-0.14294595
176	0xbbc4616f	-0.0059930603
177	0xbbda9a96	-0.00667126
178	0x3d86cde1	0.06582237
179	0x3caf8b59	0.02142875
180	0x3c90cced	0.017675841
181	0xbc31ded3	-0.010856348
182	0xbdafe215	-0.085880436
183	0x3d205e9f	0.039152738
184	0x3adb9b4f	0.001675466
185	0xbbe64442	-0.00702718
186	0xbc99ba57	-0.018765612
187	0xbd9162b0	-0.07098901
188	0x3d82031e	0.06348251
189	0x3d221813	0.03957374
190	0xbd928d85	-0.07155899
191	0x3da0aa18	0.07844943
192	0x3ab147b8	0.0013525402
193	0xbc10283d	-0.008798656
194	0x3d828bc4	0.063743144
195	0xbda6dda9	-0.08147747
196	0xbda7f338	-0.08200687
197	0x3d38f541	0.045155767
198	0xbe1f449d	-0.15553518
199	0x3d0d81f2	0.034547754
200	0x3d5f6350	0.05453807
201	0x3b1324d2	0.0022452367
202	0xbd2c3a54	-0.042047814
203	0x3cf31baa	0.029676277
204	0x3d35dcbd	0.044399966
205	0xbe08d97b	-0.13364212
206	0xbccff103	-0.025383478
207	0xbdbbbf62	-0.09167363
208	0xbdaf49f3	-0.085590266
209	0xbdb8b18b	-0.09018239
210	0x3cb08b28	0.02155073
211	0xba7d2c68	-0.0009657801
212	0xbb4f00be	-0.0031586136
213	0xbd2da6ed	-0.04239552
214	0x3d0d48aa	0.034493126
215	0xbd8c9ade	-0.06865476
216	0xbc41e30a	-0.0118339155
217	0xbc05f66e	-0.008176429
218	0xbd78ed49	-0.060773168
219	0xbb4ac48e	-0.003093991
220	0x3c11a30a	0.008888969
221	0xbd874e59	-0.066067405
222	0x3ce2e213	0.027695691
223	0xbc309ca9	-0.010779538
224	0xbc868d35	-0.016424755
225	0xbc00d596	-0.007863423
226	0x3ce5d44b	0.02805533
227	0xbd7abbe6	-0.06121435
228	0xbcb3fc94	-0.021971025
229	0xbd48c19a	-0.049012758
230	0xbdfd1a56	-0.12358539
231	0xbd703c26	-0.058651112
232	0x3c4d00e7	0.012512422
233	0x3cf3d0f9	0.029762732
234	0x3caab558	0.020838425
235	0xbdac3bc8	-0.0840984
236	0x3d9f9f99	0.07794113
237	0x3bf483ef	0.007462017
238	0x3d0d21aa	0.034455933
239	0xbc7343a0	-0.014847666
240	0x3a72cb55	0.0009261866
241	0xbd5782dd	-0.052615035
242	0x3c47e107	0.012199647
243	0x3d96e0be	0.07367085
244	0xbcd3b0a7	-0.02584107
245	0x3cd3aaf4	0.025838353
246	0x3b99bdcc	0.004691815
247	0x3d81d049	0.06338555
248	0x3d83a8a7	0.06428652
249	0xbd0e28e4	-0.034706965
250	0xbc23e297	-0.010002754
251	0xbdc9da01	-0.09856034
252	0xbd2a5923	-0.041588914
253	0x3c45196a	0.012029985
254	0xbd345ee5	-0.04403581
255	0x3b270256	0.002548357

linear.4.bias f4 [2]
0	0x3e0727e8	0.13198817
1	0xbc3cef40	-0.011531651
