meta/demos/multiple_experiments/results/models/run_0/emodb_mlp_os_16-64-128_C_val-001_drop-3_learning_rate-01_0_005.model (torch, 48468 bytes, 8 tensors)

linear.0.weight f4 [16, 88]
0	0x3c549691	0.012975351
1	0xbd3aa756	-0.04556974
2	0x3d3b61d9	0.04574761
3	0x3c93b1ef	0.018029181
4	0xbe0f87d5	-0.1401666
5	0xbe1e9355	-0.1548589
6	0x3d03cd9a	0.0321785
7	0xbe1611fb	-0.14655297
8	0xbd8f08d8	-0.06984109
9	0xbe0058ec	-0.12533921
10	0xbbe5a095	-0.0070076683
11	0xbb9691f6	-0.0045950366
12	0xbdd4714e	-0.10373174
13	0xbe0bd7de	-0.13656566
14	0x3d2938fc	0.04131411
15	0xbdbd900e	-0.09255992
16	0xbda6b2d8	-0.081395805
17	0xbd2ea93d	-0.042641867
18	0xbd8e3659	-0.0694396
19	0x3cee9bf7	0.029127104
20	0xbda2dc7b	-0.079522096
21	0xbd3772a3	-0.04478706
22	0xbd2e5b39	-0.042567465
23	0xbe1643f9	-0.14674367
24	0x3d50ea33	0.0510046
25	0x3e3c2fd6	0.18377623
26	0xbe22a698	-0.15883863
27	0x3d77b545	0.060475606
28	0x3db04a41	0.08607913
29	0x3e652a3c	0.22379392
30	0xbbbb675b	-0.005719108
31	0xbd9585eb	-0.073009335
32	0xbd373017	-0.044723596
33	0xbd925358	-0.07144803
34	0xbd63d7b3	-0.05562563
35	0xbdbafc7c	-0.09130189
36	0xbe1909e4	-0.14945179
37	0xbd99a212	-0.075016156
38	0x3d53f93c	0.05175136
39	0x3d06ab4b	0.0328782
40	0xbcd23c55	-0.025663534
41	0xbe137c35	-0.1440285
42	0xbd343cdf	-0.044003364
43	0xbd531322	-0.05153192
44	0x3dd6a072	0.10479821
45	0x3df9e68d	0.12202177
46	0x3cf9a6a1	0.030474963
47	0x3ceff4b6	0.029291492
48	0xbd807ef3	-0.06274214
49	0xbe190d13	-0.14946394
50	0x3e1cb807	0.15304576
51	0x3dfcf70f	0.1235181
52	0xbdd61819	-0.10453815
53	0xbdc255b4	-0.09489003
54	0x3b9b1d41	0.004733712
55	0xbd9115a2	-0.07084204
56	0x3ce3a1d7	0.027787132
57	0xbcaf6705	-0.021411428
58	0x3d837070	0.0641793
59	0x3e200429	0.15626587
60	0xbe2286be	-0.15871713
61	0xbdc2312d	-0.09482036
62	0xbd87d7c2	-0.066329494
63	0x3c2c9380	0.010533214
64	0x3d8c242e	0.06842838
65	0xbd559677	-0.052145448
66	0xbb15fdd1	-0.0022886882
67	0x3d28061e	0.04102146
68	0xbe0be48b	-0.13661401
69	0xbe07751e	-0.1322827
70	0x3df88853	0.12135377
71	0xbe23705f	-0.15960835
72	0xbe094c0e	-0.13407919
73	0x3e3374a0	0.17524958
74	0x3e1e9153	0.15485124
75	0x3c4f8d1d	0.012667921
76	0x3e015a88	0.12632191
77	0xbafe0527	-0.0019380198
78	0xbe127c9b	-0.14305346
79	0xbca78aed	-0.020451987
80	0x3c3fd047	0.011707372
81	0xbdbeff9c	-0.09326097
82	0x3c70fe91	0.014709131
83	0x3b70625f	0.0036679727
84	0x3c7e0fa4	0.015506659
85	0xbdd41475	-0.10355464
86	0xbdcaf2fa	-0.09909625
87	0x3dd137b3	0.10215702
88	0xbd0927f6	-0.033485375
89	0x3d267f35	0.040648658
90	0x3d1642cb	0.036684792
91	0xbdd4fac1	-0.1039939
92	0xbc96d1b8	-0.018410549
93	0xbbef9d42	-0.0073124478
94	0xbcd6e5cf	-0.026232628
95	0x3cd0a15d	0.025467569
96	0xbd246f30	-0.0401451
97	0xbd8d16a0	-0.06889081
98	0xbd1f9e8e	-0.03896957
99	0xbd3e0f5d	-0.04640137
100	0xbdbad687	-0.09122949
101	0x3bc89f6a	0.0061225193
102	0xbdd09966	-0.101855084
103	0xbd24f08c	-0.040268466
104	0xbcfb8d70	-0.030707091
105	0x3b24ab8a	0.002512666
106	0x3d6d6222	0.057954915
107	0x3d93dec8	0.072202265
108	0xbc8b864a	-0.017031807
109	0x3c48d1f1	0.012257085
110	0x3dd681c0	0.104739666
111	0xbdb9806c	-0.09057698
112	0xbd576e45	-0.052595396
113	0x3dbeb187	0.093112044
114	0xbd83fa5d	-0.064442374
115	0x3dd1b956	0.10240428
116	0x3dd85045	0.10562185
117	0x3d9d8dac	0.076930374
118	0x3dad5a2d	0.08464465
119	0xbd8b362c	-0.06797442
120	0x3db965ac	0.090525955
121	0xbdda4e16	-0.10659425
122	0x3cc0b31a	0.023522902
123	0xbdb18f2e	-0.086698875
124	0xbd55f093	-0.052231383
125	0x3cda4e4e	0.026648667
126	0x3cd23cca	0.025663752
127	0xbd584ed9	-0.05280957
128	0xbc5f5862	-0.013631912
129	0x3dc63266	0.096775815
130	0xbdd8191e	-0.10551666
131	0xbcd91a71	-0.026501866
132	0x3d73f169	0.0595564
133	0xbd9e7a06	-0.07738118
134	0xbd52c37e	-0.051455967
135	0x3dca45fc	0.0987663
136	0xbc67c23e	-0.014145432
137	0xbb81a46c	-0.003956368
138	0x3ca94bec	0.020666085
139	0x3d3b3948	0.045708925
140	0xbd7b1686	-0.061300777
141	0x3db7e116	0.089784786
142	0x3c8c6745	0.017139086
143	0xbd2aabd9	-0.041667793
144	0xbd8e964f	-0.06962263
145	0x3dcf6f29	0.10128624
146	0xbd9fef59	-0.07809324
147	0xbd3c4aec	-0.04596989
148	0x3c6d3e7d	0.01448023
149	0xbd74f18b	-0.059800666
150	0xbc2f75a9	-0.010709205
151	0xbda91e1e	-0.082576975
152	0x3c8a04e7	0.01684804
153	0xbdd051de	-0.10171865
154	0xbdd75313	-0.10513892
155	0xbd11d767	-0.035605814
156	0x3b4ed6be	0.0031561102
157	0xbda84728	-0.08216697
158	0xbd85285b	-0.06501838
159	0xbd20c5fc	-0.039251313
160	0xbd861142	-0.065462604
161	0x3db8cb59	0.090231605
162	0xbd9da520	-0.07697511
163	0x3c669031	0.014072464
164	0x3da2d1f7	0.07950204
165	0xbbccc416	-0.006248961
166	0xbc8a84d3	-0.016909039
167	0x3d9cc915	0.07655541
168	0x3d6c595a	0.0577024
169	0xbd8a6b27	-0.06758719
170	0xbda400e8	-0.08007985
171	0xbc8643f4	-0.016389824
172	0x3d2e1c7d	0.042507637
173	0xbd699b4f	-0.05703288
174	0xbdc2dbaa	-0.09514554
175	0x3d5e0dae	0.054212265
176	0x3bc3fac1	0.00598082
177	0x3d1b410d	0.037903834
178	0xbd4e2367	-0.05032673
179	0xbcfb9396	-0.030710023
180	0x3d74568c	0.05965285
181	0xbd3064ce	-0.043064885
182	0x3defc12d	0.11706767
183	0x3d4ffbe4	0.05077733
184	0xb72e28fc	-1.0380751e-05
185	0xbe0e9385	-0.13923462
186	0x3b7d55d5	0.0038655896
187	0xbe11ee92	-0.14251164
188	0x3cb299f6	0.02180193
189	0xbc5d637d	-0.013512489
190	0xbcaa3a87	-0.020779861
191	0xbdd58e9a	-0.1042759
192	0x3d63ea31	0.055643264
193	0xbe13584a	-0.14389148
194	0xbd2bbd46	-0.041928552
195	0xbdd3aa09	-0.10335166
196	0x3c5ad779	0.013357037
197	0xbdf65f13	-0.12029853
198	0xbde75070	-0.11294639
199	0xbdb6dd10	-0.08928883
200	0xbb67f6d1	-0.0035394917
201	0xbd96eda4	-0.07369545
202	0x3b6a1cc0	0.0035722703
203	0x3daa6c77	0.08321469
204	0x3d8781e8	0.066165745
205	0xbc201a06	-0.0097718295
206	0xbd1982b3	-0.03747816
207	0xbdf71b48	-0.1206575
208	0xbcaf43ab	-0.021394571
209	0x3d6a8c60	0.05726278
210	0xbe0f1526	-0.13972911
211	0xbdd58047	-0.104248576
212	0xbda04bea	-0.078269795
213	0x3c9b87d1	0.01898566
214	0xbe05aeef	-0.13055013
215	0xbde54d90	-0.111964345
216	0x3d0f8eb7	0.035048213
217	0x3d13d922	0.036095746
218	0xbe048965	-0.12943037
219	0xbc29a23a	-0.010353619
220	0x3c354ae3	0.011065218
221	0xbcf4e448	-0.02989401
222	0x3ce3c464	0.027803607
223	0x3bc97036	0.00614741
224	0x3ccfb4d2	0.025354777
225	0x3d3bd8bd	0.045860995
226	0x3e1c1f75	0.15246375
227	0x3d012958	0.03153357
228	0xbbbe5b52	-0.005809226
229	0x3d0d7961	0.034539584
230	0xbdc2b0a4	-0.09506348
231	0xbda3ac5f	-0.079918616
232	0x3ddaaf3f	0.10677957
233	0x3d40909c	0.04701291
234	0x3d8d5735	0.06901399
235	0xbcf0d48c	-0.029398225
236	0xbdb712dd	-0.08939145
237	0xbe06174b	-0.13094823
238	0x3d165000	0.036697388
239	0xbe0f3224	-0.13983971
240	0x3dee483a	0.1163487
241	0xbd379089	-0.044815574
242	0xbd935937	-0.07194751
243	0xbcd9c04c	-0.026580952
244	0xbd9697cb	-0.07353171
245	0xbd11ec46	-0.03562572
246	0xbdbaf360	-0.09128451
247	0x3d6d4bc4	0.057933584
248	0xbe1a8d38	-0.15092933
249	0xbd48eeed	-0.049055982
250	0x3d4d62f7	0.05014321
251	0x3cee6463	0.029100602
252	0xbb8c187e	-0.0042753806
253	0xbda2eff7	-0.07955926
254	0x3d069092	0.032852717
255	0xbe0dde89	-0.13854422

linear.0.bias f4 [16]
0	0xbe0316e6	-0.12801704
1	0x3d185dd8	0.03719887
2	0x3d5a7898	0.053337663
3	0xbe0714b2	-0.13191488
4	0x3c50ab65	0.012736176
5	0xbd170e21	-0.03687871
6	0xbdb82965	-0.089922704
7	0xbd329e30	-0.04360789
8	0xbc615e8f	-0.013755455
9	0x3d7dac8d	0.061932135
10	0xbda9da3f	-0.0829358
11	0xbe10af98	-0.14129484
12	0xbd3ba614	-0.04581268
13	0xbdb0a1aa	-0.08624585
14	0xbc552313	-0.013008851
15	0xbd8c0ffc	-0.06838986

linear.1.weight f4 [64, 16]
0	0xbdf97973	-0.12181368
1	0xbe37c0b4	-0.17944604
2	0x3e1719bf	0.14755915
3	0x3e0e7cf9	0.13914861
4	0x3e097de4	0.1342693
5	0xbdec72f5	-0.11545364
6	0x3e3fcb71	0.1872995
7	0xbeaf3c8a	-0.34225875
8	0x3d968bfa	0.07350917
9	0x3e16b560	0.14717627
10	0x3d862e7c	0.06551835
11	0xbe8ebd25	-0.2787868
12	0xbdad436e	-0.08460127
13	0x3debe51f	0.11518311
14	0xbc6e8220	-0.014557391
15	0xbe550aab	-0.20804851
16	0x3e5ac3f6	0.21363816
17	0x3dd57b80	0.104239464
18	0xbe21b049	-0.15789904
19	0xbd4fa1cf	-0.050691422
20	0x3ce7a49e	0.028276738
21	0x3de263a5	0.11054162
22	0x3e22e4ad	0.15907545
23	0x3e3800d8	0.17969072
24	0x3e171394	0.14753562
25	0xbe5462fa	-0.20740882
26	0xbd6f9a38	-0.058496684
27	0x3e25d561	0.16194679
28	0x3dec9567	0.11551934
29	0x3e5986ee	0.21242878
30	0xbe392897	-0.1808189
31	0xbe2b3369	-0.1671883
32	0xbe201c7c	-0.15635866
33	0xbd012270	-0.031526983
34	0x3e407d98	0.1879791
35	0x3d07ea70	0.03318256
36	0x3df9faa3	0.12206008
37	0xbcc417d1	-0.023937138
38	0x3dba68a1	0.09101988
39	0xbe61b56a	-0.2204186
40	0xbe4a366b	-0.19747321
41	0x3e7d5b74	0.24741918
42	0x3e52b918	0.2057842
43	0xbe0f027e	-0.13965794
44	0x3dd7ea76	0.10542767
45	0xbbae4a9b	-0.0053189523
46	0xbe87ff3d	-0.2656192
47	0xbd9043eb	-0.07044204
48	0xbdd149bb	-0.10219141
49	0xbc730dc0	-0.014834821
50	0xbd19dbbf	-0.03756308
51	0x3e27e63d	0.16396423
52	0x3dfdc42c	0.123909324
53	0xbe452dca	-0.19255748
54	0x3e3a1c88	0.18174946
55	0xbe82ae08	-0.255234
56	0x3be4a44a	0.0069775926
57	0x3c98deb0	0.018660873
58	0x3d556240	0.05209565
59	0xbdfef92e	-0.12449871
60	0x3e472748	0.19448578
61	0x3d505d44	0.050870195
62	0x3e30c456	0.17262396
63	0xbe15a813	-0.14614896
64	0xbccb2867	-0.024799539
65	0x3e3d1308	0.18464291
66	0xbe46bd45	-0.19408138
67	0xbcba4035	-0.022735694
68	0x3decfb77	0.115714006
69	0xbe919398	-0.28432918
70	0x3d04e388	0.032443553
71	0x3d1d8b3a	0.038462855
72	0xbc9c15af	-0.019053308
73	0x3e5e6480	0.21718025
74	0x3d9e5c90	0.07732499
75	0xbdd5bac4	-0.10436013
76	0xbdd48d1d	-0.10378478
77	0xbdce8696	-0.10084264
78	0x3dc94e68	0.09829408
79	0xbd72f747	-0.059317853
80	0xbdd3c0d6	-0.10339515
81	0xbe74b8f2	-0.23898676
82	0xbe211d59	-0.15733851
83	0x3db7a607	0.08967214
84	0x3d979e7b	0.074032746
85	0xbe16298b	-0.14664285
86	0xbcd1f426	-0.025629114
87	0x3d49c374	0.049258664
88	0x3d9e2490	0.077218175
89	0xbd99e5a0	-0.075145006
90	0x3db19f1c	0.08672926
91	0xbd2e2c48	-0.0425227
92	0x3dc0c679	0.09412856
93	0xbe8c03e6	-0.27346724
94	0xbc58c6c7	-0.013230986
95	0x3d6ec98d	0.058297683
96	0xbe540635	-0.20705493
97	0x3e7b563e	0.24544618
98	0x3e4a911a	0.19781914
99	0x3ea6e44d	0.32596055
100	0xbd06147f	-0.03273439
101	0xbcd0a7f2	-0.025470708
102	0xbddc7626	-0.107647225
103	0xbe2ccf22	-0.1687589
104	0x3aaf7f82	0.0013389441
105	0x3e10f8b4	0.14157373
106	0xbe209d6c	-0.15685052
107	0x3e186555	0.14882405
108	0x3e5227ca	0.20522991
109	0x3e72176b	0.23641746
110	0xbdcaf890	-0.09910691
111	0xbded2ac8	-0.115804255
112	0xbd8da7f1	-0.06916798
113	0xbe3e4aa4	-0.1858316
114	0xbc94b90e	-0.018154647
115	0x3e7b96b9	0.24569215
116	0x3e8f92b7	0.28041622
117	0xbe15444e	-0.14576837
118	0xbe3e9ca3	-0.1861444
119	0x3e9c6b0c	0.3055042
120	0xbddc5475	-0.107582964
121	0x3e3885a6	0.18019733
122	0x3e4362ae	0.19080612
123	0xbd8a105e	-0.06741403
124	0xbcf8af3f	-0.030357001
125	0x3ea5b448	0.32364106
126	0x3dc5411a	0.09631558
127	0x3e0bb769	0.13644184
128	0x3d92d1e7	0.07168942
129	0x3e129fb6	0.14318737
130	0x3e80ff80	0.2519493
131	0xbdba547a	-0.09098144
132	0xbdf2e21a	-0.11859532
133	0xbe458ef5	-0.19292815
134	0x3e0a924c	0.1353237
135	0xbdee589a	-0.11637993
136	0x3e152cea	0.14567915
137	0xbe6b9b9e	-0.23008582
138	0x3e717a6c	0.23581856
139	0x3e7fde2c	0.24987096
140	0xbbfc20e9	-0.007694353
141	0xbe094217	-0.13404118
142	0xbe3d095a	-0.18460599
143	0xbde6c3af	-0.112677924
144	0x3e16fe4d	0.14745446
145	0x3e13fbbe	0.14451501
146	0xbe199dda	-0.15001622
147	0x3e327be2	0.1743007
148	0xbc9382b3	-0.018006658
149	0xbe845ebb	-0.25853524
150	0xbdccce3f	-0.10000276
151	0xbe048e56	-0.12944922
152	0xbdc89bdd	-0.097953536
153	0x3d455418	0.0481759
154	0xbd99a61c	-0.07502386
155	0x3e2e18d6	0.17001662
156	0x3e268572	0.16261843
157	0xbdf00045	-0.117188014
158	0x3e410bd8	0.18852174
159	0xbd854115	-0.06506554
160	0xbe114994	-0.14188224
161	0xbc957a30	-0.01824674
162	0x3d8aba9b	0.067738734
163	0x3e7ebc89	0.24876608
164	0x3e93cf34	0.2886902
165	0xbdf654d6	-0.120279
166	0x3db6444a	0.08899744
167	0xbe1fa6e5	-0.15591009
168	0xbc494fb4	-0.012287069
169	0xbe00d82e	-0.12582466
170	0xbe72ead2	-0.2372239
171	0x3b605b68	0.003423417
172	0x3d8830b3	0.06649914
173	0xbe3a981a	-0.18222085
174	0xbe0cc492	-0.1374686
175	0xbc401698	-0.011724137
176	0x3cd973a6	0.026544403
177	0xbe515d2c	-0.20445698
178	0x3def0b30	0.11672056
179	0xbe271fb7	-0.16320692
180	0x3d43461d	0.047674287
181	0x3c3f3000	0.011669159
182	0xbe92e9a6	-0.28693885
183	0x3dd43462	0.10361554
184	0x3cb5370c	0.022120975
185	0x3dadb204	0.084812194
186	0xbe686a9e	-0.22696921
187	0x3d440929	0.0478603
188	0x3d8ca3d2	0.06867184
189	0xbe38546a	-0.18000951
190	0x3e3b1898	0.182711
191	0xbe654bdb	-0.22392218
192	0xbe7b6448	-0.24549973
193	0x3e107c12	0.14109829
194	0x3e8517c6	0.259947
195	0x3d023975	0.031793077
196	0x3e060222	0.13086751
197	0x3e1eefed	0.15521212
198	0xbe906ea8	-0.28209424
199	0xbe382459	-0.17982616
200	0x3e342b56	0.17594656
201	0x3e27f89e	0.16403434
202	0xbe22c0c2	-0.15893844
203	0x3c28573b	0.010274704
204	0x3de7860e	0.11304866
205	0xbe8885ec	-0.26664674
206	0xbdfdb00c	-0.12387094
207	0xbdad973e	-0.08476113
208	0x3e24a323	0.16077857
209	0xbe36d90c	-0.17856234
210	0x3d9084c5	0.07056574
211	0xbe4a3035	-0.19744952
212	0x3d7cf9f3	0.061761808
213	0xbcc258c1	-0.023723962
214	0xbe0b0686	-0.13576707
215	0x3e1f36f0	0.155483
216	0x3e029fbd	0.12756248
217	0x3e502b48	0.2032901
218	0xbdfb35fc	-0.12266156
219	0x3da530b8	0.08065933
220	0xbe5141b3	-0.20435219
221	0xbda6866b	-0.08131107
222	0x3e37e802	0.17959598
223	0x3de1b598	0.110209644
224	0x3eb306a7	0.34966013
225	0xbe14b330	-0.1452148
226	0xbd9ee6f4	-0.077588946
227	0xbda18eb6	-0.07888548
228	0xbe743684	-0.23848921
229	0xbcd6d983	-0.026226765
230	0xbcc5d479	-0.024149166
231	0x3d9dc87a	0.077042535
232	0x3e287b50	0.1645329
233	0x3e791a70	0.24326491
234	0x3df747d0	0.12074244
235	0x3e430e09	0.19048323
236	0x3e481bc5	0.19541843
237	0x3dab7890	0.08372605
238	0xbe0db9da	-0.13840428
239	0xbdb03717	-0.086042576
240	0xbded138a	-0.115759924
241	0x3c84f2b0	0.016229004
242	0x3e09d1bf	0.13458918
243	0x3e3db8ef	0.18527578
244	0x3cf7c2e7	0.030244304
245	0xbd3b723e	-0.045763247
246	0x3cd939a4	0.026516743
247	0x3ca67ca9	0.020323114
248	0x3dbfc8dd	0.093644835
249	0x3d8a8464	0.06763533
250	0xbd7d38b8	-0.06182167
251	0x3e434a11	0.19071223
252	0xbe91f870	-0.28509855
253	0xbc5ccdfd	-0.013476846
254	0x3bf32ec6	0.0074213473
255	0xbe14e59f	-0.14540718

linear.1.bias f4 [64]
0	0x3db9ce76	0.090725824
1	0xbe986c8d	-0.29770318
2	0x3d5424ea	0.051793016
3	0xbdea76a0	-0.11448407
4	0xbe2df001	-0.16986085
5	0x3eb0a4ff	0.34500882
6	0xbd9b5bd3	-0.075858735
7	0xbe679162	-0.22614053
8	0x3e821b21	0.25411323
9	0xbe265b96	-0.16245875
10	0xbd66ca32	-0.056345172
11	0xbe7320d6	-0.23742995
12	0x3c406783	0.011743429
13	0x3d417ea5	0.04723992
14	0x3c8dea89	0.01732375
15	0xbe330f73	-0.17486362
16	0xbe45a0dd	-0.19299646
17	0x3d1dca9a	0.038523294
18	0x3e884fdc	0.26623428
19	0xbbe523c6	-0.00699279
20	0x3ecc5392	0.3990751
21	0x3dc46e5b	0.09591361
22	0xbe17e39b	-0.14832918
23	0x3e0f38d4	0.13986522
24	0xbe925286	-0.28578585
25	0x3de28bf9	0.11061854
26	0xbeadf609	-0.33976772
27	0x3ccc494d	0.024937296
28	0xbd1945a5	-0.037419934
29	0x3e4e60c0	0.20154095
30	0x3df2d355	0.11856715
31	0x3e0c4ab9	0.1370038
32	0x3ded53ee	0.11588274
33	0x3e1f01ad	0.15527983
34	0xbe188d19	-0.14897574
35	0xbdcd1dcc	-0.10015449
36	0xbd94c412	-0.0726396
37	0x3e0a2531	0.1349075
38	0x3cc76373	0.024339413
39	0x3dc2876e	0.094984874
40	0x3e96344d	0.29336777
41	0x3c579ffa	0.0131607
42	0xbc179a70	-0.009253129
43	0xbde9e29c	-0.114201754
44	0xbe1ac22c	-0.15113133
45	0x3e07e87e	0.13272282
46	0x3e73a97e	0.23795125
47	0xbb3e8cda	-0.0029075653
48	0x3e0c844e	0.13722345
49	0xbe9110da	-0.2833317
50	0xbe182ce5	-0.14860876
51	0x3c80941a	0.01569562
52	0xbe615006	-0.22003183
53	0x3e7b3e45	0.24535473
54	0x3dd0a9ae	0.10188614
55	0xbe667917	-0.2250713
56	0xbd897657	-0.06712025
57	0xbe333f47	-0.17504607
58	0xbe73fd29	-0.23827042
59	0xbd1091cc	-0.035295293
60	0xbe60a8ad	-0.21939345
61	0xbddfc871	-0.10926903
62	0x3e5c96c1	0.21541883
63	0xbdc6dc59	-0.09709997

linear.2.weight f4 [128, 64]
0	0x3e1a8d5d	0.15092988
1	0x3d519cf6	0.05117508
2	0x3dc65f6d	0.0968617
3	0xbd830216	-0.06396882
4	0xbdfa534c	-0.12222919
5	0x3d046950	0.032326996
6	0xbd9af058	-0.07565373
7	0xbdb0f721	-0.08640886
8	0xbd024a9c	-0.031809434
9	0x3c3d6757	0.011560283
10	0x3cab0216	0.020875018
11	0xbd299a68	-0.04140702
12	0xbde23e18	-0.11047
13	0x3d39efdd	0.045394767
14	0xbdb2b16c	-0.08725247
15	0x3da7f429	0.08200867
16	0xbe4c87f2	-0.19973734
17	0xbd33a74d	-0.043860722
18	0xbba5f53e	-0.0050646355
19	0xbbafa4fa	-0.005360243
20	0xbda98fb6	-0.08279364
21	0xbce2861c	-0.027651839
22	0x3ca29014	0.019844092
23	0xbd992527	-0.07477789
24	0xbd91cd56	-0.07119243
25	0xbe0734df	-0.13203762
26	0x3d8b9a4d	0.0681654
27	0xbdcb9796	-0.09941022
28	0xbe0016c4	-0.12508684
29	0x3c82f2da	0.015984941
30	0x3db89543	0.090128444
31	0x3d244677	0.040106263
32	0x3c0e4fd1	0.008686022
33	0xbe02ae2a	-0.12761751
34	0x3de9b2a8	0.11411029
35	0xbdbb2529	-0.09137947
36	0xbe159160	-0.14606237
37	0x3d82843b	0.06372877
38	0x3d94ff80	0.07275295
39	0x3d88032b	0.06641229
40	0xbdd56fb0	-0.10421693
41	0x3d0c4c35	0.034252364
42	0x3cf5d5aa	0.03000911
43	0x3d2247a3	0.0396191
44	0xbc144567	-0.00904975
45	0xbbf2226d	-0.007389358
46	0xbbed4228	-0.0072405525
47	0x3dbdf9ce	0.09276162
48	0xbd4cbc1d	-0.049984086
49	0x3d940371	0.07227219
50	0x3e4d13c7	0.20027076
51	0x3c18a263	0.00931606
52	0x3ddddffd	0.10833738
53	0x3d6052a9	0.05476633
54	0x3d8df66a	0.069317654
55	0x3d4bc73b	0.049750548
56	0x3ba75219	0.0051062224
57	0x3ab47390	0.001376735
58	0x3de03093	0.10946765
59	0x3ab2bbc2	0.0013636278
60	0x3d97e15d	0.074160315
61	0x3d46585f	0.04842412
62	0x3d7efbf8	0.062252015
63	0xbdf4fbb0	-0.11962068
64	0x3dadd67b	0.084881745
65	0x3c842332	0.016130064
66	0x3d588c8a	0.052868403
67	0xbd5c44ef	-0.053776678
68	0xbd915bc0	-0.07097578
69	0x3d5e52c4	0.05427815
70	0xbbed3863	-0.007239388
71	0xbd2ff398	-0.04295692
72	0x3e28f9ec	0.16501588
73	0xbd6fc49d	-0.058537114
74	0xbb6224cd	-0.0034506798
75	0x3da69937	0.08134692
76	0xbe055dfb	-0.13024132
77	0xbb1a700f	-0.0023565327
78	0xbd89054a	-0.06690462
79	0xbd9dc982	-0.0770445
80	0xbd08beb1	-0.033384982
81	0x3e19868d	0.14992733
82	0x3e269e09	0.16271223
83	0x3e02fb48	0.12791169
84	0xbcc6cc41	-0.024267318
85	0xbacd2752	-0.0015651977
86	0xbe13266e	-0.14370129
87	0x3df55934	0.11979905
88	0xba88efad	-0.0010447406
89	0x3dbce993	0.09224238
90	0x3cac4a8d	0.021031642
91	0xb908b42a	-0.00013037087
92	0x3da1d121	0.07901216
93	0x3dfae59e	0.12250827
94	0x3e36a4d9	0.17836322
95	0x3da6e1ec	0.0814856
96	0xbd8ff70a	-0.07029541
97	0xbce56070	-0.028000087
98	0xbd1b17c9	-0.03786448
99	0xbe1cb13c	-0.15301985
100	0xbdb0d545	-0.08634428
101	0x3d9c7036	0.0763859
102	0xbc8ae39f	-0.016954241
103	0x3cc1dc34	0.023664571
104	0xbe027beb	-0.12742583
105	0x3db57258	0.088597
106	0x3a2bb237	0.00065496884
107	0xbd5b5996	-0.053552233
108	0xbd5817d6	-0.052757107
109	0xbcd0373b	-0.025416961
110	0xbdf7306d	-0.12069783
111	0x3dc2df82	0.09515287
112	0xbcbbcc52	-0.022924576
113	0x3c3176ec	0.010831576
114	0x3dd246ac	0.10267386
115	0x3e64695c	0.22305816
116	0x3da7c54c	0.08191928
117	0x3d8d46f6	0.068983
118	0xbc558a6a	-0.013033489
119	0x3bb6d148	0.0055791475
120	0xbcdfd432	-0.027322862
121	0xbd8fd692	-0.07023348
122	0x3d82ecee	0.06392847
123	0x3da93f8a	0.08264072
124	0x3df29509	0.118448325
125	0xbdfd231c	-0.12360212
126	0xbd94925a	-0.07254477
127	0xbdb1c082	-0.08679296
128	0xbc7793be	-0.015110908
129	0xbda04171	-0.07824982
130	0x3d3a748c	0.045521304
131	0x3dff4953	0.12465157
132	0x3e1b3701	0.15157701
133	0x3da1b0e1	0.07895065
134	0x3d2c5211	0.042070452
135	0xbd3335d7	-0.043752518
136	0xbd85b7ed	-0.06529222
137	0xbde6edbf	-0.11275815
138	0xbc739286	-0.014866477
139	0x3dc359ea	0.09538634
140	0xbc1eaac4	-0.009684268
141	0xbd9084f1	-0.070566066
142	0xbdd2cf8c	-0.10293493
143	0x3e235806	0.15951547
144	0xbc86a9b5	-0.016438344
145	0xbda31a3b	-0.079639874
146	0xbe2c1fc7	-0.16808997
147	0xbd5543b9	-0.05206654
148	0xbccd4ae2	-0.025060121
149	0xbc5adb04	-0.013357881
150	0xbd0d24b1	-0.03445882
151	0xbe28d305	-0.16486748
152	0x3e01b592	0.1266692
153	0xbe35a1b3	-0.17737465
154	0x3dcab786	0.098982856
155	0xbd840059	-0.06445379
156	0x3d8f15e0	0.06986594
157	0x3c8c2dc0	0.017111659
158	0x3de854b8	0.11344284
159	0xbe0fd817	-0.14047275
160	0xbd8f6879	-0.070023485
161	0xbd422b34	-0.047404483
162	0xbd412dff	-0.047163006
163	0xbd58f414	-0.052967146
164	0xbd58058a	-0.052739657
165	0x3ca3da0c	0.020001434
166	0x3d770c72	0.060314603
167	0x3ce9129b	0.028451255
168	0xbe12fc9a	-0.14354172
169	0xbdd693ef	-0.10477435
170	0xbc71d98a	-0.014761338
171	0xbda5405e	-0.08068918
172	0xbca3d2d8	-0.019998
173	0xbc50c59e	-0.012742428
174	0xbe3cb59b	-0.18428652
175	0xbdea192e	-0.11430584
176	0xbc8b4a24	-0.017003126
177	0xbd3d0e21	-0.046156053
178	0x3c4c4b47	0.012469119
179	0x3e5b29a6	0.21402606
180	0x3e069303	0.13142018
181	0x3c25ae8a	0.010112414
182	0xbde8a7f4	-0.113601595
183	0x3e0d8f73	0.13824253
184	0xbdd5d29d	-0.10440562
185	0xbda2facc	-0.07957992
186	0xbc1b00dc	-0.009460654
187	0xbdcc4b80	-0.09975338
188	0x3d5f2415	0.05447777
189	0xbb12f0fa	-0.0022421465
190	0xbdc89476	-0.09793942
191	0xbe03ec2a	-0.12883058
192	0x3bd5ca16	0.0065243347
193	0xbdcf58b8	-0.10124344
194	0x3d8d3768	0.068953335
195	0x3d80a428	0.0628131
196	0x3d72fe02	0.059324272
197	0x3d8798a0	0.06620908
198	0x3cb9d233	0.022683239
199	0x3e046b54	0.12931567
200	0xbd93a66c	-0.07209477
201	0x3d9d203b	0.07672163
202	0x3d7e80de	0.062134616
203	0x3dab7e39	0.083736844
204	0x3d860ece	0.065457925
205	0xbc16b879	-0.009199255
206	0x3c26f4c0	0.010190189
207	0xbced0f39	-0.028937923
208	0xbda1bab2	-0.078969374
209	0xbd29f2e2	-0.041491397
210	0x3c46508d	0.012104166
211	0x3d52b124	0.051438466
212	0x3c98cbfd	0.018651957
213	0x3d44517d	0.047929276
214	0x3d8f7510	0.0700475
215	0x3dbf3593	0.0933639
216	0xbcb828e7	-0.022480441
217	0xbd1041ec	-0.035219118
218	0xbc86420f	-0.016388921
219	0x3d41dbeb	0.04732887
220	0x3de34acc	0.11098251
221	0xbdbfd7fe	-0.09367369
222	0x3cf798e0	0.030224264
223	0xbd9e06f8	-0.07716173
224	0xbe142a76	-0.14469323
225	0x3c33a6cb	0.0109650595
226	0xbda1eb94	-0.07906261
227	0xbd2e6324	-0.042575017
228	0xbd95948f	-0.07303726
229	0x3c0b68d8	0.008508883
230	0x3cfeb6ce	0.031093027
231	0xbd63e672	-0.05563969
232	0xbd6d15ae	-0.057882003
233	0x3dda2e21	0.1065333
234	0x3d25b929	0.040459786
235	0xbe1b8009	-0.1518556
236	0xbd2e3fe3	-0.042541396
237	0x3e25d744	0.16195399
238	0x3d83923f	0.064243786
239	0xbda9fbf7	-0.083000116
240	0xbd00f5ab	-0.031484287
241	0x3d5bc0a0	0.0536505
242	0x3ce09ac2	0.027417544
243	0xbd6e3988	-0.058160335
244	0xbd23cb60	-0.039988875
245	0xbd9d1ba8	-0.07671291
246	0xbdaab41c	-0.083351344
247	0x3ddcc95f	0.10780596
248	0x3de7d83f	0.113205425
249	0x3c193fe4	0.009353612
250	0x3d97650b	0.07392319
251	0xbd397b29	-0.04528347
252	0x3cf89175	0.030342797
253	0x3df10b16	0.117696926
254	0xbc8416be	-0.016124126
255	0xbc9a5522	-0.018839423

linear.2.bias f4 [128]
0	0xbd6b36d7	-0.057425346
1	0x3e06db96	0.13169703
2	0x3daa611c	0.083193034
3	0xbdb06ca1	-0.08614469
4	0x3cae90c0	0.021309257
5	0xbc77a416	-0.015114805
6	0x3d8bc61a	0.06824894
7	0xbe1c5a31	-0.1526878
8	0xbcc10282	-0.023560766
9	0xbe208260	-0.15674734
10	0xbc6e3ac7	-0.014540381
11	0x3ce44a90	0.027867585
12	0xbd877e39	-0.06615872
13	0xbc92687b	-0.017872086
14	0xbdea628f	-0.1144458
15	0xbd38e7dd	-0.045142997
16	0xbe5b823c	-0.21436399
17	0xbd83537e	-0.06412409
18	0xbe241d4c	-0.16026801
19	0x3e1302f6	0.14356598
20	0xbd35a00b	-0.044342082
21	0x3d585e49	0.052824292
22	0x3d7d12de	0.06178557
23	0x3de76921	0.112993486
24	0x3d9c6728	0.07636863
25	0x3bb2af65	0.0054530376
26	0xbe01126a	-0.1260468
27	0xbe882e97	-0.26598045
28	0x3d9fdb9b	0.07805558
29	0x3e07f588	0.13277256
30	0xbcd42350	-0.025895745
31	0x3e0ca3ac	0.13734311
32	0x3cdb7d0f	0.026793031
33	0xbe087806	-0.13327035
34	0xbce2633f	-0.027635215
35	0xbc8f26c4	-0.01747454
36	0xbdd9d3e7	-0.1063612
37	0x3e13b4a8	0.14424384
38	0xbe067f8f	-0.13134597
39	0x3e0c9703	0.13729481
40	0xbe10a2f7	-0.14124666
41	0xbd9464e6	-0.07245807
42	0xbd94092b	-0.07228311
43	0xbdc137a6	-0.09434442
44	0xbcbd05f7	-0.023074133
45	0xbe2084e7	-0.15675698
46	0xbde41e6c	-0.11138615
47	0xbe27dac5	-0.16392048
48	0x3df3a815	0.118972935
49	0xbc4991b7	-0.0123028075
50	0x3d73b806	0.05950167
51	0xbe1ca68b	-0.15297906
52	0x3d9209f2	0.07130803
53	0x3d51bb72	0.051204152
54	0xbd93dea5	-0.072202004
55	0xbe0e9328	-0.13923323
56	0xbd98d5e2	-0.0746267
57	0xbd643504	-0.055714622
58	0xbd8f328f	-0.06992065
59	0x3cbb2d42	0.022848729
60	0xbbbb5e9f	-0.005718067
61	0xbc98f832	-0.018673036
62	0xbe1fb7dd	-0.15597482
63	0x3d8d818c	0.06909475
64	0xbd64cc4b	-0.05585889
65	0xbdae96d1	-0.0852486
66	0xbd2fa4c6	-0.04288175
67	0xbe3bcf17	-0.18340717
68	0xbd0bf321	-0.034167413
69	0xbc4c0dfd	-0.012454507
70	0x3d0383d8	0.032108158
71	0x3dd85b4f	0.10564291
72	0x3ddab514	0.10679069
73	0xba8306e5	-0.0009996562
74	0xbd0c4e6f	-0.034254488
75	0x3d501d3c	0.05080913
76	0xbdc87e01	-0.09789658
77	0xbca2ec7e	-0.019888159
78	0xbd5c7988	-0.05382684
79	0x3ca1b0c9	0.019737618
80	0xbe002574	-0.12514287
81	0xbdce5dac	-0.1007646
82	0xbe217fd9	-0.15771426
83	0xbdfa5876	-0.12223904
84	0x3e476119	0.19470634
85	0xbe0bcfb5	-0.13653453
86	0xbbd8736a	-0.0066055553
87	0xbc321e7a	-0.010871524
88	0x3d85cc81	0.06533147
89	0x3d8eb86a	0.06968768
90	0x3e6bcb91	0.23026873
91	0xbd6b52f6	-0.057452165
92	0xbde19452	-0.11014618
93	0xbe806a72	-0.2508121
94	0x3c8c6b21	0.017140927
95	0xbd8a5433	-0.06754341
96	0x3e011425	0.12605341
97	0xbe5df5ea	-0.2167584
98	0xbd24737e	-0.040149204
99	0xbc8c998d	-0.017163062
100	0xbd2444ac	-0.040104553
101	0xbd6aa26b	-0.0572838
102	0x3deb5503	0.11490824
103	0xbe23e424	-0.16004997
104	0xbb148454	-0.0022661882
105	0xbd8150b7	-0.06314223
106	0xbd61572d	-0.055014778
107	0x3c4c1d24	0.01245812
108	0xbd901d41	-0.0703683
109	0x3e8a0fa6	0.26965064
110	0xbb6f0822	-0.0036473353
111	0xbd3ad6d9	-0.04561505
112	0xbd5ed237	-0.054399695
113	0xbd225767	-0.039634135
114	0xbb826751	-0.0039796014
115	0xbcfdb116	-0.03096823
116	0xbe52d8c2	-0.20590499
117	0xbd83609e	-0.06414913
118	0xbd2c1ccf	-0.04201966
119	0xbdfa34cd	-0.12217102
120	0xbe805e2a	-0.2507184
121	0xbc4f5033	-0.012653398
122	0x3ded4b83	0.11586668
123	0x3dc5c878	0.09657377
124	0xbd12c504	-0.03583242
125	0xbd463eea	-0.048399843
126	0xbcd88a28	-0.026433066
127	0x3dcd0805	0.10011295

linear.4.weight f4 [2, 128]
0	0xbd124848	-0.035713464
1	0x3b71560f	0.0036824977
2	0xbdbe590b	-0.09294327
3	0xbd1ba749	-0.038001332
4	0x3bf5f918	0.007506501
5	0xbd8378ca	-0.06419523
6	0x3da09e9d	0.07842753
7	0xbd2f43da	-0.042789318
8	0x3c82e208	0.01597692
9	0x3a759ddd	0.0009369532
10	0x3afe8f56	0.001942138
11	0xbd5d67ed	-0.05405419
12	0xbd802305	-0.062566794
13	0x3ccb093d	0.024784679
14	0x3d115bd0	0.03548795
15	0xbab93e18	-0.0014132885
16	0xbdcf7f3f	-0.10131692
17	0xbc7f5bd7	-0.015585861
18	0xbde7b198	-0.1131317
19	0x3d5f32fe	0.05449199
20	0xbdc567a0	-0.096389055
21	0x3cbc282d	0.022968376
22	0xbcc455b3	-0.023966646
23	0xbd82b310	-0.0638181
24	0xbc507ecd	-0.012725544
25	0x3d16e4bb	0.036839228
26	0xbd21b3e4	-0.039478198
27	0x3c806366	0.015672397
28	0x3d11b563	0.035573374
29	0xba6c41d5	-0.0009012495
30	0xbe1614b3	-0.14656334
31	0x3dbe99e4	0.09306696
32	0x3d34bbe0	0.044124484
33	0x3c2b604f	0.0104599735
34	0x3cda7e94	0.026671685
35	0xbdaac116	-0.083376095
36	0xbdb15318	-0.08658427
37	0x3d9598f5	0.07304565
38	0x3cce5623	0.025187558
39	0xbcbc84a0	-0.02301246
40	0x3d45c636	0.04828473
41	0xbd48f1fe	-0.049058907
42	0xbd440e98	-0.04786548
43	0xbc469d9c	-0.012122538
44	0xbd31f92a	-0.043450512
45	0xbc24ef0b	-0.010066758
46	0xbdaade15	-0.0834314
47	0x3d083e9c	0.033262834
48	0x3daf036a	0.08545573
49	0xbc60ecfe	-0.013728378
50	0xbd80433b	-0.06262823
51	0xbd5d2a24	-0.053995267
52	0xbd187e25	-0.037229676
53	0x3cc953c8	0.024576083
54	0xbc2850e8	-0.010273196
55	0x3c5996ad	0.013280553
56	0x3ca5bbc8	0.020231143
57	0x3cd8d3ab	0.026468119
58	0x3d6ce5b1	0.05783624
59	0x3d662736	0.05618974
60	0x3d398ec6	0.045302175
61	0x3d4a4350	0.0493806
62	0xbd9e0529	-0.07715828
63	0x3d006b3e	0.031352274
64	0x3bf411b3	0.007448399
65	0x3db15c46	0.08660178
66	0xbc4febcf	-0.0126904985
67	0x3d84d4d2	0.06485905
68	0xbd865320	-0.065588236
69	0xbcbffc2d	-0.023435676
70	0xbd86a11f	-0.065737
71	0x3c9a528b	0.018838188
72	0xbd878e08	-0.06618887
73	0xbd6a67b6	-0.057227813
74	0xbe0b292f	-0.13589929
75	0xbb2f81b6	-0.0026780195
76	0x3ce4aa7b	0.027913323
77	0x3d0b1076	0.033951245
78	0xbd58f6f7	-0.0529699
79	0xbda43613	-0.08018126
80	0xbd4b6c71	-0.049663965
81	0x3bc3b671	0.0059726764
82	0xbcf12739	-0.029437648
83	0xbd575586	-0.052571796
84	0xbdef30ad	-0.11679206
85	0xbdb9a1ca	-0.09064062
86	0xbd1a53e4	-0.03767766
87	0x3d32c4d4	0.04364474
88	0x3c97833f	0.0184952
89	0x3cfb9078	0.030708537
90	0x3da8b6c5	0.082379855
91	0x3ba9625c	0.005169196
92	0x3da18728	0.07887107
93	0x3d8ca108	0.06866652
94	0x3c82fe55	0.015990416
95	0xbd959d26	-0.07305364
96	0x3db0c236	0.08630793
97	0xbd8ca0f4	-0.06866637
98	0x3dc6f227	0.09714156
99	0x3d1df6b1	0.03856534
100	0x3d4194fd	0.047261227
101	0xbceaa782	-0.028644327
102	0x3da03832	0.078232184
103	0x3d36982c	0.044578716
104	0xbd1745bd	-0.036931742
105	0xbc987c9f	-0.018614111
106	0x3b8ae91e	0.0042392155
107	0xbd8e7c71	-0.06957329
108	0x3c63ece7	0.013911462
109	0x3e28c53a	0.16481486
110	0x3daf7b23	0.08568408
111	0x3b327b40	0.0027234107
112	0x3d2dc79c	0.04242669
113	0xbdaffd57	-0.085932426
114	0x3e155350	0.14582562
115	0x3d5c0a61	0.053720836
116	0xbca2931c	-0.019845538
117	0xbda8d12e	-0.08243023
118	0x3cffd105	0.031227598
119	0x3dbad46f	0.0912255
120	0x3d6b317c	0.05742024
121	0x3cc6aadb	0.024251392
122	0xbdce0c14	-0.100608975
123	0xbd8bea89	-0.068318434
124	0xbc00a7d6	-0.007852515
125	0xbd4a773e	-0.049430124
126	0xbd9d4b78	-0.0768041
127	0x3d25b5ad	0.040456463
128	0x3d717bbe	0.0589559
129	0xbd00890c	-0.031380698
130	0x3d3b4ac6	0.045725606
131	0x3d359bce	0.04433804
132	0x3b97c794	0.004631946
133	0xbd968bf5	-0.073509134
134	0xbd7ba4f5	-0.061436612
135	0xbd0d1a79	-0.034449074
136	0x3d63a02b	0.05557267
137	0xbd4dedfa	-0.05027578
138	0x3d56fa16	0.052484594
139	0x3d921733	0.07133331
140	0xbd5e21d4	-0.05423148
141	0xbcc2d3b1	-0.023782583
142	0x3d349f8a	0.04409746
143	0x3cbc049a	0.022951413
144	0xbcc8964e	-0.024485733
145	0x3c9315b7	0.01795469
146	0x3d24e9a7	0.04026189
147	0xbd4b5ca1	-0.049648885
148	0x3d85966b	0.065228306
149	0x3c24c5ee	0.010056956
150	0xbd24ce60	-0.040235877
151	0xbd8b3ddc	-0.06798908
152	0xbd670a1a	-0.056406118
153	0xbd105b6a	-0.03524343
154	0x3d204646	0.039129518
155	0x3d8a28c9	0.067460604
156	0x3ccb21bb	0.024796357
157	0x3cd4ef5a	0.025993038
158	0x3d8a61d1	0.06756938
159	0x3d88298d	0.0664855
160	0x3d4f6f0d	0.050643016
161	0x3c24ecef	0.010066255
162	0xbc9cabc0	-0.019124866
163	0xbc311dcb	-0.010810326
164	0x3dd78d41	0.10524989
165	0xbd231f5f	-0.03982484
166	0x3b65e523	0.0035079203
167	0xbdc1271d	-0.094312884
168	0xbd23cb7b	-0.039988976
169	0x3d4870ef	0.048935827
170	0xbdbed0bc	-0.09317157
171	0x3a74ea08	0.00093427347
172	0xbd3e6333	-0.046481322
173	0xbdce0dd5	-0.10061232
174	0x3d23d514	0.03999813
175	0x3d0ed424	0.03487028
176	0xbcc797b0	-0.024364322
177	0x3cd2e627	0.02574451
178	0x3bdf928f	0.006822891
179	0xbd084c98	-0.03327617
180	0xbd2dee2f	-0.042463478
181	0xbb9a4f62	-0.00470917
182	0xbd8f21c6	-0.06988864
183	0xbd50d2ef	-0.050982412
184	0x3d82e094	0.06390491
185	0x3cd10d41	0.025519015
186	0x3d44d30b	0.04805283
187	0x3ca15ff7	0.01969908
188	0x3d4ae82e	0.04953783
189	0x3c8f5726	0.01749761
190	0xbda39cde	-0.079889044
191	0xbcd80863	-0.026371187
192	0xbcfc37b3	-0.030788278
193	0xbdb1faaa	-0.086903885
194	0x3da44906	0.080217406
195	0x3bac0435	0.005249525
196	0x3d87dfa6	0.066344544
197	0x3d536526	0.051610135
198	0x3dc91545	0.0981851
199	0xbc1e7582	-0.009671571
200	0x3dcfc4fb	0.10144993
201	0x3dfe5bdc	0.124198645
202	0x3da5c152	0.080935135
203	0xbdc7ca8d	-0.0975543
204	0xbd54fc79	-0.05199859
205	0x3c931efc	0.01795911
206	0xbcfee369	-0.031114297
207	0xbd954a13	-0.07289519
208	0x3d9a885d	0.075455405
209	0x3b1579e2	0.0022808244
210	0xbc7905c1	-0.015199126
211	0x3db127b2	0.086501494
212	0x3d8b646b	0.068062626
213	0x3e367900	0.17819595
214	0x3d56c30a	0.052432097
215	0x3cdad3c2	0.026712302
216	0xbd12aac6	-0.035807393
217	0xbc55519c	-0.0130199455
218	0xbe2a08e0	-0.16604948
219	0x3be29de4	0.0069157947
220	0xbd006283	-0.031343948
221	0x3c8a6c05	0.01689721
222	0xbd65e6c1	-0.056128267
223	0x3e12c240	0.14331913
224	0x3d316f87	0.04331925
225	0x3cd9d63d	0.026591415
226	0x3c259afc	0.010107752
227	0xbde7004f	-0.11279356
228	0x3c0ab96c	0.00846706
229	0x3d099dd1	0.03359777
230	0x39e55938	0.00043744757
231	0x3c097da8	0.008391775
232	0x3d1f02da	0.03882108
233	0xbdab0596	-0.08350675
234	0x3bdfcd5c	0.0068299007
235	0xbbc38dbb	-0.0059678233
236	0xbbe180e6	-0.006881821
237	0xbde8b678	-0.11362928
238	0x3cfcee52	0.030875359
239	0x3d393581	0.04521704
240	0x3caebbd7	0.021329803
241	0x3c4e2af4	0.012583483
242	0xbe23dac3	-0.1600142
243	0x3d32527f	0.043535706
244	0x3d1d2413	0.03836448
245	0xbc48d6d3	-0.012258249
246	0xbd3b37b2	-0.045707412
247	0xbda9f6de	-0.08299039
248	0xbdf437e9	-0.119247265
249	0x3c13d40e	0.009022726
250	0xbbd7cd64	-0.006585764
251	0x3e20a589	0.15688147
252	0xbd25bfc2	-0.040466078
253	0x3d850aa5	0.06496171
254	0xbc502973	-0.012705195
255	0x3c5a8968	0.013338424

linear.4.bias f4 [2]
0	0x3dc1d7e0	0.09465003
1	0x3a26e2d4	0.00063661975
