meta/demos/multiple_experiments/results/models/run_0/emodb_mlp_praat_16-64_C_val-001_learning_rate-0-0001_0_009.model (torch, 10758 bytes, 6 tensors)

linear.0.weight f4 [16, 39]
00000000: f331 213e f763 dd3d 73e6 13be b904 0b3c
00000010: fc92 c23d be73 6c3d 175e 1d3e 4cef ef3d
00000020: 2e92 1dbe b3e0 963d bda1 85bc 7070 baba
00000030: 6ef1 40bd 2e53 a5bd 27a6 1ebe 18fa 9b3d
00000040: f8d3 02be 9854 12be 6bb9 d13d eb36 16be
00000050: 84d1 323c 8ae9 b3bd 6314 1cbe 7603 f23c
00000060: 5930 05bd bf69 773d 3e51 d33d f455 ebbd
00000070: d775 3abd 2ff3 7c3c f99b 10be f7d3 59bd
00000080: 7abe 5f3d 6e39 19be 719f 06be 3b74 0fbe
00000090: d4f6 3fbd 6c41 c13d 3005 00be fea7 d23d
000000a0: 369b babd a762 043b a37d 0bbd 4684 0bbe
000000b0: 4c8e 18be dbdc 18be f209 133e 911e 3d3d
000000c0: 3be2 013d 737b 0dbe 1908 f2bd ba24 d5bd
000000d0: d49f b43d de30 79bd 84b7 39bd e31c e23d
000000e0: a348 f9bb 931a 083d c453 d1bd daf0 d83d
000000f0: 0d77 283d 01bb 183d 7035 16be f752 de3d
00000100: 4af2 513c 4f6e 953d 3e81 153e ed8f e1bd
00000110: 57ec eb3d 41c5 1f3e 9da1 cf3d ea36 1f3e
00000120: 0ebf 0abe 8eeb f13d bb02 a93d 29cf e8bd
00000130: d8f5 1cbc 42ec 283d da9b 67bc 7c10 e63d
00000140: b85d ebbd 2960 d63d 1c9f e03d 0d83 1fbe
00000150: 75c0 d43d b7e8 f0bc da48 21be 9ebe 4a3d
00000160: f31c 11bd b1a2 d83d e336 7f3d 1f88 753d
00000170: 82e2 15be aed8 57bd 399d 073d 3714 2c3c
00000180: 061f 1dbe d018 44ba c297 0b3d 3f57 89bd
00000190: 672d 853c b842 edbd 86c7 523d 01fd f5bd
000001a0: 82ec 09be 9487 ee3d dcc9 093e da76 973d
000001b0: d5dd 13be 76e4 b4bc f3f3 a1bd d5d6 353d
000001c0: 01ba 133d 17b8 21bc 7a06 fdbd aa4c 923d
000001d0: b046 3b3b 3335 0cbe 67fa 0bbe 6986 763d
000001e0: dd51 883c 73c1 1d3e 9f6b ac3d 8bd3 53bc
000001f0: 4314 bfbd 2d1e 073e 7f0d 9dbd f16c 08bd
00000200: f697 b3bd 0e06 073c 7f22 fb3d 9e21 09be
00000210: e216 9fbd 7eb6 cb3d 7400 4f3c 4fa7 83bc
00000220: 5c54 1b3e 3223 86bd 2bad 693d 4bb7 5e3c
00000230: 3941 833d 474e c7bd 94f0 bc3b b947 a53d
00000240: 2fef fabd e42b 143d 5905 8cbd a7b9 fe3c
00000250: d706 f63d 9315 103e 439b 14bd d65f ecbd
00000260: 46ec 11be 21a1 8ebd 8bfc de3d 6924 213e
00000270: 2a59 b53d f8ab afbd 0c05 c8bd 27ff 223d
00000280: aac5 05bd 1b43 923d 40e3 43bc 86af a1bd
00000290: 0598 20be c842 d13d 1214 cebd bd1d 203e
000002a0: b69c 7cbb 2419 0d3e db94 c0bc b502 1c3e
000002b0: c49b bfbd 80a8 0abe ffb9 743d e882 a93d
000002c0: 2bb4 19bd face ab3d b6eb 8cbc ce76 bf3d
000002d0: eedb 713d edc2 e63d 0b32 1fbe e757 13be
000002e0: 9ff9 08bd 8958 1b3e dd5b 6c3d 9997 03bc
000002f0: 64bf 20be 0623 19be bfb4 e83d d1e4 403d
00000300: fa4c e73d c5f5 dabd a8a1 263c e2f1 f63d
00000310: 8b24 c03d 0eff 703d f41d f83c 537e eb3d
00000320: 1c9d 67bd bdc9 4dbd 9a86 d2bd bbb8 a7bd
00000330: 9e75 d43d b064 bc3d 45b6 19bd 8538 233d
00000340: 10fe 18bd 30b9 e43d 264f ebbd e1dc 13be
00000350: 8d19 8ebd 0d5f c6bd 3db0 0a3e 58c6 1dbd
00000360: 1a40 58bd bd13 00bd de8e abbd 17a9 a33c
00000370: 1f78 46bd 1f92 1dbe 3f48 083e 21fd 8dbd
00000380: c115 69bd cf61 d8bd 6ecb f23d 6c2e 993b
00000390: f96e 023e efc8 01be 8ae6 40bd 9f5f ab3d
000003a0: b7fd 013e 9312 833d 005c db3d b48e cf3d
000003b0: b03a cbbd b66c 6b3b 5c74 143e f4b6 4fbd
000003c0: 50df 0a3d 3faa bbbc e0b2 2fbd c345 d5bd
000003d0: 4401 133e 7edd 913d 1c64 9abb e190 c83d
000003e0: 42ae cdbc 6aee 67bd 88d8 20bd 29fb e0bd
000003f0: ec04 723d cfc3 0f3e 123a 07be 77ec d53d
0.1574171 0.108100824 -0.14443378 0.008485013 0.09500691 0.057727568 0.15367924 0.11715564
-0.15387794 0.07367077 -0.016312474 -0.0014224183 -0.047105245 -0.08072506 -0.1549307 0.07616061
-0.12776172 -0.14290082 0.10240444 -0.14669387 0.01091421 -0.087847784 -0.15242152 0.029542666
-0.03251681 0.06040358 0.1031823 -0.11491004 -0.045522537 0.015438839 -0.14121999 -0.05318066
0.054625012 -0.14963314 -0.1314676 -0.14009182 -0.046866253 0.09436306 -0.12501979 0.10285948
-0.091116354 0.0020200403 -0.034055363 -0.13624677 -0.14898032 -0.14928 0.14359263 0.04617173
0.03170989 -0.13816623 -0.11817951 -0.10407396 0.08819547 -0.06083762 -0.04534103 0.11040666
-0.007607536 0.03322847 -0.10221055 0.10592814 0.04112916 0.037287716 -0.14668822 0.10855668
0.012814114 0.0729643 0.14600083 -0.1101378 0.115196876 0.1560259 0.10138247 0.15548292
-0.13549444 0.118125066 0.08252474 -0.11367638 -0.009580098 0.041240938 -0.014136279 0.11233613
-0.11492485 0.1046756 0.10967848 -0.15577336 0.10388271 -0.029407842 -0.15750447 0.049498193
-0.035428 0.10577906 0.062308203 0.05994427 -0.14637187 -0.052696876 0.033108924 0.0105028665
-0.15343866 -0.0007480504 0.034080274 -0.06706094 0.016257001 -0.11584991 0.05145981 -0.12011147
-0.13469127 0.11646953 0.1345591 0.07395716 -0.14440091 -0.022081595 -0.07907858 0.044394333
0.03606606 -0.009870551 -0.12354751 0.07143529 0.0028576069 -0.13692169 -0.1366974 0.060186777
0.016640598 0.15405826 0.084189646 -0.012928854 -0.093300365 0.13195105 -0.0766859 -0.03330702
-0.087692186 0.00824119 0.12262439 -0.1339173 -0.077680364 0.09946917 0.012634385 -0.01607099
0.151689 -0.06549682 0.05704991 0.013593505 0.064089246 -0.09731727 0.005765984 0.08070321
-0.12252652 0.03617467 -0.068369575 0.031094385 0.12013023 0.1407073 -0.03628088 -0.11541717
-0.14250287 -0.06964327 0.108880125 0.15736546 0.08854897 -0.08577722 -0.097665876 0.039794113
-0.03265921 0.071417056 -0.011956036 -0.078948066 -0.15682991 0.10217816 -0.10062422 0.15636344
-0.0038545555 0.13779122 -0.02350848 0.15235408 -0.09355882 -0.1354084 0.059747692 0.082769215
-0.037525337 0.08389087 -0.01720224 0.09348832 0.059047632 0.11267648 -0.15546434 -0.14389001
-0.033441182 0.15170492 0.057704795 -0.008031749 -0.1569801 -0.14954767 0.113625996 0.047093216
0.11293979 -0.10691408 0.010170378 0.12057854 0.0938197 0.05883699 0.03028772 0.11498704
-0.056546316 -0.05024122 -0.102795795 -0.081895314 0.10373996 0.09198892 -0.03752734 0.039848823
-0.037351668 0.11168134 -0.11489706 -0.14439727 -0.06938467 -0.09686098 0.13543792 -0.038519233
-0.052795507 -0.031268824 -0.08376859 0.01997809 -0.0484544 -0.15387772 0.1330881 -0.06933046
-0.05690551 -0.105655305 0.118552074 0.0046747234 0.12737645 -0.12674306 -0.04709486 0.08367848
0.12694441 0.06400027 0.10710907 0.1013464 -0.09923303 0.003592295 0.14497513 -0.050711587
0.033904374 -0.022908328 -0.042895198 -0.104136966 0.14355952 0.071223244 -0.004711641 0.097932585
-0.025107507 -0.056623854 -0.039269 -0.10985405 0.059086725 0.14039539 -0.13205746 0.10445493

linear.0.bias f4 [16]
00000000: cf62 6c3d c070 1f3e 938b bb3d 10f9 aabd
00000010: e76e 22be dad1 ffbd 99a9 393d 0059 803d
00000020: 45dd a1bd 8de2 ca3d c243 853c 3db3 a83c
00000030: 0a55 44bd dc20 afbd 7225 6dbd 7ba0 cc3c
0.05771142 0.15570354 0.09157481 -0.08348286 -0.15862618 -0.12491198 0.045327757 0.062669754
-0.07903532 0.099064924 0.016267661 0.02059328 -0.047932662 -0.08551189 -0.05789704 0.024978867

linear.1.weight f4 [64, 16]
00000000: 70a2 843d 072c 82bd 0e7b 7cbe fbca 6c3e
00000010: f8a8 74bd b823 693e 3022 bbbc f353 ee3c
00000020: 560b 47be f2f2 303d 819d e6bd b52d fcbd
00000030: 1de6 183e d0aa a53c 7038 cbbd f0e2 ecbd
00000040: b0f2 093d 2ec4 93bd 2865 10be 3432 713e
00000050: f0c2 b03d 8a12 78be dc7c 323e 9d3c 2a3e
00000060: 71c1 42be afd7 b3bc ee1e 673e 2f88 d9bd
00000070: f3be 77be 487b cc3d ba9b 183e 382c b63d
00000080: f06d ee3c dd28 673e 7cb2 db3d bf22 03bd
00000090: e0ed 2dbc 44b8 d53d ec30 c13d c76a 8ebd
000000a0: d1e2 7d3e 6cba 52bd 0fe3 29be 7640 48be
000000b0: 3723 94bd 1a22 2fbe 7e4c 30be 18bc d53d
000000c0: a419 6c3e 742b ec3d 9808 44be a252 aabd
000000d0: 0cf4 753e 403b c3bc 0c01 b83d 6ac6 573e
000000e0: 22ae 98bd 259d c03d ddd0 4a3e 152e 3dbe
000000f0: cd95 51be 0c92 58be 18bd 153d 7a3e 363e
00000100: d26f 6b3e e7ea 793e 30f2 54be 7a17 2ebe
00000110: 9ce5 123e 4ccd 49be b806 583e d137 013c
00000120: 091c 64be eb08 cabd add1 7fbe d1ae 4fbd
00000130: 356f 62be 94ef d6bd 4cd8 413e 90e4 ba3d
00000140: b88b 4fbd 3cd9 243d ca00 1ebe 5b6c d93d
00000150: ec2e 95bd e006 55be a098 953d 6708 65be
00000160: 6f98 c43d eb34 653e e20c eb3d 1ae9 d4bd
00000170: 9be3 463e 8093 f13c 80d7 10bd 8a71 713e
00000180: 8075 6ebb eda2 3a3d 5ced 50be 5392 f0bd
00000190: fadc 0fbe 28b2 573d 406b 26bd dc93 c0bd
000001a0: 7e7f 943d 4471 25be 7f3e 78be c94a 523d
000001b0: 9e15 013e 30cb 07bd 348d 65be 00c4 81bc
000001c0: ba18 12be 987c e0bd 6828 413e 22ad 903d
000001d0: fc33 6ebe 8c9a 9cbd b4d6 43be 5ae7 493e
000001e0: 9343 383e 9736 17be f497 d63d d3c2 6fbe
000001f0: a0f7 52bd 66ef 1dbe 00fb 57bd e000 133d
00000200: 0efe 003e d020 ee3c 8c7d 163e adff 3ebd
00000210: 2236 5f3e 4c5d f53d 5255 06be a9d6 dc3b
00000220: 0448 28be d96a 2e3e ec82 5dbe a593 733e
00000230: e857 4ebe 9c26 473e 9055 fbbc 1cf6 d63d
00000240: b8cc 263d 9976 0e3e 4cdf 06be 5c02 21bd
00000250: 0094 083e 6254 3d3e 8000 27bc b4f2 7bbe
00000260: 006e 65be 99f4 793d b78c 6d3e e6ca 7dbd
00000270: 2b22 7abb bc1e 103e 2ea1 75be 62b1 223e
00000280: 925d 5a3e 0983 8f3d 302b a6bc ebf7 033e
00000290: 2847 b6bd 7ac3 793e b2eb 70be e512 60be
000002a0: 506f f5bd 0035 55bd c1f2 fa3d 4e4c 513e
000002b0: 2b85 94bd b80b 59be 1aba 433e 261a 623e
000002c0: 1869 8ebd 5768 da3d 7695 593e 66fe 58be
000002d0: 50c6 c03c 84f5 f13d 50ff 443d b61f 8b3b
000002e0: 00b4 09be 8180 f13d e4f4 053e aea5 85bc
000002f0: 26b4 023d c8bf 073e c0ce 6e3c f8cf 4d3d
00000300: 00a5 e2ba 30a3 6dbe 9a98 51be cc42 923d
00000310: 14c8 b63d a017 07bd d895 32bd d799 643e
00000320: 6da5 c73d 9c4d 683d dbaf 2ebd e8c4 0f3e
00000330: a1fb 4d3e d810 2ebe 00d8 193a 0096 553e
00000340: 2ad1 37be 1cbe 653e 80fa 68bb 333d 58be
00000350: aad1 483e c0d2 b23b 8616 69be e737 4fbd
00000360: 1c9d 453e 6b01 f13d 97ae 52be 206e c93d
00000370: d5b9 f83d 6863 23bd 044f 79be 5a1a 01be
00000380: d850 65bd ff79 06be c6b9 733e db6f 5ebe
00000390: 30f9 f9bc d4c7 88bd 606c 123c bcab 58be
000003a0: 74f3 6abe 07df 17bd 292a 8bbd ee05 46ba
000003b0: b5a1 533d 4422 ca3d 549a 4dbe 42a4 29be
000003c0: a09e 25bd 4d25 143e e01f 19bc 942e 97bd
000003d0: 6ed1 2e3e f4ee cf3d 580d 4abd fd41 df3d
000003e0: 43ff 2d3e b17e fb3d ca36 86bd 1a79 8b3d
000003f0: 83d5 8a3d c8ee 62be 5819 c93d 6456 b53d
0.06476295 -0.06356054 -0.24656317 0.23124306 -0.059731454 0.22767532 -0.02284345 0.029092764
-0.19437918 0.04320044 -0.1126051 -0.123134054 0.14931531 0.020223051 -0.09922874 -0.115667224
0.03367871 -0.07215153 -0.14101088 0.23554307 0.086309314 -0.24225822 0.17430443 0.16624685
-0.19019105 -0.021953432 0.22570392 -0.10621678 -0.24193935 0.099844515 0.14903155 0.08895153
0.029105157 0.22574182 0.107274026 -0.03201556 -0.010615796 0.104355365 0.09433159 -0.0695396
0.24793555 -0.051447317 -0.16590522 -0.1955584 -0.07233279 -0.17102852 -0.1721668 0.10436267
0.23056656 0.115317255 -0.19143903 -0.08316542 0.24018878 -0.023831964 0.08984575 0.21071783
-0.07455088 0.09404973 0.19806238 -0.1847461 -0.204673 -0.21149462 0.036557287 0.1779727
0.22991875 0.24406014 -0.20795512 -0.17001143 0.14345402 -0.19707221 0.21096313 0.007886843
-0.2227632 -0.09864982 -0.24982329 -0.050703827 -0.22112735 -0.10494915 0.18930167 0.09125626
-0.050670356 0.040246233 -0.15429989 0.1061637 -0.0728434 -0.20803404 0.073045015 -0.22366486
0.09599387 0.22383468 0.114770666 -0.10396023 0.19422762 0.029489279 -0.035361767 0.23578468
-0.0036385953 0.045565534 -0.20403045 -0.11746659 -0.1404914 0.052660137 -0.040629625 -0.09403202
0.0725088 -0.16156489 -0.2424259 0.051340852 0.12605903 -0.03315276 -0.22417146 -0.01584053
-0.14267245 -0.10961264 0.1886307 0.070642725 -0.23262018 -0.07646665 -0.19124871 0.1971716
0.17994528 -0.14766918 0.104782015 -0.23414163 -0.051505685 -0.15423355 -0.052729607 0.035889506
0.12596914 0.02906838 0.1469633 -0.04663055 0.21797994 0.119806856 -0.13118485 0.0067394567
-0.16433722 0.17032947 -0.21631974 0.2378679 -0.20150721 0.19448322 -0.030680448 0.104961604
0.04072258 0.13912429 -0.13171118 -0.03930889 0.13337708 0.1848922 -0.01019299 -0.24604303
-0.22405243 0.061024282 0.2319821 -0.061961077 -0.0038167338 0.14074224 -0.23987266 0.15887979
0.21324757 0.07007415 -0.020284265 0.12887542 -0.08900291 0.24390975 -0.2352741 -0.21882208
-0.11984122 -0.052052498 0.12253333 0.20439264 -0.07251962 -0.21195877 0.19113961 0.22080287
-0.06953639 0.106644325 0.21248421 -0.21190795 0.023532063 0.118144065 0.048095047 0.0042457236
-0.13447571 0.11792088 0.130817 -0.016314354 0.031910084 0.13256752 0.01457566 0.050247163
-0.0017291605 -0.23206782 -0.20468369 0.07141647 0.089248806 -0.032981515 -0.043599933 0.2232431
0.09748349 0.05671464 -0.042648178 0.14039958 0.2011552 -0.16998613 0.00058686733 0.20858002
-0.17950884 0.22435802 -0.00355497 -0.21117096 0.1961123 0.0054572523 -0.22762498 -0.050590422
0.19298214 0.117678486 -0.20574413 0.09835458 0.1214482 -0.039889723 -0.24346548 -0.12607709
-0.0559853 -0.13132475 0.23801336 -0.21722357 -0.03051433 -0.06678739 0.008936971 -0.21159261
-0.22944432 -0.03707793 -0.06795151 -0.0007553984 0.051667888 0.09869817 -0.20078403 -0.16566566
-0.04043448 0.14467354 -0.0093459785 -0.07381931 0.17072079 0.101529986 -0.04932913 0.10901258
0.16991906 0.12280024 -0.06553419 0.06810208 0.067790054 -0.221614 0.09819287 0.08854368

linear.1.bias f4 [64]
00000000: f5ed 413c e39b 7b3b 6257 123e c380 943c
00000010: 63a0 6ebe 0b54 a63d 69f4 2e3e b2df 93bd
00000020: 83f9 1ebe e058 0c3c ed63 c0bd c2c0 21be
00000030: 1eda 443e 0c6d a73d dbce 2c3e 3796 fb3d
00000040: 2435 443d cdc5 883d e0e4 59be 33d0 65be
00000050: 4348 16be 6285 0fbe 6c4a b5bd a87f 02be
00000060: 4784 8d3d b06f dabc c59d 3bbe c62a 66be
00000070: b60f 643e 92ef 7e3e 51f8 c23d d660 883d
00000080: afc1 6a3e c1fa 663e f0a9 cb3c 7f09 c13c
00000090: ca8e 773e 784d 633e fda9 b7bd 23cf 5b3e
000000a0: 535a 65be 10cb 3dbe e0f2 fc3d 9606 63be
000000b0: af69 6fbe 6275 2c3e 93f6 7fbe b63a 25be
000000c0: d5bf 773e 5dbd 71be c001 3abd f4da fbbc
000000d0: ba92 073e c43a 13be cfd4 6e3c 9256 36bd
000000e0: 5921 b73d c64e e7bd 3c76 2f3e ed3e 08be
000000f0: 77f1 7a3e 6b4e 3ebe 0cbc e23d 3f05 8a3d
0.0118365185 0.0038392476 0.14291146 0.018127805 -0.2330337 0.08121499 0.17085423 -0.07220401
-0.15524869 0.008566111 -0.09394059 -0.15796188 0.1922383 0.08175096 0.16875784 0.122845106
0.04790224 0.066783525 -0.21278715 -0.22442703 -0.14676003 -0.14015725 -0.088520855 -0.1274401
0.069099955 -0.026664585 -0.18321903 -0.22477254 0.22271618 0.24896076 0.09520019 0.06659095
0.22925447 0.22556593 0.024861306 0.023564098 0.24175563 0.2219752 -0.089679696 0.21465735
-0.22397737 -0.18534493 0.12351012 -0.22170481 -0.23380159 0.16841653 -0.24996404 -0.16135678
0.24194272 -0.23607393 -0.045411825 -0.030744053 0.13239565 -0.14377886 0.014577105 -0.044516154
0.089419074 -0.11294322 0.17134947 -0.13305254 0.24506174 -0.18584602 0.11071023 0.06739282

linear.3.weight f4 [2, 64]
00000000: dcac 563d 21d9 e73c f8db d0bd 3e79 9f3a
00000010: 585c 9ebb 3a56 0f3d 7488 f8bd eb73 8ebd
00000020: f812 913d 7371 e9bd 262d bb3d 6cf9 3bbd
00000030: 97d3 7a3d a54b 89bd 4358 a43d 3eea 683d
00000040: 63bc 7a3c 684d 39bd 087f 56bd 035f d0bd
00000050: 61fe ea3d cf44 7ebd d5f6 f53d 47fb 3fbc
00000060: 75e8 bdbd 593f d5bc e8b7 02bd ef49 cc3d
00000070: 609c 8bbd 9fd7 d23d c883 d9bd 7a4e b23d
00000080: 9e79 f4bd dad2 dd3d 52e7 683d 78c1 e43d
00000090: 8393 f53d 799b 2cbc db77 27bd 8288 9cbd
000000a0: 3796 bd3d 10d8 8bbd 4149 debd a396 003a
000000b0: 0637 7fbd 2135 453d ed84 febc a4b0 aa3d
000000c0: 4adc bc3c cbb8 c23c 77d8 aa3a 3168 95bd
000000d0: 1221 d2bd 7fcf bebd 92e8 a33b 6a33 adbd
000000e0: c994 9bbd 26fc 473d b7be 98bd 308e 093d
000000f0: 80a2 973d d442 9fbd a44e afbd 2e0d d4bd
00000100: 68eb 4ebd c99b d7bc 26d6 593d 1c5f 893d
00000110: 22d0 ba3c 1675 6b3d d145 b53a 7feb 613d
00000120: ccc1 a9bd 1f8f cdbd 3cc9 c43d dd59 a73c
00000130: 4207 283c 5342 96bd e55a a93d 5af4 77bd
00000140: 44f6 943d 9e8a 8b3d 1442 803d 3b91 cc3d
00000150: 7896 21bd f04b 963d 7479 ffbb fed8 80bd
00000160: bf71 503c e87d a6bd f2f9 e23d 7520 a43d
00000170: 665c f5bd a4d1 b1bc 9b9d 663a 7e8d 423d
00000180: dd8e 1b3d 914c 013e 0613 903d 606b ca3d
00000190: 2955 ad3d 750a 9b3d 5e4b 89bc 082a 51bd
000001a0: 7bd1 863d 0e02 e83d 2679 31bd 38e8 5f3c
000001b0: 1990 db3d 9504 f1bd 272a 4a3d b046 603a
000001c0: a23c fe3b 815b 0fbd 367b 27bd c8d3 08bb
000001d0: c452 a0bc b5ff 7abd 453c c9bd 5bef 7abd
000001e0: a30a ac3d f9d6 c13d d7cb acbd ae05 dabc
000001f0: e77e d63c 73d4 abbc ef25 8d3c 562a ff3d
0.052410945 0.028301777 -0.10198206 0.001216687 -0.0048327856 0.03499434 -0.12135401 -0.06955703
0.07083696 -0.11398592 0.09139471 -0.045892164 0.061236944 -0.06703881 0.08024647 0.056864016
0.015303704 -0.045239836 -0.05236724 -0.10174372 0.114743 -0.06207734 0.1200997 -0.011717624
-0.09272853 -0.026031183 -0.031913668 0.09975039 -0.068169355 0.10295033 -0.106208384 0.087063745
-0.11937259 0.10831232 0.05686123 0.11169714 0.11991026 -0.010535114 -0.040885787 -0.07643224
0.09257167 -0.0682832 -0.10853816 0.0004905259 -0.062308334 0.04814637 -0.031069243 0.08334473
0.02305426 0.023769757 0.0013034482 -0.072952636 -0.10260214 -0.093169205 0.00500209 -0.08457072
-0.07596738 0.048824452 -0.07458251 0.033582866 0.07404041 -0.07776418 -0.085599214 -0.10354076
-0.05051747 -0.026319401 0.053182743 0.06707594 0.022804324 0.05748471 0.0013830011 0.055156227
-0.08288917 -0.10037064 0.09608695 0.020428592 0.010255637 -0.07336869 0.0826929 -0.060535766
0.07273534 0.068135485 0.062626034 0.09988638 -0.03945014 0.07338703 -0.0077964608 -0.06291388
0.012722432 -0.081294835 0.110828295 0.08014003 -0.11980514 -0.02170641 0.0008797289 0.04749822
0.037978042 0.12626864 0.070348784 0.098837614 0.08463509 0.07570354 -0.01675957 -0.051065475
0.06582924 0.11328517 -0.043328427 0.013666205 0.10720844 -0.11768452 0.049356606 0.0008555455
0.007758693 -0.034999374 -0.040888987 -0.0020878185 -0.019570716 -0.061279017 -0.098259486 -0.061263423
0.08400466 0.09464831 -0.08437317 -0.026614036 0.026183559 -0.020975327 0.017230002 0.12459247

linear.3.bias f4 [2]
00000000: b22f 6abb 07b0 10bd
-0.0035733995 -0.035324123
